toy_al/mini_exp/500-1000000-200-001-no/ckpt_phase1.pt (torch, 47981 bytes, 30 tensors)

fc1.weight f4 [64, 4]
0	0x3d6544d8	0.055973858
1	0x3e9a680a	0.301575
2	0x3e374a6f	0.17899488
3	0xbe0c8509	-0.13722624
4	0x3e8353a4	0.2564975
5	0x3e4ac1bc	0.19800466
6	0xbe50383b	-0.2033395
7	0x3f549c72	0.83051217
8	0xbf227eb9	-0.63474613
9	0x3e0e6764	0.13906628
10	0x3e255759	0.16146602
11	0xbece03b1	-0.4023719
12	0x3e8ea7b7	0.2786233
13	0x3f001842	0.50037014
14	0x3edeaddf	0.43492028
15	0xbe85553f	-0.260416
16	0x3f132741	0.5748177
17	0xbc88e6ff	-0.01671171
18	0xbbe933e6	-0.0071167825
19	0x3e8bfed9	0.2734287
20	0x3f3630e4	0.7116835
21	0x3e92c5fc	0.28666675
22	0x3eb14b04	0.34627545
23	0x3e67e52f	0.2264602
24	0x3f349e01	0.70553595
25	0xbd46ad0c	-0.048504874
26	0x3f0c4dc4	0.5480616
27	0x3ea6d5cc	0.3258499
28	0x3e50cc22	0.2039037
29	0xbeace18e	-0.33765835
30	0x3dd3615a	0.10321303
31	0xbf11680e	-0.567994
32	0xbd970388	-0.073737204
33	0x3e092dec	0.13396424
34	0x3e4119a9	0.18857445
35	0x3d89e8a4	0.06733826
36	0xbe2c82bb	-0.16846745
37	0xbeaf443f	-0.34231755
38	0x3e82527c	0.25453556
39	0x3e8a5e37	0.27025005
40	0xbbc8cdf2	-0.006128066
41	0xbdd73989	-0.10509021
42	0xbe5b4677	-0.21413599
43	0x3f30ac3e	0.6901282
44	0xbefac4cd	-0.48978272
45	0x3e6eb7df	0.23312329
46	0xbe8394ae	-0.2569937
47	0xbeb41fdc	-0.35180557
48	0xbf08afdd	-0.53393346
49	0x3ed4a930	0.4153533
50	0xbd69f61e	-0.05711948
51	0xbeb57100	-0.35437775
52	0x3d87db2c	0.066336006
53	0xbef67b70	-0.4814105
54	0x3ee5b0b9	0.4486139
55	0x3f42b96a	0.7606417
56	0xbef31727	-0.474786
57	0x3e6a828f	0.22901367
58	0xbec24fb0	-0.37951422
59	0xbbe89517	-0.007097851
60	0x3df019da	0.11723681
61	0x3e2520bc	0.16125768
62	0x3eaba52e	0.3352446
63	0xbe9404c2	-0.2890988
64	0xbf176819	-0.59143215
65	0x3e969a14	0.29414427
66	0xbe8fc531	-0.28080133
67	0xbeecf9e7	-0.4628441
68	0xbea2bdc7	-0.31785414
69	0xbf103300	-0.5632782
70	0x3d81034e	0.062994584
71	0x3f02573c	0.5091436
72	0xbe4e6ae3	-0.20157962
73	0x3ec1f918	0.37885356
74	0x3f0fe358	0.56206274
75	0x3e08cef5	0.13360198
76	0x3daa6ab9	0.08321137
77	0xbed6fdf5	-0.4199063
78	0xbead4c16	-0.3384711
79	0x3e78b5ab	0.24288051
80	0xbe0fb09e	-0.14032218
81	0xbec36f24	-0.3817073
82	0xbebab7f8	-0.36468482
83	0xbec4a94f	-0.38410422
84	0x3e6504ab	0.22365062
85	0xbe4ae21c	-0.19812816
86	0x3ef3f952	0.47651154
87	0xbef059f6	-0.46943635
88	0x3e9ac928	0.30231595
89	0x3edd13f9	0.431793
90	0x3eb01619	0.3439186
91	0x3e430255	0.19043858
92	0xbdb7471f	-0.08949112
93	0xbee47bf6	-0.44625825
94	0xbe13398f	-0.14377426
95	0x3ebebd1a	0.37253648
96	0x3b1823a7	0.002321461
97	0xbb9cdcff	-0.004787087
98	0xbec03df4	-0.37547266
99	0x3f6e0ae7	0.92985386
100	0x3e001250	0.12506986
101	0xbee6fb22	-0.45113474
102	0xbe5614b5	-0.20906337
103	0x3f3ba08d	0.73291856
104	0x3e8cbfee	0.2749018
105	0x3ded8490	0.1159755
106	0x3d992487	0.0747767
107	0xbd410e23	-0.047132622
108	0x3e9a796e	0.30170768
109	0xbd337c8b	-0.043819945
110	0xbf0567c2	-0.52111447
111	0xbe85ba98	-0.26118922
112	0x3e1bc1c9	0.15210642
113	0x3edb4310	0.42824602
114	0x3eefaf73	0.46813545
115	0x3c2f1717	0.010686657
116	0x3e11d133	0.1423996
117	0xbdd3ed6b	-0.10348018
118	0xbea8cf19	-0.32970503
119	0x3e768f59	0.2407812
120	0xbdb0ce28	-0.08633071
121	0x3e883f4d	0.26610795
122	0xbd01aaac	-0.031656906
123	0xbe14443b	-0.14479153
124	0x3f1acff8	0.60473585
125	0xbed0fdda	-0.40818673
126	0x3f00b3eb	0.50274533
127	0x3f97b8dc	1.185329
128	0xbdb54db7	-0.088527136
129	0xbe91142c	-0.28335702
130	0xbf0f6036	-0.5600618
131	0x3c8642ba	0.01638924
132	0xbe43f76e	-0.19137356
133	0xbe8b32f9	-0.27187327
134	0xbedc13d1	-0.4298387
135	0xbdda2da5	-0.10653237
136	0x3cba596d	0.02274772
137	0xbcf01729	-0.029307919
138	0xbed292cc	-0.41127622
139	0xbeaf5911	-0.3424764
140	0x3e07ca2f	0.1326072
141	0x3e8ff63f	0.28117558
142	0x3e9a1149	0.30091313
143	0xbc4dc830	-0.012559935
144	0xbe6f43b1	-0.23365666
145	0xbe1ee617	-0.1551746
146	0xbece8b37	-0.40340587
147	0x3e97a60c	0.2961887
148	0x3e8f6e23	0.28013715
149	0x3e353b97	0.17698513
150	0x3d11539b	0.035480123
151	0x3f251512	0.64485276
152	0xbf6608b7	-0.8985705
153	0xbd8e554d	-0.069498636
154	0x3ef06ffe	0.46960443
155	0xbf0bdefe	-0.54637134
156	0xbdcd0737	-0.10011142
157	0xbe68938f	-0.22712539
158	0x3da0a4a9	0.078439064
159	0xbf0e4e08	-0.55587816
160	0xbeda1a84	-0.42598355
161	0xbeb7ae52	-0.35875183
162	0x3f0e3f7f	0.5556564
163	0xbf354e22	-0.70822346
164	0xbf6ce425	-0.9253562
165	0xbdec4f5c	-0.11538574
166	0xbd261bb9	-0.040553782
167	0x3e54ee91	0.20794131
168	0xbe9aebad	-0.3025793
169	0xbd4fb576	-0.050710164
170	0xbdd988fe	-0.10621832
171	0xbf36a5fe	-0.71347034
172	0x3ef4011c	0.47657096
173	0xbdd9fbb9	-0.106437154
174	0xbe954c04	-0.29159558
175	0xbe2bf399	-0.16792144
176	0x3e70b5c3	0.23506837
177	0x3eaabd4c	0.33347547
178	0xbedd55c7	-0.43229505
179	0x3e47624b	0.1947109
180	0xbecfe54f	-0.40604636
181	0x3ed4f079	0.41589716
182	0x3dfc9619	0.12333316
183	0xbd157d21	-0.036496285
184	0xbe460856	-0.19339117
185	0x3ede3719	0.4340141
186	0x3d744348	0.059634477
187	0xbeb3ba9c	-0.3510331
188	0xbf014c82	-0.50507367
189	0x3eb0f524	0.34562027
190	0xbea0b8d3	-0.3139101
191	0xbcb74651	-0.022372397
192	0x3e0f51a1	0.13995983
193	0xbdf95a6e	-0.12175451
194	0x3df2d9c1	0.118579395
195	0xbef664e0	-0.48123837
196	0x3f6c9cda	0.92426836
197	0x3dec68fe	0.11543463
198	0xbe8597e2	-0.2609244
199	0x3de437f6	0.11143486
200	0x3cceb5c2	0.025233153
201	0x3e6720b5	0.2257107
202	0xbe890bca	-0.26766807
203	0xbe03492e	-0.12820885
204	0xbebe0397	-0.37112114
205	0x3ee618f7	0.44940922
206	0xbf14696e	-0.5797337
207	0xbec3ccf3	-0.382423
208	0x3d740451	0.05957443
209	0x3ea47402	0.32119757
210	0x3e95efd0	0.29284525
211	0xbeb447d0	-0.3521104
212	0xbdb3fac3	-0.087880634
213	0x3e134ac8	0.14383996
214	0x3dbfa78d	0.0935813
215	0x3eaac4d2	0.33353287
216	0x3e4c1ace	0.199321
217	0xbef09866	-0.4699127
218	0xbe32c184	-0.17456633
219	0xbc165ed1	-0.009177879
220	0x3dde3a73	0.10850992
221	0x3e64405b	0.22290175
222	0xbebf2b80	-0.37337875
223	0x3ec3895d	0.38190737
224	0x3dc2675b	0.0949237
225	0x3e72161e	0.2364125
226	0x3e206243	0.15662484
227	0xbefa4046	-0.48877162
228	0xbe2826be	-0.16421029
229	0x3e11d848	0.14242661
230	0x3e9a446b	0.30130324
231	0xbef546e6	-0.47905654
232	0x3e845c80	0.25851822
233	0xbeafa737	-0.34307262
234	0xbec0fcb6	-0.37692803
235	0x3e0f5f59	0.14001216
236	0x3f5e766b	0.8689944
237	0x3e0e6fa1	0.1390977
238	0x3cd1f7db	0.025630882
239	0x3edc0b30	0.42977285
240	0x3ebfeb64	0.37484276
241	0x3e9bc9dc	0.30427444
242	0x3f022940	0.5084419
243	0xbe87c2ba	-0.26515752
244	0x3f143e37	0.5790743
245	0x3d4f048f	0.050541457
246	0xbe854aa5	-0.26033512
247	0x3f20b7f7	0.6278071
248	0xbdb51c6b	-0.08843311
249	0x3e8b3f41	0.27196696
250	0x3e8a49e7	0.27009508
251	0x3d003dfa	0.031309105
252	0x3e9cdd49	0.30637577
253	0x3d9a905f	0.07547068
254	0x3ecd009d	0.4003953
255	0x3ee2ce4d	0.4429802

fc1.bias f4 [64]
0	0x3c7ed76e	0.015554292
1	0xbe6002ae	-0.21876022
2	0x3ecde83b	0.4021624
3	0x3e819777	0.2531087
4	0x3f15e4c1	0.58552176
5	0xbf03da6e	-0.5150517
6	0x3f12d06e	0.5734929
7	0x3efe4e54	0.49669135
8	0xbf4055c6	-0.7513088
9	0x3eb21da1	0.3478823
10	0x3e8c207b	0.2736853
11	0xbc481eb8	-0.012214355
12	0xbe30d590	-0.17268968
13	0x3ef2d808	0.47430444
14	0x3eed9e0b	0.4640964
15	0x3f161616	0.5862745
16	0x3ee24247	0.4419119
17	0x3f216876	0.6305002
18	0x3e892dca	0.26792747
19	0xbeb522f0	-0.35378218
20	0xbdadff3a	-0.08495946
21	0x3e7fb60e	0.24971792
22	0x3f21d469	0.6321474
23	0xbeeafe90	-0.4589734
24	0x3dbd8e25	0.092556275
25	0x3f1d927b	0.61551636
26	0x3edb213b	0.4279879
27	0x3e9fc87a	0.3120764
28	0x3f081590	0.531579
29	0xbe8f29e3	-0.27961645
30	0x3d77c1bd	0.060487498
31	0x3e0c7cdf	0.1371951
32	0xbe2b3ba7	-0.16721974
33	0x3f367435	0.7127107
34	0xbf064640	-0.52450943
35	0xbe130926	-0.14358959
36	0xbf005a65	-0.5013793
37	0x3ee63d64	0.44968712
38	0xbdd7e664	-0.105419904
39	0x3ee11747	0.43963072
40	0xbe08c7bf	-0.13357447
41	0x3f34e695	0.7066434
42	0x3e7edfbd	0.24890037
43	0xbe965b01	-0.29366305
44	0xbdbadcd1	-0.09124149
45	0xbec9ff07	-0.39452383
46	0x3e3b56fe	0.18294904
47	0xbefa2180	-0.48853683
48	0x3e42824a	0.18995014
49	0xbdcc69d5	-0.09981123
50	0xbe5f6c17	-0.21818577
51	0x3dd590bc	0.104279965
52	0x3e989d4b	0.29807505
53	0x3ee2b3b6	0.44277734
54	0xbebcaed7	-0.36852142
55	0x3ea68d6f	0.3252978
56	0x3f0ea57d	0.55721265
57	0x3dcc3947	0.09971862
58	0xbd0dada3	-0.03458942
59	0xbddb9379	-0.107214876
60	0xbf12ae65	-0.57297355
61	0x3e7e1c73	0.2481554
62	0xbe9ce25b	-0.30641446
63	0x3e865c95	0.2624251

fc2.weight f4 [32, 64]
0	0xbda76384	-0.08173278
1	0x3d682880	0.05667925
2	0xbd92db32	-0.071707144
3	0xbdf95aea	-0.121755436
4	0x3dfb551c	0.12272093
5	0xbd7df8f0	-0.062004983
6	0xbc20f276	-0.009823432
7	0x3d241230	0.040056407
8	0x3d54b270	0.051927984
9	0x3d41f527	0.047352936
10	0xbcffe938	-0.031239137
11	0xbdb3eb5e	-0.08785127
12	0x3d1a090c	0.037606284
13	0xbda4d0e1	-0.08047653
14	0xbcf22090	-0.029556543
15	0x3def0260	0.11670375
16	0x3c408f82	0.011752965
17	0xbcbd89e0	-0.023137033
18	0xbd78e780	-0.06076765
19	0x3d6dd6a4	0.058066025
20	0x3d422228	0.047395855
21	0x3dc8d8f9	0.09807009
22	0xbcfb032c	-0.03064116
23	0xbd9dfcd0	-0.07714236
24	0xbcf0efa0	-0.029411137
25	0x3d8e8c2a	0.06960328
26	0x3d92ec7a	0.071740106
27	0x3b019d00	0.0019777417
28	0x3bf349aa	0.007424553
29	0xbd56b594	-0.05241926
30	0x3de13d32	0.10998
31	0xbda6c6a5	-0.08143357
32	0x3cf53ff8	0.02993773
33	0xbdd0fa64	-0.10204008
34	0xbdc80b70	-0.097678065
35	0x3d0ea352	0.034823723
36	0xbcf78088	-0.030212656
37	0x3bbc645f	0.00574927
38	0xbc2e7cbc	-0.010649856
39	0xbdf3f070	-0.11911094
40	0x3cd15950	0.025555283
41	0xbdfdfae4	-0.12401369
42	0x3d5dfff8	0.05419919
43	0x3d8015ec	0.06254181
44	0xbd178760	-0.036994338
45	0xbc87a0a7	-0.016556097
46	0xbd4bf8c9	-0.049797807
47	0xbdc0629e	-0.0939381
48	0xbd38d68e	-0.04512649
49	0xbdb4c83c	-0.08827254
50	0xbdf063c8	-0.11737782
51	0xbbf1cb20	-0.0073789507
52	0x3dd305cd	0.10303841
53	0x3cd56a66	0.026051711
54	0xbdd3703a	-0.1032414
55	0xbdc2f666	-0.09519653
56	0xbdd0ebf7	-0.10201257
57	0xbcc548e3	-0.024082607
58	0xba725d00	-0.00092454255
59	0xbc17602a	-0.009239236
60	0x3d89eebd	0.06734989
61	0x3d17ba50	0.037042916
62	0x3c3f8e3d	0.011691627
63	0x3ddbfc22	0.1074145
64	0xbd64c123	-0.055848252
65	0x3cb31867	0.021862222
66	0xbe204dee	-0.15654728
67	0xbdb998b8	-0.09062332
68	0x3ede5360	0.43422985
69	0x3d8c15da	0.06840105
70	0x3e5e8b5a	0.21732846
71	0xbd56c04b	-0.05242948
72	0xbeecef95	-0.46276537
73	0x3e8426af	0.25810763
74	0xbd6046cb	-0.054755013
75	0x3cd22996	0.025654595
76	0xbde22cbb	-0.11043688
77	0xbdadd0ea	-0.08487113
78	0x3d69e692	0.057104655
79	0xbdbf52fa	-0.093419984
80	0x3c38db70	0.011282787
81	0x3dfaf4ca	0.12253721
82	0xbdc9d443	-0.09854939
83	0xbe39b5b5	-0.18135722
84	0x3c3a938a	0.011387715
85	0xbdc52c2b	-0.09627565
86	0x3e0eb385	0.13935669
87	0xbd5653cf	-0.05232602
88	0x3d9695cc	0.0735279
89	0xbead7290	-0.33876467
90	0x3c6c5160	0.014423698
91	0x3d71a76b	0.058997553
92	0xbc992b9b	-0.01869755
93	0xbe09d2e3	-0.13459353
94	0x3d211ed2	0.039336033
95	0x3e8bdb6c	0.27315843
96	0xbeb8ffa4	-0.36132538
97	0x3dc1e32e	0.09467159
98	0xbdc55020	-0.09634423
99	0xbe2fa14f	-0.17151378
100	0xbdd9fdba	-0.106440976
101	0x3e741420	0.23835802
102	0xbece0b15	-0.4024283
103	0xbdf09503	-0.11747172
104	0xbe4e2316	-0.20130572
105	0xbd68cb69	-0.056834612
106	0xbe987b32	-0.2978149
107	0xbe9802a4	-0.29689515
108	0x3d87c83a	0.06629987
109	0xbe383954	-0.17990619
110	0xbd3d9209	-0.046281848
111	0xbddb984d	-0.107224084
112	0xbe6f20d8	-0.23352373
113	0x3d245c1a	0.040126897
114	0x3d99e54d	0.07514439
115	0x3c777d8e	0.015105618
116	0x3cf8b944	0.030361779
117	0xbd0dd3c7	-0.034625795
118	0xbe6ec7ef	-0.23318456
119	0x3e0e60e3	0.13904147
120	0x3d1c3b9c	0.038142785
121	0xbe4cbca8	-0.19993842
122	0xbe3a1c4f	-0.18174861
123	0xbd205f14	-0.039153174
124	0xbd4868f6	-0.048928224
125	0x3db55984	0.088549644
126	0xbe7db252	-0.24775055
127	0x3d5fb6be	0.054617636
128	0xbdc5a9dc	-0.09651539
129	0xbd83ba3c	-0.06432006
130	0x3dc841da	0.09778185
131	0xbd67ff74	-0.056640103
132	0x3de55b0c	0.111990064
133	0xbd5c9f70	-0.05386299
134	0xbc5fbd60	-0.01365599
135	0xbddabb2e	-0.10680233
136	0x3dbc40a8	0.0919202
137	0x3de275ec	0.11057648
138	0xbde5d432	-0.11222114
139	0xbdb14810	-0.08656323
140	0x3d952230	0.072819114
141	0x3d3d3b08	0.046198875
142	0xbdf168f6	-0.11787598
143	0xbdc8895a	-0.09791823
144	0xbddf1ac0	-0.10893774
145	0x3ddfea06	0.10933308
146	0x3ce368b0	0.02775988
147	0x3d325914	0.043541983
148	0xbdb901be	-0.090335354
149	0x3c379b80	0.011206508
150	0xbd76d910	-0.0602656
151	0x3dceed36	0.10103838
152	0x3cdd28c0	0.02699697
153	0xbd71ac34	-0.059002116
154	0xbd1711c0	-0.036882162
155	0x3d6ba36c	0.057528898
156	0xbd347ac8	-0.044062406
157	0xbdc77d4e	-0.09740697
158	0xbd9fdfc2	-0.0780635
159	0x3d8eb92e	0.06968914
160	0xbcc1cc58	-0.023657009
161	0x3d5c00f0	0.05371183
162	0x3ca75fa0	0.02043134
163	0x3d5d16cc	0.05397682
164	0x3dfbd8d2	0.122972146
165	0x3c3108c0	0.010805309
166	0xbdcd4978	-0.10023779
167	0xbd6e0d90	-0.058118403
168	0xbd12fcac	-0.035885498
169	0x3dc21778	0.094771326
170	0xbd9b0bb4	-0.075705916
171	0x3d3a7c60	0.04552877
172	0xbdfbc010	-0.122924924
173	0xbd66a644	-0.056310907
174	0x3dbb0d70	0.091334224
175	0x3de75f32	0.11297454
176	0x3d6593c8	0.05604914
177	0xbdd1d8ba	-0.102464154
178	0x3d219eec	0.0394582
179	0x3d8dbeb6	0.06921141
180	0xbd402610	-0.0469113
181	0xbd832b2a	-0.06404717
182	0x3d9f3d6c	0.07775387
183	0xbd8de814	-0.06929031
184	0xbd4ee908	-0.050515205
185	0x3cc1eee8	0.02367349
186	0xbdc85d4c	-0.0978342
187	0xbc55a960	-0.01304087
188	0xbde54aa6	-0.11195879
189	0xbdd7d456	-0.10538547
190	0xbde159c6	-0.11003451
191	0xbdf27990	-0.118395925
192	0x3d74189b	0.059593778
193	0x3b415371	0.0029499198
194	0xbd6b3444	-0.05742289
195	0x3d1fa128	0.03897205
196	0x3f03032a	0.511767
197	0x3d0e1c95	0.034695227
198	0x3edf28ef	0.43585917
199	0x3dbc8cd9	0.09206552
200	0x3e461825	0.19345148
201	0xbdd7a5fc	-0.10529706
202	0xbc86fcd9	-0.016477989
203	0xbd073594	-0.03301008
204	0x3d0785db	0.03308664
205	0xbd3f139b	-0.046649557
206	0x3d359ecb	0.04434089
207	0xbc64e4ae	-0.013970537
208	0x3d9a1286	0.07523064
209	0x3e82cd15	0.2554709
210	0x3d33b40f	0.04387289
211	0xbc5e9859	-0.013586127
212	0x3ca5b7eb	0.0202293
213	0x3e014122	0.12622502
214	0x3d8b06d6	0.06788413
215	0x3d83b6ec	0.06431374
216	0xbce621f2	-0.028092358
217	0xbec3358d	-0.38126794
218	0xbc13f72f	-0.009031101
219	0x3ba4bdb0	0.0050274953
220	0x3cdc2ec9	0.026877778
221	0x3d536805	0.051612873
222	0xbd420b3c	-0.047373995
223	0xbdf1392e	-0.11778484
224	0xbe0b0358	-0.13575494
225	0xbdefed28	-0.11715156
226	0x3dc0f007	0.094207816
227	0x3e0f2507	0.13978969
228	0xbda7a8ad	-0.08186469
229	0xbdb31667	-0.08744507
230	0xbd695e0e	-0.056974463
231	0xbeccc27e	-0.39992136
232	0xbd411a49	-0.047144208
233	0x3d3e5784	0.04647018
234	0xbecb7150	-0.39734888
235	0xbe114a81	-0.14188577
236	0x3d5ba570	0.05362457
237	0xbd23c032	-0.039978214
238	0x3cc82805	0.024433145
239	0xbd3562f7	-0.044283833
240	0x3d120cf7	0.035656895
241	0x3dbeff2f	0.09326016
242	0x3cd96d00	0.026541233
243	0xbdbcec73	-0.092247866
244	0xbdca3454	-0.09873262
245	0x3dbdad3c	0.092615575
246	0xbc859433	-0.016306018
247	0xbd2fb8a6	-0.042900704
248	0xbdb6101e	-0.08889793
249	0xbd8d25c0	-0.06891966
250	0x3e5eead1	0.21769263
251	0x3d906533	0.07050552
252	0xbd874b9d	-0.06606219
253	0x3d817e0a	0.06322868
254	0xbe799cb2	-0.24376181
255	0x3dd9b747	0.106306605

fc2.bias f4 [32]
0	0xbc9e1d81	-0.019301178
1	0x3e4adf45	0.19811733
2	0xbdeb114e	-0.1147791
3	0xbdccfb46	-0.10008864
4	0x3e78d580	0.24300194
5	0xbe172003	-0.14758305
6	0xbca0ec3b	-0.019643893
7	0xbdf1bb39	-0.11803288
8	0xbdc439d1	-0.0958134
9	0x3cc24ec2	0.023719195
10	0x3e2a5926	0.1663557
11	0x3dc4ff71	0.09619034
12	0x3df60203	0.120121025
13	0x3da9574e	0.08268605
14	0x3cd8c167	0.026459409
15	0x3d01aafe	0.03165721
16	0x3e08e2ec	0.13367814
17	0xbd0e0759	-0.034674976
18	0xbe1ed100	-0.15509415
19	0x3e0a9ef6	0.13537201
20	0x3de84ab5	0.11342374
21	0x3c39ac8e	0.011332644
22	0x3e034903	0.1282082
23	0x3d9ef9ec	0.077625126
24	0x3d19596e	0.037438802
25	0xbd0b2d39	-0.033978675
26	0xbe036d54	-0.12834674
27	0x3d4ac3c7	0.049503114
28	0x3e7ff76c	0.24996728
29	0x3e2aad95	0.16667779
30	0x3dc5adca	0.09652288
31	0x3dd0cb49	0.101950236

fc3.weight f4 [16, 32]
0	0xbdb3f35d	-0.08786652
1	0xbddeec26	-0.108848855
2	0xbd72e260	-0.05929792
3	0xbcee426f	-0.029084412
4	0xbe7460ba	-0.23865023
5	0xbca02af3	-0.01955173
6	0x3d82223c	0.06354186
7	0x3d857156	0.06515758
8	0xbc936006	-0.017990123
9	0x3b156698	0.0022796746
10	0xbe1bce04	-0.15215307
11	0x3d42209d	0.047394384
12	0x3db1fe06	0.08691029
13	0xbe1175af	-0.14205049
14	0x3e0ac1e0	0.1355052
15	0x3ddb5d12	0.10711111
16	0xbe131b7c	-0.14365953
17	0x3cd17569	0.02556868
18	0xbdb095ad	-0.086222984
19	0x3a5b2150	0.0008359151
20	0x3c294949	0.010332414
21	0xbe348476	-0.17628655
22	0x3dccc90d	0.09999285
23	0xbd51c5ab	-0.0512139
24	0xbda1fb1f	-0.07909226
25	0x3c4ba9e6	0.012430644
26	0xbda8db15	-0.082449116
27	0x3cdd887b	0.027042618
28	0x3dee38ae	0.116319045
29	0x3dfccb77	0.12343495
30	0x3c0f4080	0.008743405
31	0xbdf99528	-0.121866524
32	0xbe05ce60	-0.13067007
33	0x3c951ca1	0.018202128
34	0xbde68a4d	-0.112568475
35	0xbbb39653	-0.0054805665
36	0x3e29d8e0	0.16586637
37	0xbceb8a14	-0.028752364
38	0x3ca19632	0.019724939
39	0x3c2045e6	0.00978229
40	0xbbf459fe	-0.007457017
41	0x3e61e9a0	0.22061777
42	0x3e4fda8a	0.2029821
43	0xbdb82c1c	-0.08992788
44	0xbe09922c	-0.13434666
45	0x3d224520	0.039616704
46	0x3e2c53d3	0.16828851
47	0x3d1af1d0	0.037828267
48	0x3c77709d	0.015102533
49	0x3d914b04	0.07094386
50	0xbe058846	-0.13040265
51	0x3da7abe5	0.08187083
52	0x3e5c79d1	0.21530844
53	0xbdd82b85	-0.10555176
54	0xbd4d4cfe	-0.050122254
55	0x3da46a0e	0.08028041
56	0x3e54c8f7	0.20779787
57	0xbdf09284	-0.11746696
58	0x3d7230dd	0.05912863
59	0x3dbf2ea7	0.0933507
60	0xbd146502	-0.03622914
61	0x3d990f38	0.07473606
62	0xbe1609aa	-0.14652124
63	0x3bcc3194	0.006231496
64	0x3dbcd968	0.092211545
65	0xbe4d77f1	-0.20065285
66	0xbcac44e1	-0.021028938
67	0x3d1eeab5	0.038798053
68	0x3c0d53e6	0.00862596
69	0xbe1007d0	-0.1406548
70	0xbe929ab7	-0.28633663
71	0xbd018ce3	-0.0316285
72	0xbe154d90	-0.14580369
73	0x3dc5e468	0.09662706
74	0x3e2efb8a	0.17088142
75	0x3d66a885	0.056313056
76	0x3e1364b7	0.14393888
77	0xbd974d4e	-0.073877916
78	0x3d70d650	0.058798134
79	0x3e0f120e	0.13971731
80	0xbdfdcca3	-0.12392547
81	0xbde6986f	-0.11259543
82	0xbe32d47a	-0.17463866
83	0x3e1fe03c	0.15612882
84	0x3d80c74c	0.06288013
85	0xbe248139	-0.1606492
86	0x3d2ad4d3	0.04170687
87	0xbe0bdc51	-0.13658263
88	0x3b06c1b0	0.0020562224
89	0xbdf0f2c7	-0.11765056
90	0x3c34fc06	0.011046415
91	0x3c3cd566	0.0115254875
92	0x3e5d0979	0.21585645
93	0x3d05cab6	0.032664023
94	0x3e6510e7	0.22369729
95	0xbddeb1fb	-0.10873791
96	0xbe28d9b7	-0.16489302
97	0x3ba6f7db	0.0050954646
98	0xbc554110	-0.013016
99	0xbd577b64	-0.05260791
100	0xbcbf63d6	-0.023363035
101	0xbe277a3f	-0.16355227
102	0x3de6f930	0.112779975
103	0x3c2e7bc7	0.010649628
104	0xbe0502a7	-0.12989293
105	0x3e154b26	0.14579448
106	0x3daf2bb0	0.085532546
107	0xbdff4dbf	-0.12466001
108	0xbe9ac766	-0.30230254
109	0xbe0b2e5a	-0.135919
110	0x3e041f23	0.12902503
111	0x3b6d3bec	0.0036199046
112	0x3d5bfdd8	0.05370888
113	0x3c6e70dd	0.014553276
114	0xbe84d767	-0.2594559
115	0x3e65f477	0.22456537
116	0x3d70ba0b	0.058771174
117	0x3e3619dc	0.17783302
118	0xbdebe0da	-0.115174964
119	0x3ee9676f	0.45586726
120	0x3bf01968	0.0073272474
121	0x3d500900	0.050789833
122	0xbc2ed10d	-0.010669959
123	0xbd9a6938	-0.075396
124	0xbca513de	-0.020151075
125	0xbe519cc2	-0.20469955
126	0xbe06392f	-0.13107751
127	0xbe0bdee0	-0.13659239
128	0x3e11ae9f	0.14226769
129	0xbe8a6fae	-0.2703833
130	0xbdc9b585	-0.09849075
131	0xbc89d9ff	-0.016827581
132	0x3f47be62	0.78024876
133	0x3d64f1cd	0.05589466
134	0xbe44a03d	-0.19201751
135	0x3c7695a4	0.015050326
136	0x3e24665f	0.16054676
137	0x3e4d0f23	0.20025305
138	0x3d4c66bb	0.04990266
139	0x3e14b7ca	0.14523235
140	0x3e861a86	0.2619211
141	0x3e0fe14e	0.1405079
142	0x3ce2e8aa	0.027698833
143	0xbe0e625b	-0.13904707
144	0x3e139dd7	0.1441568
145	0x3e5fec65	0.21867521
146	0xbe3367e4	-0.175201
147	0x3d9d7d00	0.076898575
148	0x3d235740	0.03987813
149	0xbd60fc1a	-0.054927923
150	0x3ea9aadc	0.33138168
151	0x3e15a682	0.14614299
152	0xbda4a44e	-0.08039151
153	0x3e36b7d9	0.1784357
154	0xbdebf812	-0.11521925
155	0x3e1a2cba	0.15056124
156	0x3db0bbb7	0.08629554
157	0xbd9c3fea	-0.07629378
158	0x3d98e09f	0.07464718
159	0x3e56e27f	0.20984839
160	0x3d69636e	0.05697959
161	0x3d04c43b	0.032413702
162	0xbd3965a6	-0.045262955
163	0xbe2f3491	-0.17109896
164	0xbd44e0e5	-0.04806604
165	0xbc14f093	-0.0090905605
166	0x3c2463dc	0.010033574
167	0x3caa73ed	0.02080723
168	0xbd02dd53	-0.031949352
169	0x3ddc7f2c	0.107664436
170	0xbe33e472	-0.17567614
171	0xbd9ad41c	-0.07559988
172	0x3ec1b9b0	0.3783698
173	0x3dc029b7	0.093829565
174	0x3e30bbc2	0.17259124
175	0x3cf0d2cb	0.029397389
176	0xbf0a5c84	-0.5404742
177	0xbe18cc5b	-0.14921705
178	0xbe52e985	-0.20596893
179	0x3e28bb3c	0.16477674
180	0x3e21d473	0.15803699
181	0x3b813892	0.0039435113
182	0x3f435642	0.76303494
183	0xbeb23b5c	-0.34810913
184	0xbd7cf9c3	-0.06176163
185	0xbe30457b	-0.17214005
186	0x3e1b3f8f	0.15160964
187	0x3e02d580	0.12776756
188	0x3e1b7348	0.15180695
189	0x3d0b428c	0.03399901
190	0xbe22c412	-0.15895107
191	0xbdee7993	-0.11644282
192	0xbd4a5277	-0.04939505
193	0x3eddeb64	0.4334365
194	0x3e1201de	0.14258525
195	0xbd6b533e	-0.057452433
196	0x3ef4acf3	0.477882
197	0xbe12a726	-0.14321575
198	0xbd1582f8	-0.036501855
199	0x3de50eb3	0.11184444
200	0xbdd3323f	-0.10312318
201	0xbc582ceb	-0.013194303
202	0x3e3babd8	0.18327272
203	0x3df9b078	0.12191862
204	0xbca8a616	-0.020587008
205	0x3d1da17e	0.03848409
206	0xbe2206ee	-0.15822956
207	0x3e5a6cce	0.21330568
208	0x3ecec596	0.4038512
209	0xbca54381	-0.02017379
210	0xbacc7437	-0.00155986
211	0x3e5901b9	0.21192063
212	0xbd512ae1	-0.051066283
213	0x3d71b84b	0.059013646
214	0xbf1f2afa	-0.6217495
215	0x3f164e0e	0.5871285
216	0x3d9f19b0	0.077685714
217	0x3db4e19e	0.088320956
218	0xbd412ac3	-0.04715992
219	0xbdf05e30	-0.11736715
220	0x3d443fc6	0.04791238
221	0xbe9ebc79	-0.31003168
222	0xbf09a7ec	-0.53771853
223	0x3d40373c	0.046927676
224	0x3d70592f	0.058678802
225	0x3da1d987	0.07902818
226	0x3dff6c7c	0.124718636
227	0x3d8fdcb1	0.070245154
228	0xbf236f28	-0.63841486
229	0x3e1963ba	0.14979449
230	0xb9c66219	-0.0003783859
231	0xbe422a7e	-0.18961522
232	0x3ddba47a	0.10724731
233	0x3cde1fc7	0.027114762
234	0xbccceab3	-0.025014257
235	0xbd89cdd5	-0.067287125
236	0xbe2cd6d7	-0.1687883
237	0xbf0e03ce	-0.55474555
238	0xbd56bfda	-0.052429058
239	0xbed3de78	-0.41380668
240	0x3f0973e3	0.53692454
241	0x3e0d8f32	0.13824156
242	0x3cf14c8e	0.02945545
243	0x3e8c7dfa	0.27439862
244	0xbdded41f	-0.10880303
245	0x3d323b6a	0.043513693
246	0xbdfeea75	-0.12447063
247	0x3dfbe98e	0.123004064
248	0x3d7d08c0	0.061775923
249	0xbd1574ff	-0.03648853
250	0xbe170fcd	-0.14752121
251	0xbe0094ee	-0.12556812
252	0xbd3ab5a0	-0.045583367
253	0x3e476aa9	0.19474281
254	0xbd0c587e	-0.03426408
255	0x3de20f82	0.11038114

fc3.bias f4 [16]
0	0xbe122fe5	-0.14276083
1	0x3cd05487	0.02543093
2	0xbcd07dbb	-0.025450578
3	0x3df8d690	0.121502995
4	0xbe15bf05	-0.1462365
5	0xbdf98566	-0.12183647
6	0x3df3c4c6	0.11902766
7	0xbe611b48	-0.21983063
8	0x3e4712f2	0.19440821
9	0x3e0306e7	0.12795602
10	0xbd0587f9	-0.032600377
11	0x3e149ca8	0.14512885
12	0x3e63fda2	0.22264722
13	0xbe08b41b	-0.13349955
14	0x3d391ff0	0.045196474
15	0xbcf791b8	-0.030220851

fc4.weight f4 [8, 16]
0	0x3dec162e	0.11527668
1	0x3da1a04f	0.078919046
2	0xbe1d1edb	-0.15343802
3	0x3e89a392	0.26882607
4	0xbd9cb9d7	-0.07652634
5	0xbed93036	-0.42419595
6	0x3e9b2e60	0.3030882
7	0x3e041ae6	0.12900886
8	0x3e499639	0.19686212
9	0xbdb761b8	-0.08954185
10	0xbd54c823	-0.051948678
11	0x3d40252c	0.04691045
12	0xbf204a9d	-0.6261385
13	0x3e6fe1f4	0.23426038
14	0xbe27fb3a	-0.16404429
15	0xbe9e7a55	-0.30952707
16	0xbdd0d860	-0.1019752
17	0x3e5d633c	0.21619886
18	0xbe6de943	-0.23233514
19	0x3e1ac037	0.15112387
20	0x3d9c36d7	0.07627647
21	0xbe95aa98	-0.29231715
22	0x3e6eea1f	0.23331498
23	0x3ec7b452	0.3900476
24	0x3e8a5d51	0.2702432
25	0x3e09d7e5	0.13461263
26	0xbe78886c	-0.24270791
27	0x3d29ab0f	0.0414229
28	0xbea3c7ed	-0.3198847
29	0x3d9c25a9	0.076243706
30	0xbd4b3dce	-0.04961949
31	0x3e33faa0	0.17576075
32	0x3dcb726c	0.099339336
33	0xbe6b4b27	-0.22977887
34	0xbe001c95	-0.12510903
35	0x3dfd936f	0.12381636
36	0x3dff982e	0.12480198
37	0xbe630fb0	-0.22173953
38	0xbe502425	-0.20326288
39	0xbe7c19dc	-0.2461924
40	0x3c859c79	0.016309964
41	0xbe039a9f	-0.12851952
42	0xbe2fd4b5	-0.17170985
43	0x3da29ff0	0.07940662
44	0xbe863269	-0.26210335
45	0x3e5ee916	0.21768603
46	0xbd4619f4	-0.048364595
47	0x3babdb0c	0.0052446183
48	0x3e2dbce5	0.16966589
49	0xbd82a6a9	-0.06379444
50	0xbdbfaaf1	-0.09358776
51	0xbeb04803	-0.3442994
52	0x3eb71059	0.3575466
53	0x3ea2868a	0.3174327
54	0x3e19f3ad	0.15034361
55	0x3cae8633	0.021304226
56	0x3da30497	0.0795986
57	0xbcb16567	-0.021654798
58	0x3e0bad11	0.13640238
59	0xbdc2ce1a	-0.09511967
60	0x3ebf52c4	0.37367833
61	0xbe084b7b	-0.13310044
62	0xbd00145d	-0.03126942
63	0xbe5f231d	-0.21790738
64	0xbe00e3a3	-0.12586837
65	0x3e91670c	0.2839893
66	0x3d881a8b	0.06645688
67	0x3e9ccb22	0.30623728
68	0xbde15574	-0.11002627
69	0xbe8ddfef	-0.2770991
70	0x3bbc9089	0.0057545346
71	0x3eb6c512	0.35697228
72	0xba5733ea	-0.0008209335
73	0x3d3955fc	0.045248017
74	0xbd84665e	-0.064648375
75	0x3bfda248	0.0077402927
76	0xbe5cfb6d	-0.21580286
77	0x3ddc56d4	0.10758749
78	0x3ce21233	0.027596569
79	0xbe5a3280	-0.21308327
80	0x3bdbd4fb	0.006708739
81	0x3e206bfa	0.1566619
82	0x3e7fce74	0.249811
83	0x3e08487f	0.13308905
84	0xbda28454	-0.07935396
85	0x3d899451	0.06717742
86	0xbe8d29da	-0.27570993
87	0xbdb46eb4	-0.088101774
88	0xbbaebbeb	-0.00533246
89	0x3ea0bb88	0.31393075
90	0x3d8a7c0d	0.06761942
91	0x3cbd29ec	0.023091279
92	0x3edc4250	0.43019342
93	0x3e1deed8	0.15423143
94	0xbe05aa58	-0.13053262
95	0xbd6036e3	-0.054739844
96	0xbe2a6855	-0.16641362
97	0x3e2dd909	0.16977324
98	0x3e1feabb	0.15616886
99	0x3ec7342d	0.38906994
100	0x3e9c2b20	0.30501652
101	0xbe5af40b	-0.21382158
102	0x3e46987b	0.19394104
103	0x3e108c9f	0.14116143
104	0x3df881d9	0.121341415
105	0xbe76ac67	-0.24089204
106	0xbe254768	-0.1614052
107	0x3e9b35e7	0.30314562
108	0xbf072e7a	-0.5280529
109	0x3e191da2	0.1495271
110	0xbe4b6e5b	-0.19866316
111	0xbe2fb810	-0.17160058
112	0x3e152a90	0.14567018
113	0xbd12ba90	-0.03582245
114	0xbdde1a5e	-0.10844873
115	0xbe9a0387	-0.30080816
116	0x3e873f13	0.2641531
117	0x3e5e208b	0.21692102
118	0x3eb10e55	0.34581247
119	0xbe2dbb6b	-0.16966026
120	0xbe2c24e8	-0.16810954
121	0xbd014fef	-0.03157037
122	0xbd80cb5c	-0.06288788
123	0x3e4a219a	0.1973938
124	0xbe16387f	-0.14669989
125	0x3d9f6c11	0.07784284
126	0xbe63d899	-0.22250594
127	0x3e4581f5	0.19287856

fc4.bias f4 [8]
0	0x3c1b342e	0.00947289
1	0xbd07e274	-0.033174947
2	0x3db8659b	0.09003755
3	0xbe275260	-0.16340017
4	0x3e117b6f	0.14207242
5	0x3e9ee3af	0.31033084
6	0x3e405d13	0.18785505
7	0x3df8ccba	0.121484235

fc5.weight f4 [3, 8]
0	0x3e478403	0.19483952
1	0xbe645d68	-0.22301257
2	0xbe492ff0	-0.19647193
3	0xbe7e7f27	-0.24853192
4	0xbe4f8d92	-0.20268849
5	0xbe3f0566	-0.18654403
6	0x3f082578	0.5318217
7	0x3e9f7953	0.3114725
8	0xbf44f7e8	-0.76940775
9	0x3bcf865f	0.006333157
10	0xbdc9bb66	-0.098501965
11	0x3f1132b7	0.5671801
12	0x3de6265f	0.112377875
13	0x3edff5eb	0.43742308
14	0x3eab8435	0.33499303
15	0xbe3509c5	-0.17679508
16	0x3f6fd168	0.93678904
17	0x3e93fa56	0.2890193
18	0xbe98c31a	-0.2983635
19	0xbf0e642a	-0.5562159
20	0x3ea1a809	0.31573513
21	0xbdf55827	-0.11979704
22	0x3e9e9158	0.30970263
23	0xbe6b4abd	-0.22977729

fc5.bias f4 [3]
0	0x3e22fe9a	0.15917435
1	0x3d992dda	0.074794486
2	0xbd93a908	-0.072099745

exp_avg f4 [64, 4]
0	0x35c4fc67	1.4676597e-06
1	0x3912ebb8	0.00014011457
2	0x3843c7bf	4.667765e-05
3	0xb7a3dd23	-1.9534089e-05
4	0xb7d092ee	-2.4863952e-05
5	0xb7ba9881	-2.2243943e-05
6	0xb7153700	-8.893898e-06
7	0xb72d78d3	-1.0339735e-05
8	0xb748d066	-1.19694505e-05
9	0xb852e5f9	-5.028208e-05
10	0xb7d79f96	-2.570431e-05
11	0x3617c6e1	2.2616516e-06
12	0x371c1c72	9.3049475e-06
13	0x37868d10	1.6039732e-05
14	0x37eb1ec6	2.8028513e-05
15	0x3706983a	8.022465e-06
16	0x38cf38ec	9.881132e-05
17	0xbacf0f4a	-0.0015797403
18	0xb9b1cfe3	-0.00033914958
19	0x39dab009	0.00041711357
20	0x37bb1601	2.2302384e-05
21	0xb8a15ede	-7.694749e-05
22	0x37221b42	9.662299e-06
23	0x38177166	3.6106816e-05
24	0x38420969	4.626197e-05
25	0xba384aef	-0.0007030209
26	0xb913db90	-0.00014100806
27	0x39424cec	0.00018529937
28	0xb7ef10f5	-2.8498916e-05
29	0xb9c7c857	-0.00038105503
30	0xb8ce4cc5	-9.837145e-05
31	0x382a354e	4.0580802e-05
32	0x3419502e	1.4278405e-07
33	0xb7586dca	-1.29001655e-05
34	0x371ab408	9.221032e-06
35	0x3708f137	8.162394e-06
36	0x384a4bf9	4.8231308e-05
37	0xba0a20e0	-0.0005269181
38	0xb9120f86	-0.00013929428
39	0x38d2c927	0.00010051048
40	0xb76e86ea	-1.4217318e-05
41	0x3908ffb8	0.00013065233
42	0x374bc9a6	1.2146693e-05
43	0xb73288a5	-1.0641442e-05
44	0x37ae764d	2.0797504e-05
45	0xb88e07e1	-6.772555e-05
46	0x373a1c2c	1.1093023e-05
47	0x3826ffa2	3.981556e-05
48	0x37b53514	2.1601598e-05
49	0x3577847b	9.2207455e-07
50	0x35113931	5.4099934e-07
51	0x382fbb60	4.1897758e-05
52	0x3687dfc4	4.0493633e-06
53	0x3853dc0b	5.051125e-05
54	0x37fff821	3.0513913e-05
55	0x368907fc	4.0838477e-06
56	0x377cebed	1.5075301e-05
57	0xb91a0089	-0.00014686784
58	0xb79521b4	-1.7777878e-05
59	0x3843be8c	4.6669084e-05
60	0xb7fa2fb0	-2.9824529e-05
61	0x3956bb7c	0.00020478474
62	0x372b7606	1.0219874e-05
63	0xb8b3f68a	-8.5813066e-05
64	0xb82b79da	-4.088306e-05
65	0x39e4db49	0.0004365093
66	0x389a20e2	7.349417e-05
67	0xb8fbe2a3	-0.00012010827
68	0x38f51379	0.000116861374
69	0xba9e4524	-0.0012075049
70	0xb9ae8a33	-0.00033290833
71	0x398faad6	0.00027402368
72	0xb804c824	-3.1657648e-05
73	0x3a14bf47	0.00056742545
74	0x38b0f64f	8.4382125e-05
75	0xb922dffe	-0.00015532968
76	0xb39574a2	-6.9595686e-08
77	0xb38f4e9a	-6.673254e-08
78	0x3581c7a9	9.669358e-07
79	0xb37d2ef3	-5.8948853e-08
80	0xb4ceffdd	-3.8556655e-07
81	0xb4ddf327	-4.1341374e-07
82	0x36fed197	7.5941894e-06
83	0xb4bef2e4	-3.5566984e-07
84	0xb7452e1c	-1.1752851e-05
85	0xb8dc74a3	-0.00010512143
86	0xb82576e1	-3.944978e-05
87	0x380cc6ba	3.356368e-05
88	0xb7d68029	-2.5570467e-05
89	0x3a0cab41	0.0005366095
90	0x38b37507	8.557183e-05
91	0xb92e2b24	-0.00016610004
92	0x34a1ff94	3.0174544e-07
93	0x34b0bbe4	3.2919263e-07
94	0xb6d121ee	-6.2326353e-06
95	0x34977503	2.821108e-07
96	0xb799fa1b	-1.8355486e-05
97	0x3780fc5f	1.5376309e-05
98	0xb7f470b1	-2.9139543e-05
99	0xb6ef77eb	-7.1367153e-06
100	0xb68ceaaf	-4.199646e-06
101	0x39c9e87f	0.0003851093
102	0x38950084	7.10497e-05
103	0xb81e4cd7	-3.7741698e-05
104	0x36f941af	7.428425e-06
105	0xb8ef246b	-0.000114031915
106	0xb6af6236	-5.2268397e-06
107	0x37ab6a72	2.0434356e-05
108	0x384d9109	4.9010883e-05
109	0xba27cbfc	-0.00064009405
110	0xb8a91516	-8.0624755e-05
111	0x395a3509	0.00020809857
112	0x36819909	3.862315e-06
113	0x384eba94	4.928799e-05
114	0xb6894e32	-4.0920213e-06
115	0xb7297eec	-1.0102736e-05
116	0x35f67e12	1.836512e-06
117	0x37ac8be7	2.0569145e-05
118	0xb7dd0aae	-2.6350226e-05
119	0x35f2e5ea	1.8097319e-06
120	0xb82d88c8	-4.13738e-05
121	0x3a0d08c7	0.0005380031
122	0x38b3f16c	8.5803535e-05
123	0xb920ad3e	-0.00015323327
124	0x369db02d	4.699474e-06
125	0x379f7e62	1.9013129e-05
126	0x37b7bc33	2.1902937e-05
127	0x35da6d75	1.6274122e-06
128	0x35038da6	4.900743e-07
129	0xb6b5b928	-5.4157754e-06
130	0x3673987c	3.629858e-06
131	0xb4bbcb3e	-3.4979342e-07
132	0xb7e9a1f1	-2.7851174e-05
133	0xb984aac9	-0.00025304247
134	0xb70269c0	-7.773226e-06
135	0x37ea7552	2.7949605e-05
136	0x350475a7	4.934504e-07
137	0x36be086f	5.663423e-06
138	0xb715879c	-8.912666e-06
139	0x353c5ad1	7.0167613e-07
140	0xb753763c	-1.2604109e-05
141	0x3a635562	0.0008672086
142	0x3976b37c	0.00023527251
143	0xb9598eff	-0.00020748003
144	0x3271d1ef	1.407578e-08
145	0xb5a4e22e	-1.2284779e-06
146	0x356cbbc5	8.819009e-07
147	0xb3182b04	-3.542938e-08
148	0x37f4f63b	2.9201727e-05
149	0xb9f2170d	-0.0004617501
150	0xb91177e4	-0.0001387294
151	0x38e24d88	0.00010790961
152	0x385a76b9	5.208582e-05
153	0xb9905f27	-0.00027536714
154	0xb7b5d6b4	-2.167686e-05
155	0x38dd930b	0.0001056549
156	0xb8458e77	-4.710114e-05
157	0xb9ed1a94	-0.00045223965
158	0xb94ad53e	-0.0001934366
159	0x389214a2	6.965666e-05
160	0x38da84d2	0.0001041979
161	0xb9e4a91c	-0.00043613545
162	0xb8c2210d	-9.256797e-05
163	0x396fa934	0.00022855849
164	0xb912ac9e	-0.0001398795
165	0x3960b57f	0.00021429917
166	0xb868d9a1	-5.5515793e-05
167	0xb94ecb23	-0.00019721365
168	0xb8108b2a	-3.4461882e-05
169	0xb944c9b1	-0.00018767153
170	0xb746f50f	-1.1858777e-05
171	0x37bffd31	2.2886876e-05
172	0xb51f935e	-5.9446563e-07
173	0xb72ccafd	-1.0299261e-05
174	0x36d5ce6c	6.3719253e-06
175	0xb58c2c7f	-1.0443763e-06
176	0xb70555cd	-7.947395e-06
177	0x399561f2	0.0002849247
178	0x3863f723	5.435118e-05
179	0xb89c035f	-7.4392876e-05
180	0xb79dd5ac	-1.8815357e-05
181	0x39ecb098	0.00045145
182	0x39191b91	0.00014601486
183	0xb8d31f6a	-0.00010067115
184	0x36a833a7	5.0128033e-06
185	0x38fcd6dd	0.00012056318
186	0x3824b8cd	3.9272756e-05
187	0xb4f12613	-4.491745e-07
188	0xb692db93	-4.376701e-06
189	0x383c4400	4.4886023e-05
190	0x36094549	2.045492e-06
191	0xb7a2c2f3	-1.9402685e-05
192	0x371bd28c	9.287742e-06
193	0xba00d753	-0.00049148983
194	0xb8e56398	-0.00010938122
195	0x39091f5a	0.00013077018
196	0xb8084484	-3.2488737e-05
197	0xb8149ec4	-3.543381e-05
198	0x380412f7	3.1488915e-05
199	0xb70d5cee	-8.425892e-06
200	0x383a1a37	4.437027e-05
201	0xb9b3946c	-0.00034252123
202	0xb7d50e48	-2.5398229e-05
203	0x391a87f2	0.00014737228
204	0x34856fe7	2.48546e-07
205	0x38e458cd	0.00010888428
206	0x37fde8d9	3.0268378e-05
207	0xb74d4f7f	-1.2237461e-05
208	0x37cb2d57	2.4220599e-05
209	0xb855681f	-5.0880128e-05
210	0x37bba912	2.2370867e-05
211	0x384a5d72	4.824758e-05
212	0xb7e107ee	-2.6825783e-05
213	0x397be0e4	0.00024021004
214	0x37734918	1.4500947e-05
215	0xb8cd5170	-9.790331e-05
216	0x3142fdcb	2.837498e-09
217	0x32cad982	2.3614806e-08
218	0xb594d575	-1.1088983e-06
219	0x328c15e1	1.6308094e-08
220	0x340f16cb	1.3326205e-07
221	0x392b89b0	0.00016359123
222	0x37142384	8.829757e-06
223	0xb820902e	-3.828125e-05
224	0xb77ee408	-1.5192672e-05
225	0x38950c5c	7.107176e-05
226	0xb72e8cb5	-1.0403969e-05
227	0xb81f8c4a	-3.803921e-05
228	0xb787f770	-1.6208476e-05
229	0x395e0ece	0.00021177085
230	0x387f0a31	6.080623e-05
231	0xb827f6ea	-4.004586e-05
232	0x37c4678d	2.341324e-05
233	0xb7a04fcf	-1.911065e-05
234	0x37a8f483	2.014102e-05
235	0x37160cf1	8.94371e-06
236	0x370d9bc6	8.440524e-06
237	0xb72f5dfb	-1.0452694e-05
238	0x38751b19	5.843779e-05
239	0xb60fe711	-2.1443159e-06
240	0xb734b22b	-1.0770319e-05
241	0xba2a5d4a	-0.00064988865
242	0xb92534ae	-0.00015755251
243	0x39580e16	0.00020604613
244	0x3824c941	3.928808e-05
245	0xb9a50325	-0.00031473595
246	0xb88788fe	-6.4628184e-05
247	0x3874c230	5.8354985e-05
248	0xb8ed1ba3	-0.000113061884
249	0x3aa7655b	0.0012771295
250	0x39aff3ee	0.00033560343
251	0xb9c31bc0	-0.00037213974
252	0x379f0e05	1.8960805e-05
253	0xb89359a4	-7.026203e-05
254	0xb7722a5e	-1.4434188e-05
255	0x37f3ddae	2.9071085e-05

exp_avg_sq f4 [64, 4]
0	0x32e343aa	2.6457048e-08
1	0x3636e904	2.7255746e-06
2	0x347ec890	2.3728558e-07
3	0x348eb4c3	2.6581083e-07
4	0x322b1184	9.957493e-09
5	0x342d5fd3	1.6146741e-07
6	0x33ad30d7	8.064824e-08
7	0x31a9d86b	4.943151e-09
8	0x31bc36bb	5.4777423e-09
9	0x34c9ef56	3.7613307e-07
10	0x33395bcf	4.315717e-08
11	0x332eecf6	4.0728047e-08
12	0x323d51af	1.1019821e-08
13	0x35ab640f	1.2769614e-06
14	0x3490eea0	2.6995713e-07
15	0x33e478d8	1.0639059e-07
16	0x3405127f	1.2393319e-07
17	0x378810ae	1.622023e-05
18	0x35836a1d	9.791144e-07
19	0x357407be	9.090835e-07
20	0x3213d0a9	8.60397e-09
21	0x3541e16f	7.222615e-07
22	0x33920a79	6.80056e-08
23	0x339b13ab	7.2213275e-08
24	0x32f0fb49	2.8053948e-08
25	0x3679ba24	3.721224e-06
26	0x345c3509	2.0508391e-07
27	0x34674c92	2.1541408e-07
28	0x335dc050	5.163048e-08
29	0x365e4abe	3.3124084e-06
30	0x3455b533	1.9903091e-07
31	0x34d09035	3.8847944e-07
32	0x2e18cade	3.474098e-11
33	0x33da632f	1.01694575e-07
34	0x33018af9	3.0161548e-08
35	0x31e3fadc	6.635089e-09
36	0x32c2230e	2.2600513e-08
37	0x363653d9	2.716892e-06
38	0x34328401	1.6625565e-07
39	0x341375f8	1.3733359e-07
40	0x319fa4a6	4.6462274e-09
41	0x34eddf67	4.4307237e-07
42	0x344fba03	1.9346048e-07
43	0x3155d89a	3.1118703e-09
44	0x32f1ded2	2.815742e-08
45	0x363f23da	2.8482086e-06
46	0x342477be	1.5317252e-07
47	0x349fa499	2.9735818e-07
48	0x333c548c	4.3849056e-08
49	0x3683d9f2	3.9294764e-06
50	0x3446ef2d	1.8527199e-07
51	0x34ef8b0d	4.4618392e-07
52	0x31a39d34	4.7617963e-09
53	0x33112ef4	3.3803147e-08
54	0x33077076	3.153442e-08
55	0x312ecb88	2.5436027e-09
56	0x32feb755	2.9652861e-08
57	0x364c368b	3.0430117e-06
58	0x345899f4	2.0172575e-07
59	0x34aa8294	3.1759976e-07
60	0x33380d24	4.285279e-08
61	0x36762f68	3.668445e-06
62	0x3380fb8b	6.00622e-08
63	0x34ec2407	4.398464e-07
64	0x33173f25	3.5214857e-08
65	0x363f455e	2.8501595e-06
66	0x33c83a89	9.323873e-08
67	0x34a0a8f1	2.9925243e-07
68	0x3398b338	7.110651e-08
69	0x372448bd	9.792097e-06
70	0x35333116	6.6754126e-07
71	0x34f42006	4.5471842e-07
72	0x33392036	4.3102965e-08
73	0x3698416b	4.5375687e-06
74	0x34b89b34	3.4385596e-07
75	0x34df8844	4.1636133e-07
76	0x2aab4a9d	3.0427475e-13
77	0x2ac52f38	3.5026994e-13
78	0x2ed26cee	9.569044e-11
79	0x2a854b36	2.3677734e-13
80	0x2b116cec	5.166551e-13
81	0x2b529eb3	7.4827227e-13
82	0x2fa91a38	3.075955e-10
83	0x2b0833cc	4.838879e-13
84	0x33a782d0	7.800338e-08
85	0x36bb88e0	5.5889686e-06
86	0x33b21cc4	8.294003e-08
87	0x3537d1ff	6.8478397e-07
88	0x3331615d	4.1299575e-08
89	0x364424c7	2.9227683e-06
90	0x33f4f5e5	1.14068634e-07
91	0x34b30fd8	3.3352876e-07
92	0x2b2cddd6	6.1414534e-13
93	0x2b7a8181	8.8997565e-13
94	0x2ff6cba2	4.489183e-10
95	0x2b2fea81	6.249793e-13
96	0x328786ca	1.5777363e-08
97	0x33d686fd	9.989706e-08
98	0x335c58c3	5.130347e-08
99	0x31ae30ee	5.069629e-09
100	0x3320b076	3.7413393e-08
101	0x34785b09	2.3129918e-07
102	0x33295a95	3.9430763e-08
103	0x328b5391	1.6219731e-08
104	0x32579b55	1.25499655e-08
105	0x35a2774e	1.2104663e-06
106	0x3434d152	1.6839957e-07
107	0x33e381f0	1.0594147e-07
108	0x33f01295	1.1179251e-07
109	0x370d06fb	8.40588e-06
110	0x33e3d039	1.0608387e-07
111	0x35888f13	1.017443e-06
112	0x32feddf4	2.9670424e-08
113	0x368f6c9f	4.2743773e-06
114	0x35d72b79	1.60314e-06
115	0x34a85a90	3.135833e-07
116	0x2d82cca8	1.4870175e-11
117	0x344d46ab	1.9117822e-07
118	0x33c4a42a	9.1568225e-08
119	0x2e158fc9	3.4006385e-11
120	0x3387220c	6.2926205e-08
121	0x36a08189	4.7834515e-06
122	0x34113751	1.3524301e-07
123	0x35107222	5.3810265e-07
124	0x30364a26	6.6316586e-10
125	0x32a4aba0	1.9170159e-08
126	0x32f85749	2.8910693e-08
127	0x2f13f510	1.3456636e-10
128	0x2ebeeb36	8.6819815e-11
129	0x33ec7856	1.10114954e-07
130	0x337774ca	5.7615388e-08
131	0x2f490704	1.8283336e-10
132	0x32e5d404	2.6755522e-08
133	0x35a8aa8c	1.2566611e-06
134	0x339721f5	7.037662e-08
135	0x3430c7fa	1.6464028e-07
136	0x2d755ebe	1.3947675e-11
137	0x34444c5f	1.8281706e-07
138	0x33ba8465	8.6853824e-08
139	0x2e6ed544	5.4304353e-11
140	0x33c7c6b6	9.302805e-08
141	0x36ddb254	6.6070734e-06
142	0x34e49182	4.257418e-07
143	0x35175c5a	5.638627e-07
144	0x2cd56f55	6.0661844e-12
145	0x33a033ab	7.459979e-08
146	0x3317dbd8	3.5357374e-08
147	0x2db8248d	2.093461e-11
148	0x33044e8f	3.0805094e-08
149	0x366afbe3	3.5015335e-06
150	0x34533e7b	1.9673637e-07
151	0x34844206	2.4634954e-07
152	0x33621575	5.263924e-08
153	0x369cafb2	4.669616e-06
154	0x3305cf5d	3.115507e-08
155	0x35135471	5.4884646e-07
156	0x339093e9	6.732427e-08
157	0x36ac1807	5.1287966e-06
158	0x34bd7daf	3.529544e-07
159	0x34eaf6e8	4.3765544e-07
160	0x35300966	6.5578786e-07
161	0x3741d970	1.1554323e-05
162	0x348cc8b6	2.6223069e-07
163	0x368364bc	3.9158313e-06
164	0x34f59d0b	4.574907e-07
165	0x3817d354	3.619802e-05
166	0x34a8020a	3.1293922e-07
167	0x369111aa	4.323393e-06
168	0x32f8a890	2.8947653e-08
169	0x3618e484	2.2782779e-06
170	0x348159c8	2.4093447e-07
171	0x344bd6b7	1.8983961e-07
172	0x2f1f8dc0	1.4511325e-10
173	0x3434702b	1.6804613e-07
174	0x33bd4a36	8.814497e-08
175	0x2f9404da	2.692449e-10
176	0x32a3b053	1.905588e-08
177	0x359bc9e5	1.1607159e-06
178	0x339ffcd1	7.4500015e-08
179	0x33d842aa	1.007041e-07
180	0x32e83aad	2.7035037e-08
181	0x365fb589	3.3335257e-06
182	0x350c0e69	5.2175034e-07
183	0x3443b632	1.8227072e-07
184	0x32c2bf61	2.2671601e-08
185	0x360bcacc	2.0830657e-06
186	0x34b45f43	3.3596925e-07
187	0x346e1be8	2.217563e-07
188	0x325055f7	1.212674e-08
189	0x350c0b6d	5.217069e-07
190	0x342fff28	1.639097e-07
191	0x33a939ec	7.880212e-08
192	0x33098f0f	3.202791e-08
193	0x35fa4f42	1.8649519e-06
194	0x33c62957	9.227613e-08
195	0x34546032	1.9779034e-07
196	0x31e343a7	6.6142607e-09
197	0x347f43fa	2.3773455e-07
198	0x340bfe94	1.3037999e-07
199	0x3170cbe1	3.5040488e-09
200	0x343ee508	1.777845e-07
201	0x3782cab5	1.55916e-05
202	0x34044f48	1.23223e-07
203	0x35fbb51a	1.8753665e-06
204	0x31c80978	5.8218426e-09
205	0x35249739	6.131482e-07
206	0x336c9f84	5.509311e-08
207	0x332fba10	4.0914585e-08
208	0x333a9435	4.3441293e-08
209	0x36806cef	3.827379e-06
210	0x33919bff	6.780464e-08
211	0x34f1a734	4.5011404e-07
212	0x33184c03	3.545939e-08
213	0x3657d923	3.2163887e-06
214	0x333e6f70	4.4339174e-08
215	0x34c82c98	3.728535e-07
216	0x2c1bf7cc	2.216438e-12
217	0x2c1bf15c	2.2160806e-12
218	0x30255c63	6.015794e-10
219	0x2bee17b0	1.6917492e-12
220	0x31a52ec9	4.807451e-09
221	0x3519d7ed	5.7311155e-07
222	0x3422f91c	1.5178051e-07
223	0x332a0e13	3.959401e-08
224	0x324e945c	1.2024511e-08
225	0x35c49f7a	1.4649552e-06
226	0x34f8f6b4	4.63731e-07
227	0x33eac04c	1.0931453e-07
228	0x325641fc	1.24714425e-08
229	0x359bdd1b	1.161275e-06
230	0x33fe1c6d	1.1832967e-07
231	0x33e93970	1.0860356e-07
232	0x3255f512	1.2453954e-08
233	0x32b3d6c9	2.0936016e-08
234	0x32acd311	2.0119417e-08
235	0x315109ee	3.0419147e-09
236	0x31ff74a4	7.4347373e-09
237	0x3598d44a	1.1386667e-06
238	0x3507c898	5.058332e-07
239	0x317610ec	3.580733e-09
240	0x348d64d9	2.6336673e-07
241	0x37965240	1.7919694e-05
242	0x34296944	1.5777647e-07
243	0x36282bee	2.5059521e-06
244	0x329158c6	1.6920591e-08
245	0x361ebe45	2.3654586e-06
246	0x34bce308	3.5182916e-07
247	0x33d5bc2e	9.952815e-08
248	0x347188b1	2.2494602e-07
249	0x376256de	1.3490875e-05
250	0x35442c1a	7.3079866e-07
251	0x35b85878	1.3734816e-06
252	0x3231a953	1.0341256e-08
253	0x35808290	9.574742e-07
254	0x3309c74c	3.2079058e-08
255	0x33a25abb	7.5602166e-08

exp_avg f4 [64]
0	0x3962e7cf	0.00021639395
1	0xb85d1ee3	-5.271927e-05
2	0xb890a955	-6.8979956e-05
3	0x38a05a8d	7.646261e-05
4	0xbacfe432	-0.0015860854
5	0x37412d73	1.1514278e-05
6	0xba39d0b7	-0.0007088291
7	0xba0588fc	-0.00050939596
8	0xb5fbd646	-1.8763319e-06
9	0xba23350b	-0.00062258606
10	0x394cdfe7	0.00019538366
11	0xb51ad56d	-5.7680046e-07
12	0x38ef263c	0.0001140353
13	0x38d256aa	0.00010029723
14	0xb8b1c85c	-8.4773375e-05
15	0x38aa423f	8.118571e-05
16	0x39c5907d	0.0003768242
17	0xbab78a98	-0.0014003096
18	0x39f38d61	0.00046453907
19	0xb422e4d6	-1.5170676e-07
20	0xb56a6987	-8.7325355e-07
21	0xb96d119b	-0.0002260864
22	0x39f2ad92	0.00046287157
23	0x35389709	6.8765127e-07
24	0xb79b3abe	-1.8504794e-05
25	0x3a0e9e45	0.0005440454
26	0xb886f9c7	-6.4361426e-05
27	0xb9fe2353	-0.00048472974
28	0x38c673d9	9.462954e-05
29	0x36d375f5	6.302022e-06
30	0x39e33564	0.00043336593
31	0x379fd315	1.905257e-05
32	0x35f30685	1.8106808e-06
33	0xb996b23e	-0.0002874303
34	0x35bfbb91	1.4285198e-06
35	0x3a702e4e	0.00091621734
36	0xb2f74c8c	-2.8789394e-08
37	0xb9ffdd1c	-0.0004880213
38	0xb91a4cd3	-0.00014715204
39	0xba2347db	-0.0006228664
40	0xb9a8b767	-0.00032180102
41	0xb9914ca9	-0.0002771367
42	0xb990e663	-0.00027637472
43	0xb5d61dd1	-1.595292e-06
44	0x397f3fdd	0.00024342486
45	0x39fbbd1a	0.00048015342
46	0x394ea1ed	0.00019706013
47	0x3824b855	3.927232e-05
48	0xb9ff20e9	-0.0004866191
49	0xb895171f	-7.10918e-05
50	0xb8bf1549	-9.1115544e-05
51	0x38889c02	6.514044e-05
52	0x38753d14	5.8469435e-05
53	0x38fd1ced	0.00012069368
54	0x32bbbfcd	2.1856886e-08
55	0x392a6c4e	0.0001625281
56	0x37b79bf1	2.1887916e-05
57	0x39787313	0.00023693992
58	0x383b2279	4.461638e-05
59	0x37b647e8	2.1729575e-05
60	0xb98c24a1	-0.00026730172
61	0xb9beda81	-0.00036402422
62	0x3aa4dcb8	0.0012577986
63	0xb8962cbd	-7.1608905e-05

exp_avg_sq f4 [64]
0	0x352b1e5a	6.374663e-07
1	0x339dbbc0	7.345034e-08
2	0x33d58df4	9.9444065e-08
3	0x34086be6	1.270524e-07
4	0x378084b0	1.5320576e-05
5	0x33781b1b	5.7766652e-08
6	0x367b0076	3.7402183e-06
7	0x361021df	2.1477388e-06
8	0x31d229dd	6.1165637e-09
9	0x3644c358	2.931998e-06
10	0x341be3f4	1.4518429e-07
11	0x34c2bbb2	3.6271882e-07
12	0x35236b5d	6.0878466e-07
13	0x33f666a4	1.1473938e-07
14	0x348f2618	2.6663542e-07
15	0x34ad9f38	3.2339608e-07
16	0x358c6ebe	1.0463043e-06
17	0x372d9d5c	1.0348242e-05
18	0x35a86b75	1.254825e-06
19	0x2bd553be	1.5157803e-12
20	0x2c44e77f	2.7981781e-12
21	0x35893879	1.0223731e-06
22	0x3587950f	1.0101666e-06
23	0x2c70925e	3.4187301e-12
24	0x33cff70c	9.684126e-08
25	0x35407d7f	7.1708195e-07
26	0x34b343ea	3.3390762e-07
27	0x35f0abeb	1.7931428e-06
28	0x34862e8c	2.4993312e-07
29	0x2f4d507b	1.8673234e-10
30	0x35e5b764	1.7115203e-06
31	0x317cb7fe	3.6775414e-09
32	0x309ea768	1.1543593e-09
33	0x3532c72b	6.6599995e-07
34	0x2f71495c	2.1944885e-10
35	0x36b2a827	5.324389e-06
36	0x2ed7067b	9.778219e-11
37	0x3611a06d	2.1700064e-06
38	0x34e1a6cf	4.2030885e-07
39	0x3640905b	2.8694255e-06
40	0x361a2554	2.2969516e-06
41	0x368a770a	4.1265785e-06
42	0x35473b13	7.421924e-07
43	0x31076807	1.9704218e-09
44	0x355f44fd	8.3174365e-07
45	0x3630fd79	2.6373584e-06
46	0x34c551c7	3.675361e-07
47	0x33595d19	5.060892e-08
48	0x35b33d05	1.3354298e-06
49	0x338cf5a7	6.563942e-08
50	0x35a48adf	1.2259369e-06
51	0x34c12bc6	3.59809e-07
52	0x34c562f1	3.67661e-07
53	0x3490900f	2.6926907e-07
54	0x2d3e2de3	1.08104385e-11
55	0x340c6ecc	1.3078824e-07
56	0x34034b8b	1.2227808e-07
57	0x3525427a	6.1564026e-07
58	0x33626690	5.2713006e-08
59	0x332fcbf7	4.0930868e-08
60	0x35d95c70	1.6194663e-06
61	0x35fd59a3	1.8876057e-06
62	0x372e6464	1.0394582e-05
63	0x3518f58b	5.6981725e-07
