toy_al/mini_exp/250-200-200-001-no/ckpt_phase1.pt (torch, 47981 bytes, 30 tensors)

fc1.weight f4 [64, 4]
0	0xbe50cd7c	-0.20390886
1	0x3ee3309c	0.44373024
2	0x3db7ceae	0.08974968
3	0x3ee81f96	0.45336598
4	0xbf3377a0	-0.7010441
5	0x3d3647f0	0.0445022
6	0x3e83d343	0.25747117
7	0xbf1b22f2	-0.606002
8	0x3dbb7a93	0.091542386
9	0xbefc809c	-0.4931687
10	0xbf03cbc4	-0.51482797
11	0xbe4c8429	-0.1997229
12	0x3c5a503a	0.013324792
13	0xbe696aab	-0.22794597
14	0x3eddb387	0.4330103
15	0xbeb534d8	-0.3539188
16	0x3e880db5	0.26572958
17	0x3e140cb2	0.14457968
18	0x3c965676	0.018351775
19	0x3edb4366	0.42824858
20	0xbf62e77f	-0.88634485
21	0xbe73b04f	-0.23797725
22	0xbde1dee8	-0.11028844
23	0x3de12d63	0.10994985
24	0xbd9cd144	-0.07657102
25	0x3e944290	0.28957033
26	0xbdb7c36f	-0.08972823
27	0xbe98f1b4	-0.29871905
28	0x3c931495	0.01795415
29	0x3ead9255	0.33900705
30	0xbe00d4bd	-0.12581153
31	0x3e6985f6	0.22805008
32	0x3f0a98d2	0.54139435
33	0x3eb5eded	0.35533085
34	0xbe0a7ced	-0.13524218
35	0xbf2f6278	-0.68509626
36	0x3da44493	0.08020892
37	0xbe3d3db7	-0.18480574
38	0xbeb47f5b	-0.35253415
39	0xbeeea48b	-0.4660991
40	0x3d05e4e0	0.032688975
41	0xbead7869	-0.33880928
42	0x3e6b63f7	0.22987352
43	0xbf1555fc	-0.58334327
44	0xbecc94de	-0.39957327
45	0xbeab43f4	-0.33450282
46	0x3c19db00	0.009390593
47	0x3da25150	0.079256654
48	0xbf1fc216	-0.62405527
49	0x3e5c9eb0	0.2154491
50	0xbde090b2	-0.109650984
51	0xbe9bd251	-0.30433896
52	0x3ed2fb54	0.41207373
53	0x3e3bd3f8	0.18342578
54	0xbedfa9d1	-0.43684247
55	0x3f70471c	0.93858504
56	0xbe8fc700	-0.28081512
57	0xbc07a718	-0.008279584
58	0x3a44fcbc	0.0007514467
59	0x3ed1a1ba	0.409437
60	0x3e90dad9	0.28291968
61	0x3e9f13ce	0.31069797
62	0xbe132341	-0.14368917
63	0xbe92d628	-0.28679013
64	0x3ea5136a	0.32241374
65	0xbe1ce27f	-0.15320776
66	0xbecf811e	-0.40528196
67	0x3ea691a7	0.32533
68	0x3ddd1382	0.107947364
69	0xbd1b6628	-0.03793922
70	0xbefe53a0	-0.49673176
71	0x3eb40e83	0.35167322
72	0x3f0e62ca	0.5561949
73	0x3e5ac4f1	0.2136419
74	0x3df9938f	0.12186348
75	0x3f910419	1.1329376
76	0xbe7377af	-0.23776124
77	0x3d55c9aa	0.052194275
78	0xbeb11fbf	-0.34594533
79	0xbe6d5d0a	-0.23180023
80	0xbf41d71b	-0.7571885
81	0x3e1dba36	0.15403065
82	0xbe138e5f	-0.14409779
83	0x3e089bca	0.13340679
84	0xbe9212e3	-0.28530034
85	0x3eba2de2	0.3636313
86	0x3e40f697	0.18844067
87	0xbefbe0d1	-0.4919496
88	0xbf8170b4	-1.0112519
89	0xbf00f9c5	-0.5038112
90	0xbebe35a8	-0.3715031
91	0xbdff8df6	-0.12478249
92	0x3fa39138	1.2778692
93	0xbdd7b74d	-0.10533009
94	0xbe85d757	-0.26140854
95	0x3cea9205	0.02863408
96	0xbf119582	-0.56868756
97	0xbe9ccb00	-0.30623627
98	0xbec6a6b6	-0.38799065
99	0xbc5f6a3b	-0.013636167
100	0xbf82e429	-1.0225879
101	0xbe8dbd70	-0.27683592
102	0xbee4c4ff	-0.44681546
103	0xbe6601e6	-0.22461662
104	0xbecb2e5a	-0.396838
105	0xbef747ca	-0.48296958
106	0x3da61e70	0.08111274
107	0xbe2293b8	-0.15876663
108	0xbd585baa	-0.052821793
109	0xbe54d66a	-0.20784917
110	0xbe42b575	-0.19014533
111	0xbe7765a9	-0.24159874
112	0x3f463883	0.7742998
113	0xbdf60597	-0.12012785
114	0x3e854610	0.26030016
115	0x3e8c16e7	0.27361223
116	0xbe4ab357	-0.19794975
117	0x3d98441e	0.07434867
118	0xbde6d198	-0.112704456
119	0x3f8e2dfb	1.1107782
120	0x3f34e0e6	0.7065567
121	0x3dbda607	0.09260183
122	0xbf06a939	-0.52601963
123	0x3f0879bc	0.5331075
124	0x3dcfabb1	0.101401694
125	0x3efc329f	0.4925737
126	0xbe63b610	-0.2223742
127	0x3eb0392e	0.34418625
128	0xbd68fd44	-0.056882158
129	0xbdbf7081	-0.0934763
130	0x3efd7503	0.49503335
131	0x3e57720e	0.21039602
132	0xbef5dd1d	-0.4802026
133	0x3ef70a65	0.48250118
134	0x3ee37493	0.44424877
135	0xbe4c616f	-0.19959043
136	0x3f11d110	0.5695963
137	0xbde2ac1c	-0.110679835
138	0xbe8df9bd	-0.27729598
139	0xbd88e237	-0.06683772
140	0x3f28174c	0.6566055
141	0x3e55dace	0.20884249
142	0x3e0994b5	0.13435633
143	0xbded2358	-0.11579007
144	0xbf21142d	-0.6292141
145	0xbecb5527	-0.39713404
146	0xbe3afdd1	-0.18260886
147	0xbf0aa2b9	-0.54154545
148	0xbf6d7423	-0.92755336
149	0xbef0c1fc	-0.47022998
150	0x3ea9623b	0.33082756
151	0xbe11e55a	-0.14247647
152	0xbbeb20b1	-0.007175528
153	0x3ed0dcdc	0.40793502
154	0x3e4f15e3	0.20223193
155	0xbec2774f	-0.3798165
156	0xbf053078	-0.5202708
157	0x3e390c42	0.18071082
158	0x3ef84973	0.48493537
159	0x3eafefb8	0.34362578
160	0x3e588d7c	0.21147722
161	0x3da95889	0.0826884
162	0x3ef4879b	0.4775971
163	0x3ead29b0	0.33820868
164	0x3f69e447	0.9136395
165	0x3e423ae3	0.18967776
166	0x3e842621	0.2581034
167	0xbea98183	-0.33106622
168	0x3f3c8f43	0.736561
169	0xbed6fc8d	-0.41989556
170	0xbe1b0dfb	-0.15142052
171	0x3d6c814a	0.057740487
172	0x3eb8dd1c	0.36106193
173	0x3f0d82a3	0.5527746
174	0xbed9ccfe	-0.4253921
175	0x3e9308ed	0.28717747
176	0x3ed00327	0.40627405
177	0x3f039a4e	0.51407325
178	0xbe4baeb5	-0.19890864
179	0x3e804cca	0.25058585
180	0xbebdd347	-0.37075254
181	0xbf009c46	-0.50238454
182	0x3f25194b	0.6449172
183	0xbe1d3450	-0.15351987
184	0x3e1700a0	0.14746332
185	0x3ec9e5ef	0.39433238
186	0x3e14b66c	0.14522713
187	0xbf122128	-0.5708184
188	0x3f2817b0	0.65661144
189	0xbe01672a	-0.1263701
190	0xbead0f13	-0.33800563
191	0xbeed57e5	-0.4635612
192	0xbea94842	-0.3306294
193	0xbe105ae4	-0.14097172
194	0x3eb94de3	0.36192235
195	0xbe7965da	-0.2435526
196	0xbefd2c62	-0.49447924
197	0x3ef69b4c	0.48165357
198	0xbea1ef3c	-0.31627834
199	0x3e275e28	0.16344512
200	0xbf2efcf4	-0.68354726
201	0xbe43c97b	-0.19119827
202	0xbe83ccfd	-0.2574233
203	0xbe9d3f4a	-0.30712348
204	0xbf86dee1	-1.0536767
205	0xbeaf15a3	-0.34196195
206	0x3edfeca6	0.43735236
207	0x3fc410a7	1.5317582
208	0xbe8fde07	-0.2809908
209	0x3dd3fc75	0.10350887
210	0xbef7ee75	-0.48424116
211	0xbcab169a	-0.0208848
212	0x3db16daf	0.086634986
213	0xbcd09f82	-0.025466684
214	0xbf034600	-0.51278687
215	0xbe5507b8	-0.20803726
216	0xbf0d11ed	-0.5510548
217	0x3efdd09d	0.49573222
218	0xbe9a06bd	-0.30083266
219	0xbe8e5d47	-0.2780554
220	0xbdc07238	-0.093967855
221	0x3e9e4776	0.30913895
222	0xbe3e9b77	-0.18613993
223	0xbbcf60e7	-0.0063286903
224	0x3d80c39c	0.062873095
225	0x3e7c7146	0.24652585
226	0xbeda7c5f	-0.42673013
227	0xbebdaebe	-0.3704738
228	0xbf09ad02	-0.53779614
229	0x3e1b9ae0	0.15195799
230	0x3cbbea01	0.02293873
231	0x3ac0b99d	0.0014703755
232	0xbe45d44e	-0.19319269
233	0x3ee8207d	0.45337287
234	0x3f366c92	0.71259415
235	0x3ea017e5	0.3126823
236	0x3e3a999b	0.18222658
237	0xbe21aca1	-0.15788509
238	0xbe96895c	-0.29401672
239	0xbe568f96	-0.20953211
240	0xbeeaed11	-0.45883992
241	0xbe80dec3	-0.25169954
242	0xbdd51ef1	-0.10406292
243	0xbe14b7e3	-0.14523272
244	0x3f0fc75f	0.5616359
245	0xbe056c3a	-0.13029566
246	0xbda1ce45	-0.07900671
247	0x3e571d7c	0.21007341
248	0x3f854c4f	1.0413913
249	0xbf02574e	-0.50914466
250	0x3e477cff	0.19481276
251	0x3fab7674	1.3395524
252	0x3dd524e2	0.104074255
253	0x3e8c1f33	0.27367553
254	0xbf067ee7	-0.5253739
255	0x3d7aed58	0.061261505

fc1.bias f4 [64]
0	0x3f0614f4	0.5237572
1	0x3d21ba13	0.039484095
2	0x3e98e4af	0.29861972
3	0xbc4417af	-0.011968537
4	0x3f2eaa1f	0.68228334
5	0xbf32830e	-0.69731224
6	0x3ee91897	0.45526573
7	0xbe83c383	-0.257351
8	0x3da594f1	0.08085049
9	0xbe8b120b	-0.27162203
10	0x3f0a9747	0.5413708
11	0xbe46a678	-0.1939944
12	0x3ece9cf8	0.40354133
13	0xbf654d92	-0.8957149
14	0x3ed5c3db	0.41750988
15	0xbd318acd	-0.04334526
16	0xbee2a6be	-0.4426784
17	0x3e8651d6	0.2623431
18	0xbf37c318	-0.71782064
19	0x3de9db43	0.11418774
20	0xbf17587f	-0.5911941
21	0xbeecb523	-0.46231946
22	0x3f061b3a	0.52385294
23	0x3e57ade0	0.21062422
24	0x3e3edd36	0.18639073
25	0x3eca33e4	0.39492714
26	0xbeaac9ba	-0.3335703
27	0xbc98818e	-0.018616464
28	0x3f2c037f	0.67192835
29	0xbeecd86b	-0.46258864
30	0xba805e0f	-0.0009793657
31	0x3f1d57e3	0.6146223
32	0xbf006ccf	-0.5016603
33	0xbe505388	-0.20344365
34	0xbddfd4d0	-0.10929263
35	0x3d1977ca	0.037467755
36	0xbf42ec6f	-0.7614202
37	0xbf659519	-0.8968063
38	0xbed61fd9	-0.41821173
39	0x3ea75f88	0.32690072
40	0x3e411254	0.18854648
41	0x3e06049a	0.13087693
42	0x3f25feaf	0.6484174
43	0xbd9f4943	-0.077776454
44	0xbdf46f39	-0.119352765
45	0x3ee0558a	0.4381526
46	0x3d7d2005	0.061798114
47	0x3e30aa8d	0.1725256
48	0x3ee55241	0.44789317
49	0xbf148607	-0.5801701
50	0x3f2bea3d	0.67154294
51	0x3f10951d	0.5647753
52	0x3ee62227	0.4494793
53	0x3e3cb4c9	0.18428339
54	0x3e9bd72d	0.30437604
55	0x3e2a6db8	0.16643417
56	0x3efbcab6	0.49178094
57	0x3e03f42e	0.12886116
58	0xbe7f0e30	-0.24907756
59	0x3dd04b13	0.10170569
60	0xbe8201b1	-0.25391915
61	0xbe42ce26	-0.19023952
62	0x3cb95d7a	0.02262758
63	0x3ef4f175	0.47840467

fc2.weight f4 [32, 64]
0	0x3d79cdf0	0.060987413
1	0x3e548b1a	0.20756188
2	0xbdbfc948	-0.09364563
3	0x3e4c6406	0.19960031
4	0xbdffc9b4	-0.12489644
5	0x3d976c52	0.07393707
6	0x3e4fa015	0.2027591
7	0xbe081abe	-0.13291451
8	0x3cee2041	0.029068114
9	0x3bf33e9d	0.0074232356
10	0x3e8078b5	0.25092092
11	0x3d6d0a60	0.057871222
12	0x3e8586b7	0.26079342
13	0xbcb7e8cd	-0.022449875
14	0x3da1b2a8	0.07895404
15	0x3d26cada	0.040720798
16	0xbe1c6e54	-0.15276462
17	0xbd59babd	-0.053156603
18	0xbd18aa95	-0.037272055
19	0x3cbdd7cc	0.023174189
20	0x3e7a7874	0.24460012
21	0x3dc9b9c1	0.09849883
22	0x3df03ca2	0.11730315
23	0xbd6beb4b	-0.05759744
24	0xbcb0a0e5	-0.021561095
25	0x3e323835	0.17404254
26	0x3d755c44	0.059902444
27	0xbd88fc2f	-0.06688725
28	0x3ea26835	0.3172013
29	0xbe047a81	-0.12937357
30	0x3dc135fb	0.09434124
31	0xbd726847	-0.059181478
32	0xbdc47707	-0.09593015
33	0xbd380d40	-0.04493451
34	0xbdae4a38	-0.0851025
35	0xbd3b471c	-0.045722112
36	0x3cbfcb72	0.02341244
37	0xbec8a801	-0.39190677
38	0x3d4006b6	0.0468814
39	0xbbe6808e	-0.007034368
40	0xbd0c0360	-0.034182906
41	0xbd888014	-0.06665054
42	0x3e5aa673	0.21352558
43	0xbe215892	-0.15756443
44	0xbdc0e214	-0.09418121
45	0xbd9824b3	-0.07428875
46	0x3d3ed36d	0.04658835
47	0x3dacefb2	0.08444156
48	0x3b6000fb	0.0034180272
49	0xbda29f46	-0.07940535
50	0x3e3d0a57	0.18460976
51	0x3d814361	0.0631168
52	0x3d9a29a3	0.07527473
53	0x3d5aa7a0	0.053382516
54	0x3bf7e65b	0.0075653023
55	0x3d03dea2	0.03219474
56	0x3e3cd187	0.18439303
57	0x3d24d094	0.040237978
58	0xbe12e1ef	-0.14344
59	0xbe097e6c	-0.13427132
60	0xbde58ca5	-0.112084664
61	0xbe9daf42	-0.30797774
62	0xbe3dcaee	-0.18534443
63	0xbd0255bf	-0.031820055
64	0x3dfcf4de	0.12351392
65	0x3d26925e	0.04066693
66	0x3dcbe132	0.09955062
67	0x3da196a9	0.07890064
68	0xbdc98299	-0.09839363
69	0xbd4cc2fd	-0.049990643
70	0x3e0c2eb6	0.13689694
71	0x3dce66f9	0.10078234
72	0x3d662254	0.05618508
73	0x3d1075de	0.035268657
74	0xbe106381	-0.14100458
75	0xbd9df8ea	-0.07713492
76	0x3da3e796	0.08003156
77	0x3ddbae71	0.107266314
78	0xbc965aa4	-0.018353768
79	0xbcc820b9	-0.024429666
80	0x3d96ca1f	0.0736277
81	0x3da28c7a	0.0793695
82	0xbd0cc9ea	-0.034372248
83	0x3de855b3	0.11344471
84	0x3e4ef5fb	0.20211022
85	0x3d8927f5	0.06697074
86	0x39b4428c	0.00034381857
87	0xbda939c7	-0.08262973
88	0xbd95a400	-0.07306671
89	0xbbad9bef	-0.0052981297
90	0xbdb0487e	-0.08607577
91	0x3d66880b	0.056282084
92	0x3b7127d2	0.0036797416
93	0xbda8fa8a	-0.082509115
94	0x3d9837e3	0.074325345
95	0x3d7826b7	0.060583796
96	0xbd8ef0a9	-0.06979496
97	0x3e115efa	0.14196387
98	0x3dc778e4	0.09739855
99	0x3e0cac0d	0.13737507
100	0x3d8cb998	0.06871337
101	0xbebd564b	-0.369799
102	0x3dabe3d1	0.08393062
103	0x3e030f30	0.12798762
104	0x3d93de6f	0.0722016
105	0xbde8615a	-0.11346693
106	0xbd97048b	-0.073739134
107	0x3d68bdec	0.05682175
108	0x3e2c889c	0.16848987
109	0xbdb61040	-0.08889818
110	0x3db3cd2b	0.08779367
111	0x3d8fed24	0.07027653
112	0xbd96de67	-0.07366639
113	0xbd15a3e3	-0.036533248
114	0xbc679eb0	-0.014136955
115	0xbdfff530	-0.12497938
116	0x3cbd2edb	0.023093631
117	0x3e02a322	0.12757543
118	0xbd1d4e7a	-0.03840492
119	0x3d44c33a	0.048037745
120	0x3ac8ad89	0.0015310507
121	0x3d738c66	0.059460066
122	0x3d263ba3	0.040584218
123	0x3e07a259	0.13245524
124	0x3e13187d	0.1436481
125	0xbb98def0	-0.004665248
126	0xbef120a9	-0.4709523
127	0x3d73ca70	0.05951923
128	0x3e147fe0	0.14501905
129	0xbcf4a086	-0.0298617
130	0xbd2c491d	-0.042061914
131	0xbe07c158	-0.13257349
132	0x3e77fc7b	0.24217407
133	0xbd504f8d	-0.050857116
134	0x3dca5d59	0.09881086
135	0xbdc8d517	-0.09806269
136	0x3d410ddd	0.04713236
137	0x3d90cefc	0.07070729
138	0x3de5171b	0.11186048
139	0xbd9afab2	-0.075673476
140	0xbd62ac3d	-0.05534004
141	0x3c99ffa5	0.018798659
142	0x3e9aec5b	0.3025845
143	0x3d6cb074	0.057785466
144	0xbd903930	-0.07042158
145	0x3db17e04	0.08666614
146	0x3df57465	0.11985091
147	0xbb171bac	-0.0023057265
148	0xbe153220	-0.14569902
149	0xbe899ffc	-0.2687987
150	0x3dd8cbd1	0.1058575
151	0x3dda4343	0.106573604
152	0xbdd1f7c0	-0.10252333
153	0xbd9f4188	-0.07776171
154	0xbc2ab450	-0.010418966
155	0xbcb03fb4	-0.021514751
156	0x3e55cdbe	0.20879266
157	0x3d793ae4	0.060847178
158	0x3dde191c	0.10844633
159	0x3d765a0d	0.060144473
160	0xbdcbeb97	-0.099570446
161	0xbdc3bb70	-0.09557235
162	0xbd83f6a8	-0.0644353
163	0xbd352f66	-0.044234656
164	0x3d60fd79	0.05492923
165	0xbe22c4ff	-0.1589546
166	0xbd5d82e3	-0.0540799
167	0x3ccdbe87	0.025115265
168	0x3d8e17f7	0.06938165
169	0x3e22c539	0.15895547
170	0x3e552c67	0.2081772
171	0x3a5229fc	0.00080171204
172	0x3c2963c0	0.010338724
173	0x3e025cde	0.12730739
174	0xbab1df92	-0.0013570657
175	0x3dd7aed5	0.105313934
176	0x3dadb3a4	0.08481529
177	0xbd54fc37	-0.051998343
178	0xbd94ce5d	-0.07265923
179	0xbab6ef27	-0.0013956771
180	0x3d885833	0.06657448
181	0x3d362fdb	0.044479232
182	0x3d92b134	0.07162705
183	0xbd8c7822	-0.06858851
184	0xbbab23c2	-0.0052227685
185	0x3cb11ca8	0.02162011
186	0xbd9f114e	-0.077669725
187	0xbdb7a5e2	-0.089671865
188	0xbe253858	-0.16134775
189	0x3d16a96c	0.036782667
190	0xbd7b0c8b	-0.06129126
191	0xbda38e79	-0.07986159
192	0x3c68a7ae	0.014200134
193	0x3e6fcaba	0.23417178
194	0xbd29fa05	-0.041498203
195	0xbe537fe4	-0.20654255
196	0x3c9614c2	0.018320445
197	0x3bfa4323	0.007637398
198	0xbc74f1c2	-0.014950218
199	0xbd7996a0	-0.060934663
200	0xbdabc4da	-0.08387156
201	0x3d99c6d0	0.075086236
202	0xbe1d7861	-0.15377952
203	0xbd576d48	-0.052594453
204	0x3db88373	0.09009447
205	0xbd2b93a0	-0.041888833
206	0x3e06b98c	0.13156718
207	0x3ddab693	0.106793545
208	0x3de87c62	0.11351849
209	0xbdcbfa91	-0.09959901
210	0xbe41a171	-0.18909241
211	0xbc997bb1	-0.018735738
212	0x3decb26c	0.11557469
213	0x3e85b09c	0.26111305
214	0x3dc6f791	0.09715188
215	0xbd9f1f49	-0.07769639
216	0x3e2695dc	0.16268104
217	0xbddbf34b	-0.10739764
218	0xbd7221b0	-0.05911416
219	0xbb1d882c	-0.0024037464
220	0xbdd1591d	-0.10222075
221	0xbd312289	-0.043245826
222	0xbdec92f4	-0.115514666
223	0x3c3f35e9	0.011670568
224	0xbbf54f90	-0.007486291
225	0x3e1ccfe3	0.15313677
226	0xbd69a92b	-0.057046097
227	0xbbd6a1ac	-0.0065500345
228	0xbda5b809	-0.080917425
229	0xbe3d14f2	-0.18465021
230	0x3e029d65	0.12755354
231	0x3d1f6343	0.038913023
232	0xbcc27c48	-0.023740903
233	0xbceefc5d	-0.02917307
234	0x3d5b2cac	0.0535094
235	0x3da9752c	0.08274302
236	0xbbc06e92	-0.005872556
237	0x3df1fdc4	0.1181598
238	0x3d0e15c8	0.03468874
239	0xbd44eca7	-0.04807725
240	0x3de8f0ed	0.11374078
241	0x3d3b9dc6	0.04580476
242	0x3dd5b1d9	0.104343124
243	0x3d305987	0.04305413
244	0x3e00bfbc	0.12573141
245	0xbcfa7f8c	-0.030578397
246	0x3e36d59e	0.17854926
247	0x3dcd9c6e	0.10039602
248	0x3e0dc793	0.13845663
249	0x3d89494c	0.067034334
250	0x3e2cd0f2	0.16876581
251	0xbc7996d0	-0.01523371
252	0xbd80af5e	-0.06283449
253	0x3bfdc3f1	0.0077443053
254	0xbd3fee0c	-0.04685788
255	0x3df71404	0.120643646

fc2.bias f4 [32]
0	0x3d02e0f2	0.031952806
1	0xbe099db5	-0.13439067
2	0x3e64eee4	0.22356755
3	0x3dc6a616	0.09699647
4	0x3e4f51dc	0.2024607
5	0x3e2adc67	0.1668564
6	0x3e3bdf40	0.18346882
7	0xbd3b694c	-0.045754716
8	0x3e1cb81c	0.15304607
9	0x3d39c807	0.045356777
10	0x3dd9156f	0.10599791
11	0xbd1864a1	-0.037205342
12	0xbd9942b6	-0.07483427
13	0x3cb37d16	0.021910232
14	0x3dad6090	0.084656835
15	0x3dd1cd04	0.10244182
16	0x3e178c9a	0.14799729
17	0xbdbbca57	-0.09169453
18	0x3d237efc	0.039916024
19	0x3da86686	0.0822268
20	0x3e92d9cf	0.286818
21	0xbe20849e	-0.1567559
22	0x3db1b27c	0.08676621
23	0xbd1ff750	-0.039054215
24	0x3d01296b	0.03153364
25	0x3d9bc976	0.07606785
26	0x3e18d2e1	0.14924194
27	0x3e06be0b	0.13158433
28	0x3d30b263	0.043138873
29	0x3e56d024	0.20977837
30	0x3e6e90e8	0.23297465
31	0x3dcc9a77	0.09990399

fc3.weight f4 [16, 32]
0	0x3dbeddd5	0.09319655
1	0x3d6f4037	0.05841085
2	0x3e57d4d2	0.21077278
3	0xbec8ce20	-0.3921976
4	0x3e3790ed	0.17926379
5	0x3e8bff8d	0.27343407
6	0xbe240e55	-0.16021092
7	0xbdeae5e2	-0.11469628
8	0x3e5dede7	0.21672784
9	0xbe934aa8	-0.28767896
10	0x3e830bd3	0.2559496
11	0x3c9c7724	0.01909978
12	0xbd81dfc3	-0.06341507
13	0x3e259ad9	0.16172351
14	0xbd14ce06	-0.03632929
15	0x3e1ad9bd	0.15122123
16	0x3d027da1	0.03185809
17	0x3d84513a	0.06460805
18	0xbc0f7be5	-0.008757566
19	0xbd540252	-0.051760025
20	0xbe32b694	-0.1745246
21	0x3e311ab5	0.17295344
22	0xbd33341d	-0.04375087
23	0xbd423673	-0.047415208
24	0xbe821a97	-0.2541091
25	0xbdd57ecf	-0.104245774
26	0x3df029d8	0.11726731
27	0x3bc3f77c	0.00598043
28	0x3cd31936	0.025768857
29	0x3e8f7709	0.28020504
30	0x3df9809a	0.12182732
31	0xbe360157	-0.17773949
32	0x3d72ad49	0.05924729
33	0x3dc9f1cb	0.098605715
34	0x3dcf780d	0.1013032
35	0x3dce9468	0.100869
36	0xbcdf4526	-0.027254652
37	0xbdb94e7f	-0.09048175
38	0x3e07de6c	0.13268441
39	0x3d29690f	0.041359957
40	0x3d87328f	0.0660144
41	0x3edd5e3b	0.43235955
42	0xbdbbbc72	-0.091668025
43	0xbce50541	-0.027956607
44	0x3e22549e	0.15852591
45	0xbce51788	-0.027965322
46	0xbde0eae3	-0.10982301
47	0x3e3981fd	0.18115993
48	0x3e56e657	0.20986305
49	0x3d3ea143	0.04654051
50	0x3d8e418e	0.06946097
51	0xbb0ac616	-0.0021175197
52	0x3db8c953	0.090227745
53	0x3dcf45c4	0.101207286
54	0x3e34e45d	0.17665239
55	0xbe5ef94d	-0.21774788
56	0x3e89ae7b	0.2689093
57	0x3e35299f	0.17691658
58	0x3dc2fd66	0.09520988
59	0xbd491002	-0.049087532
60	0xbdb7ad2a	-0.08968575
61	0xbe4c1182	-0.19928554
62	0x39d865a1	0.0004127445
63	0x3e0739a7	0.13205586
64	0x3d6fab42	0.058512934
65	0xbd7dd1eb	-0.06196777
66	0xbdf53076	-0.11972134
67	0x3c4e3a8c	0.012587201
68	0xbd07cff0	-0.03315729
69	0xbe24a6e6	-0.16079292
70	0xbda27eb6	-0.079343244
71	0xbdfb331b	-0.12265607
72	0xbcc783d3	-0.02435485
73	0xbdf0b001	-0.1175232
74	0xbdd40bbf	-0.10353803
75	0x3dcf3b2a	0.101187065
76	0x3d8a0c6e	0.06740652
77	0xbcbc158d	-0.022959495
78	0xbe0fc722	-0.14040807
79	0x3e00bf8d	0.12573071
80	0xbe0fc7c9	-0.14041056
81	0x3e1bc06b	0.1521012
82	0x3e04387d	0.12912174
83	0xb8dd74fe	-0.00010559893
84	0xba12a36f	-0.00055938115
85	0xbe0f7108	-0.14007962
86	0x3e2bb8ab	0.16769664
87	0xbdb25cab	-0.08709081
88	0xbe023180	-0.12714195
89	0xbc890ebb	-0.016730657
90	0xbd7440e6	-0.059632204
91	0xbcdf5b37	-0.027265174
92	0xbe012949	-0.12613405
93	0xbdc16916	-0.09443872
94	0xbd8078e1	-0.06273056
95	0xbddc7395	-0.10764233
96	0xbc1ec647	-0.009690828
97	0xbe19ae73	-0.15007953
98	0xbc99bb34	-0.018766023
99	0x3e76326e	0.24042675
100	0xbd23a54a	-0.039952554
101	0xbe539d1d	-0.20665403
102	0x3de9d72b	0.11417993
103	0x3d887b2d	0.06664119
104	0xbe9e3be5	-0.3090507
105	0x3e1d8845	0.15384014
106	0xbe2c58f2	-0.16830805
107	0xbd15d6a3	-0.036581647
108	0xbe1dcad4	-0.15409404
109	0xbe1f8eeb	-0.15581863
110	0x3d09a5fb	0.033605557
111	0xbc2493d3	-0.01004501
112	0x3de43ba0	0.11144185
113	0xbdee8815	-0.11647049
114	0x3e839760	0.25701427
115	0xbc6a8d0d	-0.014315856
116	0x3ea5e38b	0.32400164
117	0xbe8024ac	-0.25027978
118	0x3dc7de39	0.097591825
119	0xbf0d807c	-0.55274177
120	0x3e7bd761	0.2459388
121	0x3eb40317	0.35158607
122	0xbd8e3650	-0.06943953
123	0x3e0ff24c	0.14057273
124	0x3dad8b5a	0.08473845
125	0xbe6e0fb8	-0.23248184
126	0x3e69706e	0.22796795
127	0x3e74fd2e	0.23924705
128	0x3eb53b26	0.3539669
129	0x3e24e92a	0.1610457
130	0x3deefead	0.11669669
131	0x3e041ed0	0.12902379
132	0x3e38be7f	0.18041418
133	0xbddeab92	-0.10872568
134	0x3e42da66	0.19028625
135	0x3daa1907	0.08305555
136	0x3d8816f8	0.06645006
137	0x3e19dd71	0.1502588
138	0x3e4a81c6	0.19776067
139	0x3cdc6034	0.026901342
140	0xbe15ee3d	-0.14641662
141	0xbd9391ef	-0.07205569
142	0x3c19df10	0.009391561
143	0xbe1c14f8	-0.15242374
144	0xbc475c23	-0.012167963
145	0xbe021d5d	-0.12706514
146	0xbe4c9f51	-0.1998265
147	0xbdd1768f	-0.102276914
148	0xbd7bb9b8	-0.061456412
149	0xbe9f9677	-0.31169483
150	0x3d2cddf2	0.04220385
151	0x3e779200	0.24176788
152	0x3e91d274	0.28480875
153	0x3e733823	0.23751883
154	0x3e0abd72	0.1354883
155	0xbcfbc460	-0.030733287
156	0xbcaf57c2	-0.02140415
157	0xbe94a912	-0.2903524
158	0x3df79b1d	0.120901324
159	0x3e3d17a3	0.18466048
160	0x3e14927a	0.14509001
161	0xbe55876c	-0.2085244
162	0xbdd18305	-0.10230068
163	0x3e02baa3	0.12766509
164	0x3dd9f954	0.10643259
165	0x3e39c8f3	0.18143062
166	0x3e080cd7	0.13286148
167	0x3e39f801	0.18161012
168	0x3e0b8126	0.13623485
169	0x3e789a57	0.24277626
170	0x3dd8f043	0.10592701
171	0x3e00c410	0.12574792
172	0x3d977805	0.07395939
173	0x3e0fd83f	0.14047335
174	0x3da531de	0.08066152
175	0xbdf5c1c9	-0.11999852
176	0x3e08925b	0.1333708
177	0xbcf9587e	-0.030437704
178	0xbda406da	-0.08009119
179	0xbdb048cb	-0.08607634
180	0xbc8cac24	-0.017171927
181	0xbe23798d	-0.15964337
182	0xbdfe5ed5	-0.124204315
183	0x3e4d32f6	0.20038971
184	0x3e18ba04	0.1491471
185	0x3e219e11	0.15782954
186	0x3c057099	0.008144521
187	0xbd123938	-0.0356991
188	0xbdcb5135	-0.099275984
189	0xbdf9425b	-0.121708594
190	0x3e2291ad	0.15875883
191	0x3c478742	0.012178244
192	0x3e47bdc3	0.19505982
193	0xbdb6d86a	-0.089279965
194	0xbd83c828	-0.06434661
195	0xbd0c6406	-0.034275077
196	0x3eb26c0f	0.34848067
197	0xbddbbe1e	-0.10729621
198	0xbd07e4fe	-0.03317737
199	0x3e7e4bb8	0.24833572
200	0xbde67bbe	-0.11254071
201	0x3ebcf046	0.36902064
202	0x3d2e6066	0.0425724
203	0x3e3c11ca	0.18366161
204	0x3e4f7dbe	0.2026281
205	0x3e5a1e75	0.21300681
206	0xbe165d72	-0.14684084
207	0x3d00ce22	0.031446584
208	0xbd08a5c7	-0.033361223
209	0x3dfd9b1d	0.12383101
210	0x3ca71383	0.020395046
211	0x3e2a7629	0.16646637
212	0xbe5144fd	-0.20436473
213	0xbd9783ab	-0.073981605
214	0x3de9da7d	0.114186265
215	0x3e671274	0.22565633
216	0xbda92e4e	-0.08260785
217	0x3d1c859d	0.03821336
218	0xbcf8c4f2	-0.030367348
219	0xbe9c62ec	-0.3054422
220	0x3e0c68af	0.13711809
221	0x3df39d6d	0.11895261
222	0x3c7f0504	0.015565161
223	0x3e22e51c	0.15907711
224	0x3ea27c47	0.3173544
225	0x3c396360	0.011315197
226	0xbe4f428e	-0.20240232
227	0x3d3a10de	0.045426242
228	0x3d4e2ce3	0.050335776
229	0x3e0be997	0.13663326
230	0xbdaa45bf	-0.08314084
231	0x3e48c05d	0.19604631
232	0x3e7ca9ec	0.24674195
233	0x3d6bb9ff	0.057550427
234	0x3e59d1f1	0.21271493
235	0xbdfd96b5	-0.12382261
236	0xbd991aa7	-0.07475787
237	0xbdd35162	-0.10318257
238	0x3b808cc0	0.0039230287
239	0x3da429c0	0.08015776
240	0x3e71369e	0.23555991
241	0x3e224329	0.15845932
242	0xbe6f3a5b	-0.23362105
243	0xbe27d7af	-0.1639087
244	0xbd896f1c	-0.067106456
245	0x3da768f7	0.08174317
246	0xbde1abba	-0.11019082
247	0x3e2eb98e	0.17062971
248	0x3e13435a	0.14381161
249	0xbdbd228d	-0.09235106
250	0x3e064920	0.13113832
251	0xbda80982	-0.082049385
252	0x3e2d5fed	0.16931124
253	0xbe707e1b	-0.23485605
254	0xbc0a72a4	-0.008450184
255	0x3d59069b	0.052984815

fc3.bias f4 [16]
0	0x3e6efb7f	0.23338126
1	0x3d677377	0.0565066
2	0xbe26acdd	-0.1627688
3	0x3dd5f66f	0.10447394
4	0xbd9962c5	-0.07489542
5	0x3df882cc	0.121343225
6	0x3bd1112f	0.0063802223
7	0xbe8ab853	-0.27093753
8	0x3dae0f55	0.08499018
9	0x3e65ec05	0.22453316
10	0xbdf0b0cf	-0.117524736
11	0x3d5164d3	0.051121544
12	0xbbca71a4	-0.006178098
13	0x3ea8c29a	0.3296097
14	0x3e3d7c67	0.18504487
15	0x3e0cf023	0.1376348

fc4.weight f4 [8, 16]
0	0x3e3c6952	0.18399552
1	0xbe26baac	-0.16282147
2	0x3e1e65f6	0.15468583
3	0x3dcb539d	0.09928057
4	0x3e146ca5	0.1449457
5	0xbe51856f	-0.20461057
6	0xbe28f0e7	-0.16498147
7	0x3e5bf0d3	0.21478586
8	0xbd94a840	-0.07258654
9	0xbe45a18b	-0.19299905
10	0xbe2ea240	-0.17054081
11	0x3dcfe245	0.10150579
12	0xbd88abff	-0.06673431
13	0x3d445cec	0.04794018
14	0x3d3dbb56	0.046321236
15	0x3e1a4a24	0.15067345
16	0xbe189fbb	-0.14904682
17	0xbce909a6	-0.028446984
18	0x3d4f34e0	0.050587535
19	0x3e4f9e39	0.20275201
20	0x3c00768a	0.007840762
21	0x3e6bc0a9	0.23022713
22	0xbee50bf4	-0.44735682
23	0xbe94764e	-0.2899651
24	0x3e5df708	0.21676266
25	0xbe49aebc	-0.19695562
26	0xbe7db06e	-0.24774334
27	0xbd87af03	-0.06625178
28	0x3e42f43d	0.19038482
29	0x3e6d8890	0.23196626
30	0xbcc1ae55	-0.023642698
31	0x3dc8f6ea	0.0981272
32	0xbd1663ce	-0.036716275
33	0xbdb35ba9	-0.08757717
34	0x3e4463d7	0.19178711
35	0x3f055dda	0.5209633
36	0xbe02abf6	-0.1276091
37	0xbcd55568	-0.026041701
38	0xbeebc3db	-0.46047863
39	0xbe11d8ac	-0.1424281
40	0xbd17a567	-0.037022974
41	0x3eb3c2dc	0.35109603
42	0xbd6725a0	-0.056432366
43	0x3e1011ef	0.14069341
44	0x3c233e09	0.009963521
45	0x3e1adc65	0.15123136
46	0xbdab58f7	-0.08366578
47	0xbe4c359b	-0.19942324
48	0xbe6378b4	-0.22214013
49	0x3e8116f9	0.2521284
50	0xbdc210b8	-0.09475845
51	0x3e8e264a	0.27763587
52	0x3ec2d2b4	0.3805138
53	0x3d616c07	0.055034664
54	0x3e2c9a8f	0.16855834
55	0xbd9e8ca5	-0.077416696
56	0xbe51f20e	-0.20502493
57	0xbe9fc279	-0.31203058
58	0x3e24ed10	0.16106057
59	0xbba0dacc	-0.004908895
60	0x3d050970	0.032479703
61	0xbfa7b33d	-1.3101574
62	0xbc4bb290	-0.012432709
63	0xbe28f298	-0.16498792
64	0x3e08ae36	0.13347706
65	0xbe8b4bfc	-0.2720641
66	0xbe643737	-0.22286688
67	0x3e5e784c	0.21725577
68	0xbf19b624	-0.6004355
69	0xbde58cae	-0.11208473
70	0xbb8d11cc	-0.0043051
71	0xbe521cd4	-0.2051881
72	0xbeb39f51	-0.35082486
73	0x3e5d827e	0.2163181
74	0x3d0a598a	0.033776797
75	0x3dbaddf7	0.09124368
76	0xbe5d8ffc	-0.21636957
77	0x3e2ab9d7	0.16672455
78	0x3de602d3	0.112310074
79	0x3e510b92	0.2041457
80	0x3e8d26c4	0.27568638
81	0xbe697aa3	-0.22800688
82	0xbe01eb7b	-0.12687485
83	0xbe67e1a3	-0.22644667
84	0x3eaf19da	0.3419941
85	0x3e85e76e	0.2615313
86	0xbd35100e	-0.044204764
87	0xbd82ee3b	-0.06393095
88	0x3ea89d84	0.32932675
89	0x3eb5b3a6	0.35488623
90	0xbea9b962	-0.33149248
91	0x3c867c75	0.016416768
92	0x3e6b15ef	0.22957586
93	0xbdcce9e9	-0.10005552
94	0x3ec2234d	0.37917557
95	0xbdbed643	-0.09318211
96	0xbf093c05	-0.5360721
97	0x3e76e7bd	0.24111839
98	0xbd3bff18	-0.045897573
99	0x3ee5ecba	0.4490717
100	0x3dbc9136	0.09207384
101	0x3e54fefb	0.20800392
102	0x3d759401	0.0599556
103	0xbf82c458	-1.0216169
104	0xbe4dd7cc	-0.20101851
105	0x3dac74d7	0.08420723
106	0x3e989a75	0.2980534
107	0xbf412fc9	-0.7546354
108	0xbd986cb8	-0.074426115
109	0xbdd577d6	-0.104232475
110	0x3eada31e	0.3391351
111	0xbd84304c	-0.064545244
112	0xbe6aa6d6	-0.22915205
113	0xbe60d834	-0.21957475
114	0x3e4355ec	0.19075745
115	0x3e091a83	0.1338902
116	0x3db1121d	0.08646033
117	0x3df25fa3	0.118346475
118	0xbc5e0f40	-0.013553441
119	0x3e4cf5fa	0.20015708
120	0xbd895943	-0.067064784
121	0xbe5cc277	-0.21558557
122	0xbc0ea200	-0.008705616
123	0xbd884c18	-0.06655139
124	0xbc1bd598	-0.009511374
125	0x3d308698	0.04309711
126	0xbdfcea10	-0.123493314
127	0x3d9bf778	0.0761556

fc4.bias f4 [8]
0	0xbe6a1d72	-0.22862795
1	0x3d7cbfcf	0.06170636
2	0x3e7463cf	0.23866199
3	0x3d23d4ae	0.03999775
4	0x3e27f324	0.16401345
5	0x3dca0f70	0.09866226
6	0x3e349d64	0.17638165
7	0xbd88890c	-0.066667646

fc5.weight f4 [3, 8]
0	0x3b84c1ed	0.004051438
1	0x3e056a73	0.13028888
2	0x3e9095cd	0.2823929
3	0x3ee19a80	0.44063187
4	0xbd3d2aed	-0.046183515
5	0x3e8c52ad	0.27406827
6	0xbeb26121	-0.34839728
7	0x3e861ca5	0.2619373
8	0x3d80de06	0.062923476
9	0x3e8181f0	0.25294447
10	0x3e4ba9c1	0.19888975
11	0xbe5d1260	-0.21589041
12	0xbcf5184c	-0.029918812
13	0xbbdb1faa	-0.0066871243
14	0x3eb43a64	0.352008
15	0xbd627390	-0.05528599
16	0xbea32491	-0.31863835
17	0xbe36c8bf	-0.17850016
18	0xbe96b6f0	-0.29436445
19	0x3f3a48f2	0.72767556
20	0xbefe8373	-0.49709663
21	0x3e88a301	0.26686862
22	0xbed702de	-0.41994375
23	0xbe07de98	-0.13268507

fc5.bias f4 [3]
0	0xbe21f336	-0.15815434
1	0xbd0dc258	-0.03460917
2	0x3f041b97	0.516046

exp_avg f4 [64, 4]
0	0x34dfb778	4.1670478e-07
1	0x381fbc7f	3.8084105e-05
2	0x37ec27e9	2.8151977e-05
3	0x380b4365	3.320295e-05
4	0x37857b23	1.5912176e-05
5	0xb8f08978	-0.00011469697
6	0xb7e562a2	-2.7344857e-05
7	0xb78185e6	-1.544035e-05
8	0xb7a01f16	-1.9087962e-05
9	0x36eb58e7	7.0138954e-06
10	0x38b3a42f	8.565967e-05
11	0xb75fd614	-1.334168e-05
12	0x38f0ef8b	0.0001148871
13	0xb6c5f902	-5.900046e-06
14	0xb99ab929	-0.00029511124
15	0xb85e8a72	-5.305786e-05
16	0xb8890934	-6.534383e-05
17	0x3a269a7f	0.0006355419
18	0xba31c819	-0.0006781831
19	0x385a4010	5.2034913e-05
20	0x34b96456	3.453194e-07
21	0xb8399f12	-4.4255583e-05
22	0x39addc13	0.000331611
23	0xb3da3c3b	-1.0162372e-07
24	0x36e3183f	6.76795e-06
25	0x37b17e94	2.1158987e-05
26	0xb86f55ed	-5.7062065e-05
27	0xb8627078	-5.3987344e-05
28	0xb71dfd73	-9.41694e-06
29	0xb917b2ca	-0.00014467086
30	0xb885e93b	-6.385377e-05
31	0x38443f45	4.6788966e-05
32	0x3791c510	1.7377111e-05
33	0xb9817907	-0.0002469497
34	0x38d565f6	0.00010175623
35	0xb83300c3	-4.2677635e-05
36	0xb5d58598	-1.5908618e-06
37	0xb83a153f	-4.4365643e-05
38	0x398fcd8d	0.00027428233
39	0x362a2f6a	2.5359573e-06
40	0xb8806f9f	-6.124307e-05
41	0x3921810e	0.00015402233
42	0xb8e4bbd5	-0.00010906874
43	0xb94eac02	-0.00019709769
44	0x00000000	0.0
45	0x00000000	0.0
46	0x00000000	0.0
47	0x00000000	0.0
48	0x371f21fd	9.485052e-06
49	0xb95a666a	-0.00020828252
50	0x39a1bd78	0.00030849478
51	0xb80bc4c4	-3.3323435e-05
52	0x378121ba	1.5393704e-05
53	0x38757c82	5.852851e-05
54	0xb9b6307e	-0.00034749875
55	0x378b6530	1.661721e-05
56	0x36a9ca8a	5.060171e-06
57	0xb84e3426	-4.9162794e-05
58	0xb9dbb04e	-0.00041902292
59	0xb87b670e	-5.993904e-05
60	0xb4c9395a	-3.7480896e-07
61	0xb8e5ed23	-0.00010963741
62	0x3925b27e	0.0001580212
63	0xb6bf85ce	-5.7078205e-06
64	0x36ffc392	7.6223596e-06
65	0x37c1e286	2.3112876e-05
66	0xb8c8bffe	-9.5725045e-05
67	0x37142402	8.829871e-06
68	0x36fdf95a	7.569016e-06
69	0x387442b2	5.8236248e-05
70	0xb9a1c2ab	-0.00030853352
71	0x37e03153	2.672585e-05
72	0x3718dcbb	9.111299e-06
73	0x3914e8af	0.00014201061
74	0xb888bd37	-6.520229e-05
75	0xb79da36e	-1.8791961e-05
76	0xb6405c85	-2.8664083e-06
77	0x38067d4a	3.2064774e-05
78	0x388c831d	6.700142e-05
79	0xb784ef06	-1.584693e-05
80	0x36fcb208	7.530911e-06
81	0xb94a5b52	-0.0001929824
82	0x39ec93e6	0.0004512362
83	0x38951ac7	7.109861e-05
84	0x388657a2	6.405941e-05
85	0xb9c35c31	-0.00037261986
86	0xb89ae7ea	-7.3864896e-05
87	0x3904a1c2	0.0001264876
88	0xb7ed9ba5	-2.832508e-05
89	0x38a41846	7.824651e-05
90	0x38d881ac	0.00010323836
91	0xb8652eac	-5.464132e-05
92	0x368b7a89	4.156788e-06
93	0x38e3dd25	0.00010865395
94	0xb9d9ccc3	-0.00041542025
95	0x35576a8d	8.0248793e-07
96	0x39159b74	0.00014267658
97	0xb8e2c726	-0.00010813614
98	0x398b082f	0.00026518243
99	0x38b95dd1	8.838962e-05
100	0x37278f53	9.987346e-06
101	0x38e9e3f0	0.000111527625
102	0x38b1762c	8.462029e-05
103	0xb88215fa	-6.2029765e-05
104	0x00000000	0.0
105	0x00000000	0.0
106	0x00000000	0.0
107	0x00000000	0.0
108	0x350739a9	5.0375326e-07
109	0x368c7ab4	4.1866097e-06
110	0x36ddc2e8	6.6090033e-06
111	0xb4da3d99	-4.0650482e-07
112	0xb8aa45ea	-8.119254e-05
113	0x3808000b	3.2424967e-05
114	0xb97f33d9	-0.0002433801
115	0xb96795b3	-0.00022085644
116	0x37bfda73	2.2870698e-05
117	0x39067941	0.00012824406
118	0xba1f3964	-0.00060739205
119	0x37cf9528	2.474578e-05
120	0x3790db3d	1.7268228e-05
121	0x38f53788	0.00011692854
122	0xb95647d2	-0.00020435386
123	0x363ecc15	2.8430998e-06
124	0xb70a1a10	-8.231509e-06
125	0x38df8f92	0.00010660211
126	0xb914216f	-0.00014126835
127	0x379b0b04	1.848257e-05
128	0xb7082eed	-8.117157e-06
129	0xb7d3f5df	-2.5267653e-05
130	0xb7d0c5d4	-2.4887653e-05
131	0xb5a7aea4	-1.2493297e-06
132	0xb3c0f521	-8.9852854e-08
133	0xb937efa1	-0.00017541509
134	0xb7f1ba44	-2.8816175e-05
135	0x38b4cc60	8.621137e-05
136	0x36935696	4.3910213e-06
137	0x380a7cfa	3.3018157e-05
138	0x3829a1a2	4.0443272e-05
139	0x372d1ba7	1.0318042e-05
140	0xb74a9e5e	-1.2077011e-05
141	0x39011302	0.0001230948
142	0xb85f8ff6	-5.3301417e-05
143	0x36819c92	3.8627268e-06
144	0xb6fa0efa	-7.452324e-06
145	0xb7e84063	-2.7686538e-05
146	0x39a285af	0.0003099865
147	0xb73693d7	-1.0882467e-05
148	0x362f9dd2	2.6168896e-06
149	0xb7f03a62	-2.8637416e-05
150	0xb7634506	-1.3546325e-05
151	0x367afad4	3.7398904e-06
152	0x38adebe3	8.29322e-05
153	0xb9d31d50	-0.00040266896
154	0xb770d215	-1.4354028e-05
155	0x390d1773	0.00013455543
156	0xb6213f8f	-2.4027865e-06
157	0xb7ba7340	-2.2226595e-05
158	0xb7d5a367	-2.5467669e-05
159	0x3894773f	7.079401e-05
160	0xb623cc51	-2.440782e-06
161	0x38f36291	0.000116055024
162	0xb87af5b1	-5.9833463e-05
163	0xb85ae774	-5.2190808e-05
164	0xb860b99f	-5.3578635e-05
165	0x395ad94f	0.00020871054
166	0xb81a18da	-3.6739606e-05
167	0xb8a7fa20	-8.00977e-05
168	0xb76d9aa3	-1.4162305e-05
169	0x38fc0ad5	0.00012018314
170	0xb9f6e942	-0.00047094567
171	0xb7eaca9e	-2.7989325e-05
172	0x35de9030	1.6582253e-06
173	0xb79f1552	-1.8964205e-05
174	0x361af02b	2.3087584e-06
175	0x38451418	4.6987174e-05
176	0x3820359b	3.8196897e-05
177	0xb9646905	-0.00021782897
178	0x3921656e	0.00015391942
179	0x3888de73	6.52642e-05
180	0x38020305	3.0997227e-05
181	0x3888dd80	6.526243e-05
182	0xb88ae417	-6.622838e-05
183	0x38e9353f	0.00011120224
184	0xb6b55e60	-5.405207e-06
185	0x37a2bbab	1.9399295e-05
186	0xb7b9c799	-2.2146663e-05
187	0xb88ca934	-6.707237e-05
188	0x366e5510	3.5514277e-06
189	0x38a9b3aa	8.092013e-05
190	0x392a67bd	0.00016251109
191	0xb88c87f2	-6.701042e-05
192	0xb87aab20	-5.9764017e-05
193	0x39c1a9e7	0.00036938416
194	0xb77f2461	-1.52076545e-05
195	0xb81554c5	-3.5603316e-05
196	0x3767233d	1.37768775e-05
197	0xb9862af7	-0.00025590483
198	0x38cc6395	9.7460266e-05
199	0x388895f9	6.51292e-05
200	0xb811ae00	-3.4732744e-05
201	0x38fa8cbc	0.00011947143
202	0xb8775c3a	-5.897528e-05
203	0x36436f6a	2.9122116e-06
204	0xb7ab3292	-2.0408337e-05
205	0x38e1ccbb	0.0001076697
206	0x38366541	4.348648e-05
207	0xb7e40a17	-2.7184416e-05
208	0xb611638b	-2.1664625e-06
209	0x38be1b9a	9.065047e-05
210	0xb8b5df54	-8.672351e-05
211	0xb6962b1f	-4.4753683e-06
212	0xb4ebed8e	-4.3945005e-07
213	0x397e0d7d	0.00024228352
214	0x35a5393b	1.2310114e-06
215	0xb9263ceb	-0.00015853687
216	0xb73588fa	-1.0820333e-05
217	0xb8c6e7d3	-9.484556e-05
218	0x38ae121c	8.30034e-05
219	0x3804d0f8	3.166587e-05
220	0x380bab38	3.3299642e-05
221	0xb9a2bc12	-0.0003103917
222	0x3986116e	0.00025571458
223	0x388273a5	6.2204235e-05
224	0x363b9afe	2.7955389e-06
225	0x378a803f	1.6510601e-05
226	0x39248b64	0.00015692186
227	0xb8237111	-3.896753e-05
228	0x378c142a	1.669869e-05
229	0xb78aced7	-1.65472e-05
230	0x38061746	3.1969765e-05
231	0x382d2fae	4.129082e-05
232	0x369de863	4.706018e-06
233	0xb8ae792a	-8.319535e-05
234	0xb8c716f3	-9.493334e-05
235	0x39041373	0.00012595746
236	0xb713513b	-8.780796e-06
237	0xb7f6ad86	-2.9406288e-05
238	0x393dd118	0.00018102338
239	0x33ac665e	8.0279946e-08
240	0x347b24ef	2.3389633e-07
241	0xb81329bd	-3.5086403e-05
242	0x3981edb3	0.00024781897
243	0xb4521256	-1.9564445e-07
244	0x37d89e71	2.5822987e-05
245	0x394a4dbb	0.00019293178
246	0xb9acdec0	-0.00032972358
247	0xb6c79b7e	-5.948764e-06
248	0x36346aa3	2.688416e-06
249	0x384f3ddc	4.9410257e-05
250	0x388b797a	6.650663e-05
251	0x36f537ad	7.3080505e-06
252	0x37e50c99	2.7304794e-05
253	0xb8bac9f5	-8.9067886e-05
254	0x393172e5	0.00016922837
255	0x38004805	3.058465e-05

exp_avg_sq f4 [64, 4]
0	0x34154be3	1.3904314e-07
1	0x36845caf	3.9446963e-06
2	0x3551e583	7.819255e-07
3	0x352db556	6.47114e-07
4	0x342c5640	1.6050126e-07
5	0x36b8456c	5.491709e-06
6	0x36048ae2	1.9750373e-06
7	0x3505f9cc	4.9909863e-07
8	0x31793267	3.626292e-09
9	0x34194a3b	1.427624e-07
10	0x36bb70f9	5.586186e-06
11	0x316b0d3b	3.4204521e-09
12	0x351af31c	5.772324e-07
13	0x37b531b7	2.1600032e-05
14	0x36a10870	4.799156e-06
15	0x3693102d	4.3828245e-06
16	0x35c74ca7	1.4848964e-06
17	0x387c67ab	6.017803e-05
18	0x38a603b8	7.9161895e-05
19	0x36b0cb88	5.268903e-06
20	0x2f019f7e	1.1789145e-10
21	0x34807769	2.392874e-07
22	0x37bdd30e	2.2628836e-05
23	0x30840411	9.60542e-10
24	0x33c897d8	9.340846e-08
25	0x3686f219	4.021695e-06
26	0x37667f78	1.3738747e-05
27	0x35056165	4.968809e-07
28	0x33982d6d	7.0863145e-08
29	0x361ec2cb	2.365722e-06
30	0x370785fd	8.077824e-06
31	0x349cc66d	2.9201638e-07
32	0x3467427a	2.1537736e-07
33	0x373e3cf5	1.1339075e-05
34	0x378ecb89	1.7022498e-05
35	0x358a73ba	1.0315482e-06
36	0x3089efaf	1.0036184e-09
37	0x3510c19e	5.392593e-07
38	0x37ed1d75	2.8266319e-05
39	0x31948c3e	4.3233106e-09
40	0x35b22062	1.3271458e-06
41	0x37ebae64	2.809539e-05
42	0x369ad9d9	4.6149185e-06
43	0x3702dfa2	7.800672e-06
44	0x00000000	0.0
45	0x00000000	0.0
46	0x00000000	0.0
47	0x00000000	0.0
48	0x34045497	1.2324232e-07
49	0x3702715a	7.7749955e-06
50	0x37c362f3	2.3291888e-05
51	0x35124c6d	5.450045e-07
52	0x31c35afe	5.6855916e-09
53	0x3590142a	1.0734705e-06
54	0x37ed21b8	2.8268303e-05
55	0x328dedff	1.6522788e-08
56	0x35a9aa8d	1.2641118e-06
57	0x380b9b25	3.3284672e-05
58	0x389c52d0	7.454085e-05
59	0x36935aeb	4.3915256e-06
60	0x32e04981	2.6110458e-08
61	0x35b80f9f	1.3713615e-06
62	0x37693410	1.3900004e-05
63	0x33ee7772	1.11044656e-07
64	0x30ab0016	1.2441912e-09
65	0x34477a49	1.8577806e-07
66	0x36438d60	2.9139555e-06
67	0x315cbb3d	3.2120646e-09
68	0x329b695a	1.8092283e-08
69	0x359dbb96	1.1752006e-06
70	0x38023e0e	3.105221e-05
71	0x32db241b	2.5511374e-08
72	0x325cabf5	1.2844784e-08
73	0x365adade	3.261193e-06
74	0x360c7cdd	2.0934306e-06
75	0x32edb233	2.7671467e-08
76	0x32d0696b	2.4262325e-08
77	0x3528dbf7	6.290497e-07
78	0x35c4d829	1.4666049e-06
79	0x33dd524b	1.03060835e-07
80	0x35875d47	1.0085431e-06
81	0x37b6af17	2.1777623e-05
82	0x3801844d	3.087921e-05
83	0x3622511a	2.4187088e-06
84	0x34773e8b	2.302642e-07
85	0x36caef2a	6.0479115e-06
86	0x3549a234	7.511437e-07
87	0x351c2366	5.816604e-07
88	0x33267a5c	3.8761172e-08
89	0x351782f7	5.644246e-07
90	0x362a2f0d	2.5359361e-06
91	0x33f9c7b7	1.1631294e-07
92	0x326c894d	1.3768227e-08
93	0x35b2d711	1.3324626e-06
94	0x3866065e	5.4842203e-05
95	0x324c163b	1.18794174e-08
96	0x32ad5b53	2.018138e-08
97	0x354bdc64	7.5944104e-07
98	0x37cb14cf	2.4209176e-05
99	0x32bded6b	2.2110461e-08
100	0x3331f6c4	4.1435456e-08
101	0x3525be64	6.1744345e-07
102	0x3588f4a0	1.0203985e-06
103	0x33d86e20	1.00783154e-07
104	0x00000000	0.0
105	0x00000000	0.0
106	0x00000000	0.0
107	0x00000000	0.0
108	0x3268450f	1.3519879e-08
109	0x3450ce41	1.9446544e-07
110	0x36152491	2.2224015e-06
111	0x3380b15d	5.992727e-08
112	0x34727609	2.2580947e-07
113	0x37b684a9	2.1757865e-05
114	0x3707ac79	8.086784e-06
115	0x35903b17	1.0746033e-06
116	0x3294770e	1.7283607e-08
117	0x3654cd45	3.1709944e-06
118	0x38abc07f	8.1897706e-05
119	0x335824e7	5.032498e-08
120	0x322ed58a	1.0176686e-08
121	0x3519a601	5.723851e-07
122	0x37981966	1.8131639e-05
123	0x31d2fff7	6.1409042e-09
124	0x34370815	1.7046143e-07
125	0x36a7c370	4.9997398e-06
126	0x373472c4	1.0755557e-05
127	0x351bdeb7	5.806609e-07
128	0x302864a9	6.126109e-10
129	0x3558d300	8.0773316e-07
130	0x35ad03ac	1.2890573e-06
131	0x3205c52f	7.786453e-09
132	0x342133f2	1.5013191e-07
133	0x36673858	3.4454479e-06
134	0x3594f1e3	1.1097258e-06
135	0x353e58eb	7.090991e-07
136	0x32185e77	8.869043e-09
137	0x348de89f	2.643255e-07
138	0x370a2ddd	8.236119e-06
139	0x31766c62	3.585932e-09
140	0x335b2117	5.1020006e-08
141	0x363da8a3	2.8261354e-06
142	0x35a78e63	1.248391e-06
143	0x3461a91c	2.101628e-07
144	0x2f959474	2.7208424e-10
145	0x3479765f	2.3232995e-07
146	0x37a9787e	2.0202478e-05
147	0x30aa242f	1.2379412e-09
148	0x2ef944bb	1.1335418e-10
149	0x3335baf9	4.2312397e-08
150	0x34a656c6	3.0983045e-07
151	0x2f9ce24c	2.8537028e-10
152	0x3498f377	2.848935e-07
153	0x371e399d	9.430948e-06
154	0x3610a5c3	2.1554158e-06
155	0x355c6db0	8.2116003e-07
156	0x349d737e	2.932756e-07
157	0x36f07803	7.1665286e-06
158	0x359e2e3c	1.1785373e-06
159	0x35ca5cd8	1.5077194e-06
160	0x320509d6	7.743855e-09
161	0x353ecd5c	7.1079353e-07
162	0x35204f4c	5.9720037e-07
163	0x32e48463	2.6602896e-08
164	0x347dfb4a	2.365388e-07
165	0x37095524	8.18566e-06
166	0x360bfac8	2.0858588e-06
167	0x35b55e62	1.351302e-06
168	0x32bf6fa0	2.2286088e-08
169	0x360aa002	2.065674e-06
170	0x38f1f7e8	0.00011537952
171	0x32a4bcac	1.917791e-08
172	0x33a91e61	7.875202e-08
173	0x363d2fd3	2.8191032e-06
174	0x36080e11	2.0273767e-06
175	0x35093f38	5.112847e-07
176	0x339bb695	7.2509614e-08
177	0x3614aaf5	2.2153229e-06
178	0x375705b5	1.2816327e-05
179	0x348b9273	2.5997323e-07
180	0x33cea1e8	9.622073e-08
181	0x35ee24a2	1.7743043e-06
182	0x349e6124	2.9500472e-07
183	0x349dab18	2.9368016e-07
184	0x33cb6dfe	9.4729316e-08
185	0x36663324	3.4302439e-06
186	0x35b0e39c	1.3179265e-06
187	0x351f5334	5.935319e-07
188	0x3417200b	1.4074628e-07
189	0x364cfd00	3.0545634e-06
190	0x36d2e90f	6.2856193e-06
191	0x356eec52	8.90058e-07
192	0x349bf92c	2.9052296e-07
193	0x36e3111b	6.7671185e-06
194	0x36244b1f	2.448163e-06
195	0x355bfb72	8.194976e-07
196	0x343837eb	1.7156678e-07
197	0x36971fcb	4.503852e-06
198	0x36c1578e	5.762041e-06
199	0x350acf36	5.171054e-07
200	0x33f1730d	1.12433646e-07
201	0x36231ac0	2.4304463e-06
202	0x3761d387	1.3460295e-05
203	0x34db3d19	4.0836383e-07
204	0x31a1b8ee	4.7067408e-09
205	0x34826468	2.4287442e-07
206	0x352307b0	6.073342e-07
207	0x3167718d	3.367947e-09
208	0x33bb8fbe	8.7340126e-08
209	0x360135a8	1.925373e-06
210	0x37757aa8	1.4631696e-05
211	0x3490edf6	2.699523e-07
212	0x34a54161	3.0781214e-07
213	0x36b317d0	5.337388e-06
214	0x366fbeae	3.5724765e-06
215	0x35d16f4a	1.5604103e-06
216	0x339f5773	7.4199214e-08
217	0x35f8585e	1.8503158e-06
218	0x36817882	3.8585285e-06
219	0x34bbf4fc	3.5009714e-07
220	0x33b57a9e	8.450773e-08
221	0x367e6086	3.7905133e-06
222	0x3807ea31	3.2404616e-05
223	0x34a868a9	3.136859e-07
224	0x337b4ae3	5.85086e-08
225	0x35d76019	1.6046716e-06
226	0x36f039d5	7.15929e-06
227	0x348f0256	2.6637525e-07
228	0x33aecbaf	8.139556e-08
229	0x361e1468	2.3555713e-06
230	0x35335ccd	6.681774e-07
231	0x34e928e0	4.3429372e-07
232	0x34b2c959	3.3301583e-07
233	0x36fbc6bb	7.503518e-06
234	0x35553f14	7.9440474e-07
235	0x35e31188	1.691792e-06
236	0x30a7e328	1.2215411e-09
237	0x349ec8fc	2.957603e-07
238	0x374b45b6	1.2115974e-05
239	0x31677a6b	3.368451e-09
240	0x2f77afd6	2.2526989e-10
241	0x343113e1	1.6491641e-07
242	0x3787211f	1.6108677e-05
243	0x3087e8c2	9.888697e-10
244	0x3304b8e4	3.0901802e-08
245	0x359f05c3	1.18481e-06
246	0x37cbb0cc	2.4281813e-05
247	0x32aaf88f	1.9903636e-08
248	0x3254d780	1.2389023e-08
249	0x3428d090	1.5722094e-07
250	0x354f03a6	7.711882e-07
251	0x31d65f3c	6.2390466e-09
252	0x330624ef	3.1232897e-08
253	0x35a1c261	1.2052006e-06
254	0x36e327d2	6.769763e-06
255	0x34336710	1.6708168e-07

exp_avg f4 [64]
0	0xb7f8eefb	-2.9675188e-05
1	0x3769100d	1.3891619e-05
2	0xb83b417d	-4.4645265e-05
3	0xb8dcd450	-0.00010529964
4	0x3890db85	6.907344e-05
5	0xb5932657	-1.0963512e-06
6	0xb6d563fd	-6.359535e-06
7	0xb79fe19f	-1.905934e-05
8	0xb898b92b	-7.282415e-05
9	0xb61cc99c	-2.3363164e-06
10	0x396fcd2d	0.0002286925
11	0x00000000	0.0
12	0xb8ac4ca8	-8.2158775e-05
13	0x38045bcd	3.155675e-05
14	0xb8890e52	-6.5353364e-05
15	0xb7bfae8b	-2.2850252e-05
16	0x36b15f6b	5.286119e-06
17	0x38544689	5.061043e-05
18	0x38057475	3.181813e-05
19	0x36a9121d	5.038701e-06
20	0xb74e75a3	-1.2305946e-05
21	0xb8bbd956	-8.957337e-05
22	0x358d6f15	1.0537648e-06
23	0x37e731c6	2.7560523e-05
24	0xb92b7165	-0.00016350074
25	0x37908286	1.7226917e-05
26	0x00000000	0.0
27	0xb55ddd62	-8.265107e-07
28	0x38cb424c	9.692143e-05
29	0x388d0a69	6.725343e-05
30	0x3881e297	6.193405e-05
31	0xb7d077bd	-2.485129e-05
32	0x3744fb4b	1.1741019e-05
33	0xb89df3b6	-7.531738e-05
34	0x379276de	1.7459908e-05
35	0x385d4b33	5.276054e-05
36	0x36bb7d0b	5.587591e-06
37	0x36ca2945	6.0248735e-06
38	0xb8db734c	-0.000104642095
39	0xb71520cb	-8.888727e-06
40	0x38cb5947	9.6964235e-05
41	0x3903d347	0.0001257184
42	0xb7822a46	-1.5516893e-05
43	0xb84dbdae	-4.905246e-05
44	0xb88c9a08	-6.704411e-05
45	0x37d6b114	2.5593246e-05
46	0x36ba2fe6	5.548808e-06
47	0x3899949b	7.3232884e-05
48	0x39457ac0	0.00018833112
49	0xb537ba6f	-6.844411e-07
50	0x377e1d8a	1.5146457e-05
51	0x373e6abe	1.1349735e-05
52	0x3755958a	1.2730607e-05
53	0x38a6e81c	7.9587306e-05
54	0xb84587ca	-4.7094924e-05
55	0xb8f93009	-0.000118821925
56	0xb67d98c5	-3.7788861e-06
57	0xb70f74f3	-8.550694e-06
58	0x376df48c	1.4183239e-05
59	0xb6bb01dc	-5.5732507e-06
60	0xb5393cdb	-6.9006427e-07
61	0x38cf6c3c	9.8906894e-05
62	0x38390e99	4.4121032e-05
63	0xb8a395bf	-7.800338e-05

exp_avg_sq f4 [64]
0	0x355902f7	8.0843114e-07
1	0x351a388a	5.7451746e-07
2	0x33d61b3e	9.970107e-08
3	0x36991346	4.561999e-06
4	0x36edcb5e	7.0868255e-06
5	0x3150c354	3.0379015e-09
6	0x35f6cba0	1.8387691e-06
7	0x34b084b7	3.2879117e-07
8	0x3611dd7c	2.1735605e-06
9	0x32862366	1.561575e-08
10	0x373528f0	1.0797972e-05
11	0x00000000	0.0
12	0x35dc5f65	1.6419041e-06
13	0x338228ef	6.0610425e-08
14	0x36dcc93b	6.5799372e-06
15	0x342e1e3b	1.621601e-07
16	0x325cb75d	1.2847377e-08
17	0x3443aa25	1.8222688e-07
18	0x3430e55f	1.6474722e-07
19	0x34f5e9ba	4.5804865e-07
20	0x3610f1e2	2.1598466e-06
21	0x35327d98	6.649293e-07
22	0x345ccac8	2.0562868e-07
23	0x34004920	1.1947532e-07
24	0x34a3e806	3.0529935e-07
25	0x344f6c07	1.9317677e-07
26	0x00000000	0.0
27	0x3381000a	6.007038e-08
28	0x37067eff	8.016591e-06
29	0x343763b4	1.7079475e-07
30	0x33eb39a6	1.09535264e-07
31	0x3566158d	8.571304e-07
32	0x321f1806	9.26048e-09
33	0x35b84036	1.3727756e-06
34	0x33295269	3.942333e-08
35	0x3504c90f	4.946641e-07
36	0x315fc85c	3.2564662e-09
37	0x311415db	2.1549258e-09
38	0x3583e99e	9.828252e-07
39	0x3615a4bd	2.229862e-06
40	0x3443cfe9	1.8236427e-07
41	0x360beb26	2.0849488e-06
42	0x34a9926c	3.158524e-07
43	0x3550b427	7.7748194e-07
44	0x34a4d665	3.0703373e-07
45	0x35c594f5	1.4720996e-06
46	0x358393a4	9.80323e-07
47	0x3595ba62	1.115561e-06
48	0x35ae7e7b	1.3000821e-06
49	0x34ed5486	4.420619e-07
50	0x34f88b9a	4.6295173e-07
51	0x33ac76ef	8.031008e-08
52	0x34bf8ec5	3.56804e-07
53	0x3623d0d2	2.4410442e-06
54	0x354962aa	7.502191e-07
55	0x350b4e33	5.189533e-07
56	0x354f21ff	7.716298e-07
57	0x350e98e3	5.31216e-07
58	0x365ff8fe	3.3374522e-06
59	0x328df5ae	1.6526283e-08
60	0x3146df4a	2.8939717e-09
61	0x3426282b	1.5474568e-07
62	0x3409d0b5	1.2835046e-07
63	0x34629c5f	2.1104778e-07
