toy_al/mini_exp/250-200-200-001-no/ckpt_phase0.pt (torch, 47981 bytes, 30 tensors)

fc1.weight f4 [64, 4]
000000 87 c3 36 be fa ad 83 be e3 3e cf 3e 65 38 c5 be
       -0.17848025 -0.2571867 0.40477666 -0.38519588
000010 ae d2 41 bf 60 23 cf be a5 1e 24 3e 24 f2 17 bf
       -0.75712097 -0.40456676 0.16027315 -0.5935385
000020 be 83 fc bb 6e 49 82 3e 0d 89 d5 3e fd 6e 1d bf
       -0.0077061346 0.25446647 0.41706124 -0.6149748
000030 56 c7 fe 3d b0 54 e6 3c f7 78 5c 3d 2a 2c 96 3f
       0.12440364 0.028116554 0.0538263 1.1732228
000040 85 94 b4 bb 75 8b 82 be f9 c6 d6 3e a3 59 f7 be
       -0.005510869 -0.25497022 0.4194868 -0.48310575
000050 2e d9 21 bf f7 74 13 3e a8 27 4c be e5 2c e6 3e
       -0.63222015 0.14400087 -0.19937003 0.44956127
000060 3b 68 19 bf b7 cd d5 3e f5 20 5a 3c 72 0d 23 be
       -0.5992467 0.4175851 0.013313522 -0.15923098
000070 ff bd 5c bd 57 72 14 3d ff f1 04 3e 68 ba 3d bf
       -0.053892132 0.036241855 0.12982939 -0.7411256
000080 61 81 e9 3d 4f e2 91 3e ba df f4 3e a1 a0 b2 be
       0.1140163 0.28492972 0.4782694 -0.34888175
000090 57 d7 54 3e d1 8e 43 3e f5 6a d3 3e e3 ca 2c bf
       0.2078527 0.19097449 0.4129254 -0.6749708
0000a0 13 73 f0 be 15 42 02 3f 39 2d 44 3e 3a a7 8c be
       -0.46962795 0.50882083 0.19157876 -0.27471334
0000b0 64 2f 9c 3e 5c 48 13 3e 7e 3c 38 be 1f f5 75 be
       0.30504906 0.14383072 -0.17991826 -0.24019288
0000c0 d7 74 91 be 5d 78 bd 3e e0 52 83 bd c3 c8 86 3e
       -0.28409454 0.37005892 -0.064122915 0.26325044
0000d0 8d 8f a7 be 58 ce 1c 3f 66 7c 1a 3e f5 94 3b be
       -0.32726708 0.61252356 0.15086517 -0.18318541
0000e0 d2 75 48 3c 1c 0e 1f 3d 1f 1b bf be 1f 7d e7 be
       0.012235122 0.038831815 -0.3732538 -0.45212647
0000f0 f1 7f 51 be 4a c6 cb 3e 57 97 ef be e9 a8 97 3e
       -0.20458962 0.3979972 -0.4679515 0.29621056
000100 b8 6e 33 3d 9d db 7a be 69 ca fe 3e 9d 99 bd bd
       0.04380676 -0.24497838 0.49763802 -0.09257815
000110 13 84 00 be 08 7b 34 3d fb db 02 3e 91 59 2c 3e
       -0.12550382 0.044062644 0.12779228 0.16831042
000120 46 c7 4f 3f 20 ba 98 3d 1c 32 9a bb 7d 24 59 3e
       0.8116344 0.074573755 -0.0047056805 0.21205325
000130 b9 88 9d be f7 26 9a be 1e 9d 3c be aa 38 42 bf
       -0.30768374 -0.30107853 -0.1841931 -0.7586771
000140 bf 12 5d 3f 94 c7 99 be c4 94 92 3a 9d e7 51 bf
       0.8635673 -0.3003508 0.0011183252 -0.8199404
000150 ce ba 71 be 44 7e d1 3e b9 07 f8 be a2 3b b1 3e
       -0.23606417 0.40916646 -0.48443392 0.3461581
000160 2a 45 6c 3f 35 31 92 be 4b 45 b2 bd 0d 54 3d bf
       0.92293036 -0.28553167 -0.08704623 -0.73956376
000170 2c 06 bc be 72 3d aa be ef 6c ed 3e 16 b4 89 3f
       -0.3672346 -0.33250004 0.46372172 1.0758083
000180 77 35 59 be e7 04 46 3e fd 65 15 be 4a b2 99 be
       -0.21211801 0.19337808 -0.14589687 -0.30018836
000190 84 39 5c 3e 4a 42 e6 3e 26 e5 da 3e 40 67 d2 3e
       0.21506315 0.4497245 0.4275295 0.41094398
0001a0 01 5c 80 3e c2 0c 1e 3e b7 21 74 be 44 db 36 bc
       0.25070193 0.15434554 -0.23840986 -0.011160675
0001b0 0f ac 83 bf 7b e4 9b 3e 2f 5c 8a be c7 b2 0e 3f
       -1.0286883 0.30447754 -0.27023456 0.5574154
0001c0 c0 2c 84 3e 6d 74 aa 3e 4f 11 83 bd 1e 04 a9 3d
       0.25815392 0.3329195 -0.06399786 0.082527384
0001d0 c8 9f 42 bf 1d d8 85 bd de 08 92 be 5c 9a 8c 3d
       -0.76025057 -0.06535361 -0.2852239 0.06865379
0001e0 68 c6 88 3e bd 2d 74 3e 22 90 00 3f c4 35 cc 3e
       0.26713872 0.23845573 0.5021993 0.3988477
0001f0 55 ec 39 3f 11 80 fc bd e6 f2 4c be b9 bc f5 bc
       0.7262624 -0.12329114 -0.20014533 -0.029997217
000200 67 0d 84 3f ef f1 79 be a4 83 37 3e 0c e1 49 bf
       1.031659 -0.24408697 0.1792131 -0.7885902
000210 86 b0 46 3f 4a 33 3f 38 fb 7b 8c bd 47 a9 de bd
       0.77613103 4.5585715e-05 -0.06859585 -0.10872131
000220 1e 1b 14 3e 28 02 13 3f b6 f1 43 be 4d 42 7f 3e
       0.1446347 0.57425165 -0.19135174 0.24927635
000230 54 6c 2e bd 64 41 d0 3e 76 a5 be 3e c5 67 da be
       -0.04258378 0.4067489 0.37235612 -0.42657295
000240 9b da 44 3f bc a3 05 3e 65 45 db bd 7d 16 97 3f
       0.76896065 0.13050741 -0.10706595 1.1803738
000250 8c ca 89 3f 34 7f 1c bf da 7f 3f be 50 d5 81 3e
       1.0764937 -0.61131597 -0.18701115 0.25358057
000260 e7 92 b9 3d df 53 c6 be a0 0a a1 3e f0 14 07 bc
       0.090612225 -0.38735864 0.3145342 -0.008244738
000270 29 4a 6f be af f4 1f bf c3 be b8 3e 9a 43 b7 be
       -0.23368134 -0.6248273 0.3608304 -0.35793763
000280 4e 04 78 be c5 f0 99 be be 85 b4 be bd 35 63 3e
       -0.24220392 -0.30066505 -0.35258287 0.22188468
000290 c4 40 0d be e6 99 56 3e 2f 84 99 be 67 fa 21 bf
       -0.13794237 0.20957145 -0.2998366 -0.6327271
0002a0 69 70 06 bf 6e 11 c7 be 40 62 be 3d 11 cb 42 be
       -0.52515274 -0.38880485 0.092960835 -0.19022776
0002b0 37 4e 56 3e 3e 0e c7 be b2 12 aa 3e f5 72 47 be
       0.20928274 -0.38878053 0.33217388 -0.19477446
0002c0 7d 42 12 3d 35 3e 8b be c2 52 a0 bc 46 9d 4b 3d
       0.03570794 -0.27195898 -0.019570712 0.049710535
0002d0 1b 7e 16 3f 98 90 3c 3e 92 9e 97 be 11 3f 90 be
       0.5878617 0.18414533 -0.29613167 -0.28173116
0002e0 68 78 1d bf 55 0d 28 bf 99 39 00 be d6 ba 26 be
       -0.6151185 -0.65645343 -0.12521972 -0.1628221
0002f0 22 0c 88 3c 99 33 a7 3d 25 f0 71 be 70 44 45 3f
       0.016607348 0.08164138 -0.23626764 0.7705755
000300 78 8f 2e 3f 81 1d 5f be 1d f2 4e be 0d 3a ec be
       0.68187666 -0.21788599 -0.20209546 -0.4613804
000310 c4 2c fe 3d aa 62 cc be 20 47 fe 3e 1f 24 47 3f
       0.12410882 -0.39919025 0.4966364 0.7778949
000320 86 3c 79 3e dc 15 25 3e ca 57 31 bc b8 f5 19 3f
       0.24339494 0.1612162 -0.010824153 0.6014056
000330 f8 fc 9b 3e 06 60 06 3e b9 0e b7 3e a7 e8 e0 bc
       0.30466437 0.13122568 0.3575342 -0.027454687
000340 86 48 ff bd c2 a3 fe 3e 7b 41 aa be f0 5f 83 3d
       -0.124650046 0.49734312 -0.33253083 0.06414783
000350 94 bc 06 bf c2 6a c1 3e cf e1 c6 3e f3 dd 91 be
       -0.526315 0.37776762 0.38844153 -0.28489646
000360 6e 05 2d bf 18 28 a7 bd d2 95 15 3e 22 29 aa be
       -0.6758641 -0.08161944 0.14607933 -0.33234507
000370 8e cd 10 bf ec 4d b2 bd 8d b7 4e be d2 26 d2 3e
       -0.5656365 -0.08706269 -0.20187207 0.41045243
000380 b5 01 15 bf 1b a2 03 3e 48 48 96 be 18 34 38 be
       -0.5820573 0.12854807 -0.2935202 -0.17988622
000390 47 a8 51 3f c0 d1 d5 bd c2 39 c6 be a8 cc 19 3f
       0.81897396 -0.10440397 -0.3871594 0.60077906
0003a0 d7 8b 21 3f e2 b1 95 be 05 74 4d 3e 3c 9e 0f bf
       0.63104004 -0.29237276 0.20063789 -0.5610082
0003b0 82 c3 c0 be 13 4a 43 be 2d 12 c2 3e 4a b8 e8 3d
       -0.3764916 -0.19071226 0.37904492 0.11363275
0003c0 35 e1 3f 3f 0b d0 9d 3e 16 4c 8e bd 0d 37 03 3f
       0.74953014 0.30822787 -0.06948106 0.51255876
0003d0 d2 9f f5 3d 53 62 1f 3e b1 21 e0 be 40 b1 ea be
       0.11993374 0.15564851 -0.43775705 -0.45838356
0003e0 bc 43 4f 3f fe 04 20 3f 97 c5 0e 3e 53 5b 45 3e
       0.8096273 0.6250762 0.13942562 0.19273119
0003f0 b7 ba 35 bf 89 95 1e 3d 3e 9c d6 bd fd 38 9d be
       -0.7098803 0.038716827 -0.104790196 -0.3070754

fc1.bias f4 [64]
000000 a8 6c 0f 3f 4f 12 76 bf cc 92 16 3f 23 31 80 be
       0.5602517 -0.96121687 0.58817744 -0.25037488
000010 43 be b7 3d e4 84 ef 3e a7 91 17 3f ea 0f 3e bf
       0.089718364 0.46781075 0.5920662 -0.7424303
000020 7e 20 df 3e 67 88 64 be 94 f6 62 be f3 a6 fd be
       0.43579477 -0.22317658 -0.22164375 -0.49541435
000030 f9 4d 40 be bb 60 5a 3d de 0b 51 be 37 0d f9 be
       -0.18779744 0.053314906 -0.20414683 -0.48642895
000040 92 23 b3 3e 06 4f 1b bf fa 7a 04 3f fc c2 d4 3d
       0.34988075 -0.60667455 0.5175015 0.10388753
000050 1f 66 8b 3e db 02 da be 09 0c a9 3e 02 dd c3 3d
       0.2722635 -0.42580304 0.33016995 0.09563638
000060 ab 56 0c 3f b0 e9 a2 bd 51 b2 81 3e 37 91 6d be
       0.54819745 -0.079547286 0.25331357 -0.23199926
000070 5f a2 91 3e 20 d9 51 bf 93 4a ff 3e 03 8c 36 bd
       0.28444192 -0.8197193 0.49861583 -0.04456712
000080 80 d8 fc 3d f9 a7 21 3f f4 e8 00 3f 25 a7 ce be
       0.123459816 0.6314693 0.5035546 -0.40361896
000090 45 8e 0e bd 16 5a 35 3d ff 03 10 3f 42 08 0d 3f
       -0.034803648 0.044275366 0.562561 0.55090725
0000a0 b1 9e 28 3f c8 c3 a7 3e 10 25 07 bf 9d 67 3e 3f
       0.65867144 0.32766557 -0.5279093 0.7437685
0000b0 fb 18 f8 3d 98 43 ac 3e 90 3b fc 3e 8d 16 cb be
       0.1211414 0.3364532 0.49264193 -0.39665642
0000c0 b5 22 87 3e 7d 70 14 bf eb 28 d0 3e a7 c8 b5 3c
       0.26393667 -0.57984143 0.40656218 0.022190405
0000d0 90 c7 26 3e 97 6f ba be 18 c5 65 3e 48 2c ff 3e
       0.16287065 -0.3641326 0.22438467 0.4983847
0000e0 f0 46 55 be bb 9a 86 be f6 31 c4 3e 69 95 17 bf
       -0.20827842 -0.26289925 0.38319367 -0.59212357
0000f0 34 a2 d2 3e ab bd 05 3f fa 08 d9 3e 3d ec ad be
       0.41139376 0.52242535 0.4238966 -0.33969298

fc2.weight f4 [32, 64]
000000 12 80 c2 3c 7b 9a 63 3d 99 66 cf 3c f4 0e f6 bd
       0.02374271 0.055567246 0.025317477 -0.12014571
000010 d2 ac c8 ba a4 d2 0d be ed e2 5f bd 11 20 d6 3d
       -0.0015310294 -0.13849884 -0.054659773 0.10455335
000020 e0 42 19 3e 73 d5 fe 3d 9c 49 d9 3c af 2d 81 bd
       0.14966917 0.12443056 0.026524357 -0.063075416
000030 9f 88 4d bc 70 b2 4a 3e f4 49 9d 3d a5 bd d0 3d
       -0.01254478 0.19794631 0.07680121 0.10192422
000040 a6 32 12 bc 5b f3 9b 3d f5 12 a1 3d bd 62 cc bc
       -0.008923208 0.07614776 0.07864944 -0.024949426
000050 c4 9d 2e be 38 f3 a5 3c a6 b4 03 be 44 95 bf bc
       -0.1705237 0.020257577 -0.1286188 -0.023386605
000060 05 ee c1 bd 68 2e 21 3d d8 90 04 3d 50 5b b2 3d
       -0.09469227 0.039350897 0.032364696 0.08708823
000070 4c 60 31 3e 49 cf 65 3c e1 ad 33 3d 00 71 1c bc
       0.1732189 0.014026471 0.043866996 -0.009548426
000080 9f 3c 3f 3c 5d e9 ce 3d eb 1b d2 3d 59 10 e2 3d
       0.011672168 0.10103104 0.10259231 0.11038274
000090 7f d0 81 bd 2d 3c ce bd 11 47 bf 3c 5b c3 43 be
       -0.063385956 -0.10070071 0.023349317 -0.19117491
0000a0 73 2c 5d 3d 1a 6e 9b bd 71 56 1e bd 37 ab aa 3d
       0.05399747 -0.075893596 -0.038656656 0.08333438
0000b0 e8 70 b5 3c f6 ce 4f 3d 33 92 d8 3d 7a 07 4e bd
       0.022148564 0.050734483 0.1057476 -0.0503001
0000c0 7d d8 c3 bd a7 a7 16 3c 3c 00 95 3d 71 e5 26 3d
       -0.09562776 0.009195245 0.07275435 0.040746156
0000d0 07 ca 52 3d 13 c8 4e bd fd 49 f7 bd 2b cd d2 bd
       0.0514622 -0.050483774 -0.12074659 -0.10293039
0000e0 26 25 c4 bd 58 33 3f 3d b7 d1 a1 3d 14 68 dc bd
       -0.09577398 0.046679825 0.07901328 -0.10762039
0000f0 3f 9d 43 3e a8 15 b8 3d eb 07 a1 3e 0b df c7 3d
       0.19102953 0.089885056 0.31451353 0.09759339
000100 b8 a7 70 bc 5e 9a bf 3d 56 29 17 be b5 ef 98 be
       -0.014688425 0.09355615 -0.14761862 -0.29870382
000110 aa 9c 95 3d 28 eb 2a 3d 16 b0 01 3d 58 ae ee bd
       0.07305272 0.04172817 0.03166207 -0.11654347
000120 75 2a 21 be ec 3a 12 be bd 48 8c bc 4a b3 c1 bd
       -0.15738852 -0.1428029 -0.017124528 -0.09458025
000130 3c 31 13 3d 76 6a 18 3d 37 0e 2a 3d ee d3 c9 ba
       0.035935625 0.037210904 0.041517463 -0.0015398243
000140 dc 09 74 bd dc fc 6e 3d 9d bb 89 bd a9 11 6b bd
       -0.059579715 0.058346614 -0.067252375 -0.05738989
000150 8c ea 75 3d 44 66 f2 3d 9e e0 5e bf 80 2e 34 bc
       0.060038134 0.11835912 -0.8706149 -0.010997415
000160 64 f5 f0 3d 67 bf d2 bd 11 29 ce bd 61 9e 41 3d
       0.117655545 -0.10290413 -0.100664265 0.047270183
000170 10 99 01 bd a1 bd 2d 3d e0 8d 24 be ce eb 9c 3d
       -0.031640112 0.042417172 -0.16069746 0.07662164
000180 c0 cd b6 bb 68 21 d0 bd 9f 06 ef 3d a2 c1 de bd
       -0.0055787265 -0.10162622 0.11671185 -0.10876776
000190 44 fb 4d bd 0c 94 7b bc 9a 06 2f 3d 2d dd d2 3c
       -0.050288454 -0.015355121 0.042730905 0.02574023
0001a0 e0 ff bd bc f2 3e ee 3d f6 56 a3 3d 60 83 a6 3d
       -0.0231933 0.116330996 0.07975571 0.081305265
0001b0 da e6 33 3d 3b 11 f8 bd 5a 01 d5 bd 52 62 cc 3d
       0.04392133 -0.121126615 -0.104006484 0.099796906
0001c0 5f cb 68 3d 14 ca 60 3d e8 83 02 3d 05 5b 6b bc
       0.056834575 0.054880217 0.031864077 -0.0143649625
0001d0 2c 2a fa bd 48 83 02 bd 1a de e1 3c 96 ba 75 3c
       -0.12215075 -0.03186348 0.027571727 0.014998099
0001e0 25 41 d2 bd 33 16 ae 3d 82 e1 e7 3d e0 78 b0 bd
       -0.102663316 0.08500328 0.11322309 -0.08616805
0001f0 f2 5f 77 3d 5c 8a f7 bd e3 50 4b bc d7 cb 05 3e
       0.060394235 -0.12086937 -0.012409422 0.1306604
000200 e3 c1 11 3d af a5 03 be e1 3f ed 3d a9 f7 19 be
       0.035585295 -0.12856172 0.115844496 -0.15035881
000210 6d 09 21 3e 2a 79 ac 3d d0 ef 30 3e 77 d8 ba b9
       0.15726252 0.08421548 0.17278981 -0.00035637963
000220 6d 05 d7 3d ff 1b 6b bd c1 bc 06 be f4 64 c4 bd
       0.10499082 -0.057399746 -0.13157941 -0.09589568
000230 2c 10 57 bc a2 de cc 3d 51 ac 77 bd 5c 30 6f bd
       -0.013126414 0.10003401 -0.060467068 -0.05839573
000240 fa 0d 67 bd 26 3c ba 3c 89 5f 4f 3e 50 bf fa bd
       -0.056409813 0.02273376 0.20251288 -0.12243521
000250 e6 ef 85 bd bb 0b 43 3d 4b fd ab 3e 5d fa fa bd
       -0.065398976 0.04761861 0.33591685 -0.12254784
000260 fb 25 bf bd 00 69 22 bd ae 90 cb bd 48 6a e6 3d
       -0.09333416 -0.039650917 -0.09939705 0.1125074
000270 7a 4c b5 3d 69 20 bd bd fc 51 3b 3d f4 7c 90 3d
       0.08852477 -0.09234697 0.045732483 0.07055083
000280 0d d7 74 3d 6f dd d0 3d 3b df 46 3c e7 bc 95 3d
       0.0597754 0.10198485 0.012138183 0.07311421
000290 b7 ec 94 3c b7 3f 9e 3d 46 3a 52 3d 97 e6 bc bd
       0.01817928 0.077269964 0.051325105 -0.09223669
0002a0 2a 47 96 3c ed e9 06 3d b8 af e4 bd 5b 23 54 bd
       0.01834448 0.032937933 -0.11166328 -0.05179153
0002b0 d0 c1 b7 bb 54 70 28 bd 5c 06 4a 3d e5 08 62 3d
       -0.005607821 -0.04112275 0.04932247 0.055184264
0002c0 75 e6 f5 bd c8 ac f5 3c e5 ba bf 3d 5c 3e 98 3d
       -0.12006847 0.029989615 0.09361819 0.07433769
0002d0 aa 16 d5 3d 1d b2 a0 3d cd b5 0c 3e ab b8 1f 3d
       0.104047135 0.078464724 0.13741226 0.038994472
0002e0 80 2f c4 bd ed 37 45 bd 8e 82 17 3e 9d 5f b8 bd
       -0.095793724 -0.048149038 0.14795896 -0.09002612
0002f0 e0 2a e3 3d 08 35 81 3d a6 8b 05 3e 3f 15 db 3d
       0.11092162 0.06308943 0.13041553 0.10697412
000300 ac 23 98 bd 61 26 88 bd 7a 19 27 3e 46 08 43 3e
       -0.07428679 -0.06647945 0.16318312 0.19046125
000310 56 e9 ba bc 5e fc 09 bd bb 08 3b bd 2a 0d 8e bd
       -0.022816341 -0.03368794 -0.045662623 -0.069361046
000320 9e 6a 07 3e 61 e8 3a bd f8 68 31 3d 15 6d a6 bd
       0.13224265 -0.04563177 0.043312997 -0.081262745
000330 b0 6d 29 be 89 04 23 bd ab dd 98 bd ea db 8f bd
       -0.16545749 -0.039799247 -0.07464155 -0.07024367
000340 cb fa d2 bd 60 39 da bd ee 0f 50 3e bf 7f 1d 3f
       -0.10301741 -0.10655475 0.20318577 0.6152305
000350 fc 4b df 3e e2 4b 4a 3d 13 3a 31 3e df 1f 89 bd
       0.4361266 0.049388774 0.1730731 -0.06695532
000360 f6 ec a0 bd a1 07 b9 3d c7 aa 21 3e c3 19 19 be
       -0.07857697 0.09034658 0.15787803 -0.14951234
000370 0f 29 60 3d 08 68 59 be 41 ae a3 3d 3c 62 a3 bc
       0.054726657 -0.21231091 0.07992221 -0.019944303
000380 21 28 03 3e 29 bb a5 3e 5c 2a 99 3d 69 89 25 3d
       0.12808277 0.32369354 0.074787825 0.040414248
000390 bd 2f 8a 3e 60 e2 b2 3e 56 8b a9 bd 24 68 bb bc
       0.26989546 0.34938335 -0.08278529 -0.022876807
0003a0 98 17 89 be 3d e3 b4 3c 4f 70 c5 3d 8a 1e e1 3d
       -0.26775813 0.022081012 0.09640562 0.10992153
0003b0 50 68 05 3e 42 32 eb 3d 7f 93 65 bf 7d 9a 28 3e
       0.13028073 0.11484195 -0.89678186 0.16465183
0003c0 cc f4 ac 3e 17 49 70 3d 54 9d 8c 3e 21 32 27 3e
       0.33780515 0.058663454 0.27463782 0.16327716
0003d0 99 d0 4a bd c6 c9 96 3d e2 49 d4 bd 44 80 5c be
       -0.04951534 0.07362704 -0.103656545 -0.21533304
0003e0 96 8d 17 be 2c 29 3b be dc 8b 50 3d 31 68 b9 bd
       -0.14800104 -0.18277425 0.05091463 -0.09053076
0003f0 2d 95 00 3e e5 b1 9c 3d 95 b2 05 3e 8c f8 ad be
       0.12556906 0.07651118 0.13056405 -0.3397869

fc2.bias f4 [32]
000000 76 e1 42 be b3 d9 a8 be f9 05 e1 3c 96 5c 16 3e
       -0.19031319 -0.3297859 0.027468668 0.14683756
000010 fe eb 73 3e 9e 77 5c bd 4d 1f 24 3e 4c 78 36 3e
       0.23820493 -0.053825013 0.16027565 0.17819327
000020 b2 6f 92 bd ce 7b 3a 3d 97 fc 10 3c 67 0a 54 3e
       -0.071502104 0.045528226 0.008849285 0.20707093
000030 87 0c 47 3e 29 f8 53 3e 08 e7 73 3d 0f b0 65 be
       0.19438373 0.20700134 0.0595465 -0.22430442
000040 eb cc ab 3d ee cb 4c 3e 32 0d 20 bd 33 11 77 bd
       0.083886944 0.19999668 -0.039075084 -0.060319137
000050 f7 d5 1f 3e 62 80 12 3e 2e 48 22 be 06 23 84 3e
       0.15608965 0.14306787 -0.15847847 0.2580797
000060 48 f6 99 bd 70 8e 2a 3c 25 b5 71 3d 3c 07 e3 bd
       -0.075176775 0.010409936 0.059010644 -0.11085364
000070 84 ea d5 bd 03 a3 88 3e eb 42 c3 3d ef d6 32 3e
       -0.10445121 0.26686868 0.09534248 0.17464803

fc3.weight f4 [16, 32]
000000 ac ca 2a be 5c 83 64 3c bf 58 f1 bd ae 48 0b be
       -0.16678876 0.013947334 -0.11784505 -0.13601944
000010 5d c9 fa 3c 29 c6 ae 3d 87 08 ca bd 1f 19 9a 3d
       0.030613596 0.0853389 -0.09864908 0.07524323
000020 68 e5 ca bd 7a c4 aa 3d 0c 72 8a 3c 6c e3 09 be
       -0.09907037 0.08338256 0.016900085 -0.13465661
000030 cd 5c c5 bd ab e9 bb bd ae 8f ae bd 5b df ad 3d
       -0.09636841 -0.09175428 -0.085234985 0.08489867
000040 d0 99 75 bb ae 65 a9 bd 7f c2 23 be a1 ea 11 3e
       -0.0037475713 -0.08271347 -0.15992163 0.1424966
000050 2c 7b dc bd f9 e3 81 3d c1 e4 5d 3d bd 33 b6 3c
       -0.10765681 0.063423105 0.054173235 0.022241468
000060 7a c5 0f be 91 2d 04 be ad 0b b3 bc 38 83 f2 3c
       -0.14040175 -0.12908007 -0.021856153 0.029603586
000070 45 d7 e3 bd 12 f3 1c 3e f6 0d 03 3d 5d 65 36 be
       -0.11125044 0.15327099 0.031995736 -0.17812105
000080 9a 05 35 3e 1c cc ef 3c 4e be 80 3d d1 a7 6a 3e
       0.17677918 0.029272132 0.06286298 0.2291558
000090 b5 40 92 bd fd 67 37 be cb e9 6c bd f9 8b 2f 3e
       -0.07141248 -0.17910762 -0.05784015 0.17143239
0000a0 11 5f 2c be 2a 60 be 3c 8e b5 88 ba c7 d7 64 bd
       -0.1683314 0.023239214 -0.0010430084 -0.055869844
0000b0 9f c3 65 3e 6c ec 0f 3e 31 cd 27 3e 0a 03 19 3d
       0.22437905 0.14055032 0.16386868 0.037356414
0000c0 d5 6a 42 be 05 c7 d8 bb 57 32 84 bd ea 05 e9 3d
       -0.18986066 -0.006615522 -0.06454914 0.11378081
0000d0 29 0d 91 3e f6 ca b6 be e4 de 90 bd 6b 7c 66 3d
       0.28330353 -0.35701722 -0.07073763 0.056270998
0000e0 0c 65 25 3e 42 01 fb bd e8 c7 8b 3f 39 83 49 3e
       0.16151828 -0.12256099 1.0920382 0.19678964
0000f0 4c b8 bb 3e 6e 46 fa 3d 43 b2 16 3d c8 3a 0c be
       0.36664045 0.12220465 0.036791097 -0.13694298
000100 19 75 8b bc ae cb 73 be 0b 2b 46 3e f0 1b 15 be
       -0.01702361 -0.23808166 0.19352357 -0.14561439
000110 b0 11 f4 3d ac 2a fb bd c0 f8 d9 3d 2e bc 8b 3e
       0.11917436 -0.122639984 0.106431484 0.27292007
000120 f9 02 97 bd fe 38 64 bd 13 a9 d3 3d d3 08 14 3e
       -0.07373614 -0.055718414 0.10334983 0.14456491
000130 00 e1 ce 3d 51 6b 0c 3e 5d ac 2c be 97 03 ae bd
       0.10101509 0.13712813 -0.16862626 -0.084967785
000140 f2 33 ac 3d 2c 9c cf 3d ea 8a 18 be 25 42 d4 bd
       0.08408345 0.10137209 -0.14896742 -0.103641786
000150 0f df 02 3c c5 4b 3a 3d 0f 8d 60 bd 5c 21 1e 3e
       0.007987752 0.045482416 -0.054822024 0.15442413
000160 95 fe d0 bd e6 e2 d9 3d 5d d9 d6 bc 86 46 c8 bd
       -0.10204808 0.106389806 -0.026226694 -0.09779076
000170 fa ec bc bd 96 cc c9 3e d8 c3 93 bd 02 08 3f 3d
       -0.09224887 0.394139 -0.072150886 0.046638496
000180 0c a5 31 be 9b 9a 93 bd 48 be db bd 69 32 9e 3d
       -0.17348117 -0.07207223 -0.10729653 0.07724459
000190 eb fb 39 be a2 5b 63 3d 23 f1 51 3d 88 c5 c3 3d
       -0.18162505 0.05550731 0.051255357 0.095591605
0001a0 27 01 e5 bd e3 c8 97 bc 6e 77 55 bd 4c a7 f2 3d
       -0.111818604 -0.018528407 -0.05211585 0.118483156
0001b0 a2 ee 0e be 15 7e 23 be 42 79 0d be f8 45 d1 3c
       -0.13958219 -0.15966065 -0.13815787 0.025546059
0001c0 5a f3 25 bd 92 fd d5 3d 68 a5 23 3e e9 43 83 3d
       -0.04051528 0.10448755 0.15981066 0.06409437
0001d0 b4 6b 10 be d5 1e ae 3c 90 6b 42 be 6b a8 25 be
       -0.14103585 0.021254936 -0.18986344 -0.16177528
0001e0 5f c1 ce 3d f4 5a 5f bd 28 37 9b 3a 55 79 16 3e
       0.10095476 -0.0545301 0.0011841999 0.14694722
0001f0 f3 fd fd 3d 3a 60 09 bb af a2 52 3d d9 2c c1 bd
       0.124019526 -0.0020961897 0.05142468 -0.09432382
000200 d5 8d 92 be b1 e1 39 bc 20 c7 25 3e fb 67 50 be
       -0.28623834 -0.011345313 0.16189241 -0.20352165
000210 40 55 b6 bb 64 64 3b be 08 66 ad 3e c3 05 87 3e
       -0.005564362 -0.18300015 0.33866906 0.26371583
000220 fb 71 9d bd 50 22 5a 3d 03 10 88 bd b7 af 51 bd
       -0.07687756 0.05325538 -0.06643679 -0.051192965
000230 7f 5b ba 3d 8f e4 dd bd 69 17 33 3e ef 5c 33 be
       0.09099483 -0.1083461 0.17489399 -0.1751592
000240 03 37 62 bf 2e f0 8d 3d 7c 24 52 be 64 02 c1 3d
       -0.8836519 0.06930576 -0.2052173 0.09424284
000250 54 23 73 3e 46 97 b0 3e 28 2a 05 3e 19 f8 a2 bd
       0.23743945 0.34490412 0.13004363 -0.07957477
000260 ee 55 22 be 44 4b df 3c e5 06 67 3e 60 8d 74 be
       -0.15853092 0.02725757 0.22561224 -0.23882055
000270 d1 1e e1 3d df d5 ca 3e b6 ec ac be 92 28 45 3e
       0.10992206 0.39616296 -0.33774346 0.19253758
000280 26 85 f3 bd e4 99 df 3d d0 15 cd 3d 3d 8c 34 3d
       -0.118906304 0.10918024 0.10013926 0.044079054
000290 88 5d 09 bd 10 63 3f 3d d6 3b 40 3e 76 7b 53 3e
       -0.033536464 0.046725333 0.18772826 0.20652565
0002a0 bd a3 25 3e db 84 0d 3e 0a 6f 19 be d4 a2 25 be
       0.16175742 0.13820212 -0.14983764 -0.16175395
0002b0 fd e9 4a 3e e5 0d 2e 3e 99 fe 24 3e 39 13 b1 bd
       0.19815822 0.16997488 0.16112746 -0.086462446
0002c0 c9 76 a6 be 8d e6 4a 3e 40 5d c9 bd 1e cf 2b 3e
       -0.325125 0.1981451 -0.09832239 0.16778228
0002d0 12 d0 1f 3e 84 28 33 be 21 76 e4 3c 89 55 64 be
       0.15606716 -0.17495924 0.02788836 -0.22298254
0002e0 8f e0 d3 3d 94 b5 cf 3c 5c 26 05 3f e2 64 6a bd
       0.103455655 0.025355138 0.52011657 -0.057225116
0002f0 f2 4f b4 3e 68 48 6f 3e 4e a7 3a be 80 fd 90 3d
       0.35217243 0.23367465 -0.18227884 0.07079601
000300 41 89 cb 3c d4 a1 90 bd f6 74 cb 3d 83 9b d4 3d
       0.024845721 -0.07062116 0.09934418 0.10381224
000310 4c df 6b 3d a4 63 05 be a6 96 43 be 9e 5d 2e 3d
       0.057586 -0.13026291 -0.19100437 0.04256975
000320 b7 99 8e bd 48 c0 c0 3d a9 13 2e be 53 8e 6e bc
       -0.069629125 0.09411675 -0.16999687 -0.0145603
000330 17 67 8c 3e c3 00 39 3d 13 d2 0b 3e 4f aa e7 bd
       0.274224 0.045166742 0.13654356 -0.11311781
000340 c4 4d 16 be 68 0b 52 3d 79 7f d3 3d fc 0b 22 3e
       -0.14678103 0.05128041 0.10327048 0.15824884
000350 4e 5e 41 3c 13 8f 5e 3d af 55 f0 3d 86 20 19 3e
       0.011802269 0.054335665 0.11735093 0.14953813
000360 0b fb 2c 3e 99 20 93 3d 1a af eb 3d fb 18 1b 3e
       0.1689264 0.07183952 0.11508007 0.15146248
000370 8b 49 7e 3d 2c 64 81 be 80 74 2e 3e d9 00 03 be
       0.062081855 -0.25271738 0.17036629 -0.12793292
000380 d1 a2 d0 bd 60 21 84 bd 21 d1 19 3e 90 7f 8c be
       -0.10187305 -0.06451678 0.15021183 -0.27441072
000390 89 08 4d 3e 74 6c dd be de 84 8a 3e 3b 80 88 3e
       0.20022787 -0.43246806 0.27054495 0.26660332
0003a0 38 5e 9e be c3 75 d1 3e 1f cd 41 be 40 02 23 3e
       -0.30931258 0.40910158 -0.18925904 0.15918827
0003b0 29 07 8e 3e 9e e4 b8 bc 75 d6 06 3e 69 8c ae 3c
       0.27739838 -0.02256995 0.13167746 0.021307187
0003c0 70 f6 0b bf 79 43 ba 3e 13 fa a7 be 3f c1 64 be
       -0.5467291 0.36379603 -0.3280798 -0.22339343
0003d0 76 a9 0b 3e 17 8c a5 be 95 bf f2 be df 0d 53 3e
       0.13638863 -0.32333443 -0.4741179 0.2061076
0003e0 2a 88 18 be 68 d8 da bd 7d ce 49 3e e3 e9 a3 bd
       -0.14895692 -0.106858075 0.19707675 -0.08003595
0003f0 73 92 1b 3f 0c 19 4f 3e aa f8 dc be 51 55 24 3e
       0.6077034 0.20224398 -0.43158466 0.1604817

fc3.bias f4 [16]
000000 0f 55 f4 bd 93 bf 25 bb c9 12 4f 3e 3e 70 b9 bc
       -0.11930286 -0.002529119 0.2022201 -0.022636529
000010 0e fc 07 3e 18 72 2c 3e 69 e1 21 bc 26 5d 8c 3e
       0.13279745 0.16840398 -0.009880402 0.27414817
000020 57 3c 1a 3e c7 c1 cf 3d 05 89 e6 bb 70 6c fd bb
       0.1506208 0.10144382 -0.007035377 -0.007733874
000030 d4 15 17 3e ec 4d 64 bd a5 69 8c be 7f cf 33 3d
       0.1475442 -0.055738375 -0.2742435 0.043899056

fc4.weight f4 [8, 16]
000000 4a 77 2c bd 83 c9 34 bf 53 39 bc 3e 25 4b 84 3d
       -0.04210595 -0.7061998 0.36762485 0.06459645
000010 bb 06 e4 3d 0c 77 40 be 13 0d 51 3e 27 cb 29 3d
       0.11134096 -0.18795413 0.20415144 0.041453507
000020 1a 66 49 be d8 0b 1c 3e 99 62 40 be bd 28 84 be
       -0.19667855 0.15238893 -0.18787612 -0.2581233
000030 8b 83 36 bf 92 2a 64 3e f3 92 55 bf 41 ba 29 3e
       -0.7129447 0.22281864 -0.8342735 0.16574956
000040 28 c3 a3 3d 2c dc 7f be 0d f0 77 be dc e6 6d be
       0.079962075 -0.24986333 -0.24212666 -0.23232597
000050 e8 0d 98 bc 77 98 4b bd 9a a0 eb bb 32 a6 5d 3c
       -0.018561319 -0.04970595 -0.007190776 0.013528394
000060 8c f2 ce bd 4c 0e bd 3d e1 bf 0c be d2 89 6e 3d
       -0.10104856 0.092312425 -0.13745071 0.058236904
000070 93 6c 03 3e 28 51 c0 bd 98 7a 9d bd 9c 21 ed bc
       0.12834387 -0.09390479 -0.076893985 -0.02894669
000080 45 a2 15 3e 98 a6 6a 3e 0c 2e 70 3e a7 93 c2 3c
       0.14612682 0.22915113 0.23455065 0.023752047
000090 d0 64 80 bd 4e fc 8f 3e 7b ab a5 3e 25 bd 5c 3e
       -0.062692285 0.2812218 0.32357392 0.21556528
0000a0 8c f9 b2 bd 09 30 30 bd 2d 6b 60 3e 14 7c b7 3d
       -0.087390035 -0.04301456 0.21915884 0.08959213
0000b0 0c 0e 6e 3f 46 04 4f 3d 5a 54 09 3f 50 f3 e2 bd
       0.92990184 0.050541185 0.53644335 -0.110815644
0000c0 55 6e 68 3e 44 c6 b6 3d 2e 11 ec 3c 4a 37 10 be
       0.22698338 0.08924535 0.028816786 -0.14083591
0000d0 24 42 df 3c 46 22 f3 bc c7 66 6c be 70 17 70 3e
       0.027253218 -0.029679429 -0.23086081 0.2344644
0000e0 b2 22 fb bd 56 4c 4e be 86 4c 54 3e b4 76 04 3e
       -0.12262477 -0.20146307 0.20732316 0.12935907
0000f0 db 1e e4 3e 7f 30 6f 3e b9 5a 12 3f 9b d4 eb bd
       0.4455479 0.23358344 0.5716968 -0.11515161
000100 f5 60 04 be 39 f5 92 be a9 13 d1 3e f8 ba e7 3c
       -0.12927611 -0.28702715 0.40835312 0.028287396
000110 b7 de a2 be f7 53 92 be 29 c0 53 3d 77 a6 68 3c
       -0.31810543 -0.28579685 0.05169693 0.014199845
000120 83 20 4f 3e c1 15 4d be c5 8c 86 3d 5f 27 06 3d
       0.20227246 -0.2002783 0.065698184 0.03275239
000130 be c7 1f bf 32 df 8f be 99 3b 69 bf d8 4e 61 3e
       -0.6241416 -0.28099972 -0.91106564 0.22002733
000140 50 b6 4a bd 0c 72 2e bd 96 31 8d 3e 6f f3 1b be
       -0.049490273 -0.042589232 0.27576894 -0.15229581
000150 a3 5d ea 3e ec 21 48 3e 96 91 27 be 32 f6 8b 3e
       0.45774564 0.1954419 -0.1636413 0.2733627
000160 37 c4 54 3d 7d 99 b3 3e eb 65 d9 bd ca e8 51 be
       0.051944938 0.3507804 -0.106151424 -0.20498958
000170 4c 0a 71 3e 97 ed 7e be 8e 63 78 3f 71 e0 9f bc
       0.23539084 -0.24895321 0.9702691 -0.019516202
000180 c4 0a 1c 3e 86 97 3a 3d a5 2b 20 be be d6 95 bc
       0.15238482 0.04555466 -0.15641649 -0.018290874
000190 79 ec c7 bd 15 13 a1 bd d6 0f ae 3e 14 82 3e bf
       -0.097619005 -0.07864968 0.33996457 -0.74417233
0001a0 54 f7 b1 bd 26 a5 6c 3e 73 00 78 3e 21 6b 8e be
       -0.08689752 0.23109874 0.24218921 -0.27816108
0001b0 46 9b f0 bd a2 be c8 be 66 66 d1 3e 2f 03 14 3e
       -0.11748366 -0.3920794 0.40898436 0.1445434
0001c0 1c 4f 5d 3e ca 23 62 be d5 36 14 be 9a 42 5a 3e
       0.21612209 -0.22083965 -0.14474042 0.21314469
0001d0 f8 bb b3 bd 62 45 c8 3c 89 6e 40 bd a4 2e b7 3d
       -0.087760866 0.024447147 -0.046980415 0.08944443
0001e0 80 f1 dc bc 23 d3 42 bd 0e 2e 3f 3d ae 2f 19 3d
       -0.026970625 -0.047564637 0.04667478 0.037398987
0001f0 fe d4 cb 3c 8a 20 cb bd 2e 1b 1b 3e e0 de 0a be
       0.024881836 -0.09918316 0.15147087 -0.13561583

fc4.bias f4 [8]
000000 e7 e5 13 3e fd 93 d4 3d 41 4c a9 3e b7 28 d5 3d
       0.1444317 0.10379789 0.3306599 0.10408156
000010 65 b0 8c 3e a8 94 82 3e a2 f6 82 bd 68 91 2e be
       0.27478328 0.2550404 -0.06394698 -0.17047656

fc5.weight f4 [3, 8]
000000 a7 73 fb bc 02 d4 1f be 0e fe 28 3e c3 c4 54 be
       -0.030694796 -0.15608218 0.16503164 -0.20778184
000010 94 1c 86 be 5d f1 d4 3e 69 ad 79 bd ae f1 8a bd
       -0.26193678 0.41590396 -0.060956392 -0.06784378
000020 50 d9 6d 3e 24 81 8b be 26 6d 95 be f8 d0 9e 3e
       0.2322743 -0.27246964 -0.29184836 0.31018806
000030 11 af cc 3e e6 11 88 3e 0c fb 01 3e 28 69 c7 bd
       0.39977315 0.26576155 0.12693423 -0.09736854
000040 87 c1 0c bf cf 8a 1c be 3b 0d 54 3e 94 98 a0 3e
       -0.549828 -0.15287326 0.20708172 0.31366408
000050 33 cb 4a be 4c 03 28 bd d4 6f 15 bf 89 8c 7c 3d
       -0.19804077 -0.04101877 -0.5837376 0.061657462

fc5.bias f4 [3]
000000 91 28 1c 3d 36 28 d6 3e 59 99 30 3e
       0.038124625 0.41827554 0.17245997

exp_avg f4 [64, 4]
000000 86 bb 40 38 1a 92 83 b9 92 b8 74 b8 f4 95 03 39
       4.5951012e-05 -0.0002509512 -5.8346028e-05 0.00012548995
000010 2c 5a 2f 35 96 c4 a3 36 c1 1c 22 38 0e 89 07 35
       6.53238e-07 4.880664e-06 3.865059e-05 5.049086e-07
000020 55 ba 50 38 56 cb 8c b8 45 6d 21 b9 56 c7 ba 38
       4.97646e-05 -6.7135945e-05 -0.00015394863 8.9063e-05
000030 0a b3 19 b8 57 23 1d b9 e6 a5 56 39 a7 7f 6d b5
       -3.6644786e-05 -0.00014985852 0.00020470432 -8.847514e-07
000040 8a 43 7d 39 d8 fa 1e ba aa fb 85 b8 93 49 b3 39
       0.0002415312 -0.00060646003 -6.38881e-05 0.00034196358
000050 ba 8f 1f b8 9c 1c 3a 3a b9 65 81 39 43 f1 62 b9
       -3.804241e-05 0.00070996 0.00024680587 -0.00021642917
000060 a3 5d 14 b6 5b 5f 47 3a bd f6 0d b9 c1 12 c4 b8
       -2.2108222e-06 0.00076054566 -0.00013538725 -9.3495015e-05
000070 7e 93 0d b9 24 e6 b6 39 0d db 51 38 e4 cd 34 b9
       -0.00013501753 0.00034885213 5.003349e-05 -0.00017242838
000080 4a 7d b0 b7 90 d1 7f 39 39 76 4a 37 90 e0 9b b8
       -2.1039177e-05 0.00024396763 1.2067664e-05 -7.432804e-05
000090 53 c7 e3 38 cf 8b d4 b9 22 c8 7b b8 eb e3 dd 38
       0.000108613305 -0.00040539957 -6.002945e-05 0.00010580554
0000a0 46 bd a0 38 5f 76 ad 37 39 70 e0 b8 f2 1e a4 38
       7.6646495e-05 2.0678328e-05 -0.000107020554 7.8258934e-05
0000b0 2d 07 a2 38 b4 c0 a0 ba 79 27 08 38 7a 30 4b 39
       7.7260986e-05 -0.0012264461 3.246169e-05 0.00019377648
0000c0 85 35 7b 38 6f e9 66 b9 ac 6b ee 38 93 cb 93 38
       5.9892907e-05 -0.0002202147 0.0001136878 7.047425e-05
0000d0 1e 31 3d 38 75 f0 81 39 5f 9a 21 b9 f3 05 c7 38
       4.5106855e-05 0.00024783952 -0.00015411664 9.4901676e-05
0000e0 43 47 99 38 c3 6e af b9 c3 80 78 38 d9 27 10 39
       7.308882e-05 -0.00033461125 5.9247726e-05 0.00013747755
0000f0 33 25 26 38 07 2f a2 b9 57 0b 1a 39 eb de 22 39
       3.961213e-05 -0.00030934086 0.00014690809 0.00015532567
000100 25 83 da 38 e5 d5 b8 b9 ba 4b 9f b8 68 fc 57 39
       0.000104194776 -0.0003525458 -7.595816e-05 0.00020598026
000110 53 5d 4f 36 d6 70 42 b8 88 33 dd b7 5d 96 17 37
       3.0899726e-06 -4.635829e-05 -2.636925e-05 9.0353105e-06
000120 6f 19 ad 36 97 2b b2 b9 fc f0 3f b9 a3 82 3d b7
       5.1587626e-06 -0.00033983283 -0.00018304953 -1.1295694e-05
000130 56 06 4a 38 1d 18 02 37 84 dc b1 b8 58 ce 4f 39
       4.8166454e-05 7.754218e-06 -8.481092e-05 0.00019817927
000140 82 04 3b 39 c8 a6 b4 b9 fa f1 14 37 54 1a de 39
       0.00017835389 -0.00034456537 8.877827e-06 0.00042362756
000150 ab 85 5f 38 11 0d 8c b9 c6 8f 60 39 f0 be ad 38
       5.329183e-05 -0.00026712616 0.00021415864 8.284848e-05
000160 62 c2 16 b9 03 09 ea 39 ac d0 b0 b9 75 38 88 b8
       -0.00014377528 0.00044638672 -0.0003372481 -6.495501e-05
000170 c8 bd b3 b6 e2 84 e5 37 59 92 08 37 aa 3f 3e b6
       -5.356709e-06 2.7360806e-05 8.140306e-06 -2.8349264e-06
000180 06 d1 e5 37 be c7 f6 37 39 ce 17 b9 e8 f4 03 38
       2.7396261e-05 2.9418497e-05 -0.00014477306 3.146092e-05
000190 36 d9 0e b8 62 09 93 b9 c4 ce de b7 25 be c8 b7
       -3.405773e-05 -0.00028045016 -2.6560745e-05 -2.39304e-05
0001a0 c8 74 7b b8 37 a6 44 39 cc 50 d0 38 67 76 cf b8
       -5.9951824e-05 0.00018753936 9.9332625e-05 -9.892583e-05
0001b0 1c ef 63 b7 fb 31 93 39 ae 53 da b8 61 9f db b7
       -1.3585926e-05 0.00028075263 -0.000104106366 -2.6181051e-05
0001c0 d4 b2 9d 37 e9 38 cd 36 85 8a 55 b8 0b 9e b8 37
       1.8799132e-05 6.1161013e-06 -5.0912164e-05 2.2008104e-05
0001d0 64 ba e6 b5 56 d0 08 38 36 57 c5 b7 c0 99 54 35
       -1.7190582e-06 3.2618955e-05 -2.352484e-05 7.919989e-07
0001e0 a9 b4 32 b8 fc 83 7d 39 84 a5 44 38 b3 d1 fa b8
       -4.260676e-05 0.00024177128 4.688419e-05 -0.000119599885
0001f0 c6 e6 61 b8 0d 40 dc b8 4c 5c 2a 39 bb 2a 23 36
       -5.3859105e-05 -0.00010502348 0.00016246847 2.4313765e-06
000200 af 4c 8b b8 f0 19 cb 38 70 9f cf b7 98 b3 8d b8
       -6.64232e-05 9.6846255e-05 -2.4750567e-05 -6.756856e-05
000210 07 e4 89 b7 2d 66 09 b9 23 84 c7 38 15 bf 93 b7
       -1.6437856e-05 -0.00013103402 9.513672e-05 -1.7612745e-05
000220 e8 2e e8 b7 7d 21 9b 38 ba 1a a5 b7 8a a6 8b b8
       -2.7678398e-05 7.3972136e-05 -1.9681978e-05 -6.659057e-05
000230 47 82 1d 38 ba 00 92 38 da 69 9e 38 d7 b3 01 38
       3.7553047e-05 6.961958e-05 7.5537435e-05 3.0923486e-05
000240 5a 7e 2a b9 48 bb 85 b9 2c 5a 88 39 cd 11 f5 b7
       -0.00016259533 -0.00025507272 0.00026007125 -2.9214565e-05
000250 ad 16 d6 b8 2d c2 f0 b8 e2 a6 97 38 ee f4 8a 34
       -0.00010208539 -0.0001148026 7.2313254e-05 2.5882713e-07
000260 a8 6b 96 37 6f 46 c7 b8 58 f1 90 b8 57 05 ab 37
       1.7931525e-05 -9.502179e-05 -6.911409e-05 2.0387275e-05
000270 09 1a bb b8 d5 46 76 36 e0 09 8f b6 38 24 8b b7
       -8.921704e-05 3.6698086e-06 -4.2628817e-06 -1.6586957e-05
000280 48 44 1f b8 64 af ca 39 66 b2 08 b8 e1 b9 cb b8
       -3.7972146e-05 0.0003865912 -3.2591073e-05 -9.714417e-05
000290 92 a3 80 36 cd af 29 39 da af 11 38 cf c3 fb b7
       3.8337394e-06 0.00016182587 3.473447e-05 -3.0012712e-05
0002a0 e0 30 e1 33 25 93 21 36 ea ed a5 b7 7b 57 e9 34
       1.0486269e-07 2.407652e-06 -1.978032e-05 4.3463282e-07
0002b0 ff 2a 15 38 cf 26 fc b8 73 2f 1d 39 86 86 3b 39
       3.556441e-05 -0.00012023525 0.00014990363 0.00017883824
0002c0 2d 04 d9 b7 ed 3b f6 37 bf ae 27 b8 5e 44 02 b8
       -2.587036e-05 2.935339e-05 -3.9978648e-05 -3.1058087e-05
0002d0 a4 e2 dc b8 8b 37 4c 39 5e 6e bd 38 07 47 3d b9
       -0.000105326326 0.00019475647 9.03278e-05 -0.00018050904
0002e0 a8 41 55 b8 a8 a8 36 b9 64 5c e2 b7 d3 ab d9 38
       -5.0844304e-05 -0.00017419702 -2.6984322e-05 0.00010379371
0002f0 eb 5f 7b 36 3d bc 95 b9 f3 c5 20 39 db 3d db 35
       3.7457746e-06 -0.00028559743 0.00015332531 1.6334774e-06
000300 38 33 47 b8 d3 1d 7f 38 ba b6 df b7 56 fe c0 37
       -4.7493e-05 6.0824514e-05 -2.666876e-05 2.3006618e-05
000310 a3 fb 8b b6 e1 10 53 b8 50 70 bb b8 9d 9d 33 b4
       -4.171817e-06 -5.032204e-05 -8.937775e-05 -1.6728013e-07
000320 67 82 af 36 2b 0e 64 b9 8e ba c7 36 ca 35 3a b8
       5.2305872e-06 -0.00021749052 5.95238e-06 -4.439595e-05
000330 95 8b 36 36 95 ae 8e b9 5a 17 22 38 03 79 a3 b7
       2.720136e-06 -0.00027214424 3.8645558e-05 -1.9487465e-05
000340 0f 80 1e b8 b7 d2 d9 39 bb f6 bd 38 46 64 d0 b8
       -3.77894e-05 0.0004154646 9.0581794e-05 -9.93689e-05
000350 2e ce aa 38 0f 9d 74 b9 0b 58 31 38 67 0a f7 38
       8.144636e-05 -0.00023328162 4.2282085e-05 0.000117798154
000360 8b 52 92 37 1d cf 14 b6 f2 62 a2 38 6d 85 31 36
       1.7442993e-05 -2.2174274e-06 7.743192e-05 2.645272e-06
000370 96 23 41 b8 8b 45 6f 39 3a 94 fe b7 b0 e1 94 b9
       -4.6047928e-05 0.00022818723 -3.0348183e-05 -0.0002839691
000380 01 7c 86 37 2b 23 0e 39 18 59 0f b9 08 55 20 39
       1.6031789e-05 0.00013555276 -0.00013670733 0.00015290466
000390 d2 c9 02 37 98 6d f6 b5 ee dc d1 37 7a f8 a3 36
       7.795594e-06 -1.8360324e-06 2.501762e-05 4.886705e-06
0003a0 7b ea 87 37 0b 74 49 b9 af 17 29 b8 d1 83 07 39
       1.6202443e-05 -0.00019212083 -4.0314797e-05 0.00012923709
0003b0 1b 9c a9 b6 40 5d 5c 38 7d 4c 66 b7 ca b4 43 b6
       -5.0547656e-06 5.2538933e-05 -1.3726877e-05 -2.9162497e-06
0003c0 9a 93 07 36 45 4a 89 b9 79 08 02 b8 22 c3 c8 37
       2.0202483e-06 -0.0002618601 -3.1002306e-05 2.3932724e-05
0003d0 27 4a 26 b8 37 f6 03 39 d4 48 14 b8 af 37 8a b8
       -3.9646544e-05 0.00012584856 -3.5353776e-05 -6.590725e-05
0003e0 32 f0 e5 b6 e5 d9 12 ba 83 6a a8 b8 23 83 03 38
       -6.8526942e-06 -0.0005601927 -8.0307036e-05 3.1354964e-05
0003f0 53 fd 68 38 df 0a 20 3a 49 ff 57 b9 62 cf d2 38
       5.5549037e-05 0.00061051355 -0.00020599099 0.000100522084

exp_avg_sq f4 [64, 4]
000000 e8 46 e9 33 c2 46 13 36 9c e5 16 36 03 9e 9a 34
       1.0862806e-07 2.1945893e-06 2.2485392e-06 2.8799704e-07
000010 78 1f 93 2e 74 3a 88 31 62 6e 2b 36 76 87 f4 2e
       6.690376e-11 3.9647663e-09 2.5545237e-06 1.1119898e-10
000020 72 50 26 34 d4 b8 0d 37 d5 11 40 36 0f 50 42 35
       1.548922e-07 8.447289e-06 2.862061e-06 7.238713e-07
000030 e3 37 69 33 28 65 4b 38 0a 46 c7 37 dd 47 a0 33
       5.430037e-08 4.849318e-05 2.3755263e-05 7.4636525e-08
000040 1d 54 2e 35 9f c9 e0 36 9f 91 80 35 70 b8 ae 35
       6.494245e-07 6.699192e-06 9.579124e-07 1.3017689e-06
000050 96 cd 59 35 37 01 e3 37 30 69 0c 38 e5 b6 8a 36
       8.1137966e-07 2.7061074e-05 3.3476565e-05 4.134012e-06
000060 af f0 f4 33 e0 1d 93 37 e0 38 50 37 96 01 89 34
       1.14059155e-07 1.7537677e-05 1.2411008e-05 2.5519392e-07
000070 ab 62 ff 33 e3 82 3a 36 08 15 0a 36 1e 21 19 35
       1.18923104e-07 2.7792346e-06 2.0575844e-06 5.7045133e-07
000080 8c cb f7 33 8d 35 81 36 c1 79 0a 36 36 a1 eb 34
       1.1538859e-07 3.8507337e-06 2.0634473e-06 4.3889457e-07
000090 38 5b 18 35 5d f7 0d 37 82 fe fe 35 d0 fb 87 35
       5.6757153e-07 8.461849e-06 1.8998546e-06 1.0131571e-06
0000a0 05 06 15 34 62 72 9f 36 2e ac 93 36 30 bd b5 34
       1.3878896e-07 4.751885e-06 4.4009857e-06 3.385153e-07
0000b0 22 47 63 35 9b ad 0d 38 5a a6 0c 38 03 94 b7 36
       8.46676e-07 3.3778702e-05 3.3533528e-05 5.471056e-06
0000c0 7f cc c9 33 b5 7d 2c 36 e5 5e 01 38 f6 35 8f 34
       9.3969895e-08 2.5703168e-06 3.0844374e-05 2.6675087e-07
0000d0 c5 c1 66 34 ea 05 14 38 61 9c e5 36 82 4a 91 35
       2.1490912e-07 3.5291458e-05 6.8429367e-06 1.0825026e-06
0000e0 10 8f 9f 34 40 84 bd 36 dc c5 e3 36 3a 38 c4 35
       2.972015e-07 5.648035e-06 6.788161e-06 1.4619502e-06
0000f0 40 9c d5 34 2f a5 3d 37 39 27 b4 37 41 72 05 36
       3.9788029e-07 1.1303738e-05 2.1475937e-05 1.988505e-06
000100 78 af f3 33 b4 e0 77 36 3e fe e6 35 89 82 d0 34
       1.1347487e-07 3.6936663e-06 1.721033e-06 3.8837996e-07
000110 d3 28 4e 30 25 9d 0b 35 ed 65 0d 36 68 c7 67 30
       7.500038e-10 5.201021e-07 2.1069966e-06 8.4320684e-10
000120 93 c0 c9 33 d2 61 03 37 1b a0 28 39 ad 4d 71 34
       9.394821e-08 7.830984e-06 0.00016081372 2.2473132e-07
000130 1b 9e 49 36 f0 31 17 38 d6 4a 2a 37 4e 43 f9 36
       3.0043363e-06 3.6047713e-05 1.0150214e-05 7.4286136e-06
000140 84 c9 0b 36 53 92 20 38 76 1b a3 37 7e 72 2b 37
       2.0829912e-06 3.8283248e-05 1.9443902e-05 1.0219052e-05
000150 c8 2e b7 33 00 d1 4c 36 78 81 80 36 8d 73 da 34
       8.530111e-08 3.0520023e-06 3.8297694e-06 4.0689739e-07
000160 c5 d3 39 35 b1 3c 57 37 53 cb 9c 38 ae bf f5 35
       6.9226036e-07 1.2829129e-05 7.476532e-05 1.8309709e-06
000170 1e 76 8a 31 ad 36 80 34 78 e8 4f 36 1c d2 0e 31
       4.029757e-09 2.388164e-07 3.0980718e-06 2.0783153e-09
000180 37 c2 7a 33 26 bf ac 36 39 52 b7 37 e1 e1 7a 34
       5.83843e-08 5.148252e-06 2.1853588e-05 2.3365239e-07
000190 72 f2 b6 33 d4 7d 0c 37 2b 18 4a 36 83 de 8e 34
       8.519136e-08 8.373947e-06 3.0114413e-06 2.661146e-07
0001a0 88 8d 2c 34 c4 12 c9 36 b6 df a7 36 94 e6 58 35
       1.6070237e-07 5.9924514e-06 5.003031e-06 8.0801806e-07
0001b0 f6 6a f0 33 21 1c cd 36 26 c4 56 36 d3 50 3a 34
       1.1195327e-07 6.1127507e-06 3.2002658e-06 1.7352004e-07
0001c0 f9 eb 84 32 9c 0f db 35 25 1a 02 38 42 65 7d 33
       1.547413e-08 1.6321314e-06 3.1018764e-05 5.8998246e-08
0001d0 17 f2 16 2f 10 1c e6 33 7c 33 07 36 61 e3 eb 2f
       1.3728428e-10 1.0715314e-07 2.0146535e-06 4.2907813e-10
0001e0 fe c8 ae 34 ac 2f 1a 37 1d 4b 5e 36 fe 12 c0 35
       3.2556267e-07 9.190215e-06 3.31243e-06 1.4310642e-06
0001f0 51 77 16 34 8c 47 60 35 7e 1b 9d 37 1f 47 95 32
       1.4013246e-07 8.3550617e-07 1.872866e-05 1.7378225e-08
000200 6c 76 85 33 a0 97 c5 35 cc bf 52 36 ff 96 c1 34
       6.214836e-08 1.4721772e-06 3.140408e-06 3.6058915e-07
000210 a1 b4 c6 33 56 80 20 37 7d 7f d5 37 ae bb d7 34
       9.25295e-08 9.566624e-06 2.5450945e-05 4.0183426e-07
000220 b2 d4 0b 34 03 54 a8 36 8a 83 7c 36 6e 49 24 35
       1.3022762e-07 5.0165704e-06 3.7627492e-06 6.1201615e-07
000230 23 32 51 34 bb 33 75 36 5e 01 eb 35 a1 fe b4 34
       1.9482881e-07 3.6537956e-06 1.7509262e-06 3.371288e-07
000240 bf da 63 34 16 dc 42 38 86 a5 bf 37 19 07 58 33
       2.1220602e-07 4.6458175e-05 2.2846052e-05 5.0297874e-08
000250 d7 a1 4b 34 c6 00 ad 34 ac 9e 2f 37 cf cb 19 32
       1.8964725e-07 3.2224324e-07 1.04677565e-05 8.952113e-09
000260 16 c0 1a 33 7d 9e 00 35 4b 2b 37 36 24 fd 61 33
       3.603062e-08 4.7914347e-07 2.7294325e-06 5.2617125e-08
000270 7a a7 01 35 01 09 aa 36 8b 66 36 36 d8 50 dd 35
       4.8299955e-07 5.067443e-06 2.7179801e-06 1.6489312e-06
000280 db 34 9d 34 10 34 94 36 76 de b3 37 23 d8 22 35
       2.9281986e-07 4.4168046e-06 2.1442054e-05 6.0664223e-07
000290 4a cc 92 33 25 58 09 36 20 63 de 37 a0 11 9d 34
       6.835815e-08 2.0465898e-06 2.6510621e-05 2.9256353e-07
0002a0 ec b9 ae 2c 71 44 8d 30 22 14 0b 35 57 04 91 2c
       4.966019e-12 1.0278552e-09 5.181083e-07 4.1216297e-12
0002b0 90 b4 32 35 66 91 48 37 19 35 ad 36 5f 36 50 36
       6.657292e-07 1.1954782e-05 5.161983e-06 3.1026063e-06
0002c0 d2 ce 94 30 be d7 c3 31 e3 3b 16 37 55 e9 a3 2f
       1.0827199e-09 5.699774e-09 8.95464e-06 2.981532e-10
0002d0 c8 3f b4 34 a4 b4 64 37 ef 10 02 37 eb cc e7 35
       3.357402e-07 1.3631918e-05 7.7525465e-06 1.727048e-06
0002e0 a7 4d 9e 35 b8 2a 3d 37 23 5b f4 36 71 56 cc 35
       1.1794517e-06 1.1275224e-05 7.2823764e-06 1.5224342e-06
0002f0 e7 d2 1a 31 17 11 78 36 a1 2a 59 37 ad ff b1 31
       2.2529834e-09 3.6964827e-06 1.2944133e-05 5.180445e-09
000300 43 bb aa 34 9e 10 d4 36 00 37 cd 36 e2 dc 78 35
       3.1801218e-07 6.320027e-06 6.115879e-06 9.2708626e-07
000310 f7 a7 53 30 64 a8 ac 34 94 c1 2e 36 e9 25 88 30
       7.7000045e-10 3.2160017e-07 2.6040698e-06 9.906077e-10
000320 db ac 85 33 e8 f3 84 37 3e 27 ac 38 19 b6 db 33
       6.224737e-08 1.5849204e-05 8.2089085e-05 1.02311056e-07
000330 e3 38 7d 34 c9 73 84 37 bd 62 f7 35 6e af 43 35
       2.3583156e-07 1.5789543e-05 1.8431671e-06 7.2898445e-07
000340 27 41 47 34 fb 19 9f 36 d2 30 0a 38 13 30 67 35
       1.8557022e-07 4.741594e-06 3.294723e-05 8.6124163e-07
000350 cb 77 42 34 74 93 9f 36 f0 d3 cf 35 bf 9e 48 35
       1.8111238e-07 4.755735e-06 1.5484384e-06 7.473681e-07
000360 61 35 57 33 77 d8 97 35 df 69 00 36 16 e2 d9 33
       5.0107136e-08 1.1313376e-06 1.9135111e-06 1.0145975e-07
000370 7d 9a d3 34 bd b3 b8 36 97 c4 1b 37 48 8d ba 35
       3.9414218e-07 5.5045516e-06 9.284492e-06 1.3899198e-06
000380 3a 41 92 34 91 36 58 37 ac 01 24 38 3d 3e 77 35
       2.7242078e-07 1.2887308e-05 3.9102204e-05 9.210524e-07
000390 15 84 00 31 75 2c cd 34 8b 33 36 36 0f c1 f6 30
       1.8701531e-09 3.8216572e-07 2.7150115e-06 1.7953726e-09
0003a0 59 d7 c3 33 e0 e1 93 35 f9 13 f4 35 dc 3d a6 34
       9.1195666e-08 1.1018092e-06 1.818523e-06 3.0964918e-07
0003b0 f9 da d4 2f 67 99 01 35 58 1f 2f 36 e7 05 d4 2f
       3.8718165e-10 4.8279475e-07 2.6095277e-06 3.856677e-10
0003c0 a9 f8 28 33 4f c0 8f 36 b2 00 eb 36 b1 f8 cc 33
       3.9341703e-08 4.2841198e-06 7.0036267e-06 9.544727e-08
0003d0 c4 c9 51 33 4a 60 a6 35 a6 aa 54 37 76 e3 71 34
       4.884511e-08 1.2395988e-06 1.2675917e-05 2.2527624e-07
0003e0 04 79 90 33 e6 ff 1a 37 8c 62 ed 36 fe 2b 48 34
       6.727535e-08 9.238696e-06 7.0746228e-06 1.8642456e-07
0003f0 19 01 d6 34 00 d8 28 38 11 a5 45 37 2a 76 dc 35
       3.9861405e-07 4.0255487e-05 1.17805475e-05 1.6425668e-06

exp_avg f4 [64]
000000 eb b1 34 b9 b4 f0 c6 35 74 c7 43 37 42 5a 78 38
       -0.00017232417 1.4822203e-06 1.16693445e-05 5.9211867e-05
000010 f3 76 f0 b9 d3 34 3b 39 eb 1c 62 39 fb c9 4c 39
       -0.0004586499 0.00017853388 0.00021563812 0.000195302
000020 86 85 d7 38 a7 68 e0 b9 43 69 3b b9 8c 80 52 b9
       0.000102768696 -0.0004280258 -0.00017872923 -0.00020075048
000030 70 be fe b8 fc 5a 8e 37 6c 43 02 b9 4b 57 f4 b8
       -0.000121471356 1.6970087e-05 -0.00012422883 -0.00011651086
000040 d7 53 18 b9 5e 77 1a b6 f4 a4 60 38 e8 99 c6 39
       -0.00014527082 -2.301727e-06 5.3559386e-05 0.00037880172
000050 79 cb bc 38 4d 74 ba b8 4c ef 11 3a 18 f0 ec b7
       9.002438e-05 -8.890834e-05 0.0005566969 -2.8245195e-05
000060 ca c1 84 37 7b 72 cc b8 f6 55 02 38 be 25 a6 38
       1.5825866e-05 -9.748802e-05 3.1074473e-05 7.922527e-05
000070 58 c5 fc 37 70 f6 07 35 cf 43 bc 38 4c 2b 19 b9
       3.0132636e-05 5.065003e-07 8.977169e-05 -0.00014607346
000080 9d 0d 48 b7 fc f9 5b b8 40 f4 aa 35 83 68 8d b8
       -1.19240985e-05 -5.2446485e-05 1.2737073e-06 -6.742871e-05
000090 6f 2e 7b b9 ac 5b 09 b9 66 67 d1 b8 05 f2 8f b8
       -0.00023954523 -0.00013099489 -9.985156e-05 -6.863851e-05
0000a0 61 97 b8 39 2f 54 1d b8 ee f5 89 34 2e 38 11 b8
       0.00035208 -3.751012e-05 2.5697176e-07 -3.4623015e-05
0000b0 0e 54 74 b8 2d 1c ac 38 7b 2c d8 b9 37 0d 7d b7
       -5.8252415e-05 8.206847e-05 -0.0004123187 -1.5083052e-05
0000c0 c5 4a 03 39 8f 0e 1c b7 27 14 cf 37 ce e6 57 b9
       0.00012520987 -9.301714e-06 2.4685707e-05 -0.00020589979
0000d0 f6 ad 95 37 4f 9d 25 b9 80 7e 31 b8 0b 75 81 39
       1.7843191e-05 -0.00015794228 -4.23179e-05 0.00024692
0000e0 6a df 9d 38 7d 0e 22 37 9b a7 2f b9 b9 52 73 b7
       7.5279575e-05 9.659326e-06 -0.00016751738 -1.4503189e-05
0000f0 cf a1 39 b7 1a 63 3d 38 38 bc ab b8 13 05 ea 37
       -1.1064533e-05 4.5153407e-05 -8.188974e-05 2.7897337e-05

exp_avg_sq f4 [64]
000000 6b ab 91 35 3a 46 5c 2f 70 88 8f 35 19 9d 5c 35
       1.0853231e-06 2.0033833e-10 1.0694039e-06 8.2184994e-07
000010 61 d1 be 36 92 f1 84 36 eb 20 62 35 4e 63 e9 34
       5.686816e-06 3.962029e-06 8.423946e-07 4.3471886e-07
000020 f4 a2 cf 34 eb f5 e5 36 74 ee a5 35 ee a7 38 36
       3.867532e-07 6.8533604e-06 1.2362857e-06 2.7515885e-06
000030 15 dc 56 35 85 8e a4 35 e2 5d 72 35 c7 6c 96 35
       8.0041474e-07 1.2260431e-06 9.028864e-07 1.1207529e-06
000040 f2 97 73 35 78 e4 74 31 8a f4 c7 35 cd 7d cb 37
       9.0745664e-07 3.5636543e-09 1.4897826e-06 2.4258066e-05
000050 50 27 8b 37 c8 77 75 34 34 d4 36 37 d4 20 72 33
       1.6588398e-05 2.2860979e-07 1.0897453e-05 5.6374873e-08
000060 a7 94 d7 34 14 f8 86 35 e9 a8 1e 35 45 91 aa 35
       4.015503e-07 1.0055978e-06 5.9105383e-07 1.2708266e-06
000070 43 8c c4 34 a8 52 c2 30 7f 8f ae 35 af fe 0a 35
       3.66099e-07 1.413885e-09 1.3005773e-06 5.177962e-07
000080 e0 e8 27 35 00 d7 43 35 b6 9e 60 35 e1 00 12 36
       6.2551226e-07 7.2956027e-07 8.367746e-07 2.1756207e-06
000090 ab 00 d3 35 d8 af 0d 35 d2 dd 0c 35 c7 d6 45 36
       1.572092e-06 5.278248e-07 5.2476855e-07 2.9480304e-06
0000a0 bb c6 62 36 18 26 28 35 8d 20 22 2e 9d 4a 98 36
       3.37923e-06 6.264031e-07 3.6863446e-11 4.538639e-06
0000b0 57 12 a4 31 94 43 b1 35 3e e4 5f 37 e4 75 f1 32
       4.775113e-09 1.3207195e-06 1.3344978e-05 2.8109703e-08
0000c0 45 6b c0 36 62 23 64 32 63 1b 58 35 20 78 17 36
       5.7345337e-06 1.3279392e-08 8.0506123e-07 2.2570675e-06
0000d0 49 df a6 35 a4 73 75 35 03 91 ee 34 c1 6b a5 35
       1.2432948e-06 9.143789e-07 4.4436464e-07 1.2324818e-06
0000e0 e1 be eb 35 83 f7 67 32 bf de 52 35 5a 44 03 32
       1.7564417e-06 1.3502247e-08 7.8555234e-07 7.640745e-09
0000f0 f2 a5 e5 34 ca aa 81 34 1e 63 db 34 28 32 a8 35
       4.2775315e-07 2.4152388e-07 4.0864046e-07 1.2531573e-06
