toy_al/mini_exp/ckpt_phase1.pt (torch, 47981 bytes, 30 tensors)

fc1.weight f4 [64, 4]
000000 0b 8f e2 bd 0f ed e2 3e cb 33 26 3e c7 8d 16 3f
       -0.110624395 0.44321486 0.16230695 0.58810085
000010 f4 78 5a bf 42 07 65 3d 5a 78 4b 3e 1e 58 0c bf
       -0.8534081 0.055915125 0.19870129 -0.54821956
000020 b8 82 84 3e d0 f0 06 bf 1c 36 05 bf 2a 78 1b bf
       0.2588098 -0.527112 -0.5203569 -0.6073023
000030 ee 0d db be 61 43 21 be dc ba dd 3e 42 ce 69 be
       -0.42784065 -0.1574836 0.43306625 -0.22832587
000040 42 59 6f 3e c6 45 1d 3e c2 04 a6 3d 8e 13 0b 3f
       0.23373893 0.15358648 0.08106376 0.54326713
000050 e9 f2 45 bf 4d 39 05 be 32 a6 57 be ca ac 68 be
       -0.77323776 -0.1301014 -0.21059492 -0.22722164
000060 4c 8f a4 3e 00 c3 68 3e 8e fd fd bc 8a cf 2e 3d
       0.32140577 0.22730637 -0.031004693 0.042678393
000070 d1 8b 0c 3e 9e f8 a4 3e 9b 57 b4 bd fa 40 3c 3e
       0.1372521 0.3222093 -0.08805772 0.18384162
000080 61 cb db 3e 76 4f bc 3e 51 8d 81 bd c3 c0 15 bf
       0.42928603 0.36779374 -0.06325782 -0.58497256
000090 bc 5b 1a 3f dd ca 6f be 99 96 c1 be 0e 3f a5 3e
       0.60296226 -0.2341723 -0.3781021 0.3227467
0000a0 af 71 06 be fb 7b 26 bf e5 21 37 3e fd 68 a3 be
       -0.13129304 -0.6503293 0.17884023 -0.31916037
0000b0 16 48 d0 be b2 f5 ae be f4 87 07 3b 53 8c 93 3d
       -0.40679997 -0.34171826 0.00206804 0.07204499
0000c0 09 69 16 bf d2 05 38 3e c4 96 21 bd 6d e1 3c be
       -0.5875402 0.1797097 -0.039450422 -0.18445368
0000d0 09 95 e8 3c 0a ff 27 3e 9f 93 eb be 87 bc 68 3f
       0.028391378 0.16405883 -0.46011063 0.9091267
0000e0 89 f6 90 be 1e 28 8d bd 91 e3 33 3d 55 6e 15 3f
       -0.2831309 -0.06892417 0.043918196 0.5837148
0000f0 d7 a5 e1 3e b9 18 8d 3e 33 8f e9 bc c4 a4 a5 be
       0.44071838 0.27557924 -0.028510666 -0.3235227
000100 a9 f0 47 3f e3 e1 8e be 7b e2 d9 be 00 77 58 3f
       0.78101593 -0.27906713 -0.42555603 0.8455658
000110 04 20 e4 be f6 da b3 bd 4b 6c 07 bf 87 be a1 3e
       -0.44555676 -0.08781998 -0.52899617 0.31590673
000120 d3 07 3d be ba 0f 89 3e 1f 19 17 3e 86 6f cc 3d
       -0.18460016 0.2676981 0.14755677 0.09982209
000130 72 98 f0 3b 64 34 f2 3d c9 d7 34 be 43 f7 27 be
       0.0073423916 0.11826399 -0.1766044 -0.16402917
000140 94 f3 3a bf d2 02 70 3e b8 0b af be fd f3 65 3e
       -0.7302792 0.23438576 -0.34188628 0.22456355
000150 29 59 0c bf 1f 54 bf 3e 34 72 ab 3d 2d c6 03 bf
       -0.5482355 0.37368867 0.08371392 -0.5147427
000160 03 cf 57 bf f4 c2 9e be 7f d9 96 be 5e 74 79 bd
       -0.8430025 -0.31008112 -0.2946281 -0.060901992
000170 22 6e 17 3f 1b fc c5 be 98 35 a7 be 40 a6 b5 3d
       0.59152424 -0.38668904 -0.32658076 0.088696
000180 92 6c 29 bf c8 8a c1 be 86 3e ab be 31 c5 4b 3f
       -0.6618129 -0.37801194 -0.3344614 0.79597765
000190 53 0a 1e bf 57 e5 8e 3b f2 ce 0c bf 2a 37 4a be
       -0.61734504 0.0043608355 -0.55003273 -0.19747606
0001a0 54 1a 6d bf 93 a6 00 bf 7f 28 2b 3e 4f 13 3e bf
       -0.926183 -0.5025417 0.16714667 -0.7424821
0001b0 7b 02 26 bd ee 8d 68 be fe a0 3c be 9f b0 f1 be
       -0.04052971 -0.22710392 -0.18420789 -0.47205064
0001c0 c8 39 56 3f 88 32 8e be b3 1d 8d 3e 25 55 25 be
       0.8368192 -0.27772927 0.2756172 -0.16145761
0001d0 3e 11 b4 be b1 71 02 3d c6 ec fb bd b0 48 60 3f
       -0.35169405 0.031846706 -0.1230102 0.8761091
0001e0 63 a0 ac 3e 41 fc 58 3d 06 c2 36 bf 57 69 8f 3f
       0.33716115 0.052974943 -0.71389806 1.1204022
0001f0 f0 d3 88 3d 73 15 05 3f 32 4f ee bd 89 5b e5 3e
       0.06681049 0.51985854 -0.11636199 0.44796398
000200 4b 56 1a bf 7d 38 26 bd e0 c5 dc 3e a8 66 00 be
       -0.6028792 -0.040581215 0.43119717 -0.1253916
000210 73 9e 13 bf 60 d0 00 3f d3 86 9d 3e 7c 3a 29 be
       -0.5766365 0.50317955 0.30766925 -0.16526216
000220 94 ff 94 3e 32 92 5c 3b d7 64 87 be ae 8e 10 3f
       0.2910124 0.0033656475 -0.26444122 0.5646771
000230 79 a2 a7 3e 94 85 0d 3e 0b cb 87 3d 27 14 5d 3d
       0.32741144 0.13820487 0.06630524 0.053974297
000240 fa 83 17 bf 93 8b 38 be ca e7 81 be 1a c2 b9 be
       -0.59185755 -0.18021993 -0.25372154 -0.362809
000250 db 2c 76 bf 53 16 ca be e4 0a a7 3e a4 b9 72 bf
       -0.96162194 -0.39470157 0.32625496 -0.94814515
000260 dd 41 bf 3c 23 8f b7 3e f3 aa 0d 3e d1 a3 aa be
       0.023346836 0.35851392 0.13834743 -0.33328107
000270 ce 5c 0f bf bc ff 69 3e f4 be e2 3e 89 c6 d7 3e
       -0.56000984 0.22851461 0.4428631 0.42143658
000280 0b ec f8 bd a6 95 ca 3c bd 6e a2 3e 2f 56 93 3e
       -0.121543966 0.024729561 0.31725112 0.2877669
000290 de 27 68 3f 3d a5 de 3d 1e fe 7b 3e 1d 88 53 be
       0.9068583 0.108713605 0.24608657 -0.20657392
0002a0 42 c5 81 bf f5 45 83 bf 87 d0 c0 3c 29 4a 6b 3f
       -1.0138323 -1.0255724 0.023536934 0.91910034
0002b0 42 18 c3 3e 2a 1c 03 3f a9 10 c4 be 53 95 9f 3e
       0.38104445 0.5121485 -0.3829396 0.31168613
0002c0 66 d8 8d 3e fb 7a dc 3e fc 7c 0f be 42 22 7d 3e
       0.2770416 0.43062577 -0.14012522 0.247201
0002d0 74 88 a3 be 74 49 a1 be da 1d f9 3e 03 22 a5 be
       -0.31940043 -0.31501353 0.48655587 -0.3225251
0002e0 9d 92 ab 3e 8c 15 96 3e 86 bf 14 3e a7 4d fe be
       0.33510295 0.29313314 0.14526185 -0.4966862
0002f0 74 ff 79 3f 1c 2e d8 bd 32 85 d5 be 0e 35 e8 be
       0.97655416 -0.1055567 -0.41703182 -0.45352978
000300 29 56 90 be fa 08 26 be 04 40 a0 3e 07 b7 07 be
       -0.28190735 -0.16214362 0.3129884 -0.13253413
000310 98 ea 35 bf b7 2a d8 3e ee fe ca be 2c 06 e8 3d
       -0.71061087 0.4222009 -0.3964762 0.11329302
000320 74 41 23 bf 68 1e 0d be 10 61 bf be 31 2b 0f bd
       -0.6377175 -0.1378113 -0.3737874 -0.0349533
000330 48 5e 53 bf d5 43 f3 be 95 1b b4 3e a9 62 8a 3f
       -0.82565737 -0.4751269 0.35177293 1.0811359
000340 c9 a3 15 be ec aa 2e 3e 72 80 bc be 0f 09 47 3e
       -0.1461326 0.17057389 -0.36816746 0.1943705
000350 c9 2b cf 3d 78 d3 51 be de 6b 3a bf 2c 10 20 be
       0.10115773 -0.20490825 -0.7282084 -0.15631169
000360 82 f6 fa be 21 28 01 3f 5e c7 8c be b2 ec 35 be
       -0.49016196 0.50451857 -0.27495855 -0.17766073
000370 e3 f7 19 3e 39 ed 78 3e 2a a8 09 be b4 73 1c 3e
       0.15035968 0.24309243 -0.13443056 0.15278512
000380 f3 bf a2 3e 32 29 9f 3e 1f 01 6f be b6 a3 81 be
       0.3178707 0.31086117 -0.23340271 -0.25320214
000390 0e 8f 09 bf 8c c6 10 3e 76 4e 32 3d c4 08 a3 bc
       -0.5373391 0.1413824 0.043531857 -0.01990164
0003a0 f8 3b bf be 12 a0 d1 3e bb 9c e5 3e d4 7b 85 3e
       -0.3735044 0.40942436 0.44846138 0.26071036
0003b0 5d 3d 02 be 50 93 3d be 41 4d b7 be a0 f0 1b be
       -0.1271872 -0.18513227 -0.35801128 -0.1522851
0003c0 2f 53 47 bf c6 9d b9 be 04 4f 06 be 7f bb 58 be
       -0.77861303 -0.36253184 -0.1311608 -0.21165274
0003d0 9f 07 d3 3f 68 0a a8 3d e7 e3 aa 3b 85 e5 9f 3f
       1.6486701 0.0820511 0.0052151564 1.2491919
0003e0 a3 72 a9 3f 2d 73 0f bf f4 f9 71 3e 61 f7 9c 3e
       1.3238109 -0.5603512 0.23630506 0.30657485
0003f0 ff cd 14 3f dd 06 75 3e 95 e3 1b bf c4 b5 9e bd
       0.58126825 0.239284 -0.6089414 -0.07749513

fc1.bias f4 [64]
000000 70 a0 ea 3e 7e f8 cd bc 8e 07 8d 3e 72 8c 62 be
       0.4582553 -0.025142904 0.27544826 -0.22123888
000010 a3 ad 2c 3f 64 21 52 bf 7d 37 f6 3e ec 50 63 be
       0.6745245 -0.820822 0.4808921 -0.22198838
000020 b2 99 fb bc 51 bb 1c 3d 16 27 29 3f e8 19 4e be
       -0.030712936 0.038264576 0.66075265 -0.2012707
000030 43 18 cb 3e 51 8b 90 bf 61 c1 f9 3e 2d 70 f4 bd
       0.39666948 -1.1292516 0.4878035 -0.11935458
000040 05 47 d1 bd e3 87 6c bd 48 ab 30 bf 9f 82 f2 3d
       -0.10218624 -0.05774678 -0.69011354 0.1184132
000050 60 2a e8 be b4 a6 18 bf d7 61 98 3e b3 72 ec 3d
       -0.4534483 -0.5962937 0.29762146 0.11545315
000060 5f 96 e1 bd d6 a7 76 3e eb bf 69 bf 5e 37 e4 bb
       -0.11015009 0.24087462 -0.9130847 -0.006964608
000070 90 a8 14 3f cc f6 da be 7a 2a 8f 3d b9 8c 19 3f
       0.58069706 -0.42766416 0.06990524 0.5998035
000080 f5 b6 c5 be a6 b5 2b be f3 03 24 bf c8 f4 c1 3d
       -0.38616148 -0.16768512 -0.64068526 0.094705164
000090 f1 a6 33 bf 32 12 7e bf 08 49 30 bf ed 61 52 3e
       -0.7017661 -0.99246514 -0.68861437 0.20545168
0000a0 32 e6 19 3e eb 06 0c 3e da 27 49 3f c1 54 4c be
       0.15029219 0.13674514 0.78576434 -0.19954206
0000b0 76 dc 1f be 77 96 c3 3e 06 fa c7 bc a2 da 75 3e
       -0.15611443 0.38200733 -0.024411213 0.24009183
0000c0 fb 3f 05 3f 2b bf 1b bf 3a 4a 07 3f c8 16 78 3f
       0.5205075 -0.60838574 0.52847636 0.9690976
0000d0 d3 b3 df 3e 91 4c a2 3e 09 6f a2 3e 37 6d 14 3e
       0.43691882 0.3169904 0.31725338 0.14494787
0000e0 70 65 04 3f 21 1d d7 3c f3 c4 2e be ef 0e 82 3b
       0.5171728 0.026259007 -0.17067318 0.0039690654
0000f0 79 25 78 3e 99 d1 0f 3e 5b 79 8e 3e 2b 00 bd 3e
       0.24233045 0.14044799 0.27826962 0.3691419

fc2.weight f4 [32, 64]
000000 eb 56 54 3d 2e 2f 00 3e 40 2e 22 be 13 da d6 3c
       0.051840704 0.12517998 -0.15837955 0.026227033
000010 f7 23 b7 bc 01 8e d4 be 20 cf 2b 3e cd 59 ce bd
       -0.022356017 -0.4151459 0.1677823 -0.10075722
000020 c9 77 48 bc 37 05 68 3d 03 1d 1f 3e ea e5 87 3d
       -0.01223559 0.0566456 0.15538411 0.066356495
000030 1f c4 44 3e 6a a2 b5 3c fa 87 d6 bc 15 06 18 3d
       0.1921544 0.022172172 -0.026187886 0.037115175
000040 c5 bc 88 bd aa 86 8c bd 3b b0 51 3d ec 85 97 bd
       -0.0667663 -0.06861623 0.051193457 -0.073985904
000050 2d 51 2f 3e 5f 32 ba 3d cd 6b 38 be 0a 37 dd 3a
       0.1712081 0.09091639 -0.18009873 0.0016877365
000060 fb 35 fc 3d ac 58 1f 3d 7d 76 e5 bc 4c db ee 3c
       0.123149835 0.038902923 -0.028010601 0.029157303
000070 be 96 1e 3e 5d f6 41 3d 66 22 30 3e 4c 80 3b bd
       0.15487191 0.04735409 0.17200622 -0.04577665
000080 00 90 d5 bd be 74 33 bc 52 cc ef bc d6 06 e7 3c
       -0.104278564 -0.0109531265 -0.029272232 0.028201502
000090 6c 3b a6 be 8a 96 3a be 2b 24 85 3d 29 58 ef bc
       -0.3246721 -0.18221489 0.06501039 -0.029216843
0000a0 5d 3d 60 bd 15 21 0e 3d 9a 56 3c 3f be 55 48 be
       -0.05474602 0.03469952 0.73569643 -0.19563958
0000b0 a2 a2 a7 bd f3 67 0a bd 8a 42 4f 3b e9 1b 36 3d
       -0.081853166 -0.03379054 0.0031625354 0.04446021
0000c0 be c0 6f bd f9 92 0c be 6e cb 25 3e e2 f5 d6 3c
       -0.058533423 -0.1372794 0.16190884 0.026240293
0000d0 8e ec 43 3d 33 f3 d5 3d a1 e8 44 bd 88 6c d0 bb
       0.047833018 0.10446777 -0.048073415 -0.006360594
0000e0 bf ff 2b 3e 9d ed 47 bd f6 29 8b bd d3 e1 59 be
       0.16796778 -0.04881059 -0.06795113 -0.21277551
0000f0 69 f8 17 3e 8c 53 e9 3d b4 c5 59 3d 98 ca 06 bd
       0.14840855 0.113928884 0.05316706 -0.032908052
000100 bf 6f 70 3d 80 2d 11 bb 0d 2b e8 3c f2 35 8a bd
       0.05870032 -0.0022152364 0.02834084 -0.067485705
000110 a3 ca 91 bd e0 41 05 be 15 a0 ea 3c 83 60 ec bc
       -0.07118728 -0.1301341 0.028640786 -0.028854614
000120 13 07 47 bd f8 c8 5e bd e9 13 f5 3c ea f8 9d bd
       -0.04859073 -0.054390877 0.02991672 -0.07713492
000130 80 cf 02 bd 66 3e b8 3c 62 86 8c bc 27 05 09 be
       -0.03193617 0.022490691 -0.017153922 -0.13380872
000140 04 be c7 bb f1 f9 20 bc a0 48 95 3d f6 60 a0 3c
       -0.0060956497 -0.009825216 0.07289243 0.019577485
000150 e8 ae 6a 3d 90 1c 09 bd c2 d6 58 bd fe 34 e3 bd
       0.05729571 -0.033474505 -0.052939184 -0.11094092
000160 1b 7a 16 be b1 33 87 bd 7e 48 b0 bd 49 24 98 bc
       -0.14695017 -0.06601656 -0.08607577 -0.01857199
000170 e4 2b d4 3d d5 d7 02 be bd 54 12 bc 9c 2b 43 bd
       0.10359934 -0.12777646 -0.008931336 -0.04764901
000180 88 c3 6a bd 98 0b f7 3c e7 99 8f 3c 69 3c cd 3d
       -0.05731538 0.030156896 0.017529441 0.10021288
000190 7c 6a 9b bc 52 67 97 bd bf 2b 30 3a a1 08 3c 3c
       -0.018971674 -0.07392754 0.0006720386 0.011476667
0001a0 3f d9 8a 3d f1 2f d9 bd dc 3d 19 3d e2 0e 6a bd
       0.06779718 -0.10604847 0.03741251 -0.0571431
0001b0 4c b3 45 3d 12 d6 87 bd 02 68 53 bc 9f f6 c2 38
       0.048266694 -0.066326275 -0.012903215 9.2965776e-05
0001c0 c5 2d 61 bd 3b a2 20 be 42 45 48 bd f2 9b 65 bd
       -0.05497529 -0.15686886 -0.048894174 -0.056056924
0001d0 0d 8b 8c bd 77 2b 5c 3d 25 9f 21 be f0 12 82 bd
       -0.06862459 0.05375239 -0.15783365 -0.06351268
0001e0 ae 62 bd bd b9 b8 57 bd d6 23 9b bd a1 a0 5c 3d
       -0.09247337 -0.0526664 -0.075751945 0.053864125
0001f0 ad 95 a2 3d 9d ee e1 bb f2 3c ff bd 61 ed 22 bd
       0.07938705 -0.0068949 -0.12462796 -0.039777163
000200 7e a8 5c 3e 22 7b 74 3d 32 ac a1 3d 49 2d 6c bc
       0.2154865 0.05968774 0.07894172 -0.014415094
000210 de cd 39 3e dd 9d b8 3c bf 45 c0 3d c7 77 22 bd
       0.18144938 0.022536213 0.09388303 -0.03966501
000220 57 9e c2 3c 4a 1f 49 3e 43 4d 1e be 8f 83 8d bd
       0.023757143 0.19640842 -0.1545916 -0.069098584
000230 e4 60 8b bd 53 29 9f 3d 10 09 e4 3e 24 08 dc 3c
       -0.0680559 0.07771554 0.44538164 0.02685935
000240 71 67 50 3d 3c ed 43 3e 0a 6f fb 3c 6a 9e 1a bd
       0.0508799 0.19133466 0.030692596 -0.03774873
000250 db 33 af be f5 2a 26 be f0 88 18 3e f2 7f 02 3e
       -0.3421925 -0.16227324 0.14895988 0.1274412
000260 35 16 b5 3b 49 3e 42 be 0b de 0b 3d 45 b5 ad be
       0.005526329 -0.18969072 0.034147304 -0.3392736
000270 2c cd 3a 3c eb d5 bb 3d ea aa 1e 3e 0f 17 b1 3d
       0.011401456 0.09171661 0.15494886 0.08646976
000280 6a bd fd bd db fb 48 3d 12 42 a7 3c b3 90 75 bc
       -0.123896435 0.049068313 0.020417247 -0.014988112
000290 1b 02 f1 3d 22 5e 59 bd f6 b7 49 3e 71 4e 31 3e
       0.1176798 -0.053068288 0.19699082 0.1731508
0002a0 1a af 0f 3e e5 7e b9 3d 43 d4 a8 bf e7 85 1f 3d
       0.1403164 0.09057406 -1.3189777 0.03894606
0002b0 59 41 be 3d a6 f2 de 3d 72 8b 98 3d 18 fe 30 be
       0.09289808 0.10886125 0.07448472 -0.17284429
0002c0 d9 f6 3c 3d 7f d6 61 3d ff 82 41 be 61 0d dc 3d
       0.04613385 0.0551362 -0.18897627 0.10744739
0002d0 01 80 40 3d b3 e2 c0 bd 36 83 9d 3d b5 ff 1a bd
       0.046997074 -0.094182394 0.07691042 -0.037841517
0002e0 38 ac 31 bd c9 28 e0 3d 16 b7 c3 3d cd ee 39 3d
       -0.04337713 0.10945279 0.09556405 0.045393754
0002f0 64 46 1a bf 8a 7e 26 bf 30 2e b4 3c d9 d7 07 be
       -0.6026366 -0.65036833 0.02199468 -0.13265933
000300 78 d9 80 bd 45 28 62 3e 5c e2 1a be 10 d6 03 be
       -0.06291479 0.22085674 -0.15125412 -0.12874627
000310 09 9d db bd 25 cd 80 be 09 ab 08 bd c2 c9 8f bd
       -0.107233115 -0.25156513 -0.033366237 -0.07020904
000320 45 e2 5b bd 8d c1 21 3d b2 11 a1 3e 48 6d 57 bd
       -0.053682584 0.039491225 0.31458813 -0.052594453
000330 6f 81 e0 3d 2f 29 43 be bb 6d b5 3d dd b9 00 3e
       0.109621875 -0.19058679 0.0885882 0.12570901
000340 f2 af bf 3d 8d 29 18 be 37 31 dc bd ab 7f 9d bb
       0.09359731 -0.148596 -0.107515745 -0.004806479
000350 80 6a b0 3e 10 8c 5f 3e 62 4e 9f 3d a6 78 ed bc
       0.34456253 0.21830773 0.07778622 -0.028988194
000360 fc 0e d5 3d 39 23 3e bd 07 d0 68 bd b0 e9 8b 3e
       0.10403249 -0.04642031 -0.056839015 0.27326727
000370 43 06 24 be d6 c6 47 bd e1 65 17 be c0 50 af 3b
       -0.16018014 -0.04877361 -0.14784957 0.0053502023
000380 e5 9b 08 3e e8 3d f7 3d 32 34 55 be 32 37 90 bd
       0.13340719 0.120723546 -0.20820692 -0.07041778
000390 45 64 72 be 03 ce be 3c 83 bc 23 3d d2 a2 a3 bd
       -0.23671062 0.023291593 0.0399747 -0.0799004
0003a0 22 e5 0b be 69 2a 14 3e 42 c1 0b 3f bf ce 69 3d
       -0.13661626 0.14469303 0.54591763 0.057081934
0003b0 c0 18 cc bb a3 87 6d bc e0 d3 13 3c e7 25 98 3d
       -0.0062285364 -0.01449767 0.009022683 0.07429104
0003c0 34 b1 06 bd ce 5b 5a 3d d0 57 0f 3e 52 37 bd be
       -0.032883838 0.053310208 0.13998342 -0.3695627
0003d0 6e 2f 23 3e b1 d7 bb 3d e7 3e 4a 3e dc f9 c2 3d
       0.15936062 0.09171999 0.19750558 0.09520313
0003e0 ba c8 1e 3e f2 67 84 3d 8e 7e 7c 3d 84 e9 f7 bd
       0.15506259 0.064651385 0.06164413 -0.121050864
0003f0 60 65 0e 3e ec ae c5 3d 96 ce 4e be 98 c3 f6 3d
       0.13905859 0.09652504 -0.20195994 0.12049025

fc2.bias f4 [32]
000000 fa 12 b1 3d 7f 60 8e bd a1 31 94 bb e9 8a 5c 3d
       0.086461976 -0.06951999 -0.004522518 0.053843413
000010 b4 4b 83 3e 68 36 6f 3e 86 44 3d 3e 10 f0 bd 3c
       0.25643694 0.23360598 0.18483171 0.02318576
000020 a5 95 46 3e b9 65 de bd 47 c4 26 3d 18 96 83 bd
       0.19393022 -0.10859246 0.04071453 -0.064251125
000030 4c b3 70 bd 66 54 d4 3d fe 02 af 3d 80 13 d5 3c
       -0.05876474 0.1036766 0.085454926 0.026010275
000040 fa 19 4b 3e 6c 3b a5 bd 9e c2 7a 3d 19 ed a7 3d
       0.19834128 -0.080679744 0.061220758 0.0819952
000050 6b de ac 3e e5 44 3f 3d 7c b2 b1 3d e9 c4 a9 3d
       0.3376344 0.046696562 0.08676621 0.08289511
000060 67 f8 34 3d 54 61 51 3d e4 55 f1 3d 01 51 5b 3d
       0.044182207 0.05111821 0.117839605 0.05354405
000070 62 a3 26 3d 06 5f 3e 3e 5b bb 55 3e b8 b2 3c 3d
       0.040683158 0.18590936 0.20872252 0.046068877

fc3.weight f4 [16, 32]
000000 1c 5c bb be 47 f0 13 3e a2 54 11 3e d0 2c 8a be
       -0.3659371 0.14447127 0.14192441 -0.26987314
000010 46 1f e8 3d 0f 48 42 3e f7 0a ec 3c 9d fc cb bd
       0.1133409 0.189728 0.028813822 -0.099602915
000020 9a 58 16 bd c2 f7 8a 3d 6e a4 c0 3d 48 2a db bc
       -0.03670559 0.06785537 0.094063625 -0.02675356
000030 e2 aa 2d 3e b7 77 35 3d 22 64 f8 3e cd 52 42 3e
       0.16959718 0.044303622 0.48513895 0.18976898
000040 f7 f4 14 be a4 76 81 3e f1 1b 1f 3c 4d 9f 3d bd
       -0.14546572 0.25285828 0.009711252 -0.0462945
000050 88 7a a1 be 6f 3c 86 3d 1d 34 33 bd 2f bd 7e 3d
       -0.31538796 0.065544955 -0.04375087 0.06219214
000060 ed a5 8c be ab e6 37 be 0e 1e 34 3e 2e 67 84 3b
       -0.2747034 -0.17959087 0.1758959 0.0040406203
000070 51 ce b3 bb 0a da 0f be ad 4a 56 3d ba d4 46 bc
       -0.0054872413 -0.14048019 0.05231731 -0.012135679
000080 83 59 fa bd ed d0 8e 3d 68 cf 52 3e cb 87 0f bd
       -0.12224104 0.06973443 0.20586932 -0.03504161
000090 3e 70 c6 bd 3d a3 63 bd 3f a4 bb 3d b4 9d 59 3d
       -0.09689377 -0.055575598 0.09162187 0.053128913
0000a0 da 40 97 3d f2 55 21 3e b5 a9 12 bf 4b 49 db 3d
       0.07385416 0.15755442 -0.572902 0.10707339
0000b0 f4 d0 8c 3e 0f 0b 86 3b 30 e3 33 3e 21 d4 67 3e
       0.2750317 0.0040906738 0.17567134 0.22639515
0000c0 82 2a 7c 3e 5d f7 34 3e 65 5f 24 3e 6c 4f 04 bb
       0.2462559 0.17672487 0.16052015 -0.002018894
0000d0 00 02 81 3d 02 bb 92 3e 5d e4 34 3e 94 10 1e be
       0.062992096 0.286583 0.17665239 -0.15436012
0000e0 eb 0c 2f 3e 53 ac d0 bc 25 29 22 3e b7 b5 86 bc
       0.17094772 -0.025472796 0.15836008 -0.01644407
0000f0 6c 8b c5 bd 7d 88 d6 be 05 e6 91 bd f3 6f 90 3d
       -0.09645733 -0.41901007 -0.07123951 0.070526026
000100 1e be 10 be 01 3b 47 bb b2 3e d7 bd b1 41 f5 bc
       -0.14135024 -0.003040016 -0.10510005 -0.02993855
000110 6c 5e d7 bd 5a f1 a6 be 70 3f 03 be 74 07 41 be
       -0.105160564 -0.32606012 -0.12817168 -0.188505
000120 b6 36 5a bc 51 6f 28 be 24 7c 17 3f 09 a6 d0 3d
       -0.013318708 -0.16448714 0.591738 0.10187919
000130 d7 32 87 3e 4e d5 09 bd bf 24 4e bf b1 a0 1e 3e
       0.26405975 -0.03365069 -0.8052482 0.15490986
000140 af cc 97 be 0b 14 1f 3e 11 78 06 3f fe 74 dd b8
       -0.2964835 0.1553499 0.52526957 -0.00010559893
000150 ad cd c2 3c d8 ea 5c be ab b8 2b 3e bd 55 0d be
       0.023779714 -0.21573961 0.16769664 -0.13802238
000160 41 a9 29 be c6 c3 21 be 0b a6 86 3e 55 3f c9 bd
       -0.16568471 -0.15797338 0.26298556 -0.09826533
000170 1a ef c9 bd e1 31 e5 bd 49 09 0c bd 95 73 dc bd
       -0.09860058 -0.11191154 -0.034188543 -0.10764233
000180 a4 dd 0e 3e 2f 56 95 bd ee 91 5c be f8 f8 a3 3e
       0.13951737 -0.07291829 -0.21540043 0.32025886
000190 43 9a 74 3d 56 28 0e be 40 f1 d5 3c c2 8e 3d 3e
       0.059717428 -0.13882574 0.026116014 0.18511489
0001a0 2d 76 2c bd c9 3b e0 3d e2 db 00 3e 27 f3 d1 bc
       -0.04210489 0.10948903 0.12583879 -0.02562864
0001b0 90 c1 1f be 7c 24 e6 bd bf 84 05 3d a1 cb 91 3c
       -0.15601182 -0.112374276 0.0325973 0.017797293
0001c0 17 aa 11 3e 76 e8 42 bf e1 be e7 3e 6c d0 88 bc
       0.1422504 -0.7613596 0.45262817 -0.016700946
0001d0 6f e4 45 3e 2d fa cd be 39 de c7 3d 3f 9a 7d be
       0.19325422 -0.4022993 0.097591825 -0.24765871
0001e0 04 d5 98 3e e5 8b 9e 3e 02 b9 11 bd d7 90 b0 3d
       0.29850018 0.30966106 -0.035576828 0.08621376
0001f0 d6 30 51 3d 00 6f d1 3e 82 ae 86 3e ed e9 1a 3e
       0.051071964 0.40905 0.26305014 0.15128298
000200 5d 00 17 3e 43 1a 20 3e e1 cc 38 3d 4b c3 78 3d
       0.14746232 0.15635018 0.045117263 0.06073312
000210 cf b9 67 39 fc 33 1a be 6c 31 f0 3d f0 01 87 bd
       0.00022099096 -0.15058893 0.117281765 -0.065921664
000220 e4 92 1c bd 54 10 e8 bd 5d bb ad 3d f9 3e c7 bc
       -0.038226023 -0.11331239 0.08483002 -0.02432202
000230 3e 41 31 be d4 92 17 be 10 df 19 3c e3 cb 21 be
       -0.17310044 -0.14802104 0.009391561 -0.15800433
000240 cb 0c 14 be 7d 06 fe bd ac c5 09 be 8f 76 d1 bd
       -0.14458005 -0.12403581 -0.13454312 -0.102276914
000250 68 e5 e2 bd 71 76 20 be f2 dd 2c 3d 56 39 54 3d
       -0.11078912 -0.15670182 0.04220385 0.051812492
000260 0e 42 21 3e 59 f3 76 3d 22 61 f9 3d 20 e8 e2 bd
       0.15747854 0.06029067 0.1217673 -0.110794306
000270 c2 57 af bc c1 75 18 be 99 ca c9 bc 0f fa 41 3e
       -0.02140415 -0.1488867 -0.024632739 0.18943046
000280 7d 0e 60 3d 8c 2b 1d be 70 97 b5 bd 7a bc 30 3e
       0.054701317 -0.15348643 -0.08866775 0.17259398
000290 59 00 93 3d c5 4a 59 3e 75 03 cd 3d c5 07 6d 3e
       0.07177801 0.21219929 0.10010425 0.23147495
0002a0 d3 56 22 3e fb b1 49 3e 71 6d 88 bd 4a 14 19 3e
       0.15853433 0.196968 -0.06661499 0.14949146
0002b0 0b 55 22 3d 82 b5 3d 3e 34 b6 a8 be f1 f0 56 be
       0.039631885 0.18526271 -0.3295151 -0.2099035
0002c0 e5 ed 05 3e a0 b3 08 3e f0 07 69 be 9b dc ae bd
       0.13079031 0.13349771 -0.22756934 -0.08538171
0002d0 20 87 a1 bd c2 1d 2d be d5 5e fe bd 8c 61 4e 3e
       -0.07887101 -0.16905883 -0.124204315 0.20154399
0002e0 b7 fb 05 3e 52 9e 59 3d 23 7b ab 3a 92 58 f2 bd
       0.13084303 0.0531295 0.0013082962 -0.118333
0002f0 81 1e 89 bd 26 e0 49 be 8b 97 11 3e dd 82 a9 3c
       -0.06695271 -0.19714412 0.14217965 0.020692283
000300 9a c3 e7 3a fb 70 21 be c1 5e 5a be 75 cf c9 bd
       0.0017682195 -0.15765755 -0.21325208 -0.098540224
000310 24 7a 26 3c 0e 07 b7 bd 5a 88 b9 bd d1 8e ed 3d
       0.0101609565 -0.089368924 -0.0905921 0.11599506
000320 9e f2 34 be 96 68 cd 3d 36 f4 f4 bc ef 62 85 3d
       -0.17670676 0.10029714 -0.029901605 0.06513011
000330 e0 5c 40 3c 55 bf 91 3d 72 5d 16 be 6c d6 93 bd
       0.011740893 0.07116572 -0.14684084 -0.07218632
000340 f0 0b 3b bd 16 a1 29 3e a5 bd 07 bd 29 76 2a 3e
       -0.04566568 0.16565356 -0.033139843 0.16646637
000350 4e c7 24 be b2 bd f0 bd 7d da e9 3d 12 7f 3b be
       -0.16091654 -0.117549315 0.114186265 -0.18310192
000360 49 68 16 be 97 78 8b 3b 82 68 d7 bd fe 2b 5d be
       -0.14688219 0.004256319 -0.1051798 -0.21598813
000370 af 68 0c 3e 73 8c 35 3d 23 1d bc bd c2 c9 27 3e
       0.13711809 0.044323396 -0.09185245 0.16385558
000380 27 8b 46 3e 44 fd e3 bc dd 63 06 bf a0 fd 92 3d
       0.1938902 -0.027830727 -0.5249613 0.071772814
000390 24 5a 2a 3d 3f 06 18 3e 6e 8e 78 bd 77 cc 44 3e
       0.04158987 0.14846133 -0.060682707 0.19218622
0003a0 2a 8b ff 3d e3 9f 07 bc 3e db af bd e2 c1 f2 bd
       0.12477715 -0.008277866 -0.08586739 -0.118533865
0003b0 c5 be 95 bc 78 f3 11 be 68 f4 71 3e 33 42 2e 3d
       -0.018279443 -0.14253032 0.2362839 0.0425436
0003c0 cd c8 22 3e 32 4e ca 3e 12 5b 9e be e4 03 29 be
       0.15896912 0.39512783 -0.30928856 -0.1650539
0003d0 f3 c0 3d be ae 44 b0 3e ba ab e1 bd d0 32 82 3d
       -0.18530636 0.34427398 -0.11019082 0.06357348
0003e0 01 5c 10 3e 76 b9 45 be 5a 80 90 3e 89 a9 97 be
       0.14097597 -0.19309029 0.28222924 -0.29621533
0003f0 c8 39 51 3e 94 e0 24 bf 1a 03 e6 bc f2 25 a7 3d
       0.20432198 -0.6440518 -0.02807765 0.08161534

fc3.bias f4 [16]
000000 b1 0d b1 bd 26 2c 66 be de 97 19 3e d1 51 e1 3c
       -0.086451896 -0.22477779 0.14999339 0.027504833
000010 59 87 05 be 76 f9 14 3e 17 04 0f bd db c7 41 be
       -0.13039912 0.14548287 -0.03491601 -0.18923895
000020 df a5 1c 3e 4d 46 a1 3e 1b f3 5f bd 79 70 d6 3d
       0.1529765 0.31498948 -0.054675203 0.10470671
000030 0f 6e d3 3c c0 87 ee 3e 85 eb 36 3e bf ba 1a 3e
       0.025809316 0.46587944 0.17863281 0.151103

fc4.weight f4 [8, 16]
000000 78 e4 07 3e b5 7d 74 be 2e 56 29 3e d8 d6 ca 3d
       0.13270748 -0.23876078 0.16536781 0.099042594
000010 76 bb 10 3e 8a 27 42 be 5c 0b db bd 10 2e 2c 3e
       0.1413401 -0.18960395 -0.10695526 0.16814446
000020 69 18 95 bd 98 a9 49 be 27 8c 2e be e6 9f 78 3d
       -0.072800465 -0.19693601 -0.17045651 0.060699366
000030 ca bd 09 bd 71 d4 3d bc 76 a7 d8 3c 84 4c f0 3d
       -0.033628263 -0.0115862945 0.02644704 0.11733344
000040 aa 5d a2 be 2e 06 03 be 7b 3c 85 3e 9a 02 68 3c
       -0.31712085 -0.12795326 0.26022705 0.0141607765
000050 ed 81 21 3c fe 30 95 3e 8e d9 cf bd 69 74 91 3c
       0.009857637 0.2913894 -0.10148917 0.017755704
000060 f3 a0 aa 3e a2 40 a0 bb ca 59 46 be 29 41 da bd
       0.3332592 -0.0048905173 -0.1937019 -0.106569596
000070 8a c5 95 3e 1a aa b8 3e 8a dc 2d bd 6a 6c ff bd
       0.29252273 0.36067277 -0.04244665 -0.1247185
000080 5c 11 e7 3b f7 aa 0f be a9 cd 9e 3e 35 fe 95 3e
       0.00705163 -0.14030062 0.3101628 0.29295507
000090 76 0a a7 bd 5c 65 26 bd 4d 55 2a be 49 4e 22 bd
       -0.08156292 -0.040624008 -0.16634102 -0.03962544
0000a0 0a 36 13 be 75 07 ca 3e 0e 2a 57 3f 8d e1 0f 3e
       -0.14376083 0.39458814 0.84048545 0.14050885
0000b0 78 90 25 be 5d 91 0c 3e e5 0e 25 be 8f 1f d1 be
       -0.16168392 0.13727327 -0.16118963 -0.4084439
0000c0 a2 3a e4 be 62 f0 81 3e 91 70 d3 be 46 1d a9 3e
       -0.44575983 0.2537871 -0.4129682 0.33030146
0000d0 a0 f7 35 3e ca 7b 88 3d 03 a6 78 3d 36 82 06 bf
       0.17770243 0.06664236 0.060705196 -0.52542436
0000e0 de cf 1a be 42 8c 05 bf 8e 20 3d 3e 9b 75 10 3c
       -0.15118358 -0.5216714 0.1846945 0.008817102
0000f0 ae 08 ee bb 46 e1 74 be 15 d6 9d bd 88 af 33 be
       -0.0072642183 -0.2391406 -0.077068485 -0.17547429
000100 1f e9 0e 3e 55 49 e9 be 3a dc 20 bf 3b 46 0d 3f
       0.13956116 -0.4556376 -0.6283604 0.5518529
000110 ba b8 63 be 4f 8e d8 bc 97 cf e1 bc 78 41 95 bf
       -0.22238436 -0.026435046 -0.027564807 -1.1660604
000120 1a 85 0c be eb 2d 6a 3e 96 e3 8b 3e 54 a9 0f 3e
       -0.13722649 0.22869079 0.27322072 0.14029437
000130 9c 49 a0 bd 8f b4 5b be 53 93 ca 3d be 2c 50 3e
       -0.0782654 -0.21455596 0.09891381 0.20329568
000140 f7 34 e8 3d d9 e2 4d be 48 5d 68 bc 37 ad 0e be
       0.11338227 -0.20106067 -0.014182396 -0.13933264
000150 f0 bd 47 3e 07 87 75 3e fa 19 52 3d f4 25 4a ba
       0.19506049 0.2397729 0.051294304 -0.0007711344
000160 c8 27 9e 3e 5f 07 84 3e 2b 2d 45 bf 50 88 3d be
       0.30889726 0.25786874 -0.77022046 -0.1850903
000170 c2 56 25 3e a2 18 19 bc 3b c6 8c 3e 5c f7 44 3e
       0.16146377 -0.009344252 0.27494988 0.19234985
000180 2f c1 6f be dc 25 07 3e 3c b9 d2 be 1c 57 c8 3e
       -0.23413537 0.13198036 -0.41156948 0.3912896
000190 07 20 f2 3d 11 00 18 3e 80 e0 d8 bc 4b 6e 03 bf
       0.11822515 0.14843775 -0.026474237 -0.5134017
0001a0 65 5d 81 be f6 3f 67 3e 48 cb 8c 3e 62 1f 73 3d
       -0.25266567 0.22582993 0.2749884 0.0593561
0001b0 df 6c f3 bd 17 dd e9 be f4 71 51 3e 8b 85 84 bd
       -0.11886 -0.4567649 0.20453626 -0.06470784
0001c0 e6 e8 e9 3c 5a ad 8a be 8c 1a 24 3f cc 43 77 3e
       0.028553437 -0.27085382 0.6410301 0.24146956
0001d0 4b f3 0d 3e 85 23 7c 3e 94 b9 c7 3c d9 b9 51 3e
       0.1386234 0.24622925 0.024380483 0.20481052
0001e0 b0 b4 bd 3d 3c 3f 2a be 9a 65 eb bd 71 95 3f be
       0.09262979 -0.16625684 -0.11493988 -0.18709351
0001f0 4b 1a 04 3e f4 52 d0 3e ed c7 6d 3d 16 bb 53 3d
       0.12900655 0.40688288 0.058051992 0.05169209

fc4.bias f4 [8]
000000 25 03 79 be 9d f9 c5 3d 3f 9f a6 3e 18 ae be be
       -0.24317606 0.096667506 0.3254337 -0.37242198
000010 3d a8 16 3e 54 96 14 3e 9b 88 f5 3d db 07 bb 3d
       0.14712615 0.1451047 0.11988946 0.09132358

fc5.weight f4 [3, 8]
000000 24 b5 b0 bc 44 6a b2 3d de 2a 42 3e e5 30 45 3f
       -0.02157075 0.08711675 0.18961665 0.7702773
000010 c2 00 21 be bc 0b 36 3e fb 6b c1 be 49 03 01 3f
       -0.15722945 0.17777914 -0.37777695 0.5039564
000020 8f 0e 66 3d 58 ee 5d 3e db a2 8a 3d 79 53 5a be
       0.056166228 0.21672952 0.067693435 -0.21320905
000030 b8 77 9a 3e 62 65 4d be 54 a9 c2 3e 0d 44 93 bd
       0.30169463 -0.20058206 0.38019812 -0.07190714
000040 92 b0 a3 be 6c 71 bf 3e 73 fa b3 be 4b 33 61 3f
       -0.3197065 0.37391222 -0.35152015 0.8796889
000050 3e 27 3a bf ea bd 37 3e 8f e3 40 be 93 3b fa 3d
       -0.7271613 0.1794354 -0.18836807 0.12218394

fc5.bias f4 [3]
000000 86 29 be 3c 4b 85 08 3e d7 e5 0b 3f
       0.02321316 0.13332097 0.5464758

exp_avg f4 [64, 4]
000000 6e 47 e5 37 d1 92 03 b9 77 78 f6 38 47 bc 8b 38
       2.733219e-05 -0.00012547827 0.000117526324 6.663106e-05
000010 8e 0b 36 b7 08 bc f4 38 fc 23 85 b8 90 d3 0d b8
       -1.0850736e-05 0.0001166985 -6.348637e-05 -3.3814053e-05
000020 98 b4 cc b7 18 60 3f b7 84 3f 3c 37 4d 17 39 37
       -2.440279e-05 -1.1406861e-05 1.1220462e-05 1.1032284e-05
000030 3c eb 4f 39 3a 15 20 ba 38 86 fc b8 3d 26 ad 39
       0.0001982869 -0.00061066786 -0.000120412966 0.0003302562
000040 ba 13 b3 38 53 5f c0 b9 1b b8 98 39 89 54 20 39
       8.5390595e-05 -0.00036692116 0.00029128868 0.00015290281
000050 43 55 ab b7 20 3f 69 38 37 08 c4 b7 6a b0 e9 b7
       -2.0424492e-05 5.561032e-05 -2.3368846e-05 -2.7857914e-05
000060 c4 2d 64 37 de 66 5d b8 21 84 b6 b7 55 b5 18 37
       1.3600515e-05 -5.278631e-05 -2.1757618e-05 9.102126e-06
000070 3b 47 1a b7 19 23 b3 b6 62 f0 b6 b8 af 20 13 38
       -9.1957e-06 -5.3387016e-06 -8.723211e-05 3.507797e-05
000080 81 16 5a b8 bb 05 6a 39 c3 9a a3 b8 f2 9c 9e b8
       -5.199621e-05 0.00022318114 -7.801272e-05 -7.5632604e-05
000090 6f 78 af 37 ea 09 e6 37 e4 44 4c 38 20 22 ed 37
       2.0917707e-05 2.7422753e-05 4.870155e-05 2.8268492e-05
0000a0 45 2a d5 b9 2b 84 ab 3a 98 e4 e9 38 2f ea 6e ba
       -0.0004065802 0.0013085654 0.00011152885 -0.00091138756
0000b0 04 00 00 00 04 00 00 00 04 00 00 00 04 00 00 00
       6e-45 6e-45 6e-45 6e-45
0000c0 bb 7e 76 b7 47 16 9f b7 03 b4 5f b8 36 ac 2f b7
       -1.4692249e-05 -1.896465e-05 -5.3334992e-05 -1.0470909e-05
0000d0 7b 7a 5b b7 57 93 74 b8 a1 3b f8 38 3c 99 a6 b7
       -1.3081934e-05 -5.8311354e-05 0.00011836668 -1.9860097e-05
0000e0 33 95 f0 38 9b b9 00 ba 98 ef 0d 39 24 a2 7c 39
       0.00011471882 -0.000491047 0.00013536063 0.00024092995
0000f0 a7 eb dd b6 51 08 d6 b8 f1 e4 dc b8 af 2d 16 38
       -6.613747e-06 -0.00010205864 -0.00010533061 3.5805333e-05
000100 a0 48 c6 37 67 ba de 37 da 09 15 38 ca 9c fc 37
       2.3637258e-05 2.6551263e-05 3.5533543e-05 3.0113752e-05
000110 66 a5 ab b5 1b 34 45 b7 d8 50 47 37 9f f8 7c 36
       -1.278863e-06 -1.1754247e-05 1.1880147e-05 3.7695643e-06
000120 21 0d da 37 75 3b 2d 37 16 93 08 b8 60 ce 8d 38
       2.5993739e-05 1.0325447e-05 -3.256191e-05 6.761844e-05
000130 28 b4 27 b8 5b b0 37 39 25 6e e7 37 0f 31 d5 b8
       -3.9983686e-05 0.00017517938 2.7588636e-05 -0.00010165769
000140 5e f2 61 b8 d5 ed cd 39 74 55 2d b8 22 fd 32 38
       -5.3869902e-05 0.00039277846 -4.1326e-05 4.2674255e-05
000150 48 88 91 37 a3 b6 aa b8 96 b0 1e b9 83 40 99 38
       1.7348808e-05 -8.1402504e-05 -0.00015133838 7.307625e-05
000160 34 25 98 38 89 24 8d b9 a8 93 a2 b8 bc 7a 44 39
       7.2548544e-05 -0.00026920837 -7.752265e-05 0.00018737739
000170 75 73 4b 36 9f 2d 1e 37 aa c0 99 37 d9 79 7f 37
       3.0316562e-06 9.428156e-06 1.8328737e-05 1.5227554e-05
000180 5d cd 36 35 ba de 2a b7 ed ad bd 37 a0 cd 56 36
       6.8099126e-07 -1.0184647e-05 2.2611546e-05 3.2008174e-06
000190 9c 50 cc b7 f0 c3 45 39 89 e6 2a b7 5b b2 16 b9
       -2.4356232e-05 0.00018860376 -1.0186465e-05 -0.00014371557
0001a0 32 78 38 b7 33 37 a6 37 65 6c 9e b8 0f d4 67 b7
       -1.099524e-05 1.9814446e-05 -7.554217e-05 -1.3818047e-05
0001b0 9f 6d 18 b8 72 28 ca 39 95 25 c3 b7 49 27 55 b9
       -3.6341717e-05 0.00038558576 -2.3263312e-05 -0.00020327898
0001c0 34 a6 2b b9 fa e7 38 3a f9 23 14 39 8f 69 e0 b9
       -0.00016369746 0.000705361 0.00014127781 -0.00042803257
0001d0 ab 2c 70 37 e1 18 6d b9 3a 93 f3 38 45 cd c3 b7
       1.4315515e-05 -0.0002261135 0.00011614566 -2.3341398e-05
0001e0 e2 b9 d9 b7 d2 6b 36 b8 53 28 ac 38 c5 9f 7b b8
       -2.5954974e-05 -4.3492597e-05 8.20911e-05 -5.999186e-05
0001f0 cc df a6 37 67 b6 27 b9 2f a8 83 b8 20 2a 93 38
       1.9892956e-05 -0.00015994311 -6.2778934e-05 7.0173526e-05
000200 a7 a3 35 38 cb f2 25 b9 5e df 63 b8 f6 d5 af 38
       4.3306176e-05 -0.00015826074 -5.4329044e-05 8.3845036e-05
000210 a8 3c 98 36 96 64 e4 b7 2c 1a 9e b8 5e 1c 1e 38
       4.5370143e-06 -2.7226557e-05 -7.538902e-05 3.7696555e-05
000220 01 25 d2 b6 88 18 8c b7 79 07 30 38 ab e5 35 b7
       -6.2627955e-06 -1.6700724e-05 4.196863e-05 -1.0841914e-05
000230 da 63 26 37 51 fb 58 b7 ce de 2b 39 f4 63 66 37
       9.9176195e-06 -1.2933117e-05 0.00016390832 1.373234e-05
000240 4a 0a c6 38 79 d0 5b b9 bd d1 5b b8 95 f8 21 39
       9.443292e-05 -0.0002096313 -5.2409003e-05 0.0001544676
000250 86 ad 70 b9 d0 c6 41 3a 16 cd 20 b9 53 e4 03 ba
       -0.00022952826 0.0007391991 -0.0001533519 -0.00050312764
000260 d6 9f 0e b9 f4 92 24 3a f6 43 ea b8 18 1d 88 b9
       -0.00013601719 0.0006278001 -0.00011170648 -0.00025961618
000270 9d 3e 37 38 c9 bb 58 b9 9d 3e 78 38 0f 75 bd 38
       4.3688913e-05 -0.0002066932 5.918612e-05 9.034026e-05
000280 f7 f7 14 38 19 9d 31 b8 b2 b5 d3 37 f6 2f f8 37
       3.5516885e-05 -4.2346397e-05 2.5237769e-05 2.9586237e-05
000290 95 e0 1d b9 1e b6 17 3a 66 5e 81 37 3d 4b af b9
       -0.0001505635 0.00057873304 1.5421956e-05 -0.00033434658
0002a0 43 24 18 38 93 0b ee b8 96 f2 40 39 94 5f 19 38
       3.6273395e-05 -0.0001135088 0.00018400917 3.6567057e-05
0002b0 12 9f 10 37 a7 4f 96 b8 e6 9d 82 b8 be 10 69 38
       8.620105e-06 -7.167394e-05 -6.228294e-05 5.556712e-05
0002c0 2d 50 93 35 1b e6 13 38 c6 e4 52 b7 87 6d 3d 37
       1.0975688e-06 3.5261834e-05 -1.2570241e-05 1.1290779e-05
0002d0 ec c0 51 b9 56 2a 71 3a 49 5c bb 38 55 f4 f5 b9
       -0.00020003662 0.0009199729 8.934044e-05 -0.00046912083
0002e0 8b 8d 60 b8 35 21 25 39 a7 76 55 38 83 b5 e0 b8
       -5.3537584e-05 0.00015747997 5.089366e-05 -0.000107149615
0002f0 cb 50 1e b9 04 a1 15 3a 10 f8 7d b7 5d 20 e6 b9
       -0.00015098152 0.0005707892 -1.5137732e-05 -0.0004389313
000300 5f 40 b5 37 7a 57 dc b5 d8 d6 41 39 5f 46 e7 37
       2.1606857e-05 -1.6416736e-06 0.0001848595 2.7570115e-05
000310 33 21 92 b7 c1 da 6e 39 56 8a 45 b8 ca d5 0a b8
       -1.7420016e-05 0.00022778941 -4.7097295e-05 -3.310087e-05
000320 f8 6d 2d 38 54 79 3a b9 e0 e9 c9 37 0e 19 81 38
       4.134883e-05 -0.0001778354 2.4069974e-05 6.155866e-05
000330 17 d8 1b b8 8d 82 f7 38 62 0e 5e 38 40 4c b2 b8
       -3.715613e-05 0.00011802195 5.294232e-05 -8.501904e-05
000340 c8 fd e7 b4 92 22 0b b8 53 34 3f b6 b8 1a f2 36
       -4.3211753e-07 -3.317238e-05 -2.8491675e-06 7.2152725e-06
000350 b5 aa 96 b9 09 29 5d 3a 35 01 aa 38 f3 02 27 ba
       -0.00028737416 0.00084365957 8.1064565e-05 -0.0006370984
000360 d2 0c b1 36 ae 54 ac b8 6e b5 84 b8 e0 07 80 38
       5.2765035e-06 -8.217372e-05 -6.3280444e-05 6.1049825e-05
000370 f6 82 1d b7 5d 20 58 38 cd 6b 7f b7 d7 ce c4 b6
       -9.388421e-06 5.1528554e-05 -1.5224284e-05 -5.8653345e-06
000380 12 5a 54 b8 66 27 41 39 4a ac db 37 ec 71 cd b8
       -5.0628623e-05 0.00018420591 2.6187063e-05 -9.796381e-05
000390 94 53 3f 38 8b fe 0b b9 93 bc f0 b8 4a ff e8 38
       4.5615787e-05 -0.00013350898 -0.000114792165 0.00011110173
0003a0 f9 0c c1 b7 9c 6a fa 38 7a 82 45 38 2f b4 00 b8
       -2.3013434e-05 0.000119407865 4.7089976e-05 -3.0685387e-05
0003b0 4e ea 53 b5 a4 89 75 38 84 04 c3 b8 b3 58 df b6
       -7.8944583e-07 5.854074e-05 -9.299166e-05 -6.656244e-06
0003c0 93 6b 84 38 92 2e 09 b9 e4 b8 73 b8 34 ba 18 38
       6.314288e-05 -0.00013082687 -5.8107908e-05 3.641304e-05
0003d0 f5 30 0c b7 cf 63 0a b9 51 ea 6c 39 dd 98 14 38
       -8.356049e-06 -0.00013197887 0.00022594004 3.5428315e-05
0003e0 35 5e 0d b7 a9 70 be 37 16 6f ab 38 8b 36 03 b8
       -8.426189e-06 2.2702226e-05 8.174607e-05 -3.128363e-05
0003f0 cc 3d f6 37 7b a3 83 b9 fb 39 a6 b7 8a b1 64 38
       2.9354262e-05 -0.0002510807 -1.9815741e-05 5.4524782e-05

exp_avg_sq f4 [64, 4]
000000 a1 4c 37 35 24 fb 33 37 23 1c 31 37 92 b5 51 36
       6.828432e-07 1.0727705e-05 1.0556573e-05 3.1249115e-06
000010 b5 4f bd 32 50 f2 91 35 cd 39 41 37 d7 8b e6 33
       2.2038742e-08 1.0873864e-06 1.1517154e-05 1.0735646e-07
000020 f4 07 38 32 c3 d0 c8 33 f7 3c 30 35 78 76 96 32
       1.0712018e-08 9.351199e-08 6.5653825e-07 1.7516172e-08
000030 3c 9f aa 36 16 5b 75 38 cb 2e 02 37 d2 26 8b 37
       5.084932e-06 5.8497382e-05 7.759499e-06 1.6588168e-05
000040 1d ca 2b 35 46 76 a0 37 8d b0 5c 38 f5 7a 43 36
       6.399658e-07 1.9128562e-05 5.2616513e-05 2.9128835e-06
000050 ce 19 13 32 4f c4 7c 33 6c 1f fa 34 dc 43 99 32
       8.5623935e-09 5.8851864e-08 4.658899e-07 1.7842403e-08
000060 88 9c 0a 33 aa be a1 35 9f ec d8 36 a4 7d f8 33
       3.2272993e-08 1.2050925e-06 6.464848e-06 1.1571254e-07
000070 26 97 e1 33 a9 ac f4 35 57 01 c5 34 c4 56 02 35
       1.0504873e-07 1.8229667e-06 3.6695084e-07 4.8555034e-07
000080 52 3d 8d 35 14 e7 b1 37 85 a3 a2 35 1f 31 5e 36
       1.0523165e-06 2.1207648e-05 1.2117531e-06 3.310917e-06
000090 ca e8 89 32 01 77 57 34 25 90 75 35 47 90 ea 32
       1.605476e-08 2.0066729e-07 9.147937e-07 2.7306795e-08
0000a0 41 b3 c9 36 4f 08 d3 38 6a 38 b0 37 e1 94 19 38
       6.0111347e-06 0.000100628116 2.1007105e-05 3.6616697e-05
0000b0 77 f8 0d 23 13 7b e2 22 4f 4d 9d 2a 2b 2c d3 22
       7.69624e-18 6.1387733e-18 2.7942446e-13 5.723843e-18
0000c0 63 2d 4e 33 90 e7 0f 36 1a f1 be 35 a4 f4 00 34
       4.800439e-08 2.1443448e-06 1.4226273e-06 1.2009929e-07
0000d0 42 09 7b 32 af d5 ba 35 98 d6 ad 36 8b 51 f5 32
       1.4612228e-08 1.392027e-06 5.180784e-06 2.8558835e-08
0000e0 db d9 bd 34 a9 b3 3c 37 8c fe 29 37 41 e3 ab 35
       3.5362504e-07 1.1247504e-05 1.0132451e-05 1.2806632e-06
0000f0 0d 65 b7 33 82 eb 8d 36 0c 91 cc 34 26 bb 8c 34
       8.5399826e-08 4.229544e-06 3.8103497e-07 2.62132e-07
000100 ab d4 8d 32 3d 0f 2a 34 9f f9 1b 35 49 a4 14 33
       1.651127e-08 1.5838027e-07 5.8105246e-07 3.460835e-08
000110 2c 28 90 31 b6 6d d7 34 3a 4c a4 35 a7 c7 19 32
       4.1955186e-09 4.0126696e-07 1.2241137e-06 8.951168e-09
000120 19 85 19 35 02 45 09 37 47 43 a6 36 ee 27 cf 35
       5.7190624e-07 8.1819035e-06 4.9550176e-06 1.5434323e-06
000130 d9 e5 cf 34 e9 05 a1 36 4f e7 49 34 05 3a 8a 35
       3.872399e-07 4.798862e-06 1.8803733e-07 1.0298687e-06
000140 c4 08 fa 37 2f 47 c2 39 49 e1 44 37 64 e7 a7 38
       2.9806404e-05 0.000370556 1.1734964e-05 8.0062804e-05
000150 a2 c3 24 34 9c 7a 40 36 be 94 2e 37 17 c0 3f 35
       1.5344861e-07 2.8681598e-06 1.040584e-05 7.143257e-07
000160 53 9b 42 36 7b 76 f7 37 8e ba 7d 34 aa 22 0f 37
       2.8998663e-06 2.9499866e-05 2.363033e-07 8.531535e-06
000170 c4 57 a9 31 8b eb da 32 16 1c 22 34 53 53 9b 32
       4.928525e-09 2.5485653e-08 1.5097643e-07 1.8082266e-08
000180 75 48 8f 30 5d 72 1a 33 ed 80 e3 34 f4 72 05 32
       1.0425213e-09 3.5959932e-08 4.237585e-07 7.767756e-09
000190 85 22 e1 34 0b 04 da 36 33 93 63 34 92 3b f2 35
       4.1934632e-07 6.497377e-06 2.1194573e-07 1.8047742e-06
0001a0 c8 4b a3 32 60 df a2 34 71 9c d8 37 05 23 51 33
       1.9010159e-08 3.0337378e-07 2.5822055e-05 4.8693455e-08
0001b0 9f 3c 4f 37 1f 74 0f 39 fc b0 b5 36 c3 35 54 38
       1.2352276e-05 0.00013680801 5.414824e-06 5.059481e-05
0001c0 8a 50 88 35 c0 9e 00 38 90 52 b0 37 10 bb 0b 37
       1.015623e-06 3.0665426e-05 2.1019281e-05 8.3285995e-06
0001d0 58 a3 67 33 1b ec af 36 49 db a3 36 56 bc 28 33
       5.393244e-08 5.2428927e-06 4.8833067e-06 3.928684e-08
0001e0 e1 2e a2 32 39 77 a2 35 4d 4b 19 35 43 da 01 34
       1.88806e-08 1.2104639e-06 5.710652e-07 1.2093464e-07
0001f0 4a a0 3f 35 b8 7d 6d 37 65 55 a2 34 5d 54 28 36
       7.1386296e-07 1.4155572e-05 3.0236984e-07 2.5083057e-06
000200 de d4 31 36 6f 8d 3d 38 30 37 96 36 73 fa 25 37
       2.649896e-06 4.519283e-05 4.476773e-06 9.893079e-06
000210 73 94 ea 34 26 b7 cb 36 41 e3 da 36 d4 a1 f5 35
       4.3693908e-07 6.0711927e-06 6.523362e-06 1.8301021e-06
000220 9e e0 30 32 9b 15 8c 35 c2 d5 51 36 c4 f0 b2 32
       1.029562e-08 1.0437101e-06 3.126785e-06 2.0831415e-08
000230 63 ad 07 32 ba d3 0b 35 f8 d3 17 37 66 ca fc 32
       7.897458e-09 5.208964e-07 9.049654e-06 2.9428701e-08
000240 bb c7 f0 35 dd 0a 37 37 fc 38 92 34 37 fa 84 36
       1.7939523e-06 1.0910179e-05 2.723608e-07 3.9630354e-06
000250 f2 50 97 36 45 57 0a 38 03 f8 23 38 5e 7b 5d 37
       4.509574e-06 3.298304e-05 3.9093207e-05 1.320135e-05
000260 ae 30 91 36 33 1a af 38 8f 85 9a 37 1d cf 83 37
       4.327004e-06 8.34953e-05 1.8420424e-05 1.5712862e-05
000270 b3 2f e7 35 48 e2 10 38 8d a7 0f 37 09 73 03 37
       1.7224723e-06 3.4543016e-05 8.562475e-06 7.834992e-06
000280 2a b6 33 34 8a 53 d5 36 fa 03 73 36 81 a7 30 35
       1.6736945e-07 6.35762e-06 3.6212136e-06 6.580886e-07
000290 a3 0d f4 35 02 24 78 38 51 44 d4 36 93 81 54 37
       1.8183385e-06 5.9161343e-05 6.3260454e-06 1.26663535e-05
0002a0 a1 36 2b 33 60 65 0d 36 77 60 89 38 d6 5b 7e 33
       3.9863725e-08 2.1069645e-06 6.550637e-05 5.9222508e-08
0002b0 a7 32 a4 34 f4 cf 78 36 99 8d 03 34 bb fb b4 35
       3.0584235e-07 3.7075924e-06 1.2251839e-07 1.3484308e-06
0002c0 4f 12 4d 33 07 6b 85 35 98 76 c4 34 62 e2 ad 34
       4.7746934e-08 9.940421e-07 3.6594133e-07 3.2388476e-07
0002d0 b6 0f 01 37 f9 76 11 39 d0 6d 33 36 9f fb 16 38
       7.692657e-06 0.00013872598 2.6736998e-06 3.5997127e-05
0002e0 86 fe 2f 35 af 4b 4e 37 f4 73 1b 36 2c 4e 1f 36
       6.556296e-07 1.2296178e-05 2.3164293e-06 2.3738348e-06
0002f0 30 8c aa 36 3c 89 fd 38 e8 b6 2c 36 81 cb 10 38
       5.082715e-06 0.00012089542 2.5736463e-06 3.4521803e-05
000300 8f 7f a1 34 d4 5c e0 36 17 55 af 37 32 d7 a4 35
       3.0081398e-07 6.686527e-06 2.0901249e-05 1.2281582e-06
000310 84 be f4 33 87 17 71 36 ba b6 e7 34 ea b7 d8 34
       1.139679e-07 3.5925493e-06 4.3160054e-07 4.036695e-07
000320 1e 86 26 34 ba de 49 36 e5 f7 13 35 3d fd aa 34
       1.5508746e-07 3.0080978e-06 5.51225e-07 3.1849223e-07
000330 43 ae cd 33 c0 7b 06 36 36 6c 1c 36 5b 6b 34 34
       9.5777544e-08 2.0039588e-06 2.3308799e-06 1.6802862e-07
000340 e0 51 25 33 35 90 b5 35 04 e2 24 35 3b 75 0c 34
       3.849152e-08 1.3527521e-06 6.1423657e-07 1.3081164e-07
000350 7d 59 9e 36 89 7f 9d 38 d1 67 43 36 c6 a5 d2 37
       4.7191847e-06 7.510099e-05 2.9117693e-06 2.5111145e-05
000360 40 a4 97 34 29 1c a8 36 c6 9e 1f 35 3d 53 a8 35
       2.824545e-07 5.0100684e-06 5.946316e-07 1.2541201e-06
000370 04 77 95 33 81 dd 7a 35 8e 52 1d 34 b0 cf 26 34
       6.960002e-08 9.345459e-07 1.4651798e-07 1.5535511e-07
000380 d0 d5 98 35 71 a8 9a 37 05 00 95 34 43 b1 9c 36
       1.138711e-06 1.8436667e-05 2.7753427e-07 4.6697983e-06
000390 dc 73 bd 35 ea 79 e6 37 20 33 db 36 4f 1d d0 36
       1.4115317e-06 2.7474907e-05 6.5326603e-06 6.202295e-06
0003a0 26 76 bb 33 82 05 c6 35 a5 05 4e 36 74 50 08 35
       8.729357e-08 1.4753753e-06 3.0699678e-06 5.078102e-07
0003b0 8f 1d 2a 31 ed ea cb 33 3d ec f8 34 4a b7 8b 31
       2.4755058e-09 9.495657e-08 4.6365486e-07 4.06627e-09
0003c0 37 a9 89 35 64 6a 99 37 06 21 87 36 5e 5f 01 37
       1.0256543e-06 1.8288563e-05 4.027158e-06 7.711204e-06
0003d0 5d 65 40 33 16 83 1b 37 ff 87 dc 38 b0 e3 ad 33
       4.4795673e-08 9.269241e-06 0.00010515749 8.0973564e-08
0003e0 78 7c 3c 32 44 c8 b2 34 38 9c 47 37 85 92 fe 32
       1.0971341e-08 3.3300796e-07 1.1897697e-05 2.9636121e-08
0003f0 31 71 bc 33 0f 9b 8b 36 17 49 36 35 f4 5c 00 35
       8.7750216e-08 4.160574e-06 6.7906643e-07 4.781898e-07

exp_avg f4 [64]
000000 57 71 8a b8 b0 95 12 38 8f 6d b4 b6 7d 22 12 b9
       -6.601464e-05 3.494852e-05 -5.3771723e-06 -0.00013936493
000010 e6 d5 45 b9 eb 25 ac 37 76 b6 02 b8 d5 db 62 b8
       -0.00018867067 2.0521655e-05 -3.1164345e-05 -5.4087333e-05
000020 61 e3 29 39 6e c1 f1 38 ea c6 4b 3a 04 00 00 00
       0.00016201801 0.000115278046 0.0007773476 6e-45
000030 72 38 09 b8 ce 18 09 b8 88 69 90 b9 0f fd e4 b7
       -3.2715914e-05 -3.2686447e-05 -0.00027544447 -2.7297558e-05
000040 d7 59 fc 38 ac 1a 88 37 56 7c 39 36 c7 05 59 38
       0.0001203303 1.6224883e-05 2.7639521e-06 5.1742212e-05
000050 56 64 8a 39 37 bc dd b8 96 8b 3c b9 e9 3f 95 38
       0.00026396167 -0.00010573159 -0.00017981077 7.116778e-05
000060 8a 75 bf 37 52 2f d0 38 f8 65 33 37 c2 c9 fa 39
       2.2823708e-05 9.927027e-05 1.0692973e-05 0.00047834037
000070 70 fe db 39 0d 45 81 b8 55 b7 35 b9 d7 ff 2b b9
       0.00041960506 -6.164061e-05 -0.00017329802 -0.00016403139
000080 4b 2e c2 36 4a 17 b4 b8 f4 3b 69 b7 f2 7a 34 38
       5.7870398e-06 -8.587407e-05 -1.3901841e-05 4.3029846e-05
000090 c4 07 b4 b8 8d b9 8c 39 6a 72 bc 39 16 f9 02 b9
       -8.584515e-05 0.00026841127 0.000359434 -0.00012490558
0000a0 75 d9 80 37 b6 ea ce 39 ec c2 34 b9 db d1 b0 b8
       1.536005e-05 0.00039466255 -0.00017238752 -8.4314226e-05
0000b0 90 e4 16 b6 dd 82 00 3a 86 d6 1b 39 c3 da 74 39
       -2.2484783e-06 0.00049023126 0.00014861868 0.00023351148
0000c0 c5 41 78 b6 af 62 8b 38 8d a8 54 b7 4a db ac b7
       -3.6993163e-06 6.646418e-05 -1.26754285e-05 -2.0606112e-05
0000d0 3c 17 93 b8 a5 a3 01 3a e2 39 0f b9 6c 57 6c b7
       -7.013834e-05 0.00049453444 -0.00013659106 -1.4087051e-05
0000e0 80 08 a3 38 6e b4 26 b9 43 b5 3d 38 29 a1 d3 37
       7.774029e-05 -0.00015898209 4.5229925e-05 2.5228206e-05
0000f0 1c 1a fe b8 7a 2f d5 b8 fd 7c ac b8 e7 1b 36 b9
       -0.00012116527 -0.00010165475 -8.22488e-05 -0.00017367267

exp_avg_sq f4 [64]
000000 75 0b 54 36 17 d6 df 33 58 9d 3d 34 5f b4 0a 37
       3.159713e-06 1.04231894e-07 1.7659238e-07 8.267437e-06
000010 b2 f3 2c 36 07 b6 1f 32 49 61 25 34 9e 12 19 35
       2.5771847e-06 9.296406e-09 1.5402215e-07 5.7024033e-07
000020 71 14 7f 36 60 14 be 34 88 f0 5e 38 bb 4b 19 24
       3.800986e-06 3.5405083e-07 5.3152937e-05 3.3240733e-17
000030 ed e8 05 35 d1 7b 0c 34 07 c4 97 36 ce 1d 0f 35
       4.988531e-07 1.308356e-07 4.5229713e-06 5.331502e-07
000040 d4 63 e9 34 76 32 71 33 6f ae 6a 35 5b a6 32 36
       4.3472266e-07 5.615808e-08 8.742563e-07 2.6620899e-06
000050 a9 b1 52 38 8f 19 63 35 89 8a 23 37 c3 93 74 34
       5.023336e-05 8.460128e-07 9.747812e-06 2.2778026e-07
000060 1d 78 be 33 b3 fd 1d 36 46 39 c2 32 fe a5 29 38
       8.869413e-08 2.3542495e-06 2.2610617e-08 4.0447332e-05
000070 95 3f 68 37 08 0d 9f 34 56 65 a6 36 5d b3 16 36
       1.3843081e-05 2.962554e-07 4.9589826e-06 2.2456145e-06
000080 1c cc b2 36 e7 7b 18 36 da 11 ca 33 82 47 ab 33
       5.328575e-06 2.2721886e-06 9.409605e-08 7.975815e-08
000090 70 34 cd 35 c5 d2 c0 36 c3 3d 56 37 37 52 05 37
       1.5288952e-06 5.7465827e-06 1.2769774e-05 7.94656e-06
0000a0 d4 ee 16 36 c4 d8 73 37 dc 8a b3 36 ac 8b 9e 35
       2.2490758e-06 1.4534398e-05 5.350781e-06 1.1812567e-06
0000b0 14 b6 b1 34 5d 3a 07 38 dd 90 4a 36 2e 1f 95 38
       3.3101298e-07 3.2240863e-05 3.0184667e-06 7.110681e-05
0000c0 2c 97 57 35 d9 97 f8 34 b2 54 2b 35 e5 0d 16 36
       8.0313725e-07 4.6304083e-07 6.382571e-07 2.235983e-06
0000d0 87 70 49 34 bf 88 34 38 73 13 de 35 34 0a 30 34
       1.8760521e-07 4.30427e-05 1.6545949e-06 1.6394989e-07
0000e0 b6 dc af 36 c8 70 ef 36 0c 78 26 35 d3 06 b3 32
       5.2411006e-06 7.1358845e-06 6.201451e-07 2.0841446e-08
0000f0 15 5c 02 37 7a e5 c8 36 94 a6 57 35 f7 19 0d 35
       7.770043e-06 5.987179e-06 8.0336144e-07 5.2564377e-07
