toy_al/mini_exp/1000-200-200-001-yes/ckpt_phase1.pt (torch, 47981 bytes, 30 tensors)

fc1.weight f4 [64, 4]
000000 49 b7 27 bd d8 10 bc be 65 36 ca 3e cc 32 42 be
       -0.04094628 -0.367316 0.39494625 -0.1896469
000010 f8 be 31 bf f3 f7 98 be fc af e1 3b 37 32 84 bf
       -0.6943202 -0.2987667 0.006887434 -1.0327824
000020 45 2e 78 be db 6e 32 3d 75 36 b2 3e d7 6d 83 be
       -0.242364 0.04356275 0.34807172 -0.2566974
000030 20 2a 32 3f 5b 26 1f 3d 37 39 8c 3b 3b 2a e3 3f
       0.6959553 0.038854938 0.0042792815 1.7747263
000040 13 95 79 3e 0a 21 62 be 60 34 c6 3e 9b 24 18 bf
       0.24373274 -0.22082916 0.38711834 -0.59430856
000050 07 62 16 bf fe e7 41 3d f9 b8 27 be 59 d6 00 3f
       -0.5874333 0.047340386 -0.16379155 0.5032707
000060 d4 79 34 bf ec 94 96 3e 2a ab d0 3a 0d d8 ac be
       -0.70498395 0.29410493 0.0015920151 -0.33758584
000070 91 48 06 bf ac c9 11 bd 32 c1 11 3e 52 bd 19 bf
       -0.5245448 -0.03559272 0.14233854 -0.60054505
000080 9e ae eb 3e 8b 3c fa 3d 97 7a bc 3e f0 8f 84 be
       0.4603166 0.12218579 0.3681228 -0.25891066
000090 8b eb 8f 3e 7d e1 7d 3d 21 01 94 3e 07 8e 24 bf
       0.28109393 0.06198262 0.2890711 -0.64279217
0000a0 01 61 d5 be ab 38 f2 3e 17 d7 95 3a f0 b2 98 3d
       -0.4167557 0.4730886 0.00114319 0.074560046
0000b0 41 36 6b 3f 77 a4 2b 3e a8 0f 17 be fd ae 63 3e
       0.9187966 0.16761957 -0.14752066 0.22234721
0000c0 e6 28 f1 be db 8a c0 3e 29 58 07 be be 82 fe 3e
       -0.47101516 0.37605938 -0.13217224 0.49709123
0000d0 7a 12 cd be 78 bc 08 3f 27 2f 54 3e 47 19 a4 bd
       -0.4005316 0.5341258 0.20721112 -0.08012634
0000e0 1d ea 53 3d 73 a5 f5 3c 7c fa ab be 88 dd f0 be
       0.05173694 0.029986119 -0.33589542 -0.47044015
0000f0 c3 55 8d be 70 78 a3 3e 3a ad f8 be 59 62 e3 bd
       -0.27604493 0.31927824 -0.4856966 -0.11102743
000100 43 2b a6 3d 52 3a 1c be e6 7e 0d 3f 08 d6 a4 3c
       0.0811372 -0.15256622 0.55271757 0.02012159
000110 d0 b6 a9 b9 0a 8b dd 3d f5 f7 d6 3e d0 94 cd 3d
       -0.00032370398 0.10817535 0.4198605 0.10038149
000120 45 45 80 3f 21 63 35 bc b2 ee ad bd c9 f2 6c 3c
       1.0021139 -0.011070997 -0.08492793 0.014462181
000130 2d 1f 19 be ba 85 90 be c0 3c 5d be 24 18 3b bf
       -0.14953299 -0.28227025 -0.21605206 -0.7308371
000140 f5 5d 65 3f 6d a8 33 bb b4 86 43 bd 31 d6 60 bf
       0.8959649 -0.0027413622 -0.047735885 -0.8782683
000150 2e 73 29 bd 5a 84 d3 3e e1 03 de be c0 9a a8 3e
       -0.04136961 0.41311914 -0.43362334 0.32930565
000160 2a 03 8c 3f 49 0d c8 be 36 c6 09 3d 3e 57 a2 be
       1.0938466 -0.39072636 0.033636294 -0.31707186
000170 07 84 01 be 0f d4 f6 3c 77 e6 14 3f e9 4c 4d 3e
       -0.1264802 0.030130414 0.5816416 0.2004887
000180 55 c2 5b be 50 ad 2d bb 0b ed 02 be b0 a6 5d be
       -0.2146085 -0.0026501007 -0.12785737 -0.21645617
000190 c1 6f a2 bd 45 4a d2 3e a0 80 07 3f f7 45 cb 3e
       -0.079314716 0.41072288 0.5293064 0.39701816
0001a0 ed 37 94 3e a3 17 36 3e 18 d0 7b be 9e 60 1d 3e
       0.28948918 0.17782454 -0.245911 0.15368888
0001b0 92 7c 3b bf 61 d7 ac 3e a1 8a 9c be 2a 97 04 3f
       -0.73236954 0.3375807 -0.30574515 0.5179316
0001c0 57 fb 16 3f ff b1 1b 3e 6b d6 4b bd 29 17 b2 bd
       0.58977264 0.15204619 -0.04976503 -0.08695824
0001d0 a4 e1 b4 bf 35 ac 4b bf 60 af 21 be 88 7b d5 3e
       -1.413136 -0.7955964 -0.15789557 0.4169581
0001e0 e7 f7 ba 3e b2 17 7e 3e fd c7 b8 3e f3 b7 f0 3e
       0.3651726 0.24813727 0.3609008 0.47015342
0001f0 28 cb b6 3e d5 cf 13 bf 6a 92 08 be f2 8f a0 3d
       0.3570187 -0.57739 -0.13337103 0.078399554
000200 fa f6 9a 3f 06 e5 42 be cc 42 3d 3e 60 65 cb be
       1.2106621 -0.19032678 0.18482512 -0.3972578
000210 02 7e 75 3f fd c5 d5 3c 5f 2f 86 3c 0d b9 6d be
       0.958954 0.026095385 0.01638001 -0.23215123
000220 00 9f 6a 3e 65 d7 ca 3e c7 26 83 be 73 5d 53 3e
       0.22912216 0.39617458 -0.25615522 0.20641117
000230 ae f5 2b be 5e a2 81 3e 8c 84 e2 3e 8d d7 a0 be
       -0.16792938 0.2531919 0.4424175 -0.31414452
000240 e1 89 54 3f b1 f7 78 3e a3 c2 4f bd 0f da c9 3f
       0.83022887 0.24313237 -0.05072273 1.5769671
000250 43 41 cc 3e 6e 93 4b bf b1 41 e3 bd 5b 56 51 3f
       0.3989354 -0.79521835 -0.11096514 0.81772393
000260 8c 3f da 3e 92 9a 83 be 09 7b 6e 3e 8c 04 05 be
       0.42626607 -0.25703865 0.23289122 -0.12990016
000270 ef 74 26 bf e5 54 2b bf 6a ab bc 3e bb 85 fa be
       -0.65022177 -0.66926414 0.3684953 -0.48930153
000280 96 a1 7e be 7c 08 16 bf 22 d4 92 be 05 da bf bc
       -0.24866328 -0.58606696 -0.2867747 -0.02341939
000290 58 14 9e bd 15 5e d9 3d 22 37 99 be 85 ee e7 be
       -0.07718724 0.10613648 -0.29924875 -0.45299163
0002a0 3d e9 7f bf 6b e7 94 be dc 9f ee 3d 0a 80 3e 3f
       -0.9996527 -0.29082808 0.116515845 0.7441412
0002b0 03 e4 c2 bc 17 e8 16 bf 12 3f c6 3e e0 f0 09 bf
       -0.023790365 -0.5894789 0.38719994 -0.5388317
0002c0 8f a2 77 3e 39 4b 04 bf 0f d9 f4 3c 9f ba 4a 3e
       0.24183105 -0.5167728 0.029888658 0.19797753
0002d0 1e cd 47 3f cb 32 33 3e d5 e9 ba be a9 59 1f be
       0.7804736 0.17499845 -0.36506525 -0.15561546
0002e0 e9 c0 1c bf 4b c2 17 bf 22 bd 09 be 7a d5 16 bf
       -0.6123186 -0.5928084 -0.13451055 -0.5891949
0002f0 01 c6 17 3f fa 94 80 3e 88 ee 96 be 34 84 19 3f
       0.59286505 0.2511366 -0.2947886 0.5996735
000300 67 0b 20 3f cc 8d 64 be ab 38 b9 be e0 f4 c9 be
       0.625174 -0.22319716 -0.36176047 -0.39444637
000310 25 6b 8d be 02 10 e5 be 4e 43 f9 3e 39 f3 87 3f
       -0.27620807 -0.44738775 0.48684162 1.0621101
000320 51 39 00 3f 73 6b 72 3e f3 45 4a 3c 3f cd ae 3f
       0.5008746 0.23673801 0.012345779 1.3656386
000330 63 04 e8 3e 2a ca f4 3d 9e df a7 3e a1 be a0 be
       0.45315847 0.11952622 0.32787794 -0.31395438
000340 41 fc 6a be c9 66 87 3e 9a 7c b5 be 4c e8 5a 3e
       -0.2294779 0.26445606 -0.35446626 0.21377677
000350 5d 84 46 bf 69 d2 b8 3e a3 0b bf 3e 47 52 83 be
       -0.7754572 0.3609803 0.37313566 -0.2564871
000360 8e 66 45 bf a8 55 f9 bd 1f b8 a9 3d 05 35 65 be
       -0.7710961 -0.12174541 0.082870714 -0.22383507
000370 5d 5a 24 bf d8 c5 30 be a6 eb 8d be d9 41 98 3e
       -0.64200383 -0.17262971 -0.27718848 0.29737738
000380 87 f3 1f bf a2 97 3a 3e 92 27 92 be 30 eb 94 bc
       -0.6248097 0.18221906 -0.28545815 -0.018178552
000390 db 76 d1 3e 4f ab e6 bd 92 61 d5 be 55 8a 38 3f
       0.40910992 -0.11263143 -0.41676003 0.7208608
0003a0 4e 04 54 3f df cc 8d be c0 89 ec 3d 99 00 67 bf
       0.8281907 -0.27695367 0.11549711 -0.90235287
0003b0 a7 33 7a bf 0d e7 8f be 17 56 d3 3e 53 3c 0e 40
       -0.97735065 -0.28105965 0.4127662 2.222432
0003c0 f1 31 86 3f 39 84 85 3e ea 58 7c 3b 2d ab 06 3e
       1.0483991 0.2607744 0.0038505145 0.13151236
0003d0 e8 32 0b 3d 18 34 b2 3d 8b 3b d2 be ba 3a e1 be
       0.033984095 0.08701342 -0.41061053 -0.43990117
0003e0 47 03 7a 3f 77 d8 1e 3f 3c 7e 04 3e 9d 11 8e 3e
       0.9766125 0.6204905 0.1293878 0.27747813
0003f0 b0 8a 57 bf 65 b8 08 3e 2f 14 16 bd b7 fb 91 be
       -0.84195995 0.13351591 -0.036640342 -0.28512356

fc1.bias f4 [64]
000000 ba e3 2d 3f a4 8e 58 bf 0b f8 0e 3f 3f a9 bc be
       0.6792561 -0.8459265 0.55847234 -0.36847875
000010 04 0a a6 bd 0d 6e 10 3f 32 d1 34 3f 6e 99 91 bf
       -0.08107379 0.56417924 0.70631707 -1.1374948
000020 7c ca dc 3e 07 be 96 3d 9c 52 fe bd fb 76 08 bf
       0.43123233 0.073604636 -0.124181 -0.5330655
000030 d8 33 7b be 06 8c 99 3d 45 72 98 be 8a 46 23 bf
       -0.24531496 0.074974105 -0.2977468 -0.6377951
000040 4f 91 18 3f 61 88 56 bd 84 ac fc 3e 7c 17 4f 3e
       0.59596723 -0.052376155 0.4935037 0.20223802
000050 56 56 da bd c5 e2 35 be 30 21 17 3f ec 60 22 3e
       -0.106609985 -0.17762287 0.59035015 0.15857285
000060 61 8f c4 3e e3 64 74 be d9 86 6b 3e 32 3a 9f be
       0.3839064 -0.2386661 0.23000659 -0.31099087
000070 d5 e4 14 3e 9a 54 da bf 6d 75 07 3f a4 05 40 bd
       0.14540417 -1.7057068 0.5291355 -0.04688038
000080 dc cd d4 3d 43 6a 23 3f cf 4d 0e 3f 29 3a 8d be
       0.10390827 0.6383402 0.55587476 -0.27583435
000090 b4 46 a3 bc 56 51 18 3e ab a5 43 3f 83 7c c2 3e
       -0.019931175 0.14874777 0.76424664 0.3798562
0000a0 61 8e 32 3f cf 8a 90 3e 78 4c 6b bf 65 2d bd 3e
       0.697485 0.28230903 -0.9191356 0.36948696
0000b0 e7 88 ad 3e 30 ac be 3d 00 66 cc 3e ae a8 04 be
       0.3389351 0.09310186 0.3992157 -0.12954971
0000c0 81 32 a8 3e e8 ed 9b be 07 be cd 3e 12 d3 3d bd
       0.3285103 -0.30454946 0.40184042 -0.04634387
0000d0 76 7d ed 3d 72 85 a1 be af 5e 5b 3e d4 2f fb 3e
       0.115961954 -0.31547123 0.21422838 0.49059927
0000e0 8c f2 a0 be 30 6f 99 bd 41 31 d3 3e d8 ff aa bf
       -0.3143505 -0.074919105 0.41248515 -1.3359327
0000f0 01 f4 d7 3e 77 92 cc 3e 73 12 80 3e 5f bc 91 be
       0.42178348 0.39955494 0.25014076 -0.28464028

fc2.weight f4 [32, 64]
000000 72 20 dc 3d 89 9d d9 be f1 e0 9f 3c d8 b7 22 bd
       0.10748376 -0.42503002 0.01951644 -0.03972611
000010 22 fb e4 3d 42 c6 68 bd fa b2 82 bd bf b4 22 3e
       0.11180712 -0.0568297 -0.06381793 0.15889262
000020 9e eb 0c 3e 87 6c 2f 3d 4e 2a d5 bd 6e 60 06 bd
       0.13761756 0.04282811 -0.104084596 -0.032806806
000030 f0 04 ee bd f7 6c c5 3d e5 90 a8 3d a4 0e bc 3d
       -0.116220355 0.09639924 0.082307614 0.0918248
000040 51 01 00 3d f1 03 57 3d b6 30 f5 bc cc 34 66 bd
       0.031251255 0.052493993 -0.029930454 -0.056202695
000050 63 9e 61 be 75 11 0f 3d 7e 8a 06 be 30 96 f3 bc
       -0.22033076 0.034928758 -0.13138768 -0.0297347
000060 f0 72 42 bd 10 bd c4 bd 8e df a1 3d 2e d4 c3 3d
       -0.047472894 -0.09606373 0.07903968 0.095619544
000070 dd cf 35 3e 80 dd 8e 3d 74 d5 6f 3d 79 27 80 3a
       0.17755075 0.069758415 0.058553174 0.0009777389
000080 c3 93 16 3c 34 95 14 3e 83 a4 05 3e 1d 8e 2a bc
       0.009190503 0.14510041 0.13051037 -0.010409859
000090 81 f0 05 3c d8 9e da bd 19 8a 79 3d f5 db 0b be
       0.008175016 -0.10674828 0.060922716 -0.13658126
0000a0 49 07 34 3d fd fa 17 bd 94 63 e3 3c fa 0c 7b 3e
       0.04395226 -0.037104595 0.027757443 0.24516669
0000b0 95 f1 08 bf 0c 57 a2 3d cd 82 1c 3e 56 67 3d bc
       -0.53493625 0.07926759 0.15284272 -0.011560282
0000c0 d3 df 90 bd 26 12 5c 3d c0 46 92 bd 3b 0a 5c bd
       -0.07073941 0.053728245 -0.07142401 -0.053720694
0000d0 00 b2 9f 3d 36 52 62 be 3a 83 cc bc 15 22 77 bd
       0.07797623 -0.22101673 -0.024964917 -0.060335238
0000e0 5b 96 a0 bd 4f f8 a6 3d ff f6 f0 3d 89 a4 5b bd
       -0.07841178 0.0815283 0.11765861 -0.05362371
0000f0 c0 f0 51 3e f9 67 07 3e 9f 09 8a 3e d9 e4 da bb
       0.20501995 0.13223256 0.26960465 -0.006680113
000100 e6 01 ba 3e e5 35 48 3f 5d 6d 8c bd 3b b5 1a bf
       0.36329573 0.78207237 -0.06856797 -0.60432786
000110 71 9e 46 3f 72 d0 44 bc c2 47 3c 3e 3b aa cd 3e
       0.7758551 -0.012012588 0.18386748 0.40168938
000120 5e 80 68 bd 0d 8f 2f be 02 7b 5f 3e c3 d8 2e be
       -0.056763045 -0.17144413 0.21824268 -0.17074876
000130 19 a0 50 3d 93 9e 15 3e d7 75 48 3d e3 d4 9c bd
       0.05093393 0.14611273 0.048940506 -0.076577924
000140 82 76 6b bf d0 ae e1 bd 3a 05 30 3d 9a 03 7f bd
       -0.91977704 -0.11019671 0.042973734 -0.062259294
000150 27 fa 4f 3e 1b dd f9 3d 3d 73 0f 3f 95 14 23 bf
       0.2031027 0.12200376 0.56035215 -0.6370328
000160 77 97 b3 3d ba ba c9 bd 1f 75 e3 bd 37 07 c4 3c
       0.08769124 -0.098500684 -0.111063235 0.023929222
000170 dd 62 38 bc d7 cc c9 3c ed 55 a5 bd 80 04 51 3d
       -0.01125404 0.024633808 -0.0807303 0.051029682
000180 bb 5c a8 3e af de a0 bd 44 e8 d6 3d 45 1b 0f 3d
       0.32883248 -0.078549735 0.1049352 0.034938116
000190 de 9f 03 be 24 4f c6 3a d4 14 53 3e 15 b3 ce 3c
       -0.12853953 0.0015129787 0.20613414 0.025231877
0001a0 bd ab b3 bc d9 a1 c1 3d cc c7 5c 3d 57 fa e5 3e
       -0.021932477 0.09454698 0.05390148 0.44917557
0001b0 88 47 e2 3e 3f 34 02 be b1 0b 79 3d 9b 00 55 3d
       0.441952 -0.12715243 0.060802165 0.05200253
0001c0 2b 0a 3b 3d 5c 3d fb be 64 b1 4c 3e b6 c2 96 bb
       0.045663994 -0.4907025 0.19989544 -0.004600848
0001d0 10 1b 0d be 6f 60 69 3d 25 89 85 be e3 59 f2 bd
       -0.13779855 0.056976732 -0.26081195 -0.11833551
0001e0 dc 66 ef bd 7e 92 9e bc d1 26 47 be b4 17 93 bd
       -0.11689541 -0.019356962 -0.19448401 -0.071822554
0001f0 cc 83 92 3d aa 7e 0c be 04 b1 20 3e 4f 2a f8 3d
       0.071540445 -0.13720194 0.15692526 0.12117445
000200 c5 2d d5 3c 51 f4 94 3e a8 f4 7a 3d 88 81 da be
       0.026022801 0.2909265 0.06126848 -0.4267695
000210 1a a9 7f bc 4e 19 1e 3d dc fe 29 3e 01 8d 91 be
       -0.015604282 0.03859835 0.16601127 -0.2842789
000220 9e a3 6a 3d 0c 4d f6 bc ec f8 23 be 92 87 0a be
       0.057284944 -0.030066036 -0.16012925 -0.13528278
000230 07 25 e7 3d 3d 37 88 3d 15 1b 34 3d 94 3b 98 3c
       0.11286359 0.06651161 0.04397114 0.018583097
000240 23 a5 00 be 87 f3 3d 3d e5 c2 55 3e 4e 66 26 be
       -0.12562995 0.046374824 0.20875128 -0.16249964
000250 3c 02 41 3e a5 eb dd 3d 16 97 9e 3e d8 00 94 bd
       0.18848509 0.10835961 0.30974644 -0.072267234
000260 20 6c d6 bd 0a 18 37 bd 1f a4 81 bd bf 51 de 3d
       -0.10469842 -0.04470066 -0.06330132 0.108554356
000270 4d 19 f3 3d b0 51 b6 bd b2 b0 ce bc 49 e3 96 3e
       0.1187006 -0.089022994 -0.02523074 0.2947028
000280 18 e5 8d 3c 6f d5 fb 3d f7 ba 33 3c 8b 80 a3 3d
       0.017321154 0.122965686 0.010969869 0.07983502
000290 95 65 44 be 49 73 9e 3d dd 97 08 3c 69 ed 89 be
       -0.19179375 0.07736833 0.008336988 -0.26938942
0002a0 23 ed 69 3d 6f a3 51 3d 13 db e1 bd ca 36 b7 be
       0.057110917 0.051181253 -0.11028113 -0.35783988
0002b0 60 8f de 3e a7 e7 c4 3c 66 84 74 bc 72 3a 72 3c
       0.4346876 0.024036242 -0.014924144 0.014784442
0002c0 14 9c 78 bd 18 db 6e 3c 7d 88 2c 3c 4b fc 45 3e
       -0.060695723 0.014578603 0.010530588 0.19334523
0002d0 5e 3a fb 3d 32 84 f0 3d 1a d5 8c 3d 9d 10 d4 3c
       0.12266992 0.11743964 0.068765834 0.025886828
0002e0 51 7c 3c bd 47 97 2d bd c4 f4 b2 bc e0 9d 36 be
       -0.046016995 -0.042380597 -0.021845229 -0.17833662
0002f0 38 15 b0 3d c5 b2 a6 3d f1 ff 8d 3d e1 ab b5 3d
       0.08597797 0.08139566 0.069335826 0.08870674
000300 10 f2 bd bd 91 79 53 3e 02 78 4c 3e 4f e0 f1 3e
       -0.092746854 0.20651843 0.19967654 0.47241446
000310 65 d6 01 3d d9 50 db 3d 75 ef 0f 3c 19 8c d6 bd
       0.031698603 0.1070878 0.008785118 -0.1047594
000320 d1 d9 1b 3e 0f 4c 17 bd 49 36 98 3d d3 f1 bc 3e
       0.15219809 -0.03693777 0.07432229 0.36903247
000330 89 80 02 be 0a 4e fa 3b 5f de e7 bd 04 dc 3a be
       -0.12744345 0.0076386975 -0.11321711 -0.18247992
000340 be a6 d4 bc 3b cc 6d bd 97 d2 c4 3d aa 18 e1 3e
       -0.025958415 -0.058056097 0.09610479 0.4396413
000350 f4 1b ff be 68 40 12 bc 41 5a a4 3d ad a2 a8 bb
       -0.49826014 -0.008926488 0.08025027 -0.0051463456
000360 c0 7c 94 bc 25 18 d2 3d be 10 d5 3d 9c 62 b9 be
       -0.018125892 0.102585115 0.10403584 -0.36208045
000370 2a 5b 69 3d e5 26 da bd 9b 97 f9 3d 06 24 05 3e
       0.056971706 -0.1065195 0.121871196 0.13002023
000380 9c 8a 27 3e 48 32 1c 3e 32 50 d6 3d 6e 12 86 3d
       0.16361469 0.15253556 0.10464515 0.06546484
000390 58 dc 81 be 3e 6a fc 3d de 5c 02 be 78 8a a3 3c
       -0.2536342 0.123249516 -0.12730739 0.019963488
0003a0 a1 58 8f bf 27 f7 ee 3a be c3 72 3e 7e 11 8b 3d
       -1.1198922 0.0018231616 0.23707482 0.06790446
0003b0 b3 c7 3c 3f 73 2c 8e 3b e8 83 52 bf 5f 74 d8 bd
       0.73742217 0.004338795 -0.8223252 -0.10569071
0003c0 5b ac 15 bf cc 5f e9 3d e5 e8 a1 3e e7 e9 2d 3e
       -0.5846612 0.11395225 0.31622997 0.16983758
0003d0 09 4a e7 bc 65 b0 d4 3d 6d e6 31 bd e1 3d 84 be
       -0.028233545 0.10385207 -0.04343264 -0.2582846
0003e0 27 7d 6b be 10 63 1d bf 6c 44 a4 3d 91 ae 91 bc
       -0.2299696 -0.6147928 0.08020863 -0.017783435
0003f0 47 5b cb 3d 56 1b 64 3d f0 d6 fa 3d fe 9c b2 be
       0.09929519 0.055690132 0.12248027 -0.348854

fc2.bias f4 [32]
000000 df 33 09 be 9e 8c cc bc 80 6c 59 3c 92 dc 5d 3e
       -0.13398694 -0.024969395 0.013270497 0.21666172
000010 51 a2 d0 3e 2d 95 cf bd 29 22 7b 3e 46 d4 81 3e
       0.40748838 -0.10135875 0.2452475 0.25357264
000020 51 12 b1 bb d9 1c f4 3d df e4 6f 3e a8 7e 9d 3e
       -0.005403795 0.11919565 0.23427151 0.30760694
000030 33 cf 87 3e c0 9e c3 3d cf 58 93 3d 63 94 6e be
       0.26525268 0.095517635 0.07194673 -0.23298793
000040 a9 59 0a be 17 6c 87 3e 4e 3a 6d 3d 3c dc 51 be
       -0.13510765 0.26449654 0.05791693 -0.20494169
000050 85 1c 00 3d 87 8b 3e 3e 6d 2d 6c be 38 76 6d 3e
       0.0312772 0.18607913 -0.23064204 0.23189628
000060 38 83 d1 bd a0 46 05 3d dd 15 af bd 29 fc 82 be
       -0.10230106 0.032538056 -0.08549092 -0.25583008
000070 53 61 3f 3c 05 a0 b5 3e 2a 07 01 bd 58 af 98 3e
       0.011680919 0.35473648 -0.031500973 0.29821277

fc3.weight f4 [16, 32]
000000 40 d9 41 be 1c aa 5e bc af ce ea bd 25 2b 07 be
       -0.1893053 -0.013590362 -0.11465203 -0.13200052
000010 e9 e6 15 3d be cb 60 3d 87 08 ca bd df 56 37 3d
       0.036597166 0.054881804 -0.09864908 0.04476058
000020 50 ea c3 bd 50 8d b1 3d c3 fb d7 bb f4 6a 28 be
       -0.09566176 0.08669531 -0.0065912916 -0.1644705
000030 3a d7 01 be ec 52 fa bd d2 53 a7 bd b5 1e 6f 3d
       -0.12679759 -0.12222847 -0.08170284 0.058378894
000040 d0 99 75 bb 90 4b db bd a4 67 3e be 92 9e 14 3e
       -0.0037475713 -0.10707772 -0.18594223 0.14513615
000050 62 d4 0e be f9 e3 81 3d a0 cc db 3c ae b8 cd 3c
       -0.13948205 0.063423105 0.026830971 0.025112476
000060 7a c5 0f be 91 2d 04 be ad 0b b3 bc 5d 36 93 3b
       -0.14040175 -0.12908007 -0.021856153 0.0044925646
000070 45 d7 e3 bd 48 9d fb 3d f6 0d 03 3d d6 aa 53 be
       -0.11125044 0.122858584 0.031995736 -0.20670637
000080 2f 80 16 3e d3 b1 d2 3d b1 cc 11 3d 24 bc 23 3e
       0.14697336 0.102878235 0.0355956 0.15989739
000090 ed 99 cf bd 3c 69 36 be 60 8e 09 3e 5b 00 24 3e
       -0.10136781 -0.17813581 0.13433218 0.1601576
0000a0 c8 e0 16 bb 6e fd 9d bd 42 6e 16 3a 1a 55 ee bd
       -0.0023022164 -0.077143535 0.00057384756 -0.116373256
0000b0 f2 93 21 3e 4e 09 84 3e f5 69 22 3e ab e7 b4 3d
       0.15779093 0.2578835 0.15860732 0.0883325
0000c0 ff ab ea bc e3 56 38 3e d3 53 16 bd f7 59 2f 3e
       -0.028646467 0.18001895 -0.036701035 0.17124163
0000d0 ea b7 c3 3d da 84 0b be 75 e7 93 3d ed 31 56 3d
       0.09556563 -0.13624898 0.07221881 0.052293707
0000e0 ae fb 23 3e 41 8d e6 bd 46 aa b9 3d 2c 8e 58 3e
       0.16013977 -0.11257411 0.0906568 0.21147984
0000f0 a9 a4 62 3e c2 36 9a 3d 22 e5 32 3d b2 59 f6 bd
       0.22133125 0.075299755 0.04367555 -0.12028827
000100 94 5e 74 3d 81 d4 e6 bd 00 bd 2f 3e 94 dd 04 be
       0.05966051 -0.11271001 0.17161942 -0.1297515
000110 0a 5c 95 3d ef 91 09 be 95 92 e9 3d 6a 6d 00 3e
       0.07292946 -0.13434575 0.114049114 0.12541738
000120 09 05 e7 bd 85 6e 07 3e 8b 9a e7 3d b2 84 d3 3d
       -0.11280257 0.13225754 0.113087736 0.10328044
000130 b9 39 08 3e 67 a1 0b 3e 90 cd 25 be 70 97 d9 bd
       0.1330327 0.13635789 -0.16191697 -0.106245875
000140 dd 49 2d 3d 29 f9 94 be ff 3a 66 3b 6b 0d 79 3b
       0.04230677 -0.29096344 0.003513038 0.0038002382
000150 fd 54 33 3d 78 2b be 3e 00 3c 81 bd 9c 24 60 3e
       0.043782223 0.3714254 -0.06310272 0.21888965
000160 70 0b d3 bd 39 f6 ce 3d 7b 97 7e 3d 36 91 d5 bd
       -0.10304916 0.10105557 0.06215618 -0.104280874
000170 e4 8a d3 3d 5c fa 0a 3f 87 f1 2d 3d 76 6e fe 3d
       0.10329226 0.5428827 0.042466667 0.124234125
000180 78 ee 4a be 9b 9a 93 bd e7 36 1b be 02 ad 2e 3c
       -0.19817531 -0.07207223 -0.15157662 0.010661365
000190 0b b2 72 be b5 15 00 3d 66 73 87 3d d7 a3 a8 3d
       -0.2370073 0.0312707 0.066138074 0.08234375
0001a0 d4 4a 2e be a7 99 82 bc 64 5b d6 bd 27 ea 7b 3d
       -0.17020732 -0.015942408 -0.1046665 0.061502602
0001b0 f4 5c 28 be b4 26 3a be 42 79 0d be 31 c9 31 bd
       -0.16441709 -0.18178827 -0.13815787 -0.04340476
0001c0 5a f3 25 bd d7 91 dc 3d 46 ec 15 3e 19 72 a2 3d
       -0.04051528 0.10770004 0.14640912 0.07931919
0001d0 94 c7 3f be 82 67 c7 3c df 0f 2d be e7 ea 35 be
       -0.18728477 0.024341349 -0.16900586 -0.1776539
0001e0 5f c1 ce 3d f4 5a 5f bd 28 37 9b 3a 5a dc a0 3d
       0.10095476 -0.0545301 0.0011841999 0.07854529
0001f0 5d 21 38 3d 62 0a 57 3c b1 73 60 3d 60 2c 20 be
       0.044953693 0.013125034 0.054797832 -0.15641928
000200 09 30 42 be c1 e7 16 3e ef 98 37 3e 6b 19 bc be
       -0.18963636 0.14736845 0.17929433 -0.36738142
000210 cd b9 80 bd a4 f9 ef bc 18 7d 15 3f 27 e3 a9 3d
       -0.06285439 -0.029293843 0.58394 0.08295279
000220 3f 84 09 be 53 d8 bc bc 3c b5 9c bd 9d d8 ca bd
       -0.13429354 -0.02305237 -0.07651755 -0.09904597
000230 0c 6e b9 bd 55 10 31 be 28 c7 33 3e 18 76 3c be
       -0.09054193 -0.17291386 0.17556441 -0.18404424
000240 fc 08 06 be 50 2d f6 3d 4e ab db 3c 57 2d 54 3e
       -0.13089365 0.120203614 0.026815083 0.20720421
000250 ab 68 1c 3e 75 b0 16 3f e0 c1 71 bd 9d 4f c1 bd
       0.15274303 0.58863 -0.059022784 -0.09439013
000260 e1 5d 23 be 48 40 44 3d 33 29 36 3e 57 97 8f bd
       -0.1595378 0.047912866 0.17789154 -0.07011288
000270 01 84 55 3f bb e5 61 3e f2 57 66 bd 89 b0 c7 bd
       0.83404547 0.22060291 -0.056236215 -0.09750468
000280 4d 72 4f bd 77 e5 1a 3e ce 47 2d 3e c1 53 fd bc
       -0.050646115 0.15126596 0.16921923 -0.030923726
000290 e7 9b 10 bc 17 47 cd 3c c7 10 fe 3e a6 4e 57 3e
       -0.0088262325 0.025058312 0.49622175 0.21026096
0002a0 7e 42 66 3d df 0c 57 3e aa 02 17 be ee d5 1c be
       0.056215756 0.21001004 -0.1474711 -0.15315983
0002b0 95 12 b2 3e 10 44 44 3e 06 da 23 3e 06 0f 27 be
       0.34779802 0.19166589 0.16001138 -0.16314325
0002c0 e1 47 5a bd e2 69 67 3e 79 88 8c bd 72 a3 25 3e
       -0.053291205 0.22598985 -0.068619676 0.1617563
0002d0 02 8c 8d bd a4 97 56 3e b0 a3 85 3b 1e 5a f9 bd
       -0.0691147 0.20956284 0.004078351 -0.121753916
0002e0 57 00 d2 3d 55 7c aa 3c cc 66 f2 bd c8 8a ad bd
       0.10253971 0.02081124 -0.11836013 -0.08473736
0002f0 30 dc d7 3d a8 f9 9b 3e 3b 78 bd bd a9 0a 5d 3d
       0.10540044 0.3046391 -0.09251448 0.053965244
000300 f6 c2 6d 3d 25 d6 a7 bd 66 a0 4b 3e 61 b2 e1 3c
       0.058047257 -0.08195142 0.19885406 0.027550878
000310 a1 98 eb 3d 60 09 58 be 47 f6 53 be 23 2a d1 bd
       0.11503721 -0.21097326 -0.20699416 -0.10213115
000320 6f fd cd be c1 20 3a 3e 4f d8 20 be 32 22 33 bc
       -0.40232417 0.18176557 -0.15707515 -0.010933446
000330 cb c1 86 3e a1 51 65 3d e0 3f 08 3e 18 e8 f7 bd
       0.26319727 0.05598605 0.13305616 -0.12104815
000340 08 26 dd bd 58 57 bb 3c ec 84 5c 3e 23 ec 04 3e
       -0.107982695 0.022868797 0.2153508 0.12980704
000350 a1 cf 98 3d fa cc 3f 3d 1a b3 e2 3c d9 8b 53 3e
       0.07461477 0.04682634 0.027673293 0.20658816
000360 96 9d 29 3e 2d 94 8f 3d 02 05 eb 3c 46 5e 56 3e
       0.1656402 0.07010684 0.028688911 0.209344
000370 18 67 b8 3c 49 61 87 be 80 65 1f 3e f3 09 41 be
       0.022510096 -0.2644141 0.15566063 -0.18851452
000380 47 cf 01 be 75 cb 67 3e c6 0a 06 3d 6b 86 0c bf
       -0.12676726 0.22636206 0.032725118 -0.54892606
000390 a8 24 7c 3d aa 12 bb be 03 6f 20 3f f3 d0 6e 3e
       0.061558396 -0.36537677 0.6266939 0.23321895
0003a0 f2 0c 4b be 28 06 8f 3d 71 64 1c be 80 d6 7c bb
       -0.19829157 0.06983596 -0.1527269 -0.003858
0003b0 60 51 12 3e 71 13 38 be bb d8 05 3e db eb 37 bb
       0.14288855 -0.17976166 0.13070957 -0.0028064165
0003c0 f9 44 e5 bd 2b 52 41 3e fc 76 9f be a8 bd b5 bd
       -0.11194796 0.18879001 -0.31145465 -0.08874065
0003d0 7a d9 34 bd 5e 30 c4 3e 65 42 53 be 33 66 e7 3d
       -0.044152714 0.3831815 -0.20630796 0.1129879
0003e0 b1 ec 19 be 10 06 dc bd 71 3a 5a 3d 19 56 9d 3b
       -0.15031697 -0.10743344 0.05327839 0.0048015234
0003f0 82 9e 43 3f ce 27 82 3e 07 2b b1 bc af e4 25 bd
       0.7641374 0.25420994 -0.021626962 -0.040501293

fc3.bias f4 [16]
000000 31 51 00 be de 67 79 bd 63 11 a4 3e db 01 a6 bd
       -0.12530972 -0.06089007 0.32044515 -0.08105823
000010 22 a4 8b bb 51 b7 83 3e 5b 66 aa bd 5f cc 62 3e
       -0.0042615095 0.25725797 -0.08320304 0.22148274
000020 f8 28 70 3e ca b8 a2 3d 6b 5d 7a 3e 8f 23 24 3d
       0.23453128 0.07945402 0.24449699 0.040072974
000030 00 81 81 3e 20 26 05 be d5 2b 62 be 88 0a 6e 3d
       0.25293732 -0.13002825 -0.22087033 0.058115512

fc4.weight f4 [8, 16]
000000 61 76 2c bd ff ab a0 be 8d 78 4b 3e bc ac 8f 3d
       -0.042105082 -0.31381223 0.19870205 0.07015368
000010 1f 4d e4 bd d9 95 fb bd ee 4f 0d 3f 81 92 22 bc
       -0.11147522 -0.122844405 0.5520009 -0.009922625
000020 69 e6 bb 3d 51 35 1d be 69 f8 1a be ed dc 1d bf
       0.091748066 -0.1535237 -0.15133823 -0.6166523
000030 31 ff 18 3f ff a2 0e 3e e0 6f 60 be 05 07 48 3f
       0.5976439 0.13929366 -0.21917677 0.7813571
000040 28 c3 a3 3d 87 66 7a be 1e d6 77 be ea ef 6f be
       0.079962075 -0.24453174 -0.24202773 -0.23431364
000050 1a 66 8b bc ed 8a 36 bd 81 0a 3d ba c9 cd 64 3c
       -0.01701646 -0.044566084 -0.0007211343 0.013965079
000060 1e c0 c8 bd be 3c 9f 3d f1 74 0a be dd 23 b3 3d
       -0.098022684 0.077752575 -0.13521172 0.08747075
000070 b8 1f 09 3e 8e 4b d2 bd 98 7a 9d bd 6e b7 b5 bc
       0.13391006 -0.10268317 -0.076893985 -0.022182193
000080 fa c0 1a 3e 59 c5 71 3d 8c a5 aa 3e 48 c6 9d 3c
       0.15112677 0.059026096 0.33329427 0.019259587
000090 ef 71 13 3e f4 9d e3 3d 0c bf a6 3e dd 37 8d 3e
       0.14398931 0.111141115 0.32567632 0.27581683
0000a0 48 3d b8 be ea 1f 59 be ab e2 4a 3d 18 aa aa 3e
       -0.35984254 -0.2120358 0.049532574 0.33332896
0000b0 76 da 82 3d 71 a7 87 bd 7e 10 08 be 5a ee 1d bf
       0.06389324 -0.06623734 -0.13287541 -0.6169182
0000c0 d4 43 61 3e bd 70 a0 bd 93 82 f5 3d ef 62 17 be
       0.2199853 -0.07834003 0.11987796 -0.14783834
0000d0 37 a6 8b bd 27 aa 56 3d fb c0 13 be 50 2e ba 3e
       -0.06818812 0.052408364 -0.14429085 0.3636346
0000e0 49 ab 6b be 27 e9 87 be f9 8b 41 3e 20 38 d4 3e
       -0.23014559 -0.2654507 0.18901052 0.4144907
0000f0 33 df 5d bc 08 44 3e 3e 4f 0a be 3d fa 99 01 bf
       -0.013541984 0.1858064 0.0927931 -0.50625575
000100 58 33 02 be 74 12 8c be 46 65 dc 3e 3b c5 da 3c
       -0.12714899 -0.2735783 0.43046016 0.026705375
000110 1a 1d 8e be c0 e3 86 be 38 93 6a 3e 5d 68 bd bc
       -0.27756578 -0.26345634 0.22907722 -0.023121053
000120 9d 6e e2 3e 4b fa d5 bd eb e8 26 3e fd 46 0d be
       0.44225016 -0.1044813 0.16299789 -0.13796611
000130 17 94 7b be 6b 3e 97 be bf 0e 13 3e a7 c4 4a 3f
       -0.2456821 -0.2953981 0.14361094 0.7920632
000140 d2 68 9c bc b9 4a 68 be 8e f3 9c 3e 9a 81 0d be
       -0.019092951 -0.22684754 0.30654567 -0.1381897
000150 95 55 f0 3e c4 1d e0 3d 16 dd f5 3d ee 1b 85 3e
       0.46940294 0.10943177 0.120050594 0.2599787
000160 8b 61 aa 3e 59 b8 83 3e 0e c5 10 be f9 23 a8 3e
       0.33277544 0.25726584 -0.1413767 0.32839945
000170 28 13 c5 b9 be 15 9e be f5 45 02 be c2 b3 07 bf
       -0.0003758904 -0.30875963 -0.12721999 -0.53008664
000180 3a 57 1c 3e 35 78 8b bd 9b d6 a3 bd eb cc ce bc
       0.1526765 -0.06810037 -0.07999917 -0.025244197
000190 66 ec b3 be 09 e8 8b bb f1 7a 6f 3e 0c ba 0e bf
       -0.35141295 -0.004269604 0.23386742 -0.55752635
0001a0 39 24 8f 3e df 29 ef 3d 8b a5 25 3e 0f 18 f8 bf
       0.27957323 0.11677908 0.16176431 -1.9382342
0001b0 e1 83 39 3f 9c 24 95 be 3b e1 c7 bc 1f fb 9d 3f
       0.72466856 -0.29129493 -0.02439939 1.2342261
0001c0 1c 4f 5d 3e 2e d3 4f be c0 34 09 be 9a 42 5a 3e
       0.21612209 -0.20295402 -0.13399029 0.21314469
0001d0 f8 bb b3 bd 58 d2 2e 3d a8 79 09 bd a4 2e b7 3d
       -0.087760866 0.04268107 -0.033563286 0.08944443
0001e0 80 f1 dc bc 60 e2 2a bd f8 3f 83 3d d0 f6 66 3d
       -0.026970625 -0.041719794 0.064086854 0.056387722
0001f0 d0 b0 33 3d 60 4c ab bd 2e 1b 1b 3e e0 de 0a be
       0.043869793 -0.08364177 0.15147087 -0.13561583

fc4.bias f4 [8]
000000 d4 29 0c be b2 76 d5 3d 52 4c 00 3f 2a 40 2a 3f
       -0.13687831 0.1042303 0.50116456 0.66504157
000010 5c 2d 63 3e 54 c1 b5 3e b6 ac 32 3d a2 0c 17 be
       0.22185272 0.3549906 0.04362174 -0.14750913

fc5.weight f4 [3, 8]
000000 9f 0b e4 bb 02 80 22 be b3 07 3f 3e f7 2c 7a be
       -0.006959393 -0.15869144 0.18655281 -0.24431215
000010 c0 37 a7 bd 9d 5c 03 3f c0 1f 06 bf e8 80 ae bd
       -0.0816493 0.5131319 -0.52392197 -0.08520681
000020 06 ff 55 3e 00 1a 8d be c5 51 96 be 53 37 25 3e
       0.20898065 -0.275589 -0.2935926 0.16134386
000030 8e 23 0d 3f 62 fb eb 3d 7c c8 93 3e a8 e5 e3 bd
       0.5513238 0.11522557 0.28863895 -0.11127788
000040 a2 50 df be ce c5 21 be 2f 31 6a 3e 0d e9 d7 3e
       -0.43616205 -0.15798113 0.22870325 0.4216999
000050 09 76 53 be 26 a2 c0 bd f1 fc 80 bf c2 5f 8d 3d
       -0.20650496 -0.09405927 -1.0077192 0.0690303

fc5.bias f4 [3]
000000 5c eb 06 3e 07 66 4d 3e fe 14 ba 3e
       0.1317572 0.20058452 0.3634414

exp_avg f4 [64, 4]
000000 f4 3b 60 b9 ee 55 5e 3a 51 2b 0d 39 6a e4 f6 b9
       -0.00021384639 0.00084814325 0.00013462944 -0.00047090958
000010 d9 e8 98 b7 0f e4 87 37 77 c8 d3 b6 61 da 01 b8
       -1.822824e-05 1.6199452e-05 -6.311627e-06 -3.0959378e-05
000020 7c 62 d7 37 c0 dd 31 38 28 37 cd 37 b6 45 6d b7
       2.5675858e-05 4.240661e-05 2.4463588e-05 -1.4142532e-05
000030 b9 54 22 35 1a 5d 4c 39 60 b3 b5 ba c7 81 0d 38
       6.047299e-07 0.00019489639 -0.0013862662 3.3737884e-05
000040 72 ea a2 b9 e0 35 ae 3a e7 bf f1 39 7f 29 4a ba
       -0.00031073723 0.0013291202 0.0004611008 -0.0007711872
000050 61 7a 05 b9 bb 0d e1 39 50 f2 57 b7 37 ea 93 b9
       -0.00012729458 0.00042925574 -1.2871416e-05 -0.0002821253
000060 21 08 e2 b8 a5 95 d4 39 a4 cc 35 b8 9b 5a b4 b9
       -0.00010778034 0.00040547285 -4.334435e-05 -0.00034399782
000070 07 c3 79 37 fa 22 0a b9 73 22 04 b9 94 ca 25 38
       1.4886965e-05 -0.00013173735 -0.00012601334 3.952773e-05
000080 7d da 08 37 f6 69 94 b8 f6 eb 8a 38 6f 12 42 38
       8.1571025e-06 -7.076927e-05 6.624304e-05 4.6270372e-05
000090 21 82 de 38 f0 7b f9 38 a2 9a 98 39 4e f1 fe 37
       0.00010610023 0.000118963304 0.0002910691 3.0391526e-05
0000a0 f4 b2 2b 39 02 aa 33 ba f3 1b a3 b8 f1 bf c4 39
       0.00016374496 -0.0006853641 -7.7776516e-05 0.0003752704
0000b0 35 55 dc b7 ff e9 b0 b8 8e cf 4e b9 4e ec 75 37
       -2.6265721e-05 -8.435919e-05 -0.00019723011 1.4658157e-05
0000c0 f3 ea 04 39 75 33 0a ba fd f8 3b b9 17 06 99 39
       0.00012676026 -0.000527195 -0.00017926465 0.0002918697
0000d0 9c a6 0b 39 72 33 eb b9 60 b4 39 39 65 e9 7a 39
       0.0001331814 -0.00044861023 0.0001771017 0.00023928804
0000e0 b0 54 1f b9 25 01 04 3a 23 3f 0d 39 22 e4 d3 b9
       -0.0001519497 0.0005035571 0.00013470328 -0.00040415028
0000f0 f9 af cd 37 c7 3b f4 b8 5e 27 8f b8 fd dd 11 38
       2.4519848e-05 -0.00011645961 -6.826104e-05 3.4777437e-05
000100 c8 e5 33 39 a9 8b 47 ba 91 bd ea 38 1b c9 02 3a
       0.0001715637 -0.00076120585 0.00011193299 0.00049890735
000110 b1 55 1e 3a 32 b3 32 bb 6e dc f5 b7 6a 74 d0 3a
       0.00060399907 -0.0027267453 -2.9308922e-05 0.0015903835
000120 4e a4 1c b9 84 30 13 3a 11 17 75 39 97 43 c0 b9
       -0.00014938528 0.00056148344 0.00023373614 -0.00036671452
000130 ab be ee 38 c8 8d f3 b9 32 a2 83 b8 ed 12 99 39
       0.00011384239 -0.00046454207 -6.276778e-05 0.00029196535
000140 a9 66 88 b9 1c fe 9a 3a 58 14 8c 39 c6 c0 34 ba
       -0.0002601643 0.0011824998 0.00026718038 -0.00068951806
000150 5f af 88 b6 c0 e1 9a 35 75 91 0f b9 56 ae 99 b5
       -4.0735317e-06 1.1539596e-06 -0.0001369173 -1.1450127e-06
000160 ee 61 09 38 c7 f2 b6 39 7e 1d 91 38 cf 2c 0e b9
       3.275455e-05 0.00034894628 6.919632e-05 -0.00013558868
000170 35 73 82 39 2f a2 48 ba 3c e3 a5 b8 ff c2 0b 3a
       0.00024881368 -0.0007653562 -7.910139e-05 0.0005331486
000180 19 6a 22 b8 90 ef 1b 39 c2 16 48 b7 0c 34 b2 b8
       -3.872262e-05 0.00014871196 -1.1926228e-05 -8.497396e-05
000190 f6 41 d4 39 34 ce d7 ba 30 b2 9a b9 9a 19 7d 3a
       0.00040484936 -0.0016464652 -0.0002950593 0.0009654999
0001a0 6f 60 c8 37 7c cc a0 b9 fa f1 98 b7 2e 7a 29 39
       2.3886763e-05 -0.0003066993 -1.8232491e-05 0.00016162611
0001b0 a3 08 3f b7 0a ff c0 38 7b 59 15 39 cd 80 62 b8
       -1.1386498e-05 9.202778e-05 0.00014243081 -5.4002554e-05
0001c0 90 91 9c 37 78 72 e1 b8 54 4e 48 38 80 0e 8a 38
       1.8664432e-05 -0.000107501575 4.7756665e-05 6.5830536e-05
0001d0 11 57 ad 30 60 93 a1 31 bb 28 ab b3 ea ec 58 30
       1.2612152e-09 4.7024713e-09 -7.970217e-08 7.891702e-10
0001e0 59 6c aa 37 88 1e ee b8 8b fe 19 b9 1a 68 b4 38
       2.0316033e-05 -0.00011354411 -0.00014686042 8.602459e-05
0001f0 f8 df 24 36 e8 8e ce 34 24 20 78 37 41 46 96 b5
       2.4568271e-06 3.8474468e-07 1.4789435e-05 -1.1196317e-06
000200 a0 0b c8 37 a8 b4 4d 39 fc 49 53 39 66 7d a7 b8
       2.3847271e-05 0.00019617623 0.0002015009 -7.986538e-05
000210 c4 93 7c b8 eb dc 7d 39 82 65 9d 38 21 0b 0f b9
       -6.02191e-05 0.00024210259 7.505251e-05 -0.00013641689
000220 56 15 89 b8 b5 cb 8d 39 71 50 b1 38 c0 02 2c b9
       -6.536643e-05 0.0002704539 8.455001e-05 -0.00016404223
000230 8e eb 03 39 7e 50 12 ba 30 fa 19 39 7b a6 ae 39
       0.00012580885 -0.0005581452 0.00014684419 0.00033311904
000240 ca 2f e0 b8 13 4b af b9 b0 5c d7 b9 b1 59 03 38
       -0.00010690054 -0.00033434536 -0.00041077053 3.1316365e-05
000250 c4 44 76 37 da a1 27 37 f7 60 68 b8 90 db 58 b5
       1.4678753e-05 9.99166e-06 -5.5403416e-05 -8.0785776e-07
000260 30 dc 02 b9 b5 80 fc 39 40 0c 07 b9 2a 8e 83 b9
       -0.00012479792 0.0004816108 -0.00012879167 -0.00025092188
000270 8b e6 19 3a 99 85 ff ba 08 6c 2b ba ac 5e a4 3a
       0.00058708404 -0.0019494771 -0.000653923 0.0012540421
000280 78 03 75 b9 17 95 9f 39 1c 9c 63 37 91 ba 81 b9
       -0.00023366313 0.00030437924 1.3566601e-05 -0.000247438
000290 8e a9 ef b8 95 64 c5 39 96 48 a7 38 73 40 85 b9
       -0.0001142799 0.00037649708 7.976701e-05 -0.00025415755
0002a0 16 36 79 35 16 a2 ac 36 ed d4 0f 38 07 e3 2c 34
       9.2838434e-07 5.1448687e-06 3.429216e-05 1.610134e-07
0002b0 47 95 8d b8 88 70 90 b9 3e 14 32 39 b2 62 24 39
       -6.751209e-05 -0.00027549663 0.00016982944 0.00015677026
0002c0 84 3c 7c 39 01 25 61 39 d9 43 4d ba 4d 28 9d b8
       0.00024055137 0.00021471457 -0.00078302395 -7.49385e-05
0002d0 87 c1 99 37 0e ec 85 b9 4c e4 bc 36 de 2e 29 39
       1.832914e-05 -0.0002554361 5.629414e-06 0.00016134555
0002e0 e1 67 8e 37 43 a3 56 38 4b db 8b 37 eb bd 7f 37
       1.6976092e-05 5.1173625e-05 1.6672207e-05 1.5243403e-05
0002f0 d8 65 d2 37 1f fe 8f 39 e9 d2 13 39 c1 36 31 37
       2.5081375e-05 0.0002746442 0.00014097583 1.05627705e-05
000300 e6 7e 04 b9 d4 a6 c6 36 9c 93 08 38 c7 ae 1b b8
       -0.00012635774 5.920281e-06 3.25624e-05 -3.7117654e-05
000310 a1 bb c6 b6 30 d4 d9 b7 2b 84 19 ba ec e0 68 b6
       -5.9227027e-06 -2.5967223e-05 -0.00058561814 -3.4701616e-06
000320 b5 5b 4f 38 8f 6f c4 37 2e a9 07 ba 72 7f fc 35
       4.9438055e-05 2.341697e-05 -0.0005175051 1.8812555e-06
000330 76 a6 3d 39 ae db 41 b9 ef 90 be 39 d5 4c 47 39
       0.00018086456 -0.00018487751 0.00036347608 0.00019006741
000340 7b 47 cc 37 06 a4 ab b8 45 ee 97 37 c5 b8 04 38
       2.435198e-05 -8.184467e-05 1.8111556e-05 3.1643332e-05
000350 3c eb 9c b8 df f9 6a 39 30 a2 a4 39 e8 94 2a b9
       -7.4824755e-05 0.00022409063 0.00031401357 -0.00016267935
000360 d4 32 2f 38 04 70 4b b9 c2 ac 41 b7 3c 96 01 39
       4.177059e-05 -0.00019401318 -1.154392e-05 0.00012358365
000370 f1 50 6d b7 06 e0 c8 38 2d 37 b7 38 92 03 56 38
       -1.4145146e-05 9.578471e-05 8.736397e-05 5.10249e-05
000380 4a 97 90 36 0d 79 cb b8 a5 f5 1b 39 d9 77 ff b7
       4.309147e-06 -9.702342e-05 0.00014873462 -3.0454177e-05
000390 de 01 4b b8 e9 f0 5e b5 ef 85 3a b9 f2 30 93 37
       -4.840071e-05 -8.3052015e-07 -0.00017788236 1.7546558e-05
0003a0 da ca 16 b8 5d e1 b9 37 b1 89 29 38 ca 06 4b b7
       -3.5951707e-05 2.2158662e-05 4.0420975e-05 -1.2101324e-05
0003b0 b0 d2 62 34 82 35 cf 36 a5 79 80 b8 f2 c8 55 b5
       2.1124538e-07 6.17531e-06 -6.126174e-05 -7.96411e-07
0003c0 83 80 11 36 d9 2a 83 b9 d8 3c a3 b9 85 dc 06 39
       2.1681487e-06 -0.0002501819 -0.00031135115 0.00012861386
0003d0 64 37 5f 38 38 b1 af b9 51 4d 06 b9 82 8c 87 39
       5.321893e-05 -0.0003351064 -0.00012808038 0.00025853893
0003e0 79 72 07 38 02 97 e1 b8 a5 cc 45 39 12 5c 90 38
       3.229312e-05 -0.000107569635 0.0001886362 6.8836045e-05
0003f0 24 28 d4 b7 af 8b 2b 38 c7 19 18 38 41 2e a1 b8
       -2.5291061e-05 4.0899668e-05 3.626363e-05 -7.685694e-05

exp_avg_sq f4 [64, 4]
000000 f1 e1 fa 35 57 9b 28 38 92 a5 19 37 82 1b 47 37
       1.8692209e-06 4.0198993e-05 9.1580605e-06 1.1867729e-05
000010 e1 d0 08 34 3e 5a 95 35 de 5e 96 36 96 ed d5 34
       1.2741977e-07 1.1127629e-06 4.4813924e-06 3.9847208e-07
000020 8d 5a a7 33 07 db 96 35 88 27 4b 35 0c 5e 69 34
       7.7930146e-08 1.1239616e-06 7.568092e-07 2.173403e-07
000030 46 e7 56 34 2d fe 3a 37 e9 42 e6 38 9d b7 56 34
       2.001444e-07 1.1145644e-05 0.000109797176 1.9997101e-07
000040 21 b1 2a 36 9b 49 48 38 07 3b 5e 37 93 9e 8a 37
       2.5435077e-06 4.7752266e-05 1.32459745e-05 1.6524724e-05
000050 7a 45 83 34 c8 35 b6 36 95 24 a0 35 9e ff 83 35
       2.4451202e-07 5.4302836e-06 1.1931576e-06 9.834655e-07
000060 09 97 04 35 0d 58 0a 37 a2 8b 9e 37 f5 68 a4 35
       4.9393617e-07 8.245942e-06 1.890009e-05 1.2249499e-06
000070 aa bc 91 34 db 0e 14 36 8e 8d 9d 37 bc 06 4b 35
       2.7145626e-07 2.2062366e-06 1.8781775e-05 7.5633193e-07
000080 0f 08 8b 34 df 1e 75 36 f5 bc 82 36 82 51 76 35
       2.589663e-07 3.6525814e-06 3.8962994e-06 9.176075e-07
000090 0b 2a 97 34 67 9a 7f 36 3c 1f e1 36 29 47 9a 34
       2.8156532e-07 3.8087835e-06 6.7091587e-06 2.873651e-07
0000a0 5a 62 df 34 61 26 de 36 22 d5 29 35 90 34 19 36
       4.1608547e-07 6.6205835e-06 6.3267555e-07 2.2829372e-06
0000b0 f7 9d 9a 33 b6 1f 24 36 03 ef 9b 35 72 ad 1d 32
       7.1999175e-08 2.4456363e-06 1.1617961e-06 9.17804e-09
0000c0 ab 32 6a 35 16 b6 53 37 62 7a 5b 36 8c 84 93 36
       8.7245525e-07 1.2618975e-05 3.270478e-06 4.396372e-06
0000d0 59 d6 a1 34 b3 52 90 36 03 7c 91 36 9b c9 b3 35
       3.0144545e-07 4.301162e-06 4.3357736e-06 1.3395214e-06
0000e0 5e 5a d9 35 08 a0 c3 37 e7 a3 c1 34 6a 01 ec 36
       1.619406e-06 2.3320332e-05 3.6068306e-07 7.0335127e-06
0000f0 0f cd 0d 35 54 c3 b4 36 ef 2b e6 34 9a 4f eb 35
       5.282499e-07 5.387157e-06 4.2872804e-07 1.7532032e-06
000100 de 0a 84 35 6c dd 91 37 b2 df 1d 36 a7 9f a6 36
       9.837929e-07 1.7388455e-05 2.352503e-06 4.9657715e-06
000110 7b fc bd 36 5b fd af 38 16 cc 62 36 14 75 db 37
       5.6620315e-06 8.3918414e-05 3.3795418e-06 2.6161353e-05
000120 83 4e 21 35 60 3a 4c 37 e5 35 93 35 2c ed 85 36
       6.0091423e-07 1.2172939e-05 1.0968039e-06 3.9913193e-06
000130 3d 69 cd 35 25 f2 91 37 ac 45 55 35 b7 c9 b3 36
       1.5304319e-06 1.7398104e-05 7.945007e-07 5.3580984e-06
000140 18 cb 96 36 19 0f b9 38 f4 62 9c 36 9c 57 cf 37
       4.4939916e-06 8.8242996e-05 4.660682e-06 2.471712e-05
000150 44 35 5a 35 35 9a 9f 37 08 5d 32 35 31 8b 9a 36
       8.128884e-07 1.9026085e-05 6.6445546e-07 4.6057617e-06
000160 71 7d 9a 34 70 60 20 36 f4 67 8d 37 c1 e7 b4 34
       2.8776006e-07 2.3897992e-06 1.6856917e-05 3.3696236e-07
000170 98 06 cb 35 f4 38 cd 37 60 c5 18 35 41 94 eb 36
       1.5126598e-06 2.4464425e-05 5.691163e-07 7.020805e-06
000180 ff 66 61 33 15 58 4d 35 bb c0 75 34 e4 1f 8b 34
       5.248057e-08 7.649663e-07 2.2887518e-07 2.591397e-07
000190 e7 55 3f 36 50 20 3a 38 c4 f9 8f 36 e6 2a 71 37
       2.851122e-06 4.437595e-05 4.2908086e-06 1.43747075e-05
0001a0 bb e1 0c 35 38 72 54 37 e7 60 64 35 b0 46 39 36
       5.2482545e-07 1.2662778e-05 8.507763e-07 2.7608294e-06
0001b0 b3 9d 7d 35 e4 ae 59 37 a6 4a 47 35 5e 26 1e 36
       9.4479327e-07 1.2974928e-05 7.4241905e-07 2.3566167e-06
0001c0 8c 62 bb 33 b0 7f 59 35 38 90 9a 34 88 2a 4b 34
       8.725792e-08 8.102461e-07 2.8789668e-07 1.8921321e-07
0001d0 99 b0 b5 29 5b 0d 0c 2d de 83 02 31 bb 5c 52 29
       8.0686495e-14 7.961044e-12 1.8992448e-09 4.6709798e-14
0001e0 27 48 71 34 59 40 81 36 b9 99 6b 36 cc e9 86 35
       2.2471123e-07 3.8519906e-06 3.5107207e-06 1.0051822e-06
0001f0 70 95 3e 32 50 ad 22 31 8d 76 1b 34 ff b9 0a 30
       1.1093434e-08 2.367262e-09 1.4478628e-07 5.0468424e-10
000200 69 dc 2a 34 b3 bc 06 36 e2 ca 10 36 4e 10 6d 34
       1.5912669e-07 2.0077393e-06 2.1575765e-06 2.2078277e-07
000210 55 b4 a3 34 75 27 cd 36 18 79 7e 36 46 39 cf 35
       3.0492325e-07 6.1140695e-06 3.7919435e-06 1.5439371e-06
000220 ec 01 4a 34 f3 a2 28 36 73 4f a0 34 02 4b 36 35
       1.8813415e-07 2.51288e-06 2.986013e-07 6.7909434e-07
000230 ab 61 0d 35 53 c8 0d 37 8f 15 88 36 1a c9 46 36
       5.266872e-07 8.4508965e-06 4.0556256e-06 2.9621356e-06
000240 2c 20 89 35 db ec 66 37 d6 7d 00 37 17 b0 04 35
       1.0216659e-06 1.37642155e-05 7.658693e-06 4.9430076e-07
000250 44 0b 5a 33 82 c1 d6 32 e6 d7 14 34 47 ab fc 32
       5.0767326e-08 2.5000876e-08 1.3862117e-07 2.9414549e-08
000260 aa d6 52 35 64 d1 83 37 0f bf d2 36 0e bb 9a 36
       7.8543474e-07 1.5713922e-05 6.28073e-06 4.6113337e-06
000270 85 ad de 36 18 80 a7 38 db 69 8b 38 6a 9b d1 37
       6.636316e-06 7.98704e-05 6.6477536e-05 2.4987112e-05
000280 a5 55 e2 35 07 03 e1 36 0c 3c 14 35 00 b1 4d 36
       1.6863238e-06 6.705875e-06 5.5221676e-07 3.0650408e-06
000290 23 88 a2 34 d6 58 8b 36 0d dc 32 34 a8 aa 9c 35
       3.0273904e-07 4.1528647e-06 1.6657596e-07 1.1672573e-06
0002a0 49 62 ba 2e e1 ac 09 33 58 f7 28 36 6b 17 8a 2e
       8.47576e-11 3.205503e-08 2.5177924e-06 6.279673e-11
0002b0 4d 32 32 36 fd 8f e9 37 78 24 90 36 17 f0 1b 37
       2.6553346e-06 2.7842814e-05 4.29578e-06 9.29462e-06
0002c0 fd 79 92 36 09 47 2a 37 50 ba 98 38 dd 8d 2e 36
       4.3653404e-06 1.0149329e-05 7.282628e-05 2.6010596e-06
0002d0 e1 4d 16 35 eb ed 80 37 08 31 31 35 5f 63 4e 36
       5.5992683e-07 1.5369578e-05 6.600899e-07 3.0754234e-06
0002e0 7c 2e d4 35 f9 49 a2 37 0e 9c 46 34 2b d1 ee 36
       1.580876e-06 1.9346351e-05 1.849696e-07 7.117303e-06
0002f0 8c cb ff 33 02 c7 74 37 66 6e 61 36 5a 2f 5e 33
       1.1911388e-07 1.4589868e-05 3.3591873e-06 5.173147e-08
000300 8b 63 bb 35 85 2c 80 37 d9 32 be 35 ea 94 a7 36
       1.3961557e-06 1.527952e-05 1.4170902e-06 4.9943237e-06
000310 f4 b0 d7 31 f1 d0 9c 34 80 a2 18 38 9f 16 bf 31
       6.277441e-09 2.920929e-07 3.6390964e-05 5.5614033e-09
000320 13 0e a0 34 32 c6 a1 36 fc 23 a8 37 06 52 1f 34
       2.9812563e-07 4.821247e-06 2.0043917e-05 1.4837869e-07
000330 ff 37 27 35 b9 e2 cd 36 ee 36 43 37 c2 3f b9 35
       6.2293833e-07 6.13587e-06 1.1635695e-05 1.380213e-06
000340 cb 16 8b 34 73 38 a0 36 c9 df 01 35 3c 4e a1 35
       2.5907352e-07 4.774943e-06 4.8381895e-07 1.2018204e-06
000350 2d 39 cf 34 bc e6 95 36 a7 8f 06 37 7f 00 af 35
       3.8598355e-07 4.467407e-06 8.020469e-06 1.303866e-06
000360 5e f9 07 34 cc cb 5a 36 d3 2e 26 35 a1 45 36 35
       1.2663574e-07 3.2603157e-06 6.190796e-07 6.7901607e-07
000370 18 d3 2a 35 c0 18 05 37 5a 67 4f 35 2d 74 e9 35
       6.3637117e-07 7.93318e-06 7.7263905e-07 1.7393664e-06
000380 85 8c 6f 35 a0 a7 4e 37 a3 34 73 35 ac 8e 3a 36
       8.923892e-07 1.2317585e-05 9.060115e-07 2.7799206e-06
000390 ec e0 7d 34 d3 4d 18 35 01 58 9c 35 44 bd bd 33
       2.3644287e-07 5.673766e-07 1.1648518e-06 8.8354255e-08
0003a0 05 4e 7e 35 08 d4 45 37 90 85 9d 36 7c c8 61 36
       9.4735907e-07 1.1791482e-05 4.6945133e-06 3.364431e-06
0003b0 27 87 1f 2f bc d3 6f 34 3e b5 6e 36 96 3b 26 2f
       1.4508982e-10 2.2335638e-07 3.557026e-06 1.5118781e-10
0003c0 6d b8 9b 34 e2 07 9a 36 c2 b6 8e 36 f9 e8 3b 35
       2.9005187e-07 4.5904753e-06 4.2532056e-06 7.000195e-07
0003d0 f8 7b a7 35 92 de d3 37 3d 2f 13 35 85 5f ab 36
       1.2478549e-06 2.5256802e-05 5.483051e-07 5.107317e-06
0003e0 d0 c4 85 34 18 fc c1 36 3a a2 51 37 a3 f5 87 35
       2.491638e-07 5.781196e-06 1.2495142e-05 1.0129774e-06
0003f0 9f 1f 24 35 3a 6f 22 37 f4 63 33 37 4a c4 0d 36
       6.1140776e-07 9.681849e-06 1.0692504e-05 2.1124893e-06

exp_avg f4 [64]
000000 41 85 dc 39 38 cc fc 37 42 6d 01 38 45 00 0c 38
       0.00042060952 3.0135838e-05 3.085775e-05 3.3378852e-05
000010 81 3b 67 3a f3 30 a8 39 6e 9f d2 39 4b 78 f7 b6
       0.00088208175 0.00032079927 0.00040173106 -7.3751776e-06
000020 98 3a b5 b8 c1 66 1d 39 25 b9 f6 b9 b6 4f 19 b8
       -8.6416665e-05 0.00015010966 -0.0004705872 -3.655228e-05
000030 ed 6f b1 b9 89 a9 89 b9 c2 b7 ce 39 8d e2 91 b6
       -0.00033843462 -0.0002625699 0.00039428292 -4.3477107e-06
000040 b8 86 17 ba 29 77 06 bb e3 f1 bd 39 ac 46 af b9
       -0.00057802675 -0.0020517802 0.0003622911 -0.00033431256
000050 6f 4f 4f 3a 6e 7b 47 38 fa f7 93 39 f5 e7 0e ba
       0.000790826 4.756025e-05 0.00028222782 -0.00054514344
000060 47 64 d2 38 49 04 9b ba 0a 28 60 b9 99 88 8e 38
       0.000100322584 -0.0011826839 -0.0002137722 6.796531e-05
000070 d8 51 bf b8 b4 1a 4c 31 dc a7 01 b9 70 4b b6 b3
       -9.122834e-05 2.9701086e-09 -0.00012364931 -8.4887574e-08
000080 5e 6c f0 38 fa 5a 06 39 1c 8f 41 39 22 00 d6 b9
       0.00011464277 0.00012813127 0.00018459227 -0.0004081736
000090 dd 8d 5a b9 19 ce ff b4 28 a6 4a 39 1e 09 ae ba
       -0.00020842948 -4.7647407e-07 0.00019326119 -0.0013277864
0000a0 9c 9b 0f 39 bf 4f 93 39 30 8a 2c 36 7d 1d c6 b9
       0.00013695512 0.0002809744 2.5710433e-06 -0.00037787473
0000b0 b0 88 81 39 74 b9 55 b9 be 20 23 38 76 20 d8 38
       0.00024706637 -0.0002038235 3.8892722e-05 0.00010305729
0000c0 40 72 c2 b7 5c 86 c7 b7 e5 81 fc 38 a4 54 88 b8
       -2.3179804e-05 -2.3785215e-05 0.00012040491 -6.500751e-05
0000d0 21 a6 c6 b7 11 c4 27 39 9e 5e 18 b9 52 eb 28 b8
       -2.36808e-05 0.00015999402 -0.00014531097 -4.027348e-05
0000e0 6e d5 76 b7 79 20 09 b8 b8 06 de b7 e4 0c 31 35
       -1.4712436e-05 -3.2693588e-05 -2.6467591e-05 6.5956397e-07
0000f0 8c ea 59 b9 f1 6a 99 b9 bb 6a e7 b8 34 22 ca 38
       -0.00020782108 -0.00029262112 -0.000110348185 9.6384814e-05

exp_avg_sq f4 [64]
000000 b7 26 77 37 76 f9 a2 34 48 a4 47 35 8b a9 07 36
       1.4731361e-05 3.0356358e-07 7.437234e-07 2.0215255e-06
000010 44 52 a0 37 99 53 0c 36 45 09 c0 36 51 0a b3 34
       1.9111794e-05 2.0910286e-06 5.723125e-06 3.3348854e-07
000020 13 42 72 35 d4 51 10 36 09 ea 72 36 82 96 88 34
       9.0248176e-07 2.1505302e-06 3.6197036e-06 2.5441483e-07
000030 1a 36 c2 36 3d d2 20 36 6a 04 da 36 7c a1 ee 35
       5.787949e-06 2.3964233e-06 6.49742e-06 1.777938e-06
000040 29 5b 16 37 81 c2 8b 38 4c c6 c7 36 23 d1 b5 36
       8.961922e-06 6.664266e-05 5.953747e-06 5.418567e-06
000050 86 15 d7 37 95 79 d9 36 34 54 92 36 2c 60 0d 37
       2.564002e-05 6.481258e-06 4.3609416e-06 8.426647e-06
000060 5b 9e eb 34 70 4d ca 37 e5 bc 75 36 48 b3 15 36
       4.388738e-07 2.4116336e-05 3.6617796e-06 2.2307086e-06
000070 36 ea 37 35 b2 32 0c 2b 21 2d 79 35 05 88 02 33
       6.8513634e-07 4.9808345e-13 9.28254e-07 3.0391693e-08
000080 58 a4 55 36 bd c6 02 36 25 a5 fb 35 83 0c 82 36
       3.1835134e-06 1.948719e-06 1.8749021e-06 3.8757585e-06
000090 9b a9 a0 37 29 9f 11 35 99 4c eb 36 98 7f a4 38
       1.9152465e-05 5.424832e-07 7.012463e-06 7.8438956e-05
0000a0 5f c0 13 37 e6 5a 38 36 09 b8 10 30 90 cc d5 37
       8.806673e-06 2.7471046e-06 5.2648425e-10 2.5486836e-05
0000b0 38 30 aa 38 66 7d 84 36 b3 9f 43 37 5c 7c 51 36
       8.115213e-05 3.948505e-06 1.1660089e-05 3.1215814e-06
0000c0 f2 33 3a 37 1b 42 65 33 de 3e c8 36 ee 20 43 36
       1.1098558e-05 5.337834e-08 5.967783e-06 2.9076432e-06
0000d0 93 ff 03 36 07 a1 17 36 0d 17 53 35 6b 09 37 36
       1.9669285e-06 2.2594484e-06 7.863717e-07 2.7274607e-06
0000e0 7d c3 21 36 05 c3 13 36 ac 5a b2 36 3a 5a b0 30
       2.4104659e-06 2.2018223e-06 5.315369e-06 1.2831329e-09
0000f0 65 12 57 36 ee d3 0e 37 86 2e de 35 54 6e ff 35
       3.2048204e-06 8.513203e-06 1.6553829e-06 1.903109e-06
