toy_al/mini_exp/500-200-200-001-yes/ckpt_phase1.pt (torch, 47981 bytes, 30 tensors)

fc1.weight f4 [64, 4]
0	0xbe7407f9	-0.23831166
1	0xbef8857c	-0.4853934
2	0x3eabc181	0.3354607
3	0xbdc330c6	-0.09530787
4	0xbf46c3fc	-0.776428
5	0xbf02d795	-0.511102
6	0x3daac866	0.08339004
7	0xbf6c7a0a	-0.92373717
8	0x3e047787	0.12936221
9	0x3e4d7ede	0.20067927
10	0x3ea13481	0.3148537
11	0xbeb31767	-0.34978792
12	0x3f11758c	0.5681999
13	0x3d8f8e88	0.070096076
14	0xbc947527	-0.018122269
15	0x3fae6af7	1.3626393
16	0x3d49fad5	0.049311478
17	0xbe0e1a64	-0.13877255
18	0x3eee4c28	0.46542478
19	0xbf0ff33f	-0.5623054
20	0xbf1bf25c	-0.60916686
21	0x3e5ac835	0.21365435
22	0xbeb0189e	-0.3439378
23	0x3efaa1b7	0.48951504
24	0xbf141e87	-0.5785908
25	0x3ec002c8	0.37502122
26	0x3c2f06d2	0.010682778
27	0xbe98fe49	-0.29881504
28	0xbe323268	-0.17402041
29	0xbe652ac3	-0.22379594
30	0x3e01343a	0.12617579
31	0xbf296e52	-0.6618396
32	0x3e62db7b	0.22154038
33	0x3e1dc6ba	0.1540784
34	0x3ee749b0	0.45173407
35	0xbe7121d1	-0.23548056
36	0x3e8c871d	0.27446833
37	0xbcbbd9e3	-0.022931045
38	0x3ec8f914	0.39252532
39	0xbf2dd603	-0.6790468
40	0xbeb27c98	-0.34860682
41	0x3efd6d57	0.49497482
42	0x3e805894	0.2506758
43	0xbe2b916c	-0.16754693
44	0x3e4e10e2	0.20123628
45	0x3e3b5fbd	0.1829824
46	0xbb4716d8	-0.0030378606
47	0xbe88f22a	-0.26747257
48	0xbe33f2c3	-0.17573075
49	0x3eb9588f	0.36200377
50	0xbe0789d5	-0.13236172
51	0x3ee488f3	0.44635734
52	0xbe7ba657	-0.24575172
53	0x3f19babf	0.60050577
54	0x3e422765	0.1896034
55	0xbe49976c	-0.19686669
56	0x3d33bb6b	0.043879908
57	0xbe28253f	-0.16420458
58	0xbeac7bf9	-0.33688334
59	0xbe07166a	-0.13192144
60	0xbe7bcf1c	-0.24590725
61	0x3ea8c4b5	0.32962576
62	0xbf0d1b18	-0.55119467
63	0x3d342163	0.043977153
64	0x3dcc46eb	0.09974464
65	0xbe7fcbec	-0.24980134
66	0x3f2dfec1	0.6796685
67	0x3e3289ed	0.17435427
68	0xbe3b3ae8	-0.1828419
69	0x3e6dda7b	0.23227875
70	0x3e314328	0.17310774
71	0x3e533072	0.20623949
72	0x3f51a707	0.8189549
73	0x3d2be90c	0.041970298
74	0x3b999642	0.0046871016
75	0x3e326ee2	0.17425111
76	0x3dab285e	0.08357309
77	0xbeb8e253	-0.36110172
78	0xbe62478f	-0.2209761
79	0xbf0ae518	-0.5425582
80	0x3f6b0a9f	0.9181308
81	0xbeaed73d	-0.3414859
82	0xbc249d35	-0.010047247
83	0xbf67dd8d	-0.90572435
84	0xbcf7a3db	-0.0302295
85	0x3e9a08ab	0.30084738
86	0xbf10f272	-0.5661994
87	0x3ebc7205	0.3680574
88	0x3f385d22	0.7201711
89	0xbecd1167	-0.4005234
90	0xbc877f35	-0.01654015
91	0xbeb9e527	-0.36307642
92	0x3e89e141	0.26929668
93	0xbe1e59bc	-0.15463918
94	0x3f029352	0.5100604
95	0x3ff60c31	1.922247
96	0xbe3fcf8d	-0.18731518
97	0x3dd470f5	0.10373107
98	0xbe57f78a	-0.21090522
99	0xbe2ce639	-0.16884698
100	0x3df0078e	0.11720191
101	0x3ef43da7	0.47703287
102	0x3edd78a7	0.43256113
103	0x3ed2939f	0.4112825
104	0x3e817103	0.25281534
105	0x3de9d209	0.11417014
106	0xbe2ea168	-0.17053759
107	0xbce1d076	-0.027565222
108	0xbeb82a50	-0.35969782
109	0x3e9b607f	0.30347058
110	0xbf13adc9	-0.5768705
111	0x3f0ec209	0.55764824
112	0x3ed4351b	0.41446766
113	0x3e6fa746	0.23403654
114	0xbca9ebf4	-0.020742394
115	0xbcb7df7d	-0.022445435
116	0xbff82e15	-1.9389063
117	0xbeddc000	-0.43310547
118	0xbe549d43	-0.20763116
119	0xbe6a6d25	-0.22893198
120	0x3f2dec0b	0.679383
121	0x3e90f9ac	0.28315485
122	0x3f09820c	0.5371406
123	0x3ed57fd4	0.41699088
124	0x3f3a7807	0.728394
125	0xbe527daf	-0.20555757
126	0xbe0f27d7	-0.13980041
127	0xbf12597d	-0.571678
128	0x3f9ecfd9	1.240718
129	0xbf08949f	-0.5335178
130	0x3e2cc379	0.16871442
131	0x3d8fc910	0.070207715
132	0x3f6921db	0.91067284
133	0x3c763336	0.015026858
134	0x3c94206f	0.018081872
135	0xbe8e04d5	-0.27738062
136	0x3ec12e4f	0.37730643
137	0x3f145640	0.5794411
138	0xbe14f92a	-0.14548174
139	0x3e8a1b1f	0.26973817
140	0xbafae778	-0.0019142469
141	0x3f002956	0.50063074
142	0x3e8577d7	0.26067993
143	0xbe97ed4e	-0.29673237
144	0x3f442eb0	0.7663374
145	0x3e2a52fc	0.16633219
146	0xbdb0d662	-0.0863464
147	0x3fa2b4ac	1.2711387
148	0x3f797b26	0.97453535
149	0xbf107e6c	-0.56442904
150	0xbe90d73e	-0.28289217
151	0x3e8dfc8a	0.27731735
152	0x3de86aef	0.11348521
153	0xbebf2c9b	-0.3733872
154	0x3e9c1e73	0.3049198
155	0x3d46c2b8	0.048525542
156	0xbf68addb	-0.9089028
157	0xbf1591ae	-0.58425415
158	0x3eb04cf4	0.3443371
159	0xbebdad28	-0.3704617
160	0xbeae33d8	-0.3402393
161	0xbeaa8ac2	-0.3330899
162	0xbefc635a	-0.4929455
163	0x3e84c7b2	0.25933605
164	0xbce60c79	-0.02808212
165	0x3d6c6eca	0.057722844
166	0xbe99ae14	-0.30015624
167	0xbf146d51	-0.57979304
168	0x3f772487	0.9654011
169	0xbdfa9899	-0.12236137
170	0x3ddfde42	0.10931064
171	0x3f5f20b0	0.8715925
172	0x3ea6c236	0.32570046
173	0xbec49113	-0.38391933
174	0x3eca2ec6	0.3948881
175	0xbe18a2be	-0.14905831
176	0xbddea38b	-0.10871037
177	0xbef4ba27	-0.47798273
178	0xbd87b93d	-0.06627128
179	0xbcb15a83	-0.021649605
180	0x3f30ae64	0.690161
181	0x3e28a4f0	0.16469169
182	0xbe5c28ea	-0.21499982
183	0xbeef1800	-0.46697998
184	0x3f0455bd	0.51693326
185	0xbf2047e7	-0.62609714
186	0xbc5a0303	-0.013306382
187	0x3e14cea7	0.14531957
188	0x3eed17de	0.46307272
189	0x3dc3094a	0.09523256
190	0xbe9e4132	-0.30909115
191	0x3f2d9be9	0.67816025
192	0x3f345cf3	0.7045433
193	0xbdc77809	-0.09739692
194	0xbec4f939	-0.38471392
195	0xbf1fc890	-0.6241541
196	0x3f96c4e6	1.1778839
197	0xbec082cc	-0.3759979
198	0x3efcbd1d	0.49363032
199	0x3f15bc27	0.5849022
200	0x3f0bc0a0	0.545908
201	0x3e34fb45	0.17673977
202	0x3ba1429c	0.0049212705
203	0x3f59efaa	0.85131323
204	0x3efd3e2b	0.49461493
205	0x3e2c15b8	0.1680516
206	0x3e9d4130	0.30713797
207	0xbe0a246d	-0.13490458
208	0xbdb60727	-0.08888083
209	0x3eefd2d7	0.46840546
210	0xbeb79fb9	-0.35864046
211	0x3d8e6c53	0.06954255
212	0xbf4ca47b	-0.7993848
213	0x3e973bbb	0.29537758
214	0x3ebca2b0	0.3684287
215	0xbe873482	-0.26407248
216	0xbf7f9364	-0.99834275
217	0xbda2da9f	-0.07951855
218	0x3d603aca	0.054743566
219	0xbe0c0837	-0.13675009
220	0xbf1a4389	-0.602593
221	0xbcf3dff3	-0.029769873
222	0xbe66e5d5	-0.22548611
223	0x3e6a7dcd	0.22899552
224	0xbf155239	-0.58328587
225	0x3df941bb	0.1217074
226	0xbea29b4a	-0.317591
227	0xbddc1dff	-0.10747909
228	0x3ea187fe	0.31549066
229	0xbe55f946	-0.20895872
230	0xbeaa6017	-0.33276436
231	0x3f62b27a	0.88553584
232	0x3f418ccd	0.7560547
233	0xbe800db1	-0.25010446
234	0x3e4ab82d	0.1979682
235	0xbf1705b6	-0.5899309
236	0xbf35833d	-0.7090338
237	0xbe2633f7	-0.1623076
238	0x3eb867fb	0.3601683
239	0x3f154a89	0.58316857
240	0x3f337857	0.701055
241	0x3eaabb55	0.33346048
242	0xbda75797	-0.08171003
243	0x3eb6e588	0.35721993
244	0xbd890cbb	-0.06691881
245	0xbced37f3	-0.028957343
246	0xbefd5fff	-0.49487302
247	0xbea3e11b	-0.3200768
248	0x3f5ede36	0.87057817
249	0x3f1ec2ed	0.62016183
250	0x3de191c5	0.110141315
251	0x3e7fb3da	0.24970952
252	0xbf508465	-0.8145202
253	0x3dd19ff9	0.102355905
254	0xbdba3fd1	-0.09094203
255	0xbe541fe0	-0.20715284

fc1.bias f4 [64]
0	0x3f17477a	0.5909344
1	0xbf30aed8	-0.6901679
2	0x3ef18c0c	0.4717716
3	0xbefd1fad	-0.4943823
4	0xbe37bb1d	-0.17942472
5	0x3f091125	0.53541785
6	0x3f0fe76c	0.56212497
7	0xbf0d81bd	-0.5527609
8	0x3e852a73	0.2600895
9	0xbd6e0ffd	-0.058120716
10	0xbf07305f	-0.52808183
11	0xbf2c9fc9	-0.6743131
12	0xbde56af4	-0.1120204
13	0x3b98a371	0.0046581556
14	0x3d5bf6db	0.053702217
15	0xbe7e6a85	-0.24845321
16	0x3f11d9c0	0.56972885
17	0xbdd5b773	-0.10435381
18	0x3f09c8b0	0.5382185
19	0x3d5e2101	0.054230694
20	0x3ea3e271	0.320087
21	0xbd4e46cc	-0.050360486
22	0x3f319b67	0.6937775
23	0xbab80940	-0.0014040843
24	0x3f063c17	0.5243544
25	0xbe0fa06e	-0.14026043
26	0x3c0379cd	0.008024645
27	0xbdae7482	-0.08518316
28	0x3e700e38	0.23442924
29	0xbfed51f0	-1.854063
30	0x3f1c2a0c	0.6100166
31	0xbc76dfee	-0.015068037
32	0xbde7dc5f	-0.11321329
33	0x3f1207b6	0.57043016
34	0x3f0caf90	0.5495539
35	0xbe974698	-0.29546046
36	0xbe026ab1	-0.12736012
37	0x3da843c9	0.08216054
38	0x3f0b1c85	0.5434039
39	0x3ebd21c8	0.36939836
40	0x3f1dba5b	0.6161248
41	0x3e759a16	0.2398456
42	0xbf1ffea2	-0.62497914
43	0x3f41ff1b	0.75779885
44	0xbe8ae190	-0.27125216
45	0x3d6c4f95	0.057693083
46	0x3f1d3820	0.61413765
47	0xbd8e5247	-0.06949287
48	0xbe0b50b3	-0.13605003
49	0xbdc3fd20	-0.09569764
50	0x3ee9b30d	0.45644417
51	0x3db5d9bb	0.088794194
52	0x3e403097	0.18768536
53	0xbf09e5e6	-0.5386642
54	0x3e54084d	0.20706291
55	0x3f3125b3	0.6919815
56	0xbe13d7e4	-0.14437824
57	0xbf2f2f90	-0.6843195
58	0x3ec1b938	0.37836623
59	0xbf511ddf	-0.81686205
60	0x3ec236d2	0.3793245
61	0x3ea7b257	0.3275325
62	0x3eae5f3b	0.3405703
63	0xbe4f77fc	-0.20260614

fc2.weight f4 [32, 64]
0	0xbca5a678	-0.02022098
1	0x3e5cdffa	0.21569815
2	0x3d0bcb4d	0.03412943
3	0xbe0d3bcf	-0.13792346
4	0x3dae8252	0.085209504
5	0xbe2b6362	-0.1673713
6	0xbd416dda	-0.047223903
7	0x3e6ce989	0.23135962
8	0x3e0c3411	0.13691737
9	0x3df27cdc	0.11840221
10	0xb9897e58	-0.0002622481
11	0xbe6a6671	-0.22890641
12	0xbdd52506	-0.10407452
13	0x3e0b4747	0.13601409
14	0x3d85dc95	0.06536213
15	0x3dbeac89	0.09310252
16	0xbcf0ed6c	-0.029410087
17	0x3dd07f4c	0.1018053
18	0x3e75a16d	0.2398736
19	0xbcb929ba	-0.022602905
20	0xbe5ea838	-0.21743858
21	0x3b9ad3fe	0.0047249785
22	0xbe7b1697	-0.24520336
23	0xbd39b046	-0.045334123
24	0xbdf14b42	-0.117819324
25	0xbcfc0816	-0.030765574
26	0x3c7c71d9	0.015408003
27	0x3dd59abe	0.10429905
28	0x3e1169fb	0.14200585
29	0x3bb2a216	0.005451451
30	0x38bbe537	8.9595495e-05
31	0x3cdf0458	0.027223751
32	0x3da08704	0.07838252
33	0x3e1438ff	0.14474867
34	0x3d8ec5af	0.06971299
35	0x3d989876	0.074509546
36	0xbdac16dd	-0.08402798
37	0x3d013ccc	0.03155212
38	0x3d2013b5	0.039081294
39	0xbe376d3e	-0.17912766
40	0xbac2aec8	-0.0014853114
41	0xbd9dcffb	-0.07705685
42	0xbdaca2ab	-0.08429464
43	0x3daaded3	0.083432816
44	0xbd97b239	-0.0740704
45	0x3d200cdf	0.039074775
46	0x3e3a2a92	0.18180302
47	0xbcc5a156	-0.024124783
48	0xbd52be00	-0.05145073
49	0x3d95847f	0.07300662
50	0x3d7e7bfe	0.062129967
51	0x3bf654b3	0.007517421
52	0x3c569a76	0.01309835
53	0xbd531684	-0.051535144
54	0xbb5a6eeb	-0.0033330272
55	0xbdc44de0	-0.09585166
56	0xbdbafbb0	-0.09130037
57	0x3d1fd404	0.039020553
58	0x3e5b4f3f	0.21416949
59	0xbde41c14	-0.11138168
60	0x3e042600	0.12905121
61	0x3db5c8da	0.088762
62	0x3e624ebb	0.22100346
63	0xba55a34f	-0.000814964
64	0xbeba2fdf	-0.36364648
65	0x3dbf9a5e	0.09355615
66	0xbe8e861c	-0.27836692
67	0x3b2542a3	0.002521672
68	0x3de8b1b6	0.11362021
69	0x3d91e3df	0.07123541
70	0x3e154212	0.14575985
71	0xbdeeae58	-0.11654347
72	0xbe8b81b8	-0.27247405
73	0xbfb16ab4	-1.3860688
74	0x3c62773d	0.013822374
75	0xbde2fda4	-0.11083534
76	0x3ccd72d3	0.025079167
77	0x3d52ad52	0.051434822
78	0x3cfafeec	0.030639134
79	0xbb54ee69	-0.0032490736
80	0xbe667ea3	-0.22509246
81	0xbe8b1246	-0.2716238
82	0x3d235132	0.039872356
83	0xbc9e3430	-0.019311994
84	0xbd089370	-0.033343732
85	0x3df1814d	0.1179224
86	0x3f418cb6	0.7560533
87	0x3f041f34	0.5161011
88	0x3e2559c4	0.16147524
89	0xbe6eb2e7	-0.23310433
90	0xbdb711f7	-0.089389734
91	0x3d2deac0	0.042460203
92	0x3927cdfd	0.00016003098
93	0x3cd4a028	0.025955275
94	0xbd7b22d5	-0.061312515
95	0x3d2104a1	0.039311055
96	0xbefdd0df	-0.49573418
97	0xbc50ba84	-0.012739781
98	0x3e134909	0.1438333
99	0xbe94287d	-0.2893714
100	0xbdc31390	-0.095252156
101	0xbd2854d9	-0.041096542
102	0xbeeb9098	-0.46008754
103	0xbdc1e6eb	-0.09467872
104	0x3c010a0b	0.00787593
105	0x3e107314	0.14106399
106	0xbe06bd0f	-0.13158058
107	0xbe95a9e8	-0.2923119
108	0xbd0e02d0	-0.03467065
109	0xbdd0c6b7	-0.10194152
110	0xbd7b0d4e	-0.061291985
111	0x3da8530c	0.08218965
112	0x3cad9092	0.0211871
113	0xbeb8284a	-0.35968238
114	0x3dd4e62f	0.103954665
115	0xbe274196	-0.16333613
116	0xbddd3e3f	-0.10802888
117	0x3de8033c	0.11328742
118	0xc015ebfa	-2.3425279
119	0x3d72f388	0.05931428
120	0xbdce8ccb	-0.10085448
121	0x3d855ccb	0.065118395
122	0xbf235330	-0.6379881
123	0xbdb078e0	-0.08616805
124	0x3dbcf026	0.09225492
125	0xbdcd2892	-0.10017504
126	0x3e5da921	0.21646549
127	0x3e43249c	0.19056934
128	0xbdc7232c	-0.097235054
129	0xbe1316a1	-0.14364101
130	0x3db1af98	0.0867607
131	0xbecec953	-0.40387973
132	0x3e116e0d	0.14202137
133	0x3d543058	0.051803917
134	0x3e256e50	0.16155362
135	0x3cefbd9d	0.02926522
136	0x3da336c6	0.079694316
137	0xbd5d379b	-0.054008108
138	0xbdd72a46	-0.1050611
139	0xbe1df04d	-0.15423699
140	0xbd5e1a9b	-0.05422459
141	0x3daaf5ea	0.08347686
142	0xbd412494	-0.047154024
143	0xbda8a97a	-0.0823545
144	0xbdab6d11	-0.08370412
145	0x3d41f1b6	0.047349654
146	0x3e589044	0.21148783
147	0xbdda7e0e	-0.10668574
148	0xbcd55c4f	-0.026044993
149	0x3d118c75	0.03553434
150	0x3e5fded5	0.21862347
151	0xbdf31023	-0.11868312
152	0xbdf5ef7b	-0.12008568
153	0xbd46a3db	-0.04849611
154	0xbdcad210	-0.099033475
155	0x3da4ecec	0.08053002
156	0x3d96372e	0.073347434
157	0xbdf52598	-0.11970061
158	0x3c7329a2	0.014841469
159	0x3e0dba6f	0.1384065
160	0xbe0be0e5	-0.13660009
161	0x3e215375	0.15754493
162	0xbbe09c2a	-0.0068545537
163	0x3d92c4ae	0.0716642
164	0xbbe7431b	-0.00705756
165	0x3df5400f	0.11975109
166	0xbd700790	-0.058600962
167	0xbdbc3354	-0.091894776
168	0x3bfd98e5	0.0077391737
169	0x3d37e9db	0.044900756
170	0xbe6e16d0	-0.2325089
171	0xbe0bdc7a	-0.13658324
172	0xbe33c738	-0.17556465
173	0xbd25f93f	-0.040520903
174	0xbd43d46c	-0.047810003
175	0x3d0b4785	0.034003753
176	0xbdb5aea8	-0.08871204
177	0xb9689bc2	-0.00022183268
178	0xbda97a4d	-0.0827528
179	0x3d9ac8ba	0.07557817
180	0x3daa3d92	0.08312525
181	0x3dccd0ef	0.100007884
182	0x3e04768e	0.1293585
183	0x3cd94598	0.026522443
184	0xbdd863a5	-0.10565881
185	0xbd7e5edf	-0.062102195
186	0x3dc66650	0.09687483
187	0xbdc3e7b5	-0.09565679
188	0x3d984d62	0.074366346
189	0x3da52501	0.080636986
190	0x3db66e4a	0.08907755
191	0x3cc2e5ea	0.023791272
192	0xbd8c2455	-0.06842867
193	0xbd77d337	-0.060504165
194	0x3e17fea0	0.14843225
195	0x3ea4423b	0.3208178
196	0xbc09d8b0	-0.008413479
197	0xbdb21397	-0.08695143
198	0xbd00a34f	-0.031405743
199	0xbd4515d8	-0.048116535
200	0x3df031c9	0.11728246
201	0xbccf21b6	-0.02528463
202	0x3d8f6911	0.07002462
203	0x3cca110e	0.024666335
204	0xbe174ec9	-0.14776148
205	0xbc20868f	-0.009797706
206	0xbdc659a2	-0.09685065
207	0x3d81067a	0.063000634
208	0xbde77dc1	-0.113032825
209	0xbdd34472	-0.10315789
210	0x3e176d5e	0.14787814
211	0x3e02200e	0.1270754
212	0x3f00c94e	0.50307167
213	0x3dff799e	0.124743685
214	0x3e56f2df	0.20991085
215	0xbe053b42	-0.13010886
216	0xbdd5059c	-0.104014605
217	0x3d8fa9e1	0.07014824
218	0x3dcc9257	0.099888496
219	0xbd1ff4ff	-0.039052006
220	0x3d623421	0.055225495
221	0xbe363572	-0.17793825
222	0x3cea98fa	0.028637398
223	0x3d68810b	0.05676369
224	0x3e0e4516	0.13893542
225	0x3e86a87d	0.2630042
226	0x3d7610c8	0.060074598
227	0x3da02b2b	0.07820734
228	0x3e1e20bb	0.15442173
229	0x3e8637c8	0.26214433
230	0xbdb29b36	-0.087210104
231	0xbdd4ccb7	-0.10390609
232	0xbd7622a5	-0.060091633
233	0xbd4610ba	-0.048355795
234	0x3de233c9	0.110450335
235	0x3dc9d643	0.0985532
236	0xbe9d9f46	-0.30785578
237	0x3d49ca0a	0.049264945
238	0xbecdec2f	-0.40219256
239	0x3df9f3b1	0.122046836
240	0x391102c7	0.00013829312
241	0x3c7bb249	0.015362331
242	0x3e6a97bb	0.22909443
243	0x3e11fa25	0.14255579
244	0xbd37fe1d	-0.044920076
245	0x3db66df0	0.08907688
246	0xbdee93c4	-0.11649278
247	0xbeb99cd1	-0.36252454
248	0xbc98b902	-0.018642906
249	0x3d52e995	0.051492292
250	0x3d87b69e	0.06626628
251	0xbe2424b4	-0.16029626
252	0x3dc2f435	0.09519235
253	0x3c04b07c	0.008098718
254	0x3dd90e5a	0.105984405
255	0xbde0bf26	-0.10973959

fc2.bias f4 [32]
0	0xbdf417c2	-0.11918594
1	0x3e6dd4a6	0.2322565
2	0x3cce5120	0.025185168
3	0x3d801d6d	0.062556125
4	0x3e351882	0.1768513
5	0xbf109516	-0.5647749
6	0x3e80ccd2	0.25156265
7	0x3e2c111e	0.16803405
8	0x3de6f185	0.11276535
9	0x3d3993f5	0.04530712
10	0xbd06c2d0	-0.03290063
11	0x3e7fc9cb	0.24979322
12	0x3e7eb981	0.24875452
13	0x3dc6ae29	0.09701187
14	0x3de19272	0.1101426
15	0xbe28e60a	-0.16494003
16	0xbe09e0eb	-0.13464706
17	0x3e628f66	0.22125015
18	0x3da60b07	0.08107572
19	0xbded1438	-0.11576122
20	0x3e082a30	0.13297343
21	0x3e1a6d66	0.15080795
22	0xbe3ed48b	-0.18635766
23	0x3e6631ef	0.22479986
24	0xbd99f648	-0.075176775
25	0x3e43df98	0.19128263
26	0xbd9f5e17	-0.07781618
27	0xbda98699	-0.082776256
28	0xbd1b8480	-0.03796816
29	0x3e819fa3	0.25317106
30	0xbcd472ca	-0.025933642
31	0x3e35f171	0.17767884

fc3.weight f4 [16, 32]
0	0xbe3a5c18	-0.18199193
1	0x3c22a6cd	0.009927464
2	0xbe0ad26c	-0.13556832
3	0xbe091413	-0.13386564
4	0x3c196bc4	0.009364072
5	0x3d848a19	0.064716525
6	0xbdf5c3ba	-0.120002225
7	0x3d5b18dd	0.05349051
8	0xbdedb4f4	-0.1160678
9	0x3d89b2b8	0.06723541
10	0x3a31bb2a	0.0006779904
11	0xbe19f834	-0.15036088
12	0xbde44e54	-0.111477524
13	0xbdf82633	-0.12116661
14	0xbdbeed55	-0.09322611
15	0x3d8d5bfe	0.06902312
16	0xbb7599d0	-0.0037475713
17	0xbdb116ea	-0.08646949
18	0xbe2833c9	-0.16426004
19	0x3e001c17	0.12510715
20	0xbe041928	-0.12900221
21	0x3d81e3f9	0.063423105
22	0x3d17b109	0.03703407
23	0x3bdcaab7	0.006734218
24	0xbe0fc57a	-0.14040175
25	0xbe042d91	-0.12908007
26	0xbcb30bad	-0.021856153
27	0x3c5aded8	0.013358794
28	0xbde3d745	-0.11125044
29	0x3e0e99b5	0.13925822
30	0x3d030df6	0.031995736
31	0xbe48c0ea	-0.19604841
32	0x3e41aa2c	0.18912572
33	0xbc443f13	-0.011977929
34	0x3dea2b70	0.11434066
35	0x3e871b73	0.2638813
36	0xbde69505	-0.11258892
37	0xbe4f2a6f	-0.20231031
38	0x3df0709e	0.1174023
39	0x3e1eaff1	0.15496804
40	0xbe066c49	-0.13127245
41	0xbdacd32e	-0.08438717
42	0x3c59cba7	0.013293183
43	0xbc3d42b7	-0.011551551
44	0x3e3d73b8	0.18501174
45	0x3e3376ab	0.17525737
46	0x3e0f8ed0	0.14019322
47	0x3d0a42d3	0.033755135
48	0xbcb9b7a8	-0.022670582
49	0x3cdc3d5b	0.026884725
50	0xbe3e13c3	-0.18562226
51	0x3e62dfb9	0.22155656
52	0xbdf44df0	-0.11928928
53	0xbebd521b	-0.36976704
54	0x3bf9f413	0.007627973
55	0x3da0918e	0.07840262
56	0x3e25650c	0.16151828
57	0xbe814ccf	-0.25253913
58	0x3db66eae	0.08907829
59	0x3e3b0960	0.18265295
60	0x3e28c625	0.16481836
61	0x3dea9fd5	0.11456267
62	0x3d3151cd	0.043290902
63	0xbdd9d75d	-0.106367804
64	0xbd46cb10	-0.0485335
65	0xbe004b6c	-0.12528771
66	0x3e22c5a1	0.15895702
67	0xbe043522	-0.12910894
68	0x3e054718	0.13015401
69	0xbd6e85b8	-0.058232993
70	0x3d978960	0.07399249
71	0x3e7e97a8	0.2486254
72	0xbdc30c96	-0.09523885
73	0xbd410cb8	-0.04713127
74	0x3dbdf5a7	0.0927537
75	0x3e02a8a1	0.1275964
76	0x3e085854	0.13314945
77	0x3bd3ca0f	0.0064632962
78	0xbe327e06	-0.17430887
79	0xbda0dc23	-0.07854488
80	0x3d8f38fd	0.069932915
81	0x3da6b9d3	0.08140912
82	0xbdd2a173	-0.102847
83	0xbdd4de74	-0.10393992
84	0x3e41ed2b	0.18938129
85	0x3ba489bb	0.0050213016
86	0xbd9c16e3	-0.07621553
87	0x3df9115e	0.12161516
88	0xbdd0fe95	-0.10204808
89	0x3ddc02c9	0.10742719
90	0x3d79eb75	0.061015565
91	0xbe0aad62	-0.13542703
92	0xbdd9e87f	-0.10640048
93	0x3ee15709	0.44011715
94	0x3d150c0e	0.03638845
95	0x3d6c183d	0.057640303
96	0xbe1dff05	-0.15429313
97	0xbf0b4702	-0.54405224
98	0xbd8f50cb	-0.06997832
99	0x3dafa522	0.085764185
100	0xbe520f33	-0.2051361
101	0xbe2e1761	-0.17001106
102	0x3ecf0115	0.40430513
103	0x3eba5bfe	0.3639831
104	0xbea1ab6b	-0.31576094
105	0xbebae060	-0.3649931
106	0xbd5cf082	-0.053940304
107	0x3e282d18	0.16423452
108	0x3ce8c157	0.028412504
109	0xbe8e2f4c	-0.2777046
110	0x3f03f306	0.515427
111	0x3d99ab21	0.075033434
112	0x3a1d2c8d	0.0005995713
113	0x3e740626	0.2383047
114	0x3e4a6c61	0.19767906
115	0x3ee2b525	0.44278827
116	0xbfaba636	-1.3410099
117	0xbf2bbe56	-0.67087305
118	0xbeae6e20	-0.34068394
119	0xbdfec848	-0.12440544
120	0x3dcec15f	0.10095476
121	0xbf29034e	-0.6602067
122	0xbc83b0cc	-0.016075514
123	0x3e03ec14	0.12883025
124	0x3dfee85d	0.124466635
125	0x3e9d51e0	0.30726528
126	0x3d60e845	0.05490901
127	0xbdd44489	-0.103646345
128	0xbe902cb8	-0.28159118
129	0xbe270f78	-0.16314495
130	0x3e1f0101	0.15527727
131	0xbd70f27f	-0.058825012
132	0x3e23b128	0.15985548
133	0x3bd18cfa	0.0063949795
134	0x3f27f429	0.65606934
135	0x3e8a2f65	0.26989284
136	0xbea4921c	-0.32142723
137	0xbde615f7	-0.11234658
138	0xbda6f876	-0.08152859
139	0xbd8bc240	-0.068241596
140	0x3d33865e	0.043829314
141	0xbe40e0a2	-0.1883569
142	0x3e2fdf97	0.17175137
143	0xbe95531c	-0.2916497
144	0xbe18f67b	-0.14937775
145	0xbca8c938	-0.020603761
146	0xbe70b22b	-0.23505466
147	0x3e254155	0.16138203
148	0x3efc72c7	0.49306318
149	0x3dfba860	0.12287974
150	0x3dedecc3	0.11617424
151	0xbd5f9fe8	-0.054595858
152	0xbe2255ee	-0.15853092
153	0xbf319499	-0.6936737
154	0x3e2cb6a3	0.16866545
155	0xbe0aebe2	-0.13566545
156	0x3e30a62e	0.17250893
157	0x3edf6c49	0.43637303
158	0xbd64d755	-0.05586942
159	0x3e5178fe	0.20456311
160	0xbe36def2	-0.17858484
161	0x3d1d032a	0.038333096
162	0x3d8ce385	0.068793334
163	0x3da0eb54	0.07857385
164	0xbce48e67	-0.027899934
165	0x3d9e01ff	0.077152245
166	0x3ed7ca31	0.42146447
167	0x3e81c27d	0.25343695
168	0x3e3d4571	0.18483521
169	0x3dcb837a	0.099371865
170	0xbe365c5f	-0.17808674
171	0xbe5c3b24	-0.21506935
172	0x3e6987e4	0.22805744
173	0x3dc6b3cb	0.097022615
174	0x3e055335	0.13020022
175	0xbdb6f33b	-0.08933111
176	0xbd8fc46f	-0.070198886
177	0x3e3a3be3	0.18186907
178	0xbec043cc	-0.37551725
179	0x3e8cbc08	0.27487206
180	0xbb50f235	-0.0031882648
181	0xbe71ee80	-0.23626137
182	0x3d86d3dd	0.065833785
183	0xbe97d7d6	-0.29656857
184	0x3dd3e08f	0.103455655
185	0xbddf38bd	-0.10899494
186	0xbe14d9ab	-0.14536159
187	0xbda10c60	-0.078636885
188	0x3d613971	0.05498642
189	0x3e82b070	0.25525236
190	0xbdbf6ce9	-0.09346945
191	0x3d9b78d6	0.07591407
192	0xbd22c14d	-0.039735127
193	0xbe164574	-0.14674932
194	0x3ddb1c2a	0.10698731
195	0x3bafc915	0.005364547
196	0x3e021a64	0.1270538
197	0xbdc3883f	-0.09547471
198	0xbdbba884	-0.09163001
199	0xbd261f03	-0.04055692
200	0xbe073719	-0.13204612
201	0x3dc8ef8c	0.09811315
202	0xbe42f8fd	-0.19040294
203	0xbcc3ebe5	-0.023916194
204	0x3e68ea04	0.2274552
205	0xbdc6397e	-0.096789345
206	0x3e06ef44	0.1317721
207	0xbe1ea54c	-0.15492743
208	0xbde45686	-0.111493155
209	0xbc578f30	-0.013156697
210	0x3e3acb32	0.18241575
211	0x3d908092	0.07055773
212	0x3db2b185	0.087252654
213	0x3e89c246	0.2690603
214	0x3de278f3	0.110582255
215	0x3e18833a	0.14893809
216	0x3e2cfb0b	0.1689264
217	0x3d9c8c34	0.07643929
218	0x3cde134b	0.027108809
219	0x3e064009	0.13110365
220	0x3d4b3039	0.049606536
221	0xbe25cdce	-0.1619179
222	0x3e20de1d	0.1570973
223	0xbe19e730	-0.15029597
224	0xbdd44af9	-0.103658624
225	0xbea1153d	-0.31461516
226	0x3d971255	0.073765434
227	0xbe2e734f	-0.17036174
228	0x3e2da6e4	0.16958195
229	0xbeae965f	-0.340991
230	0x3f02165b	0.5081536
231	0x3e865c6e	0.26242393
232	0x3b0e399c	0.0021701818
233	0x3e7387d9	0.2378229
234	0xbcfa7b6c	-0.03057643
235	0x3df49349	0.11942155
236	0x3eb4957b	0.35270295
237	0xbe99aa03	-0.3001252
238	0x3e66a281	0.22522928
239	0x3d8b8e28	0.068142235
240	0xbddf52b5	-0.10904447
241	0x3e9ef1bb	0.310438
242	0xbecdbc22	-0.40182596
243	0xbe37a36f	-0.17933439
244	0x3f2f2c98	0.6842742
245	0xbec10641	-0.37700084
246	0xbe77860f	-0.24172233
247	0x3e5c63b4	0.21522409
248	0xbe18882a	-0.14895692
249	0xbd63764d	-0.055532742
250	0x3d50c25d	0.05096661
251	0xbc7bc004	-0.015365604
252	0x3e3a9f54	0.18224841
253	0x3e5f13e4	0.21784931
254	0xbceb210c	-0.028702281
255	0x3e13c43c	0.14430326

fc3.bias f4 [16]
0	0xbe19b791	-0.15011431
1	0xb9848fbd	-0.00025284095
2	0x3e61a4a1	0.22035457
3	0x3d4f1859	0.05056033
4	0x3df28c5d	0.118431784
5	0x3e332831	0.174958
6	0xbac79d3e	-0.0015229357
7	0x3e648587	0.22316562
8	0x3e250d48	0.16118348
9	0x3e67edfc	0.22649378
10	0xbd2445ea	-0.040105738
11	0x3b2f4cd7	0.002674868
12	0x3da167f4	0.078811556
13	0x3d5e70e6	0.054306887
14	0xbe460808	-0.19339001
15	0x3d3017c8	0.04299143

fc4.weight f4 [8, 16]
0	0xbd30efe2	-0.04319752
1	0xbf01f6a2	-0.50766957
2	0x3ea91161	0.33021072
3	0xbfb2dee2	-1.3974268
4	0x3e86c976	0.26325577
5	0xbeb641f1	-0.35597184
6	0x3ebeac73	0.37240943
7	0x3d7afdad	0.06127708
8	0xbe4f16da	-0.20223561
9	0xbd4622d1	-0.048373047
10	0xbe6da1d5	-0.23206265
11	0xbf2b27b3	-0.6685745
12	0xbf38939c	-0.72100234
13	0x3e28f75c	0.1650061
14	0xbe600de9	-0.21880306
15	0x3e2c245e	0.16810748
16	0x3da3c328	0.079962075
17	0xbe759e60	-0.23986197
18	0xbe79f8e1	-0.24411346
19	0xbe6e94b0	-0.23298907
20	0xbca745a5	-0.020418951
21	0xbd2a5bac	-0.04159133
22	0x39c3068b	0.00037198173
23	0x3c4476f9	0.011991256
24	0xbdd6782e	-0.10472141
25	0x3df1c942	0.11805965
26	0xbe0b7a59	-0.1362089
27	0x3db28495	0.08716694
28	0x3e06f3be	0.13178918
29	0xbdbc3d74	-0.09191409
30	0xbd9d7a98	-0.076893985
31	0xbcba2b62	-0.022725765
32	0x3e36cf1f	0.17852448
33	0x3e10bf19	0.14135398
34	0x3e87facb	0.26558527
35	0x3fa7a248	1.3096399
36	0x3b2b06e2	0.0026096632
37	0x3e87e7d2	0.26544052
38	0x3dc9d21e	0.0985453
39	0x3dfe7e10	0.12426388
40	0xbda383ab	-0.07984098
41	0xbdb54dbf	-0.088527195
42	0x3e70d54f	0.23518871
43	0x3e4e6581	0.20155908
44	0x3f39a600	0.7251892
45	0x3dbe803f	0.09301805
46	0xbe1aff3a	-0.15136424
47	0xbe010013	-0.12597685
48	0x3e464110	0.19360757
49	0x3d5f26c8	0.054480344
50	0x3e41294f	0.18863414
51	0x3f2301ce	0.6367463
52	0xbdde67bb	-0.10859629
53	0xbe311e9b	-0.17296831
54	0xbeaecfb9	-0.34142855
55	0x3eda33ea	0.42617732
56	0xbe048763	-0.12942271
57	0xbe5e7c97	-0.21727215
58	0x3e5679cc	0.209449
59	0xbc01eb82	-0.007929685
60	0x3eb571e5	0.35438457
61	0x3e367c48	0.17820847
62	0x3df12757	0.117750816
63	0xbded0720	-0.115736246
64	0xbe03f64d	-0.12886925
65	0xbeab2a9f	-0.33430955
66	0x3ec8ed63	0.39243612
67	0xbf9b8a29	-1.2151538
68	0xbe056cea	-0.13029829
69	0xbe354c08	-0.17704785
70	0x3ed53d76	0.41648453
71	0x3e247366	0.16059646
72	0x3e4aa488	0.19789326
73	0xbe854e93	-0.2603651
74	0x3de0deb9	0.10979981
75	0xbe4dfaec	-0.2011525
76	0xbf10f076	-0.56616914
77	0xbeea5bd0	-0.45773172
78	0x3e16e9a6	0.14737567
79	0x3e615ea1	0.22008754
80	0xbd15feb8	-0.03661987
81	0xbe005c06	-0.12535104
82	0x3e91306a	0.2835725
83	0xbe82c2e7	-0.25539324
84	0x3ee74cd9	0.45175818
85	0x3d9fc0b0	0.07800424
86	0xbe0a1026	-0.13482723
87	0x3e666715	0.2250026
88	0x3d67b852	0.056572266
89	0x3ed39cd4	0.41330588
90	0xbdfde9c1	-0.12398101
91	0x3d26f823	0.040763985
92	0x3f035beb	0.5131213
93	0xbea53976	-0.32270402
94	0xbd8feed8	-0.07027978
95	0xbc979f0d	-0.018508459
96	0x3e23a856	0.15982184
97	0x3cecda00	0.028912544
98	0xbdfdc212	-0.123905316
99	0xbe8f4c17	-0.2798774
100	0x3daa842f	0.08325993
101	0x3e16ac79	0.1471423
102	0x3eb22765	0.3479568
103	0xbe9aa7a3	-0.30206022
104	0xbdb1f754	-0.08689752
105	0x3e81cb3d	0.2535037
106	0x3e6ae588	0.22939122
107	0xbe2698de	-0.16269252
108	0xbe374d2f	-0.17900537
109	0xbec7227a	-0.3889349
110	0x3d73a337	0.059481826
111	0x3e40301e	0.18768355
112	0x3e5d4f1c	0.21612209
113	0xbe46f700	-0.1943016
114	0xbe0934c0	-0.13399029
115	0x3e5a429a	0.21314469
116	0xbdb3bbf8	-0.087760866
117	0x3d51441c	0.051090345
118	0xbce1fe46	-0.027587067
119	0x3db72ea4	0.08944443
120	0xbcdcf180	-0.026970625
121	0xbd2ae260	-0.041719794
122	0x3d8f7d12	0.07006277
123	0x3d66f6d0	0.056387722
124	0x3d33b0d0	0.043869793
125	0xbd9a2146	-0.07525878
126	0x3e1b1b2e	0.15147087
127	0xbe0adee0	-0.13561583

fc4.bias f4 [8]
0	0x3e0735d9	0.13204135
1	0x3dd203ff	0.102546684
2	0x3eb7be15	0.3588721
3	0x3db9a4b2	0.09064616
4	0x3e706548	0.23476136
5	0x3e82e80d	0.25567666
6	0xbe5b141b	-0.21394388
7	0xbe0e693d	-0.13907333

fc5.weight f4 [3, 8]
0	0xbe159f25	-0.1461149
1	0xbe20c08f	-0.15698455
2	0x3e4eddc4	0.20201784
3	0xbe3ceea8	-0.18450415
4	0xbe847a64	-0.25874627
5	0x3ed74cd5	0.42050806
6	0xbe129fa5	-0.14318712
7	0xbdbfe7ca	-0.09370382
8	0x3deeb914	0.116563946
9	0xbe8ee5c3	-0.2790967
10	0xbeabdca4	-0.33566773
11	0x3e80aa1e	0.2512979
12	0x3f179c25	0.5922263
13	0x3e93e64e	0.28886646
14	0x3e3baf35	0.18328555
15	0xbdeb1e70	-0.11480415
16	0xbf65753e	-0.8963202
17	0xbe1b890e	-0.15189001
18	0x3e6d2577	0.23158823
19	0x3eb8e8a2	0.36114985
20	0xbec90483	-0.39261255
21	0xbd2a7c49	-0.041622434
22	0xbf20188a	-0.62537444
23	0x3d9e922a	0.07742722

fc5.bias f4 [3]
0	0x3d4e96ef	0.05043691
1	0x3ebc13fd	0.36734
2	0x3e34c416	0.17652926

exp_avg f4 [64, 4]
0	0xb815fec9	-3.5761655e-05
1	0x3898886a	7.273334e-05
2	0xb80916a1	-3.268442e-05
3	0xb848520b	-4.7760124e-05
4	0x3748cb84	1.1968314e-05
5	0xb82e9773	-4.162588e-05
6	0x361d44cf	2.3434875e-06
7	0x380a1f43	3.293088e-05
8	0xb7a9d978	-2.0247637e-05
9	0xb85d534d	-5.2768086e-05
10	0x3886336a	6.3991945e-05
11	0xb814a6cc	-3.544129e-05
12	0x36b22aa6	5.3097783e-06
13	0xb9b7ed07	-0.0003508108
14	0x3978f8eb	0.00023743852
15	0x377aa1ab	1.4938802e-05
16	0xb92eb974	-0.0001666302
17	0x3a470ebc	0.0007593443
18	0x3826da9c	3.978108e-05
19	0xb9cc3024	-0.0003894578
20	0x3924fd52	0.00015734628
21	0xba1ea702	-0.0006052108
22	0xb8744599	-5.823895e-05
23	0x39bd4767	0.00036102088
24	0x369aa9be	4.6093182e-06
25	0xb87b5db6	-5.993034e-05
26	0xb8605db0	-5.3493015e-05
27	0x3862816f	5.4003143e-05
28	0x38c56f33	9.4144045e-05
29	0xb98ff7cf	-0.00027459717
30	0xb64e22bc	-3.071661e-06
31	0x394ae7cc	0.00019350572
32	0xb7d792d0	-2.5698362e-05
33	0x38f07ea1	0.00011467678
34	0x3702f371	7.805284e-06
35	0xb8804505	-6.1163715e-05
36	0xb3b797b8	-8.549199e-08
37	0x3800a61f	3.067229e-05
38	0x3718dee6	9.111804e-06
39	0xb6fb28b4	-7.4851214e-06
40	0x37960de7	1.7887867e-05
41	0xb82ecbf8	-4.1674793e-05
42	0xb920c3c0	-0.00015331712
43	0x38e29f71	0.00010806218
44	0xb985ee0d	-0.00025545098
45	0x3a837cad	0.0010031663
46	0x398e68ed	0.00027162526
47	0xba4d121d	-0.00078228285
48	0x39847366	0.0002526298
49	0xba7d2f62	-0.00096582447
50	0xb98fb443	-0.0002740939
51	0x3a12a9de	0.000559477
52	0xb7fba707	-2.999931e-05
53	0x38a6e120	7.9574296e-05
54	0x36237abf	2.436034e-06
55	0xb8233613	-3.891259e-05
56	0x377b4d67	1.49787875e-05
57	0x377e9030	1.5173151e-05
58	0xb6dec823	-6.6394146e-06
59	0x36b9fa3b	5.5425603e-06
60	0xb8e87e24	-0.000110861176
61	0x3a2156e7	0.0006154612
62	0xb813acdc	-3.520852e-05
63	0xb9929b46	-0.00027962978
64	0x37d6fc26	2.5628204e-05
65	0xb8e06378	-0.0001069968
66	0xb82edc15	-4.16898e-05
67	0x3851486c	4.989693e-05
68	0x388df762	6.7694826e-05
69	0xb9d61037	-0.00040829342
70	0x37e24822	2.6974889e-05
71	0x392bc3f1	0.00016380825
72	0xb7a19597	-1.9262354e-05
73	0xb4863e1c	-2.5004636e-07
74	0x38f35506	0.0001160298
75	0xb8c2f1df	-9.295693e-05
76	0xb90749bb	-0.0001290207
77	0x39a05c92	0.00030586548
78	0x389e394c	7.5446995e-05
79	0xb967572e	-0.00022062354
80	0xb97ada02	-0.00023923072
81	0x3a4a0792	0.00077068165
82	0x39be6a60	0.0003631888
83	0xba12f568	-0.00056060264
84	0xb9f672db	-0.0004700635
85	0x3ad821db	0.0016489582
86	0xb624dfb7	-2.4568124e-06
87	0xba63903f	-0.0008680857
88	0xb8541967	-5.0568397e-05
89	0x3921fc22	0.00015448083
90	0x3922b70b	0.00015517713
91	0xb8cbb7f7	-9.7140604e-05
92	0x37dd0312	2.6346683e-05
93	0xb70a3d59	-8.239725e-06
94	0x37c52805	2.3502866e-05
95	0x37ab46f1	2.0417823e-05
96	0x3865be34	5.4774995e-05
97	0xb9032148	-0.00012505532
98	0xb7d61517	-2.5520609e-05
99	0x38c7fae7	9.535794e-05
100	0x3863a50d	5.4274733e-05
101	0xb9aaac87	-0.0003255347
102	0xb828e800	-4.0270388e-05
103	0x391aa947	0.00014749645
104	0xb5e0cd69	-1.6749083e-06
105	0xb918e2ed	-0.00014580386
106	0x38aa854f	8.131062e-05
107	0x37bea059	2.2724433e-05
108	0xb95dee8d	-0.0002116507
109	0x3a875e7b	0.001032784
110	0x375813ac	1.28791835e-05
111	0xb9df2ee0	-0.000425688
112	0xb70a1e5c	-8.23251e-06
113	0xb7f0bdd6	-2.8698629e-05
114	0x385a98e0	5.2117626e-05
115	0xb7daa75e	-2.6065562e-05
116	0x343f3a6f	1.7809519e-07
117	0xb68dfb0d	-4.2313536e-06
118	0x3732872a	1.0641097e-05
119	0x33618b83	5.251378e-08
120	0x385c1d33	5.247928e-05
121	0xb9a3f2b6	-0.00031270616
122	0x380e454e	3.3919983e-05
123	0x38d12f5c	9.974718e-05
124	0x38966b50	7.172546e-05
125	0xb85f02b1	-5.316985e-05
126	0x368603d3	3.9939564e-06
127	0x38b160f6	8.458078e-05
128	0x37722ffa	1.4435494e-05
129	0x3811a1a4	3.4721234e-05
130	0x38a2a628	7.755711e-05
131	0x37130f31	8.76542e-06
132	0xb898aa67	-7.279665e-05
133	0x396e9d00	0.00022755936
134	0x394b3681	0.00019379893
135	0xb971c3d7	-0.00023056507
136	0x38d4dba0	0.00010149856
137	0xb9a4f5b0	-0.0003146357
138	0xb91530aa	-0.00014227876
139	0x395d1687	0.00021084594
140	0x37c4a195	2.3440263e-05
141	0xb944248c	-0.00018705631
142	0x3820f987	3.8379363e-05
143	0x388438aa	6.304805e-05
144	0x3822ad8e	3.8785445e-05
145	0x388451c7	6.309483e-05
146	0xb8a078b9	-7.651881e-05
147	0x380fb7c7	3.4265013e-05
148	0x3879638a	5.945893e-05
149	0x3891272f	6.921437e-05
150	0xb90c26eb	-0.00013365939
151	0x37f0a3f7	2.8686582e-05
152	0xb668d7d6	-3.4696327e-06
153	0x38601eaa	5.343432e-05
154	0x37862cdb	1.5994932e-05
155	0xb79bfe5b	-1.8595883e-05
156	0xb8a46dfd	-7.840616e-05
157	0x39d70f0f	0.00041019215
158	0x378ccb66	1.6784015e-05
159	0xb94b805d	-0.00019407408
160	0xb77df208	-1.5136327e-05
161	0xb8f695da	-0.00011758106
162	0xb70b9940	-8.320727e-06
163	0x384b337c	4.844692e-05
164	0xb81d22b7	-3.7464048e-05
165	0x39ac6da7	0.00032888094
166	0xb85321f3	-5.0337938e-05
167	0xb90aa185	-0.00013220876
168	0x374107d2	1.1505517e-05
169	0x380e4383	3.3918313e-05
170	0x38d3c0e5	0.000100971934
171	0x373256f6	1.0629874e-05
172	0xb8098681	-3.2788612e-05
173	0x38501429	4.960984e-05
174	0xb888ccb5	-6.523115e-05
175	0xb89ea75d	-7.565201e-05
176	0x35758ff9	9.147912e-07
177	0x36b42a84	5.3693675e-06
178	0xb8cda7dd	-9.806429e-05
179	0x34968066	2.80331e-07
180	0xb82c8d75	-4.1139738e-05
181	0xb71d26e3	-9.366983e-06
182	0x39439e88	0.00018655707
183	0xb8d6b623	-0.00010238241
184	0x38900642	6.867621e-05
185	0x38a3357c	7.782408e-05
186	0xb834d493	-4.311332e-05
187	0x381017d8	3.435448e-05
188	0xb8bd2140	-9.0184156e-05
189	0xb88762be	-6.455694e-05
190	0xb8b6877d	-8.703673e-05
191	0xb7a7a13e	-1.9983036e-05
192	0x398617c7	0.00025576187
193	0xbaa31dd2	-0.00124448
194	0xb88acacd	-6.6181274e-05
195	0x3a3985c3	0.0007077122
196	0xb79e8623	-1.889753e-05
197	0xb71afa27	-9.237358e-06
198	0x374010b8	1.1447984e-05
199	0xb724a400	-9.813346e-06
200	0xb80c3576	-3.342839e-05
201	0xb80ac797	-3.3087646e-05
202	0xb819ed72	-3.669918e-05
203	0x35aa6076	1.2694061e-06
204	0x3805f3a8	3.1936594e-05
205	0xb89cfcd3	-7.485752e-05
206	0x3850b8b9	4.97631e-05
207	0xb4164492	-1.3994784e-07
208	0x38e6ba22	0.000110019246
209	0xba2661ee	-0.000634699
210	0x38f4c007	0.000116705945
211	0x39709a6a	0.00022945707
212	0xb8c925d4	-9.591473e-05
213	0x3a04544f	0.00050479634
214	0xb8502380	-4.9624126e-05
215	0xb946ec6b	-0.00018970824
216	0xb813622e	-3.5138968e-05
217	0x3931f260	0.00016970327
218	0xb712c44b	-8.747981e-06
219	0xb8b20a17	-8.489581e-05
220	0x38b5c748	8.6678716e-05
221	0xb9abb18a	-0.00032747939
222	0xb78da12e	-1.6883565e-05
223	0x3960f749	0.00021454426
224	0xb8c4ab3f	-9.3779054e-05
225	0x3989c388	0.00026276358
226	0x3970689c	0.00022927154
227	0xb96b596f	-0.00022444663
228	0x3728eea5	1.0069144e-05
229	0x38c612fb	9.444911e-05
230	0xb9450f17	-0.00018793005
231	0x377f4f3b	1.5217632e-05
232	0xb8330789	-4.2683943e-05
233	0x39565bf4	0.00020442886
234	0x3729aa96	1.0112903e-05
235	0xb8fa62c9	-0.00011939329
236	0x3557db49	8.0412843e-07
237	0xb6062baf	-1.9992983e-06
238	0x3720f5c4	9.593965e-06
239	0x357728fa	9.20743e-07
240	0x3891f771	6.960228e-05
241	0xb94961de	-0.00019205312
242	0xb945aee5	-0.00018852537
243	0x393928b3	0.00017658136
244	0xb90b7b41	-0.00013301989
245	0x39fa3c20	0.00047728512
246	0x39590f36	0.00020700399
247	0xb9a2a618	-0.00031022797
248	0x38a7600a	7.981069e-05
249	0xb9144df0	-0.00014143414
250	0xb8afb09e	-8.377548e-05
251	0x38e2b5df	0.00010810396
252	0xb86a3cf1	-5.5846704e-05
253	0x390e568e	0.0001357442
254	0x3934ca74	0.00017241557
255	0xb8aad17a	-8.14525e-05

exp_avg_sq f4 [64, 4]
0	0x352f1dfc	6.5236213e-07
1	0x3747210f	1.1869021e-05
2	0x34fd3f17	4.7170826e-07
3	0x364e2636	3.0718634e-06
4	0x3405b20b	1.2451362e-07
5	0x3568588f	8.6555605e-07
6	0x34b471ea	3.3610496e-07
7	0x34e8d1c9	4.3366006e-07
8	0x32ee13f0	2.7715913e-08
9	0x3698ee83	4.5577194e-06
10	0x358831f5	1.0147329e-06
11	0x338e968e	6.639776e-08
12	0x31cc2606	5.941504e-09
13	0x3878d7b8	5.932871e-05
14	0x38914335	6.926657e-05
15	0x329a9f6a	1.8000453e-08
16	0x35c14217	1.4398855e-06
17	0x3800b739	3.0688218e-05
18	0x3515ebf0	5.585016e-07
19	0x37102712	8.592166e-06
20	0x36d29c5f	6.2766917e-06
21	0x392e4692	0.00016620223
22	0x35d9cda1	1.6227606e-06
23	0x381f95e0	3.8048136e-05
24	0x3489a65d	2.5639284e-07
25	0x378f1712	1.7057671e-05
26	0x3782b6cf	1.5582335e-05
27	0x35ba774f	1.3892803e-06
28	0x356e1826	8.869705e-07
29	0x37070861	8.048578e-06
30	0x34322c18	1.6593583e-07
31	0x36803d1a	3.8218104e-06
32	0x3403553f	1.2231338e-07
33	0x363b2885	2.7888757e-06
34	0x3407d98f	1.2652002e-07
35	0x350b03f2	5.1787276e-07
36	0x350b23ee	5.183382e-07
37	0x378a6883	1.6499549e-05
38	0x34502030	1.938322e-07
39	0x367be51f	3.753528e-06
40	0x3530d338	6.5872473e-07
41	0x3768e236	1.3880946e-05
42	0x35e24a6e	1.6859974e-06
43	0x3609d3a8	2.053779e-06
44	0x37fa184a	2.9813633e-05
45	0x3a7d2887	0.0009657223
46	0x36bac9b5	5.5667138e-06
47	0x39438d2c	0.0001864924
48	0x3751a8a3	1.2496635e-05
49	0x39c8d27c	0.00038303796
50	0x36d8144f	6.439666e-06
51	0x389d1b26	7.4914e-05
52	0x34706657	2.2388973e-07
53	0x374c303c	1.2170578e-05
54	0x36ba0d96	5.5448136e-06
55	0x35498399	7.5069835e-07
56	0x328853f2	1.5870658e-08
57	0x33d8f8d0	1.01035425e-07
58	0x34435961	1.8193306e-07
59	0x3105bb26	1.9460429e-09
60	0x37058c72	7.960118e-06
61	0x3935f358	0.00017352158
62	0x36b04a36	5.253848e-06
63	0x3838250d	4.3903525e-05
64	0x35facb4f	1.8685622e-06
65	0x38152544	3.5559075e-05
66	0x35664776	8.5785666e-07
67	0x36e7d5c2	6.909221e-06
68	0x353d5bfa	7.054183e-07
69	0x37aa2c55	2.0286223e-05
70	0x348d81ae	2.635765e-07
71	0x369a78d6	4.603625e-06
72	0x3535f97a	6.779079e-07
73	0x374deb62	1.22737565e-05
74	0x3690cb91	4.3152327e-06
75	0x35a902a9	1.2592255e-06
76	0x36100dc2	2.146568e-06
77	0x37559efa	1.2732804e-05
78	0x3502ba70	4.8700076e-07
79	0x36dba5bc	6.5460026e-06
80	0x383d82bb	4.5182864e-05
81	0x3a770ab2	0.0009423896
82	0x37068f8e	8.020446e-06
83	0x398f3f26	0.00027322135
84	0x38adcb29	8.2871244e-05
85	0x3ab4c3ae	0.0013791227
86	0x362ab7a4	2.5438867e-06
87	0x39a991a5	0.00032342706
88	0x35e4679a	1.7017476e-06
89	0x385aab1a	5.21346e-05
90	0x35febe1f	1.8979807e-06
91	0x3749a223	1.2018284e-05
92	0x329c8bf2	1.822443e-08
93	0x33f7788b	1.15237604e-07
94	0x34ff6dc4	4.7577316e-07
95	0x3173ec12	3.5495344e-09
96	0x35bbd5bb	1.399479e-06
97	0x37f72b72	2.9464925e-05
98	0x349a0ab4	2.8692523e-07
99	0x36d8f769	6.466104e-06
100	0x3513635b	5.490635e-07
101	0x373d4306	1.1280883e-05
102	0x35114d9c	5.4129646e-07
103	0x362cffa3	2.5778797e-06
104	0x3364c6a2	5.3266042e-08
105	0x35db2dec	1.6330137e-06
106	0x35176a61	5.6406685e-07
107	0x34325aec	1.6610619e-07
108	0x38336527	4.277113e-05
109	0x3a4098ba	0.0007346977
110	0x3634ee7b	2.6960904e-06
111	0x391602e4	0.00014306192
112	0x3490eb59	2.6993328e-07
113	0x36742eba	3.6386032e-06
114	0x35e3bf2b	1.6968455e-06
115	0x3511de92	5.434059e-07
116	0x2de21064	2.5700504e-11
117	0x31aab414	4.9681237e-09
118	0x34a55bee	3.0800533e-07
119	0x2e5eadcd	5.0631322e-11
120	0x34a6ad16	3.1045846e-07
121	0x36820a8f	3.875531e-06
122	0x34e89e25	4.3328433e-07
123	0x35b35bfb	1.3363309e-06
124	0x342ba316	1.5984946e-07
125	0x37c442d3	2.3396138e-05
126	0x35a509d4	1.2296318e-06
127	0x36eadb70	6.9992893e-06
128	0x3221a9b9	9.410024e-09
129	0x33535ef1	4.9213615e-08
130	0x35248954	6.12946e-07
131	0x30bce2e3	1.3743285e-09
132	0x35b0ee49	1.3182372e-06
133	0x3878d9f2	5.9330785e-05
134	0x360329f8	1.954495e-06
135	0x372846d2	1.00300695e-05
136	0x35a02c3c	1.1933803e-06
137	0x37f10219	2.8730416e-05
138	0x35473caf	7.4221583e-07
139	0x36d16140	6.2400068e-06
140	0x341dd3ed	1.4698863e-07
141	0x363d8202	2.823887e-06
142	0x348d8a88	2.636409e-07
143	0x355018e1	7.752224e-07
144	0x3360d619	5.2348785e-08
145	0x37abd467	2.0483696e-05
146	0x377fcc13	1.5246699e-05
147	0x3311b953	3.3928995e-08
148	0x33d89fdb	1.0087361e-07
149	0x34859bf7	2.488666e-07
150	0x35e8f5a5	1.7356839e-06
151	0x3277be64	1.4420582e-08
152	0x32f032bf	2.7962754e-08
153	0x354f28ae	7.7172706e-07
154	0x33e85349	1.0818491e-07
155	0x3420e2f4	1.4983726e-07
156	0x36310090	2.6375383e-06
157	0x382afac6	4.076471e-05
158	0x350a08c4	5.142176e-07
159	0x370e84fb	8.4948215e-06
160	0x35efeba1	1.7875465e-06
161	0x379fc43b	1.9045654e-05
162	0x35d47d8f	1.5831773e-06
163	0x3683d83b	3.9292768e-06
164	0x351de1e8	5.8815795e-07
165	0x3724d182	9.823942e-06
166	0x35c58e69	1.4719091e-06
167	0x36022efe	1.9398863e-06
168	0x320e6fb4	8.290886e-09
169	0x3486c147	2.5100073e-07
170	0x35ed3766	1.7673999e-06
171	0x311c7c8c	2.2771784e-09
172	0x35cdfdcd	1.5347556e-06
173	0x381227fd	3.4846355e-05
174	0x35dfe63d	1.6681803e-06
175	0x3709f5d6	8.2230745e-06
176	0x2df87a52	2.8248657e-11
177	0x30652cb2	8.337323e-10
178	0x351bbe4f	5.8018935e-07
179	0x2e114da3	3.3038138e-11
180	0x34e8b628	4.3345904e-07
181	0x37db2d26	2.6127858e-05
182	0x35edcf04	1.7718125e-06
183	0x36678b42	3.450274e-06
184	0x34064b71	1.2507168e-07
185	0x35382dfd	6.8612263e-07
186	0x3501e1f5	4.8385056e-07
187	0x32c21a42	2.2596513e-08
188	0x3411dbf7	1.35842e-07
189	0x3669f599	3.4862662e-06
190	0x366a387a	3.490159e-06
191	0x3281d435	1.5114077e-08
192	0x3769eca6	1.3942981e-05
193	0x3a0f7a63	0.0005473254
194	0x361fc1d8	2.3805678e-06
195	0x391fab69	0.00015227277
196	0x3217d024	8.8366825e-09
197	0x32f8f730	2.8983408e-08
198	0x34693c0d	2.1721662e-07
199	0x30a7e552	1.2216026e-09
200	0x33dcb2f6	1.0277101e-07
201	0x36994486	4.5677325e-06
202	0x3679b936	3.7211698e-06
203	0x3497c1fa	2.8267078e-07
204	0x3582fecd	9.759912e-07
205	0x372e0193	1.0371575e-05
206	0x349e56f2	2.9493054e-07
207	0x36031f6a	1.9538807e-06
208	0x369748b9	4.5086167e-06
209	0x38a9cec3	8.09706e-05
210	0x3679b0ba	3.720676e-06
211	0x37b79f01	2.1889342e-05
212	0x3623b135	2.439204e-06
213	0x382b7fc1	4.0888557e-05
214	0x35288535	6.277872e-07
215	0x3734fd79	1.0787852e-05
216	0x343b5872	1.7447908e-07
217	0x368e73c8	4.2454085e-06
218	0x344f786a	1.9322184e-07
219	0x35877a2d	1.0093842e-06
220	0x362d8058	2.5853715e-06
221	0x38aa0b86	8.108378e-05
222	0x36b474df	5.3780236e-06
223	0x378e7f6e	1.6987058e-05
224	0x361fc475	2.38072e-06
225	0x3888e786	6.52811e-05
226	0x36b5eb57	5.4216175e-06
227	0x373f2cfd	1.1394962e-05
228	0x3150d44d	3.0388663e-09
229	0x35768a1d	9.184312e-07
230	0x3624355e	2.4468968e-06
231	0x31dd56be	6.441808e-09
232	0x35920518	1.087933e-06
233	0x37340181	1.0729186e-05
234	0x3407c9b1	1.264623e-07
235	0x362857d8	2.5085083e-06
236	0x2da63c9d	1.8898933e-11
237	0x32127e22	8.526998e-09
238	0x33d33ebb	9.836864e-08
239	0x2e0981c7	3.126546e-11
240	0x3528df9e	6.2910283e-07
241	0x38175a26	3.6085163e-05
242	0x363366ff	2.673303e-06
243	0x36a4bdbd	4.9096693e-06
244	0x363f4932	2.8503823e-06
245	0x38ad8bfd	8.275358e-05
246	0x35f6e265	1.8394318e-06
247	0x378923b8	1.6348306e-05
248	0x35dde887	1.6533457e-06
249	0x37e3e7b5	2.7168406e-05
250	0x368513ea	3.966027e-06
251	0x369d3a6c	4.685766e-06
252	0x373f9022	1.1418046e-05
253	0x395a6d83	0.00020830896
254	0x37a1c98c	1.9286548e-05
255	0x381a1344	3.6734404e-05

exp_avg f4 [64]
0	0xb6c0293b	-5.7268458e-06
1	0xb6778d6a	-3.6888182e-06
2	0x37874241	1.6124106e-05
3	0x37d7c23b	2.5720443e-05
4	0x39f20b42	0.00046166225
5	0xb954557a	-0.00020249738
6	0xb8dee2cf	-0.00010628031
7	0xb9081389	-0.00012977248
8	0x38899570	6.560504e-05
9	0xb82e7a64	-4.1598818e-05
10	0xb90ca3e8	-0.000134125
11	0x39e25ca4	0.00043175102
12	0xb9b87277	-0.00035180498
13	0xb81882a2	-3.6361285e-05
14	0x3811c32a	3.4752455e-05
15	0x395a99f7	0.00020847456
16	0xb9242a68	-0.00015656056
17	0xb93c038e	-0.00017930401
18	0x38be22db	9.066398e-05
19	0x3932608a	0.00017011366
20	0xb891a07e	-6.944033e-05
21	0x39dd1375	0.000421669
22	0x3803df0b	3.144056e-05
23	0x38a63d70	7.9269405e-05
24	0x3746ad90	1.184213e-05
25	0xb96b723e	-0.00022453905
26	0xb87964b6	-5.946002e-05
27	0x394c8d30	0.00019507552
28	0x36a061d7	4.7797616e-06
29	0x35748703	9.109355e-07
30	0xb8eb6621	-0.00011224696
31	0x3854c545	5.072846e-05
32	0x381c6f31	3.7296853e-05
33	0x390c20c9	0.00013363654
34	0xb9097f2b	-0.00013112712
35	0xb8a14450	-7.6898024e-05
36	0x38f0fb3d	0.000114908886
37	0x390c4ec7	0.00013380787
38	0x35adaae5	1.2939241e-06
39	0x39bfa42a	0.0003655267
40	0xb93b7963	-0.0001787893
41	0x392482c4	0.00015688973
42	0x380ab597	3.3070883e-05
43	0xb81c645b	-3.728676e-05
44	0x36b1ea72	5.302304e-06
45	0x37e4ce1c	2.7275695e-05
46	0x39647b51	0.00021789713
47	0xb9387051	-0.00017589449
48	0xb9c9a238	-0.0003845857
49	0xb8487c95	-4.7799742e-05
50	0xb7d4eb47	-2.5381929e-05
51	0x37cd5478	2.4477238e-05
52	0xb945361b	-0.0001880754
53	0x391653da	0.00014336352
54	0x388dfcc8	6.770488e-05
55	0xb902dd02	-0.00012480098
56	0x38e87e2a	0.00011086122
57	0x380bf65b	3.336962e-05
58	0x392e529d	0.00016624709
59	0x362206d0	2.4143847e-06
60	0xb8c67f1f	-9.465054e-05
61	0x3950012f	0.00019836867
62	0xb7f47207	-2.9140165e-05
63	0xb8aaa9bb	-8.1378465e-05

exp_avg_sq f4 [64]
0	0x36f69305	7.3484866e-06
1	0x346ee208	2.2247707e-07
2	0x349cdf6a	2.921982e-07
3	0x345cb21b	2.0553891e-07
4	0x372f4efd	1.0449204e-05
5	0x3805288a	3.1747426e-05
6	0x3559bd4d	8.111427e-07
7	0x35de8224	1.6578165e-06
8	0x355db930	8.25984e-07
9	0x36c150bb	5.7612465e-06
10	0x36aa38cf	5.073008e-06
11	0x38d04ea7	9.932863e-05
12	0x38755596	5.849226e-05
13	0x360b5050	2.0759362e-06
14	0x33883f43	6.344501e-08
15	0x38370d84	4.3643187e-05
16	0x37dfef86	2.6695208e-05
17	0x36491960	2.9966104e-06
18	0x36c14494	5.7598318e-06
19	0x368a2111	4.11657e-06
20	0x39b15def	0.00033830057
21	0x39bf5a4c	0.00036497635
22	0x3807c65e	3.2371252e-05
23	0x33fb2c12	1.1696115e-07
24	0x373dce24	1.1313274e-05
25	0x368c8da4	4.1888143e-06
26	0x34ec57c8	4.4022295e-07
27	0x3920ed3b	0.00015347164
28	0x35f1869a	1.7995073e-06
29	0x2f3edca7	1.7358791e-10
30	0x357d6a2e	9.4404356e-07
31	0x36d3234a	6.292398e-06
32	0x33220e8b	3.773179e-08
33	0x36e82d6f	6.919428e-06
34	0x36a9504e	5.045941e-06
35	0x352fb2a4	6.5452537e-07
36	0x3515d107	5.5811e-07
37	0x34ec4562	4.4008908e-07
38	0x350af78a	5.1769223e-07
39	0x381347b6	3.5114317e-05
40	0x378130d7	1.5400741e-05
41	0x36a8f65d	5.0354706e-06
42	0x33205974	3.733426e-08
43	0x37a9de7f	2.0249978e-05
44	0x2fdb505a	3.989296e-10
45	0x366c0dc0	3.5174744e-06
46	0x3636de94	2.724967e-06
47	0x3523ef27	6.1070244e-07
48	0x38a07409	7.651008e-05
49	0x3335355f	4.2190887e-08
50	0x35f39f6b	1.8151308e-06
51	0x36df585c	6.6562043e-06
52	0x379c9a7c	1.8668587e-05
53	0x373bfe9e	1.1205351e-05
54	0x357a39f3	9.3216585e-07
55	0x375e5561	1.325211e-05
56	0x37582071	1.2882157e-05
57	0x331759fa	3.523926e-08
58	0x37247b95	9.803935e-06
59	0x2faca432	3.1403286e-10
60	0x36725bed	3.6114318e-06
61	0x374ef92f	1.2336574e-05
62	0x370bf69f	8.342467e-06
63	0x38a7eb2c	8.006985e-05
