toy_al/mini_exp/500-1000000-200-001-yes/ckpt_phase1.pt (torch, 47981 bytes, 30 tensors)

fc1.weight f4 [64, 4]
00000000: f579 60be 3c5e 09bf 1813 9d3e 248a ccbd
00000010: 221e 3abf 0982 11bf 5f70 c53d 1442 59bf
00000020: fe31 cf3c 9a32 293e 478d b03e 1dea cebe
00000030: e465 043f c4d2 453d 5439 8fbc c35a a03f
00000040: 7c43 c8bd 83c7 08be fb56 e03e a103 12bf
00000050: 232e 22bf 3e18 603e e8ef 91be 224e fc3e
00000060: 983b 12bf 5945 bd3e 8e84 193d d6c4 81be
00000070: ad47 6ebe 7bb5 41be 1865 d53d 70fb 30bf
00000080: 1104 503e 4c91 1c3e e542 e23e 6ef4 a5be
00000090: 9d36 6f3e f0f1 5e3c 494e b43e 6af0 29bf
000000a0: 9997 9dbe 403d 083f fbf4 513e 38d9 e3bd
000000b0: 0eea 303e 7ab0 253e 4f9a 12bd d27c 98be
000000c0: a630 40be edc0 bc3e 0702 e2bd e9aa e93e
000000d0: 686f 2cbe 0a6c 1d3f 70dd 403e 10eb 96bd
000000e0: fce9 a03d a795 23be ff13 b5be adc4 f93b
000000f0: 4121 94be e69f a43e 42e9 34bf da11 8e3d
00000100: 62fe a73d 8ef1 65be 8627 113f e1b2 223e
00000110: ee17 27be bc59 7b3e 3ae7 3c3e 9246 623e
00000120: 2137 443f c303 803b 882d 1b3b 931d 2b3e
00000130: d919 bb3d ae68 bebe 1734 15be 812f 06bf
00000140: 745c 733f 7fd1 a5be ea50 b73c a0eb 65bf
00000150: d044 b8bd 3982 973e f512 34bf 0334 9d3e
00000160: 09ee 343f e3ce c7be febb 00bb 0818 adbe
00000170: c2c6 c03e ebfe 44be 9136 f63e 92bd f93f
00000180: 69ec 69be f246 c23d 37b9 6fbe 0b10 3ebe
00000190: f4a8 0d3e d69c f93e e32c e63e f2c0 d63e
000001a0: d8f1 a93e de8c e33d 5ac2 2dbe 0610 853c
000001b0: 4bde a8be 0105 9a3e 3537 12bf f037 163f
000001c0: 308a 033f ffbc 4a3e 10f3 10bd 8bec acbb
000001d0: 0669 fbbf 59db a6be 7a07 75be a0b5 9bbe
000001e0: 7acc 313f b817 903e 8ef2 ed3e 1bae dd3e
000001f0: 4b17 453f 623d cdbd 6026 38be 2998 9abe
00000200: f283 813f ae86 d0be a1c7 4e3e 0534 fa3e
00000210: 206d 793f 0a83 553b cc0b 823b e671 89be
00000220: 1262 bc3e cf58 153f cfcf 17be 203a 933e
00000230: fc8b b03d 9d96 043f b47c b53e d518 97be
00000240: 7bf5 2b3f d657 7d3e 6b04 afbd e0dc a53f
00000250: 0cbc 763f 7608 12bf 5c0c 8ebe ceae 373e
00000260: a78b 243e cd8c bdbe c639 ad3e cc03 4dbd
00000270: bc12 5dbf 58e8 1fbf 5ccb 793e 446b 97be
00000280: fa90 aabe bbd2 aabe 1000 f7be fe99 823e
00000290: e706 00bd 4983 513d b3dc b2be 18ef 1abf
000002a0: 9d9a 843f fd96 a2bd 5038 043e faaa 833f
000002b0: f806 c03e 8e82 e2be c6fb b03e b40c e6bd
000002c0: 685e 2bbd 104b d5be d959 87bd 2c62 bebd
000002d0: b9aa 2d3f 5abd 233e 125c 86be 54fb f7be
000002e0: e1fe af3e d4c6 19bf 165b 29bd e595 cd3e
000002f0: e617 823e fa43 813d 18a4 a0be 85a4 4c3f
00000300: 0c6b 333f bf49 08be bb84 8fbe 62c2 1fbf
00000310: 61ff 933f 5c49 d7be 77e7 eb3e 7be1 0d3f
00000320: 86fa a73e 329b 123e 6cd9 adbc d3ae 5a3f
00000330: 37b3 fb3e 6a34 1e3e aad7 983e a5d3 14be
00000340: 6d4b d0bd f234 ec3e 3ee1 bfbe 4bd1 9d3d
00000350: 48f7 48bf d094 973e 1ecb c83e 787c 95be
00000360: 36d4 7fbf 04b8 b4bd b776 b83d 4886 34be
00000370: f017 20bf 7b92 cbbc 6bc3 48be 0b5c 6f3e
00000380: ffba 16bf e992 f53d 7cdf adbe 76e2 85bd
00000390: 6bbc d53e c77b 47be 98cf c2be 2f29 603f
000003a0: 1c98 463f e885 8fbe 2a1d 693e d8ce 1dbf
000003b0: 314f 35bf 0d2b bebd 7edc bb3e 50ee 1d3f
000003c0: 2f5e 343f a410 af3e 4837 a2bd 2c04 c23e
000003d0: 35dc 38bd 442f f33a 265e d0be 7df0 aebe
000003e0: 55c8 673f 1720 1c3f 4739 143e fb98 8d3e
000003f0: 29f7 52bf 6000 c63d 8d96 11be 2fdc 79be
-0.21921523 -0.53659415 0.3067863 -0.09987286 -0.7270223 -0.5683904 0.09640574 -0.8486645
0.025292393 0.16523209 0.34482786 -0.4041299 0.5171797 0.048296705 -0.01748339 1.2527698
-0.097784966 -0.13357358 0.4381636 -0.5703679 -0.6335165 0.21884248 -0.28503346 0.4927836
-0.5712218 0.3696697 0.03747993 -0.25345486 -0.2326953 -0.18916886 0.10419673 -0.69133663
0.20314051 0.15289801 0.4419166 -0.32413048 0.23360677 0.013607487 0.35215977 -0.6638247
-0.30779722 0.5321846 0.20503609 -0.111254156 0.17276785 0.16180602 -0.03579169 -0.2978273
-0.18768558 0.3686594 -0.11035543 0.45638207 -0.16839373 0.6149298 0.18834472 -0.07369053
0.07857129 -0.15975057 -0.35366818 0.0076223225 -0.2893162 0.32153243 -0.70668423 0.06936999
0.082028165 -0.22455427 0.5670093 0.1588855 -0.16317722 0.2454595 0.18447581 0.22097233
0.7664662 0.0039066984 0.0023678262 0.167105 0.091357894 -0.3718924 -0.14570652 -0.52416235
0.9506295 -0.32386395 0.02237745 -0.8981266 -0.089975 0.2959154 -0.70341426 0.30703744
0.7067571 -0.3902503 -0.0019643302 -0.33807397 0.3765164 -0.19237868 0.48088506 1.9510977
-0.2284409 0.09486188 -0.23410498 -0.18560807 0.13833982 0.4875247 0.4495612 0.4194408
0.33192325 0.11110853 -0.1696867 0.016242992 -0.32982096 0.30081943 -0.5711549 0.58679104
0.5138273 0.19798659 -0.035388052 -0.0052772216 -1.9641426 -0.32589224 -0.23928633 -0.30412006
0.6945263 0.28143096 0.46474117 0.43296894 0.7698867 -0.100214735 -0.17983389 -0.30194214
1.0118392 -0.40727752 0.2019334 0.48867813 0.97432137 0.0032579326 0.0039686915 -0.2684471
0.36793572 0.58338636 -0.14825366 0.28755283 0.0862045 0.5179232 0.35446703 -0.29511133
0.6717145 0.24740538 -0.085457645 1.2958031 0.96380687 -0.5704416 -0.27743804 0.17937776
0.16068898 -0.37021485 0.3383314 -0.05005245 -0.8635671 -0.62463903 0.24393982 -0.29574025
-0.33313733 -0.333639 -0.48242235 0.25508112 -0.031256583 0.051150594 -0.34934005 -0.6052108
1.0359684 -0.07938955 0.12912107 1.0286553 0.37505317 -0.4424023 0.34567088 -0.11232892
-0.04183808 -0.4165883 -0.06608934 -0.092960685 0.6783863 0.159902 -0.2624212 -0.48433936
0.34374145 -0.6006901 -0.041346632 0.40153423 0.25408858 0.063117936 -0.31375194 0.79938537
0.70085216 -0.13309382 -0.28030953 -0.6240598 1.156231 -0.42048156 0.4607503 0.5542218
0.32808322 0.14317015 -0.021221839 0.8542301 0.49160168 0.15449682 0.2985204 -0.14533861
-0.10170636 0.46134144 -0.37476534 0.07705935 -0.7850232 0.29605722 0.39217466 -0.29196525
-0.99933183 -0.08824161 0.09007018 -0.17629349 -0.62536526 -0.02485012 -0.19605796 0.23374955
-0.58879083 0.119909115 -0.33959568 -0.065373346 0.41745314 -0.19480811 -0.38049006 0.8756284
0.7757585 -0.2803185 0.22765031 -0.61643744 -0.7082396 -0.09285555 0.3669166 0.6169176
0.7045621 0.34192383 -0.079207 0.37893808 -0.04513188 0.0018553515 -0.4069683 -0.34167853
0.9054006 0.60986465 0.14474975 0.27655777 -0.82408386 0.0966804 -0.14217587 -0.244004

fc1.bias f4 [64]
00000000: 04f2 183f 3e61 27bf c1aa e83e 1701 b7be
00000010: 1940 99bd 4e3b 083f c1b7 193f bd8c 07bf
00000020: b1b4 893e 3c61 9bbc 8b0c 15bf 0470 31bf
00000030: 562c efbd 9cc6 bdbc 77d6 d03c 32d0 47be
00000040: 4757 183f fd80 09be e144 073f b683 0bbc
00000050: c92d 903e 6cf7 82bd 2640 363f 5815 473d
00000060: a620 043f 9f73 67be 70e0 9f3c 637d 8cbd
00000070: b1ec 563e 887d d3bf 62c7 163f d3df ecbd
00000080: 43c0 d0bd 5465 0f3f 9c1e 0b3f fffa 8bbe
00000090: 885c 3c3d 5fbb afbc 6783 093f 9789 d23e
000000a0: eb37 2a3f 3bad 6c3e 86de 00bf 6bea 3b3f
000000b0: d425 b43d d0fc 903d e6d8 2b3f 02e9 b1bd
000000c0: 1d89 e8bd c2ad 51bc a297 e23e e0b2 8c3d
000000d0: 3216 3a3e d8a4 04bf 21c9 423e ba70 303f
000000e0: b3bf 04be b44e 13bf 2e85 c03e 278d 34bf
000000f0: c7e5 bd3e d86a bc3e fd1a a53e d082 58be
0.59744287 -0.65382755 0.45442775 -0.3574302 -0.07482929 0.5321549 0.6004601 -0.52949125
0.2689567 -0.018967263 -0.58222264 -0.6931155 -0.11678378 -0.023165993 0.02549289 -0.19513014
0.59508175 -0.13428111 0.52839476 -0.008515289 0.2815993 -0.06394848 0.7119163 0.04860434
0.5161232 -0.226027 0.0195162 -0.06859853 0.20988728 -1.6522684 0.58897984 -0.115661286
-0.10192921 0.5601399 0.5434358 -0.27339932 0.045986682 -0.02145165 0.5371613 0.41120598
0.66491574 0.23112957 -0.50339544 0.7340457 0.08796278 0.0707947 0.67127836 -0.08687021
-0.11354277 -0.012797775 0.44256312 0.06870055 0.1817253 -0.5181403 0.19022037 0.6892201
-0.12963752 -0.57541966 0.37601608 -0.7052788 0.3708937 0.36800265 0.32247153 -0.21143651

fc2.weight f4 [32, 64]
00000000: b25c 663d 8698 e53c 2779 3f3d cfef eebd
00000010: 820e 823d 0142 25be ba91 2ebd 23bc 3c3e
00000020: 6242 183e fefb ff3d 310e a9bc 8d3f 3bbe
00000030: b296 01be 6719 063e 0f86 6c3d 93a1 713d
00000040: f81b f43b c66f ad3d 8599 c53d aa7e 46bd
00000050: 2c6d 41be 89ea d1bb 2a36 40be d8d8 61bc
00000060: 078c e4bd a60e c5bc 257f 763b 3ef7 d23d
00000070: e316 163e e163 983b 0b66 293d 3f6b 32bd
00000080: 0013 b4bc 09c9 3d3e 4ba5 9a3d 10ef 733d
00000090: d639 29bd ed55 77bd 0bae 443d 0644 11be
000000a0: cf02 3f3d 0df5 90bd b5f9 9fbd 65aa d93d
000000b0: 5bdc 3fbd d080 153d 69e1 193e 51b8 f2bc
000000c0: c3a2 0ebd 39b1 803d dce2 973d cb67 b13c
000000d0: bb74 9c3b 3457 a3bd c9ef 78bb 31a4 a5bd
000000e0: 4919 febd a4aa 113d 0c48 763e a91c cabd
000000f0: 24c0 0f3e deea c33d 3b8a 703e 6623 0cbd
00000100: c353 0abf 5e9a bf3d 75f0 76be f5e9 ca3d
00000110: b6b1 e83d 4faa a63d 4c6e 213e 58ae eebd
00000120: 6cbb 18be f444 acbf af1f 0a3c 0cdf c0bd
00000130: a45d 1e3d 39d2 893d af05 933c 4b70 a1bb
00000140: 5e38 20be 24f9 8abe 2191 8a3d 7d1d 9dbd
00000150: e7f9 02be d288 f13d 6629 503f a4e8 dabe
00000160: 70c4 253e a5b6 52be 4579 babd e702 323d
00000170: 0465 0b3c 5d14 193d 5912 2a3d e6bd c5b9
00000180: ce8f f7be b434 04bc c881 203e 0a16 9ebe
00000190: 7c28 78bd aee6 40bd 16a9 06bf fea4 a3be
000001a0: 71a0 d3bb 2c4b 023e 0fbd 06be f86f 75be
000001b0: 167b 9f3c 6f6c dfbd b123 e6bd f194 b53d
000001c0: f87b bebc f974 33be d436 0d3e 97c9 05be
000001d0: 6d55 d5bd 9798 bd3c 2aaf debf 3897 883d
000001e0: cd4d ebbd 57fa 5b3d 9866 1dbf e078 b0bd
000001f0: 1fb7 df3d 6aea e1bd f6e5 743e 4c06 363e
00000200: f453 f5bc d71f 0bbe 8fd1 9e3d 6932 babe
00000210: 5792 043e a1d0 753d 41c6 243e 232b 79bb
00000220: 2f00 833d 8d98 7ebd 221a e3bd 92d6 c9bd
00000230: d664 fbbc e322 b53d eb70 76bd b6f9 9fbd
00000240: 94d9 b8bd 66be 613c 9fe2 403e 7f5a f9bd
00000250: fc02 f3bd a40f 413d 8f26 6f3e 7b25 17be
00000260: 442d f1bd 2c64 8fbd 02d4 acbd 943b b83d
00000270: dcee b23d 7bc0 d7bd b595 c73b c481 a63d
00000280: e936 10be 872b 1f3e 559f b83b 2bec 613d
00000290: d135 1dbb 310a 943d 92f4 76bc d0b9 57bd
000002a0: faad b73a f1ff 263d ff6e 84be 1c81 eabd
000002b0: b901 2bbd fa30 e0bc 11e4 e7bc 7f21 3b3d
000002c0: 5bb1 edbd f37b cdbc 646d a0bd dd79 773d
000002d0: b718 c53d 7161 8c3d cab7 ec3d ab57 843c
000002e0: 170f e7bd ebf1 86bd 6e0f cd3d ba89 9abd
000002f0: 51a7 c03d 0ef3 863d 7fe9 df3d d17c dc3a
00000300: 2251 c2bd e867 f7bd 9fd0 153e 8acd 6b3e
00000310: 4b87 b4bc bd7e abbd bbe1 11bd ecc3 89bd
00000320: 204d f03d a8a1 10bd 5b60 503d c582 383d
00000330: b884 1abe 7105 7dbc 2e83 cdbd 0fe6 803d
00000340: 09ad d3bd 87d3 d0bd c7d7 4e3e c118 333d
00000350: 4197 f73e 815b 003e bb9c 9d3e ac00 debd
00000360: ab9b d6bd 7439 9a3d b489 e63d 6868 45bc
00000370: 644a 7c3d 5331 18be 0e91 473d be66 9e3d
00000380: 659f 043e 0c1b 953e 440f 893d c1e1 953d
00000390: 4696 063e de08 623e 1151 e8bd 51cd 01be
000003a0: dfdd 99bc 30e1 4ebd 56f0 ec3d 0b56 cf3d
000003b0: 654b 6dbe 1547 5f3d d58f abbe c3dd eb3d
000003c0: 76fe 943c 1f98 043d 4d79 743e 434c 193e
000003d0: 1d15 43bd 7a05 a33d a47f 0bbe 7177 b6be
000003e0: 4769 0abd 433c c73c a3c2 733d 2c45 1fbe
000003f0: 689f f93d f8f0 583c b9a9 f73d bac7 fbbd
0.056240745 0.02802683 0.0467464 -0.116668336 0.063504234 -0.1613846 -0.042619444 0.18431143
0.14869073 0.124992356 -0.02063665 -0.18285961 -0.12655142 0.13095628 0.057745036 0.05899198
0.007449623 0.08468585 0.09648422 -0.04846064 -0.18889302 -0.0064061326 -0.18770662 -0.01378461
-0.111595206 -0.024054836 0.0037612405 0.10301064 0.14657168 0.0046505784 0.04135708 -0.04355931
-0.021981716 0.1853372 0.075510584 0.05955416 -0.041314922 -0.06038468 0.048017543 -0.14186105
0.046633538 -0.0707799 -0.078113 0.10628203 -0.046841007 0.0364998 0.15027393 -0.029628905
-0.03482319 0.062838025 0.07416317 0.021655938 0.0047746575 -0.07975617 -0.003798472 -0.08087958
-0.124071665 0.035563126 0.24050921 -0.09868748 0.1403814 0.09566282 0.2349023 -0.034213446
-0.5403406 0.09355615 -0.24115165 0.09907905 0.11362021 0.081379525 0.15764731 -0.11654347
-0.14915246 -1.3458543 0.0084304055 -0.09417543 0.03866352 0.0672955 0.017947046 -0.0049267164
-0.15646502 -0.27143204 0.067659624 -0.0767164 -0.12790643 0.117936745 0.8131317 -0.42755616
0.16188216 -0.20577486 -0.091051616 0.0434598 0.008507971 0.037372936 0.041521404 -0.00037716253
-0.48351902 -0.008069206 0.15674508 -0.3087619 -0.060585484 -0.047094993 -0.52601755 -0.31961817
-0.006458335 0.12723988 -0.13158058 -0.23968494 0.019467872 -0.10909354 -0.11237276 0.08866299
-0.023252472 -0.1752509 0.13790447 -0.13065182 -0.10416684 0.02314405 -1.7397206 0.06669468
-0.11489449 0.05370554 -0.6148467 -0.08616805 0.109235995 -0.11031039 0.23915848 0.1777584
-0.029947259 -0.13586365 0.07754814 -0.36366585 0.12946449 0.060013417 0.16091253 -0.0038020096
0.063965194 -0.062157203 -0.11088969 -0.09855379 -0.03068773 0.08844545 -0.06016628 -0.078113005
-0.09025875 0.013778305 0.18836449 -0.12175464 -0.118658036 0.047134057 0.23354553 -0.14760391
-0.11776212 -0.07001528 -0.08438875 0.089957386 0.08736965 -0.105347596 0.0060908445 0.081302196
-0.14083447 0.15543948 0.0056342282 0.055156868 -0.0023988376 0.07228506 -0.015072959 -0.05266744
0.0014013641 0.04077143 -0.25865933 -0.11450407 -0.04174969 -0.027367104 -0.028306993 0.04568624
-0.116060935 -0.025083518 -0.078333646 0.060418952 0.096238546 0.06854523 0.115584925 0.016155085
-0.11282175 -0.06589111 0.100127086 -0.075458005 0.09406913 0.06589328 0.10933208 0.0016821866
-0.09488131 -0.120803654 0.14630364 0.23027626 -0.022037169 -0.08373783 -0.035615664 -0.06726822
0.117334604 -0.035310417 0.05087314 0.045046587 -0.1508969 -0.015443192 -0.10034786 0.0629388
-0.10335738 -0.10196596 0.201995 0.04372478 0.48357585 0.12534906 0.30783638 -0.10839972
-0.1047891 0.075304896 0.112567335 -0.012048818 0.061594382 -0.14862566 0.04872232 0.0773444
0.12951429 0.29122198 0.06692365 0.0731845 0.13143262 0.22073695 -0.11343587 -0.12675978
-0.018782554 -0.050507724 0.11569278 0.10123833 -0.23173292 0.05451115 -0.33508173 0.11516907
0.018187743 0.032371636 0.23874398 0.14970498 -0.047627557 0.07960029 -0.1362291 -0.35638002
-0.033791807 0.024320727 0.059511792 -0.1555373 0.121886075 0.013241045 0.12092919 -0.12293954

fc2.bias f4 [32]
00000000: 7858 bdbd 8f79 843e 1754 933c c1a4 943d
00000010: 44ac 3b3e 22e5 0ebf 331d 8d3e 34ac 273e
00000020: bd73 c43d 39fd 2c3c 151f c3bb 2a67 803e
00000030: 6d4d 1c3e 0109 b13d 7292 e13d 08ca 14be
00000040: ebe0 09be 0fea 5a3e 3004 ca3d 45db 08be
00000050: 8a68 073e 1443 1b3e 4dbb 5abe 93fa 6a3e
00000060: 48f6 99bd d417 103d 175e 9fbd fde1 c0bd
00000070: 8084 1bbd d529 7f3e ca72 d4bc 68f5 393e
-0.0924539 0.25873992 0.017984433 0.07257987 0.18327433 -0.5581838 0.2756134 0.16374284
0.09592388 0.01055842 -0.005954633 0.25078708 0.1526391 0.086442955 0.1101426 -0.14530194
-0.13464706 0.21378349 0.0986408 -0.13364895 0.13223472 0.15162307 -0.21360512 0.22947149
-0.075176775 0.035178974 -0.07781618 -0.09418104 -0.03796816 0.24918301 -0.025933642 0.18160021

fc3.weight f4 [16, 32]
00000000: 185c 3abe cda6 223c 6cd2 0abe 1314 09be
00000010: c46b 193c 198a 843d bac3 f5bd dd18 5b3d
00000020: f4b4 edbd b8b2 893d 2abb 313a 34f8 19be
00000030: 544e e4bd 3326 f8bd 55ed bebd fe5b 8d3d
00000040: d099 75bb ea16 b1bd c933 28be 171c 003e
00000050: 2819 04be f9e3 813d 09b1 173d b7aa dc3b
00000060: 7ac5 0fbe 912d 04be ad0b b3bc d8de 5a3c
00000070: 45d7 e3bd b599 0e3e f60d 033d eac0 48be
00000080: a25f 3b3e 0498 a03c dec9 e53d 4731 843e
00000090: 805e e7bd a8d1 41be b438 7b3e 4f8f 103e
000000a0: 1708 10be 2bb4 c1bd a464 943c ad80 c7bc
000000b0: 5d4b 283e 9d5c 2c3e d08e 0f3e 3de5 493d
000000c0: a8b7 b9bc 701a 9a3c ea37 34be de00 8e3e
000000d0: 47bd 5dbe ba37 cdbe eb3d 603c b2a3 973d
000000e0: 0c65 253e fd92 05be ae6e b63d 9d6b 3c3e
000000f0: 25c6 283e 682f e33d cd51 313d 70c1 d4bd
00000100: 7528 6dbd d37f 49be 31c9 1a3e ec73 19be
00000110: 79e6 ec3d 137e 05be fe6d a3bc a31f 883e
00000120: 6384 a5bd b6b1 91bd 0fef a23d 11bf 083e
00000130: 69f0 133e fed5 493d 067e 32be 180a a0bd
00000140: fd38 8f3d b1aa b63d 3663 0dbe 92f9 3dbe
00000150: 1310 473e 7a21 4d3d e729 7cbd 0918 eb3d
00000160: 95fe d0bd 3ebe db3d 75eb 793d b967 07be
00000170: 7fe8 d9bd 724a da3e 0e0c 153d d481 4e3d
00000180: a0bb 1abe 63ae 18bf cfa9 9abd ae6a 8a3d
00000190: 3f1f 52be 8344 a4bd d1ca fe3e a354 b63e
000001a0: e5e2 9ebe db5d 63be 3e45 74bd 1f50 273e
000001b0: c132 883d 1540 71be 06f3 033f 8e41 853d
000001c0: 8d2c 1d3a d77d 713e 2851 5a3e defd 1c3f
000001d0: 7320 e3bf 8a0d 29bf 476a cbbe 34cd 04be
000001e0: 5fc1 ce3d 25c3 46bd ccb0 83bc 05e2 043e
000001f0: 5de8 fe3d 0904 9a3e 45e8 603d 0005 ddbd
00000200: 8cdf a5be 1170 c63d e8bc 243e b79c 06be
00000210: 3272 0c3e f641 c53c 6c2d c93e 4922 983e
00000220: 9969 9ebe 3fc3 28be 03ba 33bd 69ec 91bd
00000230: e3e3 9a3d e300 23be 97df 2f3e 2909 54be
00000240: 7bf6 18be 41d6 9939 0bd9 adbe abc4 b5bd
00000250: f73e 263f a80a 973d e6be 0f3e 22bd 80bd
00000260: ee55 22be 6495 493d a3b6 2c3e c4f4 0ebe
00000270: 2ea6 303e 5939 d63e 55d7 64bd d65f 453e
00000280: 70ff e4bd 7e41 0c3e 3b37 c03d 5c7d 373e
00000290: 8975 81bd 7a14 693d 09c9 003f 72ba 883e
000002a0: a387 d83d 0fd5 703b bfe3 2dbe 8c30 67be
000002b0: 2c22 743e de11 0d3e 3553 053e 368a d0bd
000002c0: 6fc4 8fbd 73cf 433e e1a0 8ebe b693 9f3e
000002d0: ea89 8cbd bb76 90be f20e 5e3d a1f9 97be
000002e0: 8fe0 d33d a8dd fa3b abd9 14be 4830 34bd
000002f0: 7139 613d 5ae5 703e e96c bfbd 7521 e43c
00000300: c88b 20bc 1fb9 97bd 7921 ce3d 5ed2 963c
00000310: 2c4c c23d dd51 45bd a8ef a1be 9d5d 3ebd
00000320: 74dd 02be 5756 183e a130 2dbe 70e9 63bc
00000330: aece 683e 68f4 85bd 44ef 063e 7ea1 10be
00000340: 8656 e4bd 3c81 f53b 07dc 2f3e d997 933d
00000350: 3653 373e f52a 983e 190a d13d 591a 223e
00000360: 0bfb 2c3e 565c a13d 4b13 de3c 1bf0 0b3e
00000370: 3930 4b3d 4af0 1fbe 1dde 203e 9711 22be
00000380: 0b84 7fbd 496f 8bbe 5c91 b23d 68db 2bbe
00000390: 05c8 3d3e 1ae8 aabe 3777 473f 164f 423e
000003a0: 8d24 8a3d 06c9 9a3e bb6e d6bc 77f3 cd3d
000003b0: 58ac 9b3e d1e0 6ebe 81a2 663e c959 a33d
000003c0: b552 dfbd da98 8b3e ba71 c5be 09ff 34be
000003d0: e097 b03e 58c6 04bf 7a3a 77be 7060 753e
000003e0: 2a88 18be e499 76bd 5dc2 503d a987 bc3c
000003f0: 549f 3a3e 9890 fc3d 0c21 ebbc 454c 0a3e
-0.18199193 0.009927464 -0.13556832 -0.13386564 0.009364072 0.064716525 -0.120002225 0.05349051
-0.1160678 0.06723541 0.0006779904 -0.15036088 -0.111477524 -0.12116661 -0.09322611 0.06902312
-0.0037475713 -0.08646949 -0.16426004 0.12510715 -0.12900221 0.063423105 0.03703407 0.006734218
-0.14040175 -0.12908007 -0.021856153 0.013358794 -0.11125044 0.13925822 0.031995736 -0.19604841
0.182982 0.019603737 0.11220144 0.25818846 -0.11297321 -0.18927634 0.2453335 0.14117168
-0.14065586 -0.094581924 0.018114395 -0.02435335 0.16434999 0.16832204 0.14019322 0.049290884
-0.022670582 0.018811435 -0.17599455 0.27735037 -0.21654235 -0.40081578 0.013686637 0.07404269
0.16151828 -0.13044353 0.08907829 0.18400426 0.16481836 0.110930264 0.043290902 -0.10388458
-0.05789991 -0.19677667 0.15115811 -0.14985627 0.11567397 -0.13036375 -0.01994991 0.26586637
-0.080818914 -0.07113974 0.07955753 0.13354136 0.14447178 0.049276344 -0.17430887 -0.07814425
0.069932915 0.089192756 -0.13807377 -0.18552235 0.19439726 0.050080754 -0.0615634 0.11479194
-0.10204808 0.10729645 0.061015565 -0.13223161 -0.10640048 0.42634922 0.03638845 0.050416782
-0.15110636 -0.59641093 -0.0755192 0.06758629 -0.20519732 -0.0802088 0.49764112 0.35611448
-0.31032482 -0.22203772 -0.059636347 0.16339158 0.066503055 -0.23559602 0.515427 0.06506644
0.0005995713 0.2358316 0.21320021 0.6132487 -1.7744278 -0.66036284 -0.3972952 -0.12968904
0.10095476 -0.048525948 -0.016075514 0.12976845 0.124466635 0.30081204 0.05490901 -0.10791969
-0.32397115 0.09689344 0.16087687 -0.1314572 0.13715437 0.024079304 0.39292467 0.29713657
-0.3093994 -0.1648073 -0.043878566 -0.0712517 0.07562997 -0.15918307 0.17175137 -0.2070662
-0.14937775 0.00029342066 -0.33954653 -0.08875402 0.64939827 0.073750794 0.14037666 -0.06286074
-0.15853092 0.049214736 0.16866545 -0.13960558 0.17250893 0.41840628 -0.05586942 0.1927484
-0.11181533 0.13696858 0.093855344 0.17918915 -0.06321246 0.056904294 0.50306755 0.26704746
0.10572746 0.0036748087 -0.1698141 -0.22577113 0.2384116 0.13776347 0.13020022 -0.10182612
-0.070198886 0.19122104 -0.27857116 0.31167382 -0.068622425 -0.28215584 0.05421347 -0.2968264
0.103455655 0.007655818 -0.14536159 -0.043991357 0.05498642 0.2352499 -0.09346945 0.027847985
-0.009798951 -0.07408356 0.10064978 0.018410858 0.09487185 -0.048173774 -0.31628156 -0.046475995
-0.1277979 0.14876686 -0.16913082 -0.013910636 0.22735092 -0.065407574 0.1317721 -0.14124104
-0.111493155 0.0074922126 0.17173778 0.07206697 0.17902836 0.29720274 0.10207004 0.15830363
0.1689264 0.0787894 0.027108809 0.13665812 0.049606536 -0.15619007 0.1570973 -0.15827022
-0.062381785 -0.2723334 0.08719131 -0.16782916 0.18533333 -0.33380204 0.7791628 0.18975481
0.06745253 0.30231494 -0.026175847 0.10056203 0.30404925 -0.23327948 0.22522928 0.079761095
-0.10904447 0.27265054 -0.3856333 -0.17675413 0.3449087 -0.5186515 -0.24143401 0.23962569
-0.14895692 -0.060205355 0.05096661 0.023013907 0.18224841 0.123322666 -0.028702281 0.13505657

fc3.bias f4 [16]
00000000: 91b7 19be ebe7 0fbc c839 683e 721f 443d
00000010: 7fa2 e73d fb9f 183e 71f1 1ebd 6ebf 683e
00000020: 480d 253e 0fda 453e 3b72 b9bc 8d0a 8fbc
00000030: 7a62 563d b05c 043b 0808 46be 228c 233d
-0.15011431 -0.008783321 0.22678292 0.04788155 0.113102905 0.14904778 -0.038804475 0.22729275
0.16118348 0.19321464 -0.022637477 -0.017461086 0.05234001 0.0020196848 -0.19339001 0.039928563

fc4.weight f4 [8, 16]
00000000: e2ef 30bd 618a 00bf 9c59 a53e edc0 dcbf
00000010: 4eb9 6f3e bc4c 86be 55e1 e63e 9192 093d
00000020: da16 4fbe 8482 96bc eb7b 6abe 6b8c d5be
00000030: a271 26bf 0d3e 143e e90d 60be 8844 2b3e
00000040: 28c3 a33d 470a 76be 2af1 7bbe e6e0 75be
00000050: a545 a7bc c9ff 2fbd 8c01 79ba e01c 283c
00000060: 2e78 d6bd c624 b43d dd51 0fbe 9584 b23d
00000070: bef3 063e 743d bcbd 987a 9dbd 622b babc
00000080: 1fcf 363e 5b34 263e 04eb 8f3e 807b b23f
00000090: 9d05 293c 4441 af3e 543e 513e ef95 1c3e
000000a0: ab83 a3bd 4f37 693c 6922 753e 4968 d53d
000000b0: 115e 1b3f 82d7 ed3d 3aff 1abe 60fc 00be
000000c0: 1041 463e 8137 713d c3a2 2c3e 282e 333f
000000d0: c5ac 5abe 5a5d acbd 4b22 5fbe 93b6 ad3e
000000e0: 6387 04be c714 4fbe 6d95 773e 0ece 373e
000000f0: cfe7 e93e e841 0c3e 5727 f13d 2007 edbd
00000100: 4df6 03be 8b5c b7be 9089 c93e 4f69 9ebf
00000110: 98d4 14be 7e18 9bbe bf29 bf3e eeb8 1f3e
00000120: 88a4 4a3e ca4d 83be 4264 bd3d 603a a43d
00000130: 0d2c d3be 1a9b debe a6e9 163e 4559 613e
00000140: b8fe 15bd ad0c 83bd 64c3 a23e 221f b1bd
00000150: 633b e63e 5dde 373d d0ab 70be bed9 7a3e
00000160: 52b8 673d 2d8f dc3e 0ca6 16be 988c 8fbe
00000170: 4e82 163f 3f84 3cbe d8ee 8fbd 5098 97bc
00000180: 56a8 233e e619 1b3d ff88 1abe 1099 8bbe
00000190: 39a5 803d dab7 373e d804 903e 792c fdbe
000001a0: 54f7 b1bd 428b 5a3e b602 703e de98 26be
000001b0: ef49 37be 1157 dbbe 37a3 733d cc16 333e
000001c0: 1c4f 5d3e 00f7 46be c034 09be 9a42 5a3e
000001d0: f8bb b3bd 1c44 513d 46fe e1bc a42e b73d
000001e0: 80f1 dcbc 60e2 2abd 127d 8f3d d0f6 663d
000001f0: d0b0 333d 4621 9abd 2e1b 1b3e e0de 0abe
-0.04319752 -0.5021115 0.3229493 -1.7246376 0.23410532 -0.2623042 0.4509379 0.033587042
-0.20223561 -0.018372782 -0.22898833 -0.41708693 -0.6501714 0.14476795 -0.21880306 0.16725361
0.079962075 -0.24027358 -0.24603716 -0.24011573 -0.020418951 -0.042968545 -0.00094988267 0.010260791
-0.10472141 0.087960765 -0.13996072 0.08716694 0.13178918 -0.09191409 -0.076893985 -0.022725765
0.17852448 0.1623091 0.2810899 1.3943939 0.01031628 0.3422948 0.20433933 0.1529157
-0.07984098 0.014234378 0.23938908 0.104202814 0.6069041 0.116133705 -0.15136424 -0.12596273
0.19360757 0.058890823 0.16858964 0.69992304 -0.21354969 -0.08416243 -0.21790425 0.33928356
-0.12942271 -0.2022277 0.24178095 0.17949697 0.45684668 0.13697016 0.117750816 -0.115736246
-0.12886925 -0.35812792 0.39362764 -1.2375888 -0.14534223 -0.30292124 0.37336537 0.15597889
0.19789326 -0.25645286 0.09247638 0.08018947 -0.41244546 -0.43477708 0.14737567 0.2200671
-0.03661987 -0.06398902 0.31789696 -0.08648516 0.44967183 0.044889797 -0.23503041 0.24497125
0.056572266 0.43077984 -0.1471178 -0.28036952 0.5879258 -0.18409823 -0.07027978 -0.018505245
0.15982184 0.037866496 -0.15091322 -0.27265215 0.06281514 0.17941228 0.28128695 -0.49447992
-0.08689752 0.21342185 0.23438534 -0.16269252 -0.17899297 -0.42839864 0.059481826 0.17489165
0.21612209 -0.1943016 -0.13399029 0.21314469 -0.087760866 0.051090345 -0.027587067 0.08944443
-0.026970625 -0.041719794 0.07006277 0.056387722 0.043869793 -0.07525878 0.15147087 -0.13561583

fc4.bias f4 [8]
00000000: 9668 043e fd23 d13d 0d52 c73e 4462 ed3d
00000010: fb47 7d3e 9912 a03e 1030 5cbe 3d69 0ebe
0.12930521 0.10211942 0.38929787 0.11591008 0.2473449 0.3126419 -0.2150271 -0.13907333

fc5.weight f4 [3, 8]
00000000: aa73 b1be 2ead 20be c93b 4b3e 7774 46be
00000010: 1ee6 9ebe c90d e63e e002 ecbd cae7 bfbd
00000020: 1990 953e 73fa 8ebe d917 acbe 5d31 763e
00000030: d6ee 053f 839c 8c3e 3d2a 4f3e 701e ebbd
00000040: ef27 8abf d3f2 1abe 7d1d 8a3e 9fae b63e
00000050: 42e2 b3be b141 ffbb abc7 23bf 2a92 9e3d
-0.34658557 -0.15691063 0.19847025 -0.19380365 -0.3103494 0.44932392 -0.11523986 -0.09370382
0.292115 -0.27925453 -0.33611944 0.24042268 0.5231756 0.2746316 0.20230956 -0.11480415
-1.0793437 -0.15131693 0.26975623 0.356801 -0.3513356 -0.0077898134 -0.63976544 0.07742722

fc5.bias f4 [3]
00000000: be76 a73d 4b55 c43e 6210 663e
0.08176945 0.38346323 0.22467187

exp_avg f4 [64, 4]
00000000: bf2c 8eb7 0d97 3639 0451 1b38 47ff 1fb8
00000010: bd5b f437 ef1b 6ab8 d537 27b7 3498 3438
00000020: 3ced bbb7 4f6a 0e39 0aa9 2137 4865 48b8
00000030: a782 0c36 0551 6338 ddd2 9b37 f003 8d36
00000040: 7db0 28b9 a573 993a c76e 3539 03d6 feb9
00000050: c2e9 0039 c524 21b9 b0c3 e337 1860 6239
00000060: ffc1 87b6 1a88 3038 fb6e 2d37 27d0 69b6
00000070: 2d67 d838 b48a e5b9 187f f8b7 7078 8939
00000080: a903 bab7 615b d737 5a14 18b7 e25d 7bb7
00000090: d1cf 30b8 3071 e738 caf2 7fb7 ef13 afb8
000000a0: 6dad 3539 5e2d 7bba e993 9fb8 11e4 e639
000000b0: 68f7 98b9 f4a3 a53a 6faa 1138 50ef 39ba
000000c0: 2a4f b239 9754 a0ba 0542 b7b8 7969 2e3a
000000d0: f658 a138 1827 10ba bd11 15b8 e73c 4e39
000000e0: 5bcf 82b6 3d8b fbb7 a645 aa37 e4a7 54b6
000000f0: 24ab 53b8 a583 91b9 bc67 bfb8 d4ab 5db8
00000100: 716e b438 6e1b 1bba 339b b4b8 dc89 4839
00000110: 2a80 8039 0757 9dba 4e55 05b9 b7fe 0c3a
00000120: af59 1137 2a4f 7cb8 ccd5 86b7 266b 8e37
00000130: 3306 12b4 c16c 0bb4 03d0 f935 2295 f6b3
00000140: 23d4 7937 4261 26ba 4687 b3b8 09df 5238
00000150: 0021 31b9 319f 98ba b0de aeb9 60d5 31b9
00000160: 6fd7 71b8 f4de 8439 2038 6538 f89e 70b9
00000170: 548e 54b5 bba8 8f37 8774 d0b6 1571 7fb5
00000180: 4b40 23b8 3376 0d3a 3841 c738 2603 12b9
00000190: 5732 3d39 9147 9aba 9984 32b9 2576 f439
000001a0: 22b1 da37 4a0b 7bb9 220b 16b8 ef8f bd38
000001b0: b0e1 8ab7 c6be b5b9 e348 bdb7 03e2 a5b8
000001c0: 60ba bdb7 ee06 3039 e2ae 37b6 52df 4eb8
000001d0: c9cc 0db8 6755 8338 4e29 c3b4 8622 4eb8
000001e0: ffdb 7a38 b528 d2b9 30d7 45b8 f19b 2939
000001f0: 2f0e 7335 f42e 9b36 0f9b dab4 a5f6 44b6
00000200: aff1 1bb6 6972 8f33 93e0 7136 f320 2b35
00000210: d7e5 c7b8 2224 cd39 14b6 9033 633e 5cb9
00000220: 6f8a e938 efa3 f8b9 5b08 49b8 af33 8039
00000230: eb4d d138 01a5 04ba 8abb 90b8 9e0a 7a39
00000240: f651 83b6 e945 1f39 38aa fab6 6d25 c2b6
00000250: 35e9 9035 30f3 c536 ef6f 89b5 993d 8e33
00000260: cf60 1db8 c0ef 9a39 f16c 4038 145a cab8
00000270: 33c4 4ab9 5c27 ed3a 4627 9239 393e a5b9
00000280: 0c5a 7435 f26d afb9 64ba 92b8 1958 7738
00000290: cc9f 17b9 bd8e 8a3a 1e00 0839 84b2 c8b9
000002a0: 6895 11b6 7eaf e037 5ba4 ff37 1322 c935
000002b0: 94c7 a437 032e f3b8 2c89 87b7 1668 0638
000002c0: 86d9 5db6 19f7 4436 0a82 ceb6 0bc3 95b6
000002d0: 6185 84b8 6b69 c339 6efe 9937 8cdf 27b9
000002e0: f576 c1b8 b0ef 8239 6f98 79b8 c65f 56b8
000002f0: 9b2d b036 ccda 0db7 2674 ed34 6fe6 06b5
00000300: a091 3a38 bde5 f4b9 a6a7 19b8 5517 8d39
00000310: bab7 1cb6 c969 ae36 073a 8937 e1c7 9435
00000320: 27b5 8838 10fe e4b9 4ea8 a6b8 be9f 1839
00000330: c84c afb7 bb14 5d39 235d bb37 5c9c 7bb8
00000340: b8ca b138 069e 10b8 e96f 0238 f7e2 0e39
00000350: a684 1bb8 bffe b0b8 5ae3 2837 0ce1 4bb7
00000360: e59f 88b8 2456 c339 4af6 6938 c7e5 26b9
00000370: 1be0 3838 2723 fc36 8eac 8f38 a35d 8c38
00000380: 0812 a8b7 d027 c1b8 d762 a037 2572 75b8
00000390: 782f 0d35 f2f0 c5b7 a856 7a37 2cc3 5b34
000003a0: 2fbf 31b9 4bdc 953a e2da 1539 c0b3 d3b9
000003b0: 4d73 bd34 8575 3cb6 9406 4234 b114 c9b2
000003c0: 13a1 de38 7715 29ba b04c dab8 0934 9339
000003d0: cf51 1db9 b981 0f3a c65e 8838 e170 9eb9
000003e0: 6c68 a738 f7e7 4cb9 051b 2bb8 f1ec 1b39
000003f0: 5405 d638 68b1 a2ba 5653 1cb9 ecf1 b439
-1.6948556e-05 0.00017413143 3.703033e-05 -3.81463e-05 2.9129786e-05 -5.5815963e-05 -9.966975e-06 4.3057094e-05
-2.2402608e-05 0.00013581778 9.635705e-06 -4.777804e-05 2.0937675e-06 5.4196473e-05 1.857563e-05 4.202586e-06
-0.00016087476 0.0011707438 0.00017302773 -0.00048606106 0.00012294113 -0.00015367854 2.7151633e-05 0.00021588837
-4.0458976e-06 4.2088424e-05 1.0337443e-05 -3.4840866e-06 0.000103189006 -0.00043781626 -2.9623086e-05 0.0002622041
-2.2174632e-05 2.5672549e-05 -9.0646445e-06 -1.4982625e-05 -4.2155214e-05 0.00011036021 -1.5255713e-05 -8.348363e-05
0.00017326111 -0.00095816504 -7.609261e-05 0.0004403894 -0.0002917603 0.0012637363 3.4729423e-05 -0.000709285
0.00034009787 -0.0012232241 -8.738417e-05 0.000665329 7.6936485e-05 -0.00054989895 -3.554089e-05 0.00019668379
-3.8984413e-06 -2.998637e-05 2.0298012e-05 -3.1688187e-06 -5.0465707e-05 -0.00027754638 -9.126912e-05 -5.2850533e-05
8.60364e-05 -0.0005916868 -8.611977e-05 0.00019124843 0.00024509552 -0.0012004086 -0.00012715647 0.00053785316
8.663555e-06 -6.015521e-05 -1.6073602e-05 1.6977614e-05 -1.3599565e-07 -1.2984948e-07 1.8612485e-06 -1.1482395e-07
1.48909485e-05 -0.000634689 -8.560582e-05 5.027562e-05 -0.00016892329 -0.0011644122 -0.0003335378 -0.00016959524
-5.7659516e-05 0.00025343115 5.4650125e-05 -0.00022947404 -7.918327e-07 1.71255e-05 -6.2124486e-06 -9.515946e-07
-3.8922106e-05 0.0005396336 9.5012074e-05 -0.00013924818 0.00018043198 -0.0011770596 -0.000170248 0.0004662733
2.6070109e-05 -0.00023941431 -3.5773155e-05 9.039032e-05 -1.6555976e-05 -0.00034665148 -2.2564496e-05 -7.909911e-05
-2.2617343e-05 0.0001678725 -2.737092e-06 -4.932221e-05 -3.380774e-05 6.262474e-05 -3.6351634e-07 -4.914638e-05
5.9809532e-05 -0.0004008465 -4.716887e-05 0.00016175189 9.0545194e-07 4.624826e-06 -4.0718484e-07 -2.9349842e-06
-2.3237478e-06 6.6797675e-08 3.6042518e-06 6.375041e-07 -9.5318705e-05 0.00039127568 6.738642e-08 -0.00021004076
0.00011136091 -0.00047424386 -4.7929916e-05 0.0002445257 9.98041e-05 -0.0005059988 -6.901387e-05 0.00023845813
-3.9136457e-06 0.00015189465 -7.4703967e-06 -5.7860075e-06 1.0796708e-06 5.8993683e-06 -1.0239872e-06 6.623595e-08
-3.7521877e-05 0.00029551797 4.5877827e-05 -9.648889e-05 -0.00019337311 0.0018093395 0.0002787655 -0.00031517612
9.102812e-07 -0.00033460517 -6.9965405e-05 5.8971436e-05 -0.00014460011 0.0010571104 0.00012970014 -0.00038279977
-2.169365e-06 2.67846e-05 3.0474903e-05 1.4985584e-06 1.964326e-05 -0.00011595713 -1.615713e-05 3.2045027e-05
-3.3058182e-06 2.9350106e-06 -6.154417e-06 -4.463252e-06 -6.319094e-05 0.0003727184 1.83575e-05 -0.00016009639
-9.2251146e-05 0.00024974113 -5.950819e-05 -5.1110772e-05 5.250518e-06 -8.4551975e-06 4.42292e-07 -5.0254215e-07
4.448148e-05 -0.00046710475 -3.6634177e-05 0.00026911 -2.3352754e-06 5.197919e-06 1.6358694e-05 1.1085032e-06
6.5187276e-05 -0.0004367684 -7.946846e-05 0.00014555358 -2.089738e-05 0.00021083925 2.2335507e-05 -5.9988684e-05
8.477777e-05 -3.4479446e-05 3.109864e-05 0.00013626726 -3.707842e-05 -8.439784e-05 1.0066515e-05 -1.2152141e-05
-6.514768e-05 0.00037257478 5.5780903e-05 -0.00015916592 4.4077733e-05 7.5142775e-06 6.850912e-05 6.6931614e-05
-2.0035557e-05 -9.210373e-05 1.9119512e-05 -5.8518857e-05 5.259567e-07 -2.3596429e-05 1.4921337e-05 2.0466967e-07
-0.00016951257 0.001143345 0.00014291288 -0.0004037898 3.5287886e-07 -2.8082588e-06 1.8070051e-07 -2.3408889e-08
0.00010615787 -0.0006450037 -0.00010409334 0.00028076794 -0.00015003163 0.0005474347 6.502638e-05 -0.0003022021
7.9826306e-05 -0.0001954137 -4.079474e-05 0.0001487022 0.000102053076 -0.001241249 -0.00014908364 0.0003451252

exp_avg_sq f4 [64, 4]
00000000: 695f d532 d73a eb35 501e 9334 7539 cf33
00000010: 0966 8332 64cf 8633 fa05 b534 fa1b 1b33
00000020: 88c1 5732 fcc8 0e35 f0e4 a133 c38c 8933
00000030: 86c0 3c31 48ec 7936 1d81 5036 7cc0 7631
00000040: 3725 5035 e7da 1838 e05a ab35 0676 9136
00000050: 4ecb c535 4f5a 6638 df1c 7c35 b7bd 2d37
00000060: 1974 0b33 a3c9 1236 696e 6f35 0cd0 7134
00000070: 8c88 1535 f000 2137 4d42 3a34 ac72 5f36
00000080: feb4 0233 2925 4136 928a 4634 aaac 9f34
00000090: 827a c133 5487 3036 9f46 c733 4748 1835
000000a0: 27c6 f434 6bdf 4d37 9c1f 2f35 d96f 1f36
000000b0: 8d68 3337 e62d a639 7993 9035 dc04 a138
000000c0: 70cb 7136 0c80 de38 56be d535 f733 ba37
000000d0: 8060 3c33 1881 8336 dcaf 8a35 0845 8d34
000000e0: d5dc 9731 a1de 1133 55b9 aa33 f006 ca30
000000f0: 1b92 2636 253a 6638 fae7 9834 be60 6e37
00000100: 5d6e 6f34 5d6d 5e37 6fda 6835 d62f af35
00000110: 6aa7 3f35 88dd 8537 44d7 ca34 5e74 7536
00000120: e9b0 aa33 d0be 5137 b742 ea35 e3e8 9935
00000130: ed8b 1c33 9deb 9234 eaf6 4533 d51b 1c34
00000140: a86b b736 c031 2a39 ab10 8336 13d7 1b38
00000150: db20 9237 c497 d439 49a9 3336 a926 b338
00000160: 1780 0235 513e 0238 f3e0 d535 8647 a236
00000170: 73fb 0032 4d27 be33 89b5 ee34 5762 5b31
00000180: 3898 8c34 c3f7 8037 bd39 f634 b65c 0236
00000190: 7a70 ad34 a872 6037 43f3 2c35 89f1 0c36
000001a0: e666 6632 54fc 8435 749b 9e33 83ae cb33
000001b0: a5f3 fe36 65ba 7739 74e2 ff35 3119 1738
000001c0: 0745 9932 9991 7135 7bcb 2f34 c4b1 dc33
000001d0: 5ceb 8b32 eefe 7333 271a 3134 5714 1433
000001e0: 15a5 8333 ba75 f535 9169 0634 fcda a234
000001f0: cb6e 5632 2111 6f32 e6fc ea33 f710 d730
00000200: 239d ce30 7477 a432 ba1b e734 79f9 5f30
00000210: ccef 3d35 6c5f f637 a716 4a35 d82b b636
00000220: 2436 a634 4448 0737 320b 5634 948a ec35
00000230: 7ba3 1734 885c 6b36 31f7 7134 ded6 3035
00000240: 964b 5033 6505 4436 03da 9135 ed56 5f32
00000250: e418 f532 3b9c 6532 9a2d 0334 01a4 2a32
00000260: 033a d732 1c1e 8735 0688 ed33 4708 da33
00000270: bbd5 0a36 4393 8138 01c7 0d36 5a95 eb36
00000280: f54f cf34 289b 9137 ca57 5b35 20c1 c435
00000290: 6ce6 8c34 7f8c 2d37 3cbc bd34 429a ac35
000002a0: e96c 1a32 d89c 6a34 c899 cb35 ac69 c231
000002b0: e3c3 6533 da49 d936 4bf6 8e35 a571 d934
000002c0: 460e 8c31 6921 de2f c780 4c34 e14f 1d31
000002d0: 4faf ef33 2624 8f36 7874 2f34 1193 5135
000002e0: 3031 eb33 837b 1036 9380 5935 ffda 5e33
000002f0: c131 1e33 f278 0e34 c38c f033 e58e 8f32
00000300: 7d32 5536 8b8f b038 fc6e 1c35 189d 0638
00000310: fd1d 4131 6ff9 b532 3424 5234 87a4 8030
00000320: 872b 8833 a1ee e636 0521 e535 3b29 d834
00000330: 12bd b933 7f40 e835 2d3b 0134 9980 9034
00000340: 0247 7c35 c2bc e337 1860 1935 c025 bf36
00000350: ab39 e534 06a8 5737 3aee bc34 df27 3536
00000360: feb3 1a33 9259 8835 dcd1 1d34 e2d0 2c34
00000370: 1e9d 3f35 e222 ea37 6289 2135 512f b136
00000380: 6ef9 dc34 1fd3 1337 b545 a134 5ef7 1536
00000390: 7428 012f fe98 6e33 689d 9433 93fd 862f
000003a0: 25f4 0235 799a 7e37 bae4 0135 21d0 1136
000003b0: 30f0 a92d 588f c131 cbff bf33 921c cf2c
000003c0: a06f 2d34 2416 b736 6d10 8734 05a6 8b35
000003d0: f2b6 6435 68f1 c037 ca66 5334 80b9 b136
000003e0: b75e 9134 7534 3b36 03f3 ea34 0e16 8435
000003f0: 5c2b 1f36 1620 3e38 2fe2 9b35 0e4f 2b37
2.4839851e-08 1.7525989e-06 2.740294e-07 9.64964e-08 1.5296807e-08 6.2775854e-08 3.3718226e-07 3.6114194e-08
1.2558651e-08 5.3191593e-07 7.53879e-08 6.405164e-08 2.7467038e-09 3.7241425e-06 3.106957e-06 3.5907126e-09
7.7540193e-07 3.6443493e-05 1.2766941e-06 4.3350765e-06 1.4736813e-06 5.492038e-05 9.391933e-07 1.0355775e-05
3.246905e-08 2.1873063e-06 8.9195106e-07 2.2520561e-07 5.570553e-07 9.596566e-06 1.734672e-07 3.3296337e-06
3.0432595e-08 2.8780871e-06 1.8490599e-07 2.9741688e-07 9.009547e-08 2.6304815e-06 9.2795055e-08 5.672959e-07
4.5592716e-07 1.2270971e-05 6.523858e-07 2.375795e-06 1.0693574e-05 0.00031696184 1.0771756e-06 7.6779834e-05
3.6030215e-06 0.000106096355 1.5925132e-06 2.2197126e-05 4.3859927e-08 3.9191327e-06 1.0332983e-06 2.6313523e-07
4.419784e-09 3.3962923e-08 7.9499536e-08 1.4699406e-09 2.4820972e-06 5.4890425e-05 2.8480991e-07 1.420843e-05
2.229876e-07 1.3257694e-05 8.67446e-07 1.3052438e-06 7.1396664e-07 1.5957994e-05 3.7782058e-07 3.657558e-06
7.948422e-08 1.2501798e-05 1.7453775e-06 1.1467167e-06 3.6448842e-08 2.736605e-07 4.6092204e-08 1.4538757e-07
5.466358e-06 0.00016230997 3.9060446e-06 3.7155183e-05 1.7419856e-05 0.00040548865 2.6771615e-06 8.542586e-05
4.861517e-07 3.1052452e-05 1.5935206e-06 4.8363027e-06 7.5077535e-09 8.854713e-08 4.446304e-07 3.1924594e-09
2.6187786e-07 1.5374162e-05 4.586308e-07 1.9425474e-06 3.2305599e-07 1.3378136e-05 6.4428986e-07 2.1002218e-06
1.3411158e-08 9.908204e-07 7.385725e-08 9.4846676e-08 7.598154e-06 0.00023625193 1.9064887e-06 3.6024667e-05
1.7842934e-08 8.999137e-07 1.6372171e-07 1.0276884e-07 1.6288759e-08 5.6809704e-08 1.6493924e-07 3.4477434e-08
6.130191e-08 1.8288185e-06 1.2518127e-07 3.0334184e-07 1.2481631e-08 1.3915526e-08 1.0942476e-07 1.5648131e-09
1.5033134e-09 1.9146434e-08 4.3047277e-07 8.148145e-10 7.0756937e-07 2.936992e-05 7.528383e-07 5.4291268e-06
3.0959302e-07 8.063453e-06 1.9934376e-07 1.7623702e-06 1.4122445e-07 3.507159e-06 2.2534802e-07 6.587778e-07
4.849752e-08 2.9209416e-06 1.0866792e-06 1.3000073e-08 2.8533073e-08 1.3365077e-08 1.2216915e-07 9.9325925e-09
2.5055675e-08 1.0067047e-06 1.1060915e-07 1.0152922e-07 2.068801e-06 6.178629e-05 2.1126473e-06 7.0209326e-06
3.861493e-07 1.7357597e-05 8.171161e-07 1.4659345e-06 2.6244686e-07 1.0344315e-05 3.5340952e-07 1.2859894e-06
8.988743e-09 2.1850008e-07 1.5169435e-06 5.6581566e-09 5.3496375e-08 6.4757014e-06 1.0651505e-06 4.0502087e-07
4.076159e-09 4.0405304e-10 1.904583e-07 2.2891913e-09 1.1161193e-07 4.2659403e-06 1.6340516e-07 7.8072577e-07
1.09519874e-07 2.1529565e-06 8.10259e-07 5.188758e-08 3.6832493e-08 1.326878e-07 1.1201475e-07 1.6712372e-08
3.1768861e-06 8.419071e-05 5.827603e-07 3.2094395e-05 2.8102243e-09 2.1184603e-08 1.9570945e-07 9.359987e-10
6.340911e-08 6.882314e-06 1.707144e-06 4.0263134e-07 8.6491255e-08 1.7304118e-06 1.2035589e-07 2.6915657e-07
9.3980645e-07 2.7148406e-05 5.7136776e-07 5.6966383e-06 4.2696533e-07 1.285412e-05 3.5191061e-07 2.699431e-06
3.601962e-08 1.0158858e-06 1.4698111e-07 1.609474e-07 7.138168e-07 2.7911217e-05 6.017709e-07 5.2805194e-06
4.1159677e-07 8.811038e-06 3.0039305e-07 2.2346717e-06 1.1746853e-10 5.555284e-08 6.920419e-08 2.4554633e-10
4.878405e-07 1.5175546e-05 4.8389086e-07 2.172783e-06 1.931974e-11 5.6333356e-09 8.940659e-08 5.886466e-12
1.615249e-07 5.4564025e-06 2.515766e-07 1.0404625e-06 8.520284e-07 2.3000597e-05 1.9688301e-07 5.296606e-06
2.707727e-07 2.7895705e-06 4.376271e-07 9.841185e-07 2.3718085e-06 4.5329412e-05 1.1614228e-06 1.0210801e-05

exp_avg f4 [64]
00000000: 2935 2039 8a83 e8b7 c2d2 1039 02c4 3637
00000010: 861b a23a 323d 73b8 efac 1038 d3cd 2eb9
00000020: c1c2 0e39 2471 73b7 56ad 0eba 5d01 fe39
00000030: f7b1 63ba 5117 abb9 cdb0 16b7 8489 15ba
00000040: d291 23ba 68d9 65ba e7d7 e136 96ee 9eb4
00000050: 30b8 81ba 9d4c f3ba 47f1 c1b6 addc 0bb6
00000060: 233e f439 a875 88ba a085 2fb9 0a13 28ba
00000070: 3a8a 1c39 997b ed37 d7c9 b9b9 9fb1 52b6
00000080: cc1d 0bb6 e282 8139 b4e7 c1b9 7d52 9eb9
00000090: e3d3 0539 9bc0 0736 7020 9039 0198 093b
000000a0: 4c21 04ba a133 6a3a 75d2 4f35 b022 12b9
000000b0: b6db 41b7 e034 8239 0682 bf39 0e35 9737
000000c0: 3c25 4bb9 e5be dab5 ec2b 07ba d694 7239
000000d0: da45 b638 4181 06b8 4a34 a039 9d4c 0b39
000000e0: 59e6 48b9 b040 9d35 3f64 903a be8e 9334
000000f0: dc3a 08ba 0948 d539 98a6 a4b8 b715 beba
0.00015278593 -2.7717808e-05 0.00013811424 1.0893682e-05 0.0012367822 -5.7992707e-05 3.4493332e-05 -0.00016670609
0.00013614727 -1.4510271e-05 -0.0005442699 0.0004844767 -0.00086858816 -0.00032633034 -8.981861e-06 -0.00057043904
-0.00062396855 -0.0008768053 6.730657e-06 -2.9603387e-07 -0.0009896811 -0.0018562261 -5.7799366e-06 -2.0841064e-06
0.00046585602 -0.0010411041 -0.0001673908 -0.00064115284 0.00014928813 2.8310156e-05 -0.00035436332 -3.1395828e-06
-2.0729958e-06 0.00024702313 -0.0003698446 -0.00030197567 0.00012762802 2.0228679e-06 0.00027489988 0.0020995142
-0.0005040362 0.0008934085 7.7419764e-07 -0.00013936567 -1.1554852e-05 0.00024834927 0.00036527234 1.8025308e-05
-0.0001937346 -1.6297823e-06 -0.0005156386 0.00023134364 8.691447e-05 -3.2068467e-05 0.00030556537 0.00013284614
-0.00019159298 1.1716238e-06 0.0011016204 2.7484742e-07 -0.0005196759 0.00040680196 -7.85116e-05 -0.0014502321

exp_avg_sq f4 [64]
00000000: c126 f535 ec98 7d32 c4b7 9b34 b8b2 2433
00000010: 14be e037 abbb 1a37 740c eb34 f1d6 c535
00000020: 5bde 5c35 29e4 8c35 b0e3 e036 a248 1938
00000030: 281d ba37 6e46 9a35 0d6b e032 d83d 5137
00000040: e7e2 3c37 c9bc 0437 4c72 8136 17ed 9933
00000050: 0a17 c638 56f2 0b39 f9da c937 788f 9a33
00000060: 77ae ca36 bf46 1d37 10b1 cc34 c4c4 a838
00000070: 9f28 aa34 3c36 4632 b574 b535 d6bc 5733
00000080: 9f0a 2632 af2d c636 0001 1036 baaa 2236
00000090: 5654 9435 3cef 2934 d8b4 8635 8587 8538
000000a0: 13d4 9837 238c 1637 ebc6 8b33 09df d936
000000b0: 5e2d cd32 cc48 8135 a582 9d36 8c9a 9734
000000c0: 38d2 8437 6304 9532 766c f436 649f 9735
000000d0: a7d0 e036 eae1 1536 8461 5935 7b56 ce36
000000e0: d83f e935 7c12 a430 826a 6c37 b391 162f
000000f0: ebbe 1f36 f55b 9736 3afb 8635 e961 e937
1.8265201e-06 1.4761309e-08 2.9004707e-07 3.834677e-08 2.6791393e-05 9.22281e-06 4.3781222e-07 1.47402e-06
8.2279956e-07 1.0497216e-06 6.7022265e-06 3.6545687e-05 2.2186505e-05 1.1494392e-06 2.6125713e-08 1.247177e-05
1.1258503e-05 7.911768e-06 3.8578055e-06 7.167744e-08 9.445667e-05 0.0001334635 2.4063034e-05 7.1972806e-08
6.0403795e-06 9.374401e-06 3.812679e-07 8.047515e-05 3.1694523e-07 1.1537448e-08 1.3519517e-06 5.0230334e-08
9.664887e-09 5.906178e-06 2.1458254e-06 2.4239257e-06 1.1051404e-06 1.5826384e-07 1.003641e-06 6.367177e-05
1.8218567e-05 8.973325e-06 6.508875e-08 6.4930687e-06 2.3885772e-08 9.632436e-07 4.6941736e-06 2.823839e-07
1.5833517e-05 1.7347878e-08 7.284393e-06 1.1296765e-06 6.7000105e-06 2.233423e-06 8.0980703e-07 6.149346e-06
1.7378434e-06 1.1937824e-09 1.4091494e-05 1.3694183e-10 2.3803975e-06 4.510856e-06 1.0056895e-06 2.7821357e-05

exp_avg f4 [32, 64]
00000000: 4cc7 7637 5cd7 16b3 8b09 0cb9 e536 31b6
00000010: 8c16 65b8 2e8e 16b8 7521 48b9 e1fc 1cb7
00000020: 13bc edb8 cab5 cfb8 630c 41b9 3c94 a8b7
00000030: 6aa4 81b8 d228 68b9 2359 beb5 a8e0 bcb8
00000040: 9ccf 6537 fc82 7ab8 a9ca a737 0f5a c733
00000050: 171a 24b7 2bb9 55b8 58e7 f537 456a 68b7
00000060: 38d2 91b8 65e3 eab8 b4c1 a0b7 b20a 20b8
00000070: c47b 67b8 9ffd aab2 4928 5fb8 7b8b 6eb4
00000080: f8ff 09b6 c2f4 bdb7 9bb2 22b9 c50c 59b9
00000090: d52d 8eb7 c434 12b3 7479 8437 3c65 9736
000000a0: a95a d837 72c0 c9b8 6d81 11b6 915f e437
000000b0: 759b 8234 03b7 b7b8 6cf5 d335 17b0 f6b6
000000c0: bfbe 53b7 126c 07b7 ab1b 0237 d2e0 8fb8
000000d0: f84b 10b9 db9b 1fb9 512d 21b8 cfd3 6f36
000000e0: 61ff 79b8 e6a6 99b5 e3a5 1ab6 8777 04b6
000000f0: 966b 56b8 a935 54b8 484f 20b9 0ed4 a9b8
00000100: 96c4 1ab5 0000 0000 d012 8bb6 ab7c 32b6
00000110: 0000 0000 9f25 d4b7 8387 d1b7 0000 0000
00000120: c754 2cb6 08e2 3135 72e8 a8b7 d93d 0cb7
00000130: 2845 ccb7 5bcd f8b7 5ed4 a6b5 1c88 1db8
00000140: 3eef 45b6 d347 e2b6 68bd 5bb6 d2c1 1535
00000150: fb96 1035 3d8a 1bb8 aba3 7eb5 8ea7 2b31
00000160: 5129 84b7 f556 40b7 c6f6 3bb7 e454 0cb8
00000170: bf33 65b7 eb56 0a33 0a69 dcb6 7f7a 1736
00000180: 1a61 a034 5511 49b6 6409 30b8 050a 81b7
00000190: 68a6 92b7 ca94 2636 7030 d4b5 389a f830
000001a0: c91c 7f35 b31a 6db7 0400 0000 77d7 34b6
000001b0: 3763 8734 f860 8ab7 d7c5 c4b3 0279 47b7
000001c0: 84ee c935 ecf1 4735 14cb 4db7 eddb b1b5
000001d0: ee9c 23b8 8e67 4fb5 3618 f131 5e6b 1db7
000001e0: 4e5a 89b7 2a6c ffb4 2c35 47b5 0000 0000
000001f0: d687 cdb7 3246 6ab7 c671 0bb8 cb91 1bb7
00000200: 6652 8737 c895 23b7 b4e7 b9b8 0d22 5236
00000210: 843a 31b8 8c2b d7b6 7be1 04b9 1bfe 91b7
00000220: 50af 88b8 da79 8fb8 d573 d7b8 ef2e 16b6
00000230: 2ff8 cab6 8274 f4b8 ceda 9a36 8ddc b8b7
00000240: 6db5 ef37 693d ccb7 4d44 d937 aa7a e234
00000250: e719 5c36 3400 8437 a68a d937 9a24 84b5
00000260: 0189 44b8 93b7 0ab8 49c5 9736 35a5 e037
00000270: 7e22 e9b6 7c09 20b7 dc1d cf36 a632 a135
00000280: 37a2 a635 0b13 b536 dc30 2ab8 405e f2b8
00000290: d08f 8737 db73 e435 8960 9537 af45 4eb7
000002a0: baca ae37 877a 92b8 6103 1535 4d48 e237
000002b0: 9c1d 9634 1cc8 16b8 947c 8636 4780 7c37
000002c0: e757 28b5 cfef df35 19cb f137 9583 d7b7
000002d0: d05b 5fb8 5730 feb8 ba25 72b8 45d8 ccb6
000002e0: f263 20b8 f2cd 9236 c1cc 4937 dec2 6db5
000002f0: 5d19 7937 a11c 07b8 1da6 dfb7 a165 99b8
00000300: 9f09 59b8 fd6b 1134 b6da 5fb9 aa83 e6b5
00000310: bfc4 e8b6 7ff5 2cb9 f29a 94b9 01c7 fd36
00000320: 63f9 2fb9 f5f4 6fb8 a122 09b8 1e29 b9b6
00000330: bcf7 6db8 cd7c 50b9 3380 d2b5 a371 64b7
00000340: d5e2 0ab9 74be 3db8 a4aa 03b9 70e7 adb4
00000350: 5a12 f0b7 5e40 e9b7 edde cdb8 63f1 90b6
00000360: 2970 20b9 53e9 e2b8 f950 d8b7 58d7 f0b7
00000370: 0d6b eeb8 1518 bbb3 ea93 89b9 c470 d2b4
00000380: a660 c5b3 110a 27b9 2641 9db9 c4b5 02b9
00000390: bbf7 aab7 7fd4 5f35 c5f9 86b8 5054 9bb6
000003a0: b4d2 79b8 2ba3 a0b8 5c4a 9ab5 d361 d1b8
000003b0: a713 bd34 2c78 8db8 ebf2 85b6 cf5a fdb6
000003c0: cb8e 8436 fd49 78b6 f5d5 bcb8 a741 c9b8
000003d0: 6fb8 26b9 bc2d 2ab6 7247 24b8 e68a 1ab9
000003e0: d51a 8a36 0511 cdb5 d783 86b8 c06b 7036
000003f0: 83c2 3fb9 b222 b3b8 0eb2 8fb9 b6d3 8e37
1.4709145e-05 -3.5120465e-08 -0.00013354995 -2.6407008e-06 -5.4618853e-05 -3.5895202e-05 -0.0001908595 -9.3572025e-06
-0.00011336072 -9.90439e-05 -0.00018410529 -2.0096188e-05 -6.181824e-05 -0.00022140451 -1.4182045e-06 -9.006384e-05
1.36978015e-05 -5.9726633e-05 2.0002322e-05 9.283041e-08 -9.781236e-06 -5.095561e-05 2.9314004e-05 -1.385302e-05
-6.953295e-05 -0.00011200345 -1.9163686e-05 -3.8156933e-05 -5.5189957e-05 -1.9905938e-08 -5.320486e-05 -2.221622e-07
-2.0563584e-06 -2.264453e-05 -0.0001551606 -0.0002069949 -1.6949061e-05 -3.4041264e-08 1.5792182e-05 4.511936e-06
2.5791423e-05 -9.6202726e-05 -2.168202e-06 2.722422e-05 2.4327497e-07 -8.7602086e-05 1.5792152e-06 -7.351871e-06
-1.2620992e-05 -8.071789e-06 7.755046e-06 -6.8606474e-05 -0.0001376121 -0.00015221482 -3.8427595e-05 3.5737064e-06
-5.9604066e-05 -1.1447962e-06 -2.3044347e-06 -1.9739107e-06 -5.1121773e-05 -5.0594714e-05 -0.00015288324 -8.098046e-05
-5.765554e-07 0.0 -4.144713e-06 -2.6596633e-06 0.0 -2.5289888e-05 -2.4977844e-05 0.0
-2.5679344e-06 6.6266557e-07 -2.0135401e-05 -8.35905e-06 -2.4350898e-05 -2.965953e-05 -1.2429771e-06 -3.755848e-05
-2.9494545e-06 -6.7436863e-06 -3.2743792e-06 5.578887e-07 5.3863886e-07 -3.7083624e-05 -9.486054e-07 2.4979019e-09
-1.5754866e-05 -1.1464338e-05 -1.1203525e-05 -3.345766e-05 -1.3661512e-05 3.220968e-08 -6.568739e-06 2.2572056e-06
2.9872973e-07 -2.9961423e-06 -4.1970416e-05 -1.5382664e-05 -1.7482045e-05 2.4822534e-06 -1.5809328e-06 1.8088206e-09
9.503679e-07 -1.4132517e-05 6e-45 -2.6947507e-06 2.5217898e-07 -1.6496037e-05 -9.162948e-08 -1.1889499e-05
1.5045084e-06 7.448532e-07 -1.2266235e-05 -1.3251534e-06 -3.900838e-05 -7.72642e-07 7.0167756e-09 -9.382928e-06
-1.6373724e-05 -4.757615e-07 -7.421065e-07 0.0 -2.4501158e-05 -1.39638305e-05 -3.3246142e-05 -9.272665e-06
1.6131624e-05 -9.750431e-06 -8.8646455e-05 3.1312259e-06 -4.2254585e-05 -6.412569e-06 -0.00012672499 -1.7403674e-05
-6.51764e-05 -6.841468e-05 -0.00010273574 -2.237906e-06 -6.0489615e-06 -0.00011656528 4.61503e-06 -2.2037211e-05
2.8575503e-05 -2.4347291e-05 2.590022e-05 4.218503e-07 3.2797632e-06 1.573572e-05 2.5932979e-05 -9.845419e-07
-4.6857636e-05 -3.307273e-05 4.5231177e-06 2.6779811e-05 -6.9479565e-06 -9.538951e-06 6.172557e-06 1.2010175e-06
1.2415175e-06 5.3964372e-06 -4.0576662e-05 -0.00011557015 1.6160222e-05 1.7021042e-06 1.7807137e-05 -1.2294781e-05
2.0836818e-05 -6.984645e-05 5.551174e-07 2.6974967e-05 2.796122e-07 -3.5949153e-05 4.008014e-06 1.5050237e-05
-6.271279e-07 1.6684588e-06 2.8824013e-05 -2.569127e-05 -5.325285e-05 -0.00012120668 -5.773243e-05 -6.104851e-06
-3.8240054e-05 4.3751143e-06 1.2028207e-05 -8.857295e-07 1.4847462e-05 -3.221317e-05 -2.6661024e-05 -7.3145384e-05
-5.1745792e-05 1.3543463e-07 -0.00021348413 -1.7174655e-06 -6.937043e-06 -0.00016494653 -0.00028344203 7.5631547e-06
-0.00016782204 -5.7210174e-05 -3.2695596e-05 -5.5182163e-06 -5.6735924e-05 -0.00019882918 -1.568353e-06 -1.3616317e-05
-0.00013245207 -4.5238485e-05 -0.00012556702 -3.2392154e-07 -2.8618775e-05 -2.7805738e-05 -9.816685e-05 -4.3196355e-06
-0.00015300572 -0.0001081998 -2.5786912e-05 -2.8710507e-05 -0.00011368664 -8.7122466e-08 -0.0002624088 -3.9197596e-07
-9.1911076e-08 -0.00015930111 -0.00029993913 -0.00012465479 -2.0380938e-05 8.3383196e-07 -6.436141e-05 -4.6291752e-06
-5.956246e-05 -7.659787e-05 -1.1495536e-06 -9.984118e-05 3.5218292e-07 -6.745788e-05 -3.9919883e-06 -7.550559e-06
3.95053e-06 -3.6997947e-06 -9.004391e-05 -9.5966556e-05 -0.000158997 -2.5358595e-06 -3.9167186e-05 -0.00014738328
4.115844e-06 -1.5278644e-06 -6.414175e-05 3.5825506e-06 -0.0001828764 -8.541848e-05 -0.00027407747 1.7026305e-05
