toy_al/mini_exp/1000-200000-200-001-no/ckpt_phase1.pt (torch, 47981 bytes, 30 tensors)

fc1.weight f4 [64, 4]
00000000: 050a 5e3e 80f9 a03e e255 d43d 3f51 a13e
00000010: 3728 64bf 1ea0 803d 35c5 883e da36 e9be
00000020: bfa7 7b3f a13b 08bf 1230 e0be 8a93 7bbf
00000030: 5992 0d3d 9dfa 57be f217 a23e a6be 03bf
00000040: 277b d0bd 6fa2 0a3e 1ab4 9e3c 484e 543e
00000050: 6158 423e 8b82 efbe 3f30 a3bd 4a4c 9b3f
00000060: 1c9d 89be 14cc 863e eb9d a437 b2f2 b5be
00000070: da36 ff3d de9e d43e daa4 c1bd 4a1e 3c3e
00000080: 2aab eb3e 76c8 af3e 54ba 423b 0141 75bf
00000090: ee68 da3e 5c8a d1bd f1b1 dfbe d432 a83e
000000a0: 4fa5 cd3e 44a6 d7be 765f 773e 5423 b5be
000000b0: 0cd1 a7bf 06f8 41be ea87 903d dc70 91be
000000c0: 614e 5dbf 35e5 283e 9b1d 7aba 9d5e 27be
000000d0: ac13 d83e 84ec 3e3e adc0 e3be f9ae ad3f
000000e0: ae43 1cbe ec1a 2fbd a62d 313d 451b a53f
000000f0: f70c 343f 966a c13e b9e9 a83a 63ec e9be
00000100: 5a3e 823f f637 3ebe 3da2 b3be 86f9 aa3f
00000110: 8228 a5bd 8dd8 4c3c 8413 06bf 200f 0a3f
00000120: 0a6f 5abe 2473 8a3e c08a 233e d353 323f
00000130: 0322 02bf cc9c 273e d869 c2be dac9 a4bd
00000140: e77e c5bf b6e9 2c3e e057 92be 2aa7 483e
00000150: f409 87be c343 ac3e 214d bc3d 4467 f1be
00000160: 52a9 95bd 964b debe c10a cdbe 9cdf 96be
00000170: da60 323f 37dc 99be 2406 80be 0d35 09be
00000180: bbbe b83e 5faf a3be 2ded d0be f3c9 b23f
00000190: 3620 2fbf e410 cebc dfb5 d5be 2841 3abe
000001a0: eb63 93bf 32b1 3fbf 5023 043e e8e1 15bf
000001b0: e89a 0fbe 0f72 72bd 3eb0 4fbe b2c5 c3be
000001c0: 57ea 473f 6648 78be 4fee 793e e646 af3c
000001d0: 659d 933f b779 f63d 1d77 803c 8670 f13f
000001e0: b066 073f e0aa 0f3e 84c4 f4be 8ee3 9d3f
000001f0: 544d 47be 5630 fa3e ca19 95be f46a f23e
00000200: 71a8 83bf 0258 8439 1783 d33e f234 e43d
00000210: 53a5 a5bf c275 c13e 0d6e b73e 2803 69be
00000220: 9f46 bc3d 8610 94bc 78d2 8cbe 3b41 493f
00000230: 89e5 0f3e 2359 193e 3c44 613d 22d6 9abe
00000240: e3da 46bf 1c83 a6bd b174 60be 454e 44bf
00000250: e650 aabf 7d1f d2be 46a7 8c3e 4eeb febe
00000260: 9c1a d1be e4c2 bf3e 6fe8 4c3e 2dbf 18bf
00000270: df0e e6be 3252 1c3e 5c42 e23e 7390 1d3f
00000280: 0af7 7d3e a286 7c3c d8aa b63e ba8f 4e3f
00000290: 6064 763f eedf c63d 9367 613e a643 d53d
000002a0: c082 243f 3697 98be 4be1 c93b 8e81 18be
000002b0: d9c7 fd3e c28d 083f 1d8a 1cbf c584 d83e
000002c0: 7e47 213f 8b90 273f ef40 1cbe 5e2d 7d3e
000002d0: a03d 193d 26ae dbbe 8c7d f63e 5954 0abf
000002e0: c9a2 323f 7a9b 8a3e 4107 433e f324 b3be
000002f0: 238c dd3f e2ee 06be d9be 68be 687b 61be
00000300: c29f 1fbf 3c68 6e3c 29d9 9a3e 69f3 ecbd
00000310: ee4b 81be dcfe e53e fd9b 0cbf 6fd3 943e
00000320: 1a91 5abf 397b 78bd 5295 57be 9649 c33c
00000330: 3d7a a0bf 824d 0abf 1b68 dd3e 3e5d aa3e
00000340: 7024 01bf 44f8 2e3e fc81 02bf aaab e53d
00000350: d637 a53e ba45 75be e383 dbbe d996 f63c
00000360: 8c1e 1fbf af9e 083f 9b25 15be 830b 33bd
00000370: 3950 823e a1b4 c63e 0d68 d3bb ce2d 093e
00000380: d1c8 453e ce13 0d3e b494 c5be 2bb2 cfbe
00000390: 20d9 f1be 5a47 f03d 9bf8 bc3c 7ccd cd3e
000003a0: cf0f 81bb a950 e33e 9c34 0a3f 385a 9c3e
000003b0: 2b44 1cbf e281 d1be 7aa8 63be 0111 b93e
000003c0: 3273 5cbf 1322 c4be d3a6 8ebd f4a2 0ebf
000003d0: 2369 e63e 5e04 973e c604 7c3c 45ca b9be
000003e0: b3a7 ba3f 0f1b 9ebe 1d8f 863e 3606 ecbe
000003f0: 4c31 2b3f 103b e53e be33 1bbf 4a06 b03e
0.2168351 0.31440353 0.10367943 0.31507298 -0.89123863 0.0628054 0.26712957 -0.4554966
0.98302835 -0.53215986 -0.43786675 -0.98272 0.034563396 -0.21091695 0.31658894 -0.5146278
-0.101797394 0.13538526 0.019372988 0.20732987 0.18979026 -0.46779284 -0.079681866 1.2132657
-0.26877677 0.26327574 1.962386e-05 -0.35536724 0.12461634 0.41527456 -0.09455271 0.1837093
0.46029025 0.34332627 0.002971311 -0.95802313 0.4265818 -0.10231468 -0.43690446 0.3285128
0.40165183 -0.42119038 0.24157509 -0.35378516 -1.3110671 -0.1894227 0.070571736 -0.28406417
-0.8644772 0.16493686 -0.0009541155 -0.16344686 0.42202508 0.18644911 -0.44482937 1.3569022
-0.15260193 -0.042750284 0.043256424 1.2898947 0.7033228 0.3777663 0.0012887038 -0.4568816
1.0175278 -0.18576035 -0.35084715 1.3357399 -0.08064367 0.012502802 -0.5237353 0.5392933
-0.2133142 0.2704097 0.15970898 0.69659156 -0.5083315 0.16368407 -0.37971377 -0.08046313
-1.5429353 0.16886029 -0.28582668 0.19595018 -0.2637478 0.33645448 0.09194399 -0.47149098
-0.07307686 -0.43417042 -0.40047267 -0.29467475 0.69679034 -0.30050823 -0.25004685 -0.13399144
0.36083016 -0.31969735 -0.4080595 1.396788 -0.68408525 -0.025154538 -0.4174032 -0.18188918
-1.1514868 -0.74879754 0.12904096 -0.5854783 -0.14023936 -0.059190806 -0.20282075 -0.38236767
0.7809195 -0.24246368 0.24407314 0.021396112 1.1532408 0.12034934 0.015681798 1.8862464
0.52891064 0.14030027 -0.4780618 1.2335069 -0.19463092 0.48865002 -0.29121238 0.47347224
-1.0285779 0.00025242573 0.4131095 0.11142911 -1.2941078 0.37785155 0.3582615 -0.2275511
0.091931574 -0.018074285 -0.27504325 0.7861516 0.14052404 0.14975409 0.054996714 -0.30241495
-0.77677745 -0.08130476 -0.21919514 -0.7668193 -1.3305938 -0.4103965 0.2747137 -0.49788898
-0.40840614 0.37453377 0.20010541 -0.5966671 -0.4493322 0.1526573 0.44191253 0.61548537
0.24801269 0.015412958 0.35677218 0.8068806 0.9624691 0.0971068 0.22012167 0.104132935
0.6426201 -0.29802865 0.00616089 -0.14893171 0.49566534 0.53341305 -0.61148244 0.42288795
0.62999713 0.6545493 -0.15259145 0.24724337 0.037412286 -0.42906302 0.4814266 -0.54034954
0.6977964 0.27071744 0.19045736 -0.34989128 1.7308391 -0.13177064 -0.22729053 -0.22019732
-0.62353146 0.014551219 0.30243805 -0.11569864 -0.25253242 0.44921005 -0.5492552 0.2906756
-0.8537766 -0.06066439 -0.21053055 0.0238388 -1.2537304 -0.5402452 0.4324349 0.33274263
-0.50446224 0.17086893 -0.5097959 0.11214383 0.32269162 -0.2395238 -0.4287406 0.030101227
-0.62155986 0.5336713 -0.14565127 -0.04371215 0.2545183 0.38809684 -0.006451613 0.1339638
0.19314887 0.13777086 -0.38590014 -0.4056562 -0.47235966 0.11732359 0.023067763 0.40195835
-0.003938652 0.44397476 0.53986526 0.3053758 -0.61041516 -0.40919405 -0.22232237 0.36145785
-0.86113274 -0.38307247 -0.06965413 -0.55717397 0.45002088 0.2949552 0.015381997 -0.36287132
1.4582428 -0.3088002 0.26281062 -0.4609849 0.66872096 0.44771624 -0.6062583 0.34379798

fc1.bias f4 [64]
00000000: 2c9f 223f 576b 493e aff6 d83e 5436 e33c
00000010: da2f 3a3f fbc3 9bbe c9d3 123f 4d71 00be
00000020: 29e1 063e 3144 44be 1d66 0c3f fc65 96bf
00000030: 666c 2b3f 4c51 70bf 5b52 f2bc f774 313e
00000040: 5a3c 60be 33ea 473e 70f9 73bf 607e a3bd
00000050: 8601 48be 228b 3ebf f63d 943e 10b3 1c3f
00000060: a5ea 883e 666f 1b3f e643 a7bf 4c3f 7bbe
00000070: 2ff5 323f b5e1 53bc a2f3 62be e657 2a3f
00000080: 6a6a 38bf 9f7d e0be c5fc 13bf 2a42 863e
00000090: 1882 5dbf e730 b7bf c081 d1be 22c4 9e3e
000000a0: 0e90 9e3d 1ee7 0a3e 9882 7b3f ea1c 9cbd
000000b0: cb41 9dbd be34 333e 8736 443e b3a7 db3e
000000c0: 04ab 103f 7f38 c8be 580a 483f 638b 153f
000000d0: 0c36 fd3e 6606 3c3f 8203 033f e599 b73e
000000e0: 3c67 183f 1a23 663d 05c5 3abe 1458 dc3d
000000f0: 1e32 db3e c390 a23d 19e5 923e b0eb 883e
0.63524127 0.19669853 0.42375705 0.027735867 0.72729266 -0.3042296 0.5735441 -0.12543221
0.1317183 -0.19166638 0.5484331 -1.1749873 0.6696228 -0.9387405 -0.029580286 0.17329775
-0.21898022 0.19522934 -0.95302486 -0.079830885 -0.19531831 -0.7443105 0.28953522 0.6121073
0.2674152 0.60716856 -1.3067596 -0.24535865 0.6990537 -0.012932231 -0.22163251 0.6654037
-0.72037375 -0.4384584 -0.5780757 0.26222354 -0.8652663 -1.4311799 -0.40919304 0.31009012
0.0774232 0.13564727 0.98246145 -0.076227024 -0.07678565 0.17500588 0.19161426 0.42901382
0.5651095 -0.39105603 0.78140783 0.5841581 0.49455297 0.73447263 0.5117723 0.358596
0.59532523 0.05618582 -0.1823922 0.10758987 0.42811674 0.07937767 0.28690413 0.26742315

fc2.weight f4 [32, 64]
00000000: 4431 8abb dbe5 bd3d 5aab 833f 7dee 213d
00000010: f728 d2bd 9bd2 a0be eda2 e33d 76ea b7be
00000020: ea32 0fbd 2695 57be be79 a93d f771 7a3c
00000030: 3d4e 503e 591d 8dbc fbb3 dc3d 6f8d e5bd
00000040: af0e 39bf 46e2 6c3e 82f1 873c dfe7 05be
00000050: 89ef 29bc 4b89 69bc e394 3d3e c205 0f3d
00000060: 043b 49be a941 963d b0bc bd3c 3b4d 023d
00000070: 2aee f93d 25cd f1be 1de6 f8be ce7d 30be
00000080: 8cad efbd a2d7 71bd e8e1 96bd 941f b13b
00000090: 4863 47bd 6022 febd 1835 c63c 7ead 0fbd
000000a0: fefc 7abd b1b1 e73c 5eb7 2e3f eeb4 14bf
000000b0: f4aa 9abe 6a56 0cbd 1f76 36bd 3f59 2d3e
000000c0: 6dd3 a7bd 8397 c7be 8774 643e 4be6 983c
000000d0: 5392 0dbd 93a7 9e3e e678 09be 0485 f4bd
000000e0: 5662 083e 5423 adbd 8726 a8bd a4b9 8b3f
000000f0: d31b c53e 89ec a1be 142c 833d d38c 8dbe
00000100: cc45 293d 802d 11bb 4b5b 803d 3213 99bd
00000110: eeea cebd dc4b c1bd a7a3 5f3d 6a7f 053c
00000120: ac7e 4abc ada7 a3bc 93b6 0d3d eaf8 9dbd
00000130: 4097 103b 1356 743d b05b 2dbd 41f4 c8bd
00000140: 7cc5 e63c 5466 d33c a048 953d 21cd 603d
00000150: e84e bf3d 45fd 24bd d180 92bc 42c2 9fbd
00000160: 430b e6bd 689c f9bc 7e48 b0bd 2062 883c
00000170: fd60 dd3d 82c0 babd 1854 d53c 1502 66bc
00000180: 88c3 6abd 980b f73c dbe9 5d3d 5e33 d53d
00000190: 76cb a03c 5267 97bd 9bfe ffbb d82a 353c
000001a0: 1810 943d 8e06 d0bd e24b 1a3d 6d36 aebc
000001b0: 32b2 ac3d 00c2 7bbd 5e2c d1bb 35d6 0d3d
000001c0: 4d5c 4dbd 1525 f5bd b2ef 6bbc 8771 51bd
000001d0: f189 0abd 359b b53d 1664 f9bd 1120 e9bc
000001e0: e0b7 6cbd 1ab2 64bd d623 9bbd f873 b63d
000001f0: 8acf e33d fb72 94bc 6235 f4bd 3b25 98bb
00000200: feb5 ee3d 51dc 333d dcf0 90be 83bf e8bb
00000210: 9ab9 8dbc 3678 293f ea6b b5bd 5ce8 8b3e
00000220: 2029 143e 8fdf 023e 5692 fcbb d435 22bd
00000230: 9d6b 86be 1400 5f3d 9374 0d3e e5b4 553e
00000240: f5fd 10be 70c4 7abd 0e74 283d a7d0 c6be
00000250: c10c e5be f52f f9bd 44e0 4c3d 7d47 3a3d
00000260: b772 a0be 1be1 f1be 6bab 033d b03f eabc
00000270: 6e03 843d 7383 b03e 4420 9f3a 1405 cc3d
00000280: 0800 e5bd a729 c8bb 11b5 d3bd 04be e4bd
00000290: 7333 8b3d 7e33 bcbc 52cd 523d 0cfd a43d
000002a0: d001 423d 9e2f a53d 947a 173f f50c 9a3d
000002b0: fb1d 8f3e 35e4 b73d c990 6c3d 7a6e e13d
000002c0: 3035 7b3b 1cf1 963d 5151 f7be b1b0 fb3c
000002d0: 32e2 34be 7ef7 59be 7de6 343e f6a3 d33c
000002e0: 47c6 f3bd 3d0c d53d 7cac 113c 9877 84bd
000002f0: 1ef6 19be 33f6 96bd 95aa bcbc 3e3a d8bc
00000300: fdd8 a1bc c546 0e3e 9c62 2dbe 7847 d9bd
00000310: 8ec6 183d 19dd e3bd 9d0b 593d a237 a4bd
00000320: 8886 f1bd 7622 583d 85c5 9cbd 5733 bfbd
00000330: c803 003e fa16 6dbd 10e6 14bd 1053 003e
00000340: 25dc 4d3e 9571 e6bd 600a fdbd 7710 363d
00000350: b8db b9bd 2d88 003e f214 fc3d 9475 4dbe
00000360: 9db9 4d3e 6497 d7bd a032 25be 76b9 edbd
00000370: 59f4 35bc 5bb5 543e 7db3 d1bd 6617 e23d
00000380: 4840 e93b 054d d03d 2d68 74bd ee58 513d
00000390: 61fa 3bbe eb58 edbd dc57 943d 4327 6dbc
000003a0: 3583 8a3c 51d8 5c3d 6965 94be 2e8f 193e
000003b0: 2aac 7e3d 8cb2 61bc 1d2c eeba 0db2 913b
000003c0: 1f4e 7c3d a623 4cbc 627f 133e c866 f43c
000003d0: a77e 2e3e 15ca fbbd 6ca8 383e 3234 423e
000003e0: 901e 323e fd91 0d3d eda1 ed3d 9217 03bd
000003f0: b783 d0be f20f 483e b1e2 97bd f6eb 393e
-0.0042172987 0.09272357 1.0286667 0.03953408 -0.1026172 -0.3141068 0.1111506 -0.35921067
-0.034960665 -0.2105299 0.082751736 0.01528596 0.20342346 -0.017225908 0.10776516 -0.11208617
-0.7228803 0.23133191 0.016594652 -0.13076733 -0.010372051 -0.014253925 0.18513827 0.0349176
-0.19651419 0.073367424 0.023161262 0.031811934 0.12203629 -0.47226825 -0.48613063 -0.1723549
-0.11703023 -0.059043534 -0.07367307 0.0054053757 -0.048678666 -0.124089 0.024195239 -0.035077564
-0.06127643 0.028282972 0.68248546 -0.58088577 -0.30208552 -0.0342621 -0.044546243 0.16928576
-0.08194623 -0.38982782 0.22310077 0.0186645 -0.034563374 0.30987224 -0.13425025 -0.11939433
0.13318762 -0.08454004 -0.082104735 1.0916028 0.3849779 -0.31625775 0.064048916 -0.27646503
0.04132633 -0.0022152364 0.06267413 -0.07474364 -0.10103403 -0.09438297 0.05459943 0.008148054
-0.0123593025 -0.019977415 0.034597944 -0.07713492 0.0022062808 0.0596524 -0.04232377 -0.09812213
0.02817034 0.02580563 0.07289243 0.054883126 0.09341222 -0.0402806 -0.01788369 -0.078007236
-0.11232617 -0.030470088 -0.08607577 0.016648352 0.10809515 -0.09118749 0.026041076 -0.014038582
-0.05731538 0.030156896 0.0541781 0.10410188 0.019628268 -0.07392754 -0.0078123338 0.011057578
0.07229632 -0.101575 0.037670024 -0.021266187 0.084324256 -0.06146431 -0.006383463 0.034628112
-0.050136853 -0.119699635 -0.01440041 -0.05113366 -0.033822957 0.08867494 -0.12177293 -0.028457673
-0.057792544 -0.055833913 -0.075751945 0.08908838 0.11123569 -0.018121233 -0.119242445 -0.00464311
0.11655806 0.043911282 -0.2830876 -0.007102908 -0.017300416 0.6619905 -0.088584736 0.27325714
0.14468813 0.12780593 -0.0077078743 -0.039602116 -0.26253977 0.054443434 0.13814001 0.20869787
-0.14159377 -0.061222494 0.041126303 -0.38831064 -0.44736293 -0.1216735 0.050018564 0.045478333
-0.3133752 -0.47242054 0.0321459 -0.028594822 0.06445967 0.34475288 0.0012140353 0.09961906
-0.111816466 -0.006108481 -0.1033727 -0.11169055 0.067969225 -0.022973772 0.05146534 0.08056077
0.04736501 0.08065723 0.59171414 0.075220026 0.2795256 0.08979074 0.057755265 0.110074
0.0038331263 0.07370207 -0.48304227 0.030723901 -0.17664412 -0.21285817 0.1766605 0.025835019
-0.11903053 0.10402725 0.008891221 -0.06468123 -0.15035293 -0.073711775 -0.023030559 -0.02639496
-0.019756788 0.13894184 -0.16932148 -0.10609335 0.03729873 -0.111261554 0.05298959 -0.080184236
-0.11793238 0.05276724 -0.07654861 -0.09335964 0.12501442 -0.05788324 -0.036352217 0.12531686
0.2010351 -0.11252133 -0.123554945 0.044449296 -0.09075111 0.12551947 0.123086825 -0.20064384
0.20090337 -0.10526922 -0.16132593 -0.116076395 -0.01110562 0.20772307 -0.10239313 0.11039619
0.0071182586 0.1017094 -0.059669662 0.0511102 -0.1835723 -0.115892254 0.0724332 -0.014474693
0.016908268 0.053917233 -0.2898362 0.14996025 0.062175907 -0.013775479 -0.0018171106 0.004446274
0.06159794 -0.012459671 0.14404061 0.029834166 0.17040502 -0.122944035 0.18032998 0.18965223
0.17394471 0.034563053 0.116031505 -0.0320049 -0.4072549 0.19537333 -0.07416285 0.18156418

fc2.bias f4 [32]
00000000: 5f7e 013e 4e48 8bbd b6d2 34be 16ae 823e
00000010: ca2a 5c3e 46df 663e 8318 333e 1b51 673e
00000020: c032 c23e 0718 4ebd f153 283e 8179 263b
00000030: 83fa ebbd 511d 0d3e 918d a03d b59b 26bd
00000040: edd7 823e adce 013d b7cd a7bc 0e07 413e
00000050: 2644 c13e 9912 12bf 7cb2 b13d 4a11 403d
00000060: e2b8 4b3d 5a1e 053e e610 bb3d f414 5cbd
00000070: cb91 f63d e89f 773e 8ca4 c23e c3c2 103d
0.12645863 -0.068009004 -0.17658505 0.25523442 0.21500698 0.2254611 0.17489819 0.22589533
0.37929344 -0.050315883 0.16438271 0.0025402012 -0.11522391 0.13780715 0.07839502 -0.040675838
0.25555363 0.031691242 -0.020483835 0.18850347 0.37747306 -0.5705963 0.08676621 0.046891488
0.049736865 0.1299986 0.091340825 -0.05373092 0.120395266 0.24182093 0.38016164 0.03534199

fc3.weight f4 [16, 32]
00000000: 8ed2 683d 5508 0f3e 6c51 343d 40f8 65be
00000010: 5964 193e 42b4 a73e c4fb afbd 5a31 11be
00000020: 964c d13d 1b1b 69bd b843 6d3d 21fb 53bd
00000030: efc6 8a3d 41ab 213e d057 fbbc 4377 ad3d
00000040: 3b16 c4ba 153c c03e 1618 423d 6422 453e
00000050: 85a9 17be 6da8 c63d 1d34 33bd 98e9 8cbd
00000060: 7f77 b3bd 9673 6cbd 7486 553c 50c1 8dbc
00000070: 39ea 1b3f d3f8 6e3e f802 3b3e 64bb d3bc
00000080: 51d3 68bd 09dc af3d 17c8 d33d c9fe b03c
00000090: 20ac 4cbe a16e 87bc a7a2 d83d 8bba 4c3d
000000a0: 11a9 0b3e 3835 453e be52 50be aa29 3c3d
000000b0: 7574 313e 83e9 36bc e3ea e0bd c675 633e
000000c0: 8f2a 693e a1d8 2b3e 8821 2c3d 6b45 303d
000000d0: 5bb4 533d 4e9c 6d3e 5de4 343e a042 e3bd
000000e0: ae2d 8f3e ca55 dc3c b816 1a3e fef7 733b
000000f0: 9389 0fbe 6b73 67be 3574 ff3c 3ba6 3f3d
00000100: a904 7f3e a4cc 31bd 8d64 fbbd 5a5b 053d
00000110: 7efd 413e 3ff6 22be da5f dfbd cbfe ddbd
00000120: 9d94 32bd 4812 eebd 9fc0 b2be 2a89 a93e
00000130: ae08 8d3d 6b50 edbd 22c7 0fbe 2d59 083e
00000140: 7c21 69bd 61d5 0f3e 2f4b 003e 21cd 43bd
00000150: 8d25 ad3e 1405 11bc abb8 2b3e 2952 843e
00000160: b884 0f3e 48c8 d5bd f704 9abd bc79 383d
00000170: 6ae8 35bf c13a c03e 3f6b d93c 9573 dcbd
00000180: e951 29be b5b1 94bd 8017 873c 31b5 793e
00000190: 939d 95bd e17e 14be 30ac 8abb be6b 203e
000001a0: 82a5 67bd 4419 86bd 0f7e c7bd dce3 ffbc
000001b0: 389b 2cbe ae7d 41bc 2212 d33c 77c3 3a3c
000001c0: 09a4 fb3d 92ca 3dbf 494b 20bf ae1f 99bf
000001d0: ab01 0b3e 2e1a 08bd 39de c73d 91aa 77be
000001e0: 95ea 533e 4af2 5c3e d7ca 073e c3af b73d
000001f0: c334 613f 1f03 86be afd1 393e 17c5 173e
00000200: 5695 133e 431a 203e 4eee 953d 21aa 1e3d
00000210: e79a ed3c 0cae 12be efd9 f23d 8df1 c3bd
00000220: e7d2 c8bc 0bbb c2bd 67eb a73d ea5c 0bbd
00000230: 2627 41be 5420 f6bd 10df 193c f0f3 03be
00000240: 242a 22be eaba 13be 579e 0abe 8f76 d1bd
00000250: ced4 06be 07ec 9cbe f2dd 2c3d 97fe 633d
00000260: 0df1 1c3e e438 353d 62c5 8f3d daa7 04be
00000270: c257 afbc a4c7 1cbe 5de9 f5bb 8933 423e
00000280: 5d92 e03d 3b15 18be ca7c 57be 58ca 043e
00000290: e9c8 303d 68cf 673e 6c6f 4d3d ac06 783e
000002a0: aaae 333e 71b6 1d3e f12c 213d 4cc2 043e
000002b0: 05af b23d 21e4 703e 0fd1 a83d 4e03 0abe
000002c0: 5ccc 403e f703 eb3d 4b28 2fbd 1a1f 8bbe
000002d0: 5906 abbd 245a 37be d55e febd b8a2 f23d
000002e0: e5b8 cc3d 8814 993d c470 36bb fde8 80bd
000002f0: b5be acbe 944e 41bd a438 123e 66c0 313d
00000300: f82b d73c fb70 21be fcc8 6fbe 05f1 afbd
00000310: b2ff e33c 0b3e 99bd 3b1b a5bd 988e 043e
00000320: 8c73 27be 50a9 e03d 1c0d ddbd daad 963d
00000330: 648a f93c a4ca a03d 725d 16be 5afb c4bd
00000340: f1dd 11bd 4fe3 803d 8d16 113d 2976 2a3e
00000350: 7567 0dbe 816d e1bd 7dda e93d e6a9 34be
00000360: 6076 0ebe e8b7 ed3c 8af8 19be e58a 39be
00000370: 74ee ba3d 5b76 6d3d 69ee a2bd c2c9 273e
00000380: 77f9 40be 66be 89bc 0d41 28be 7a49 5b3d
00000390: da49 ee3e fa5a 9d3d f3f4 82be 3462 573d
000003a0: 9606 f63d b3b6 28be 6cb9 c93e cceb 0dbe
000003b0: f9a7 8c3c 867b 87be c08c 803b 94dc 9e3d
000003c0: 6437 073e 374a ab3e 82d0 57be e051 53be
000003d0: 0c65 50be 3ecd 203e baab e1bd fc1c 883c
000003e0: 1e70 a63d 9de6 93be bd4c 043e c829 39be
000003f0: e8fc 763e 31ac dfbe 60c0 66be 8319 db3c
0.056841426 0.13968022 0.044022962 -0.22457981 0.14979686 0.32754713 -0.08592942 -0.14178982
0.10219686 -0.056910615 0.05792591 -0.051753167 0.06776225 0.15787984 -0.03068152 0.08470013
-0.0014960238 0.3754584 0.04738625 0.192514 -0.1481076 0.097000934 -0.04375087 -0.06880492
-0.087630264 -0.05772742 0.013032544 -0.017304093 0.6090427 0.23337106 0.18262851 -0.02584619
-0.056842152 0.0858689 0.103408985 0.021605866 -0.19987535 -0.016532244 0.105778985 0.04998259
0.13638712 0.19258583 -0.20344064 0.04593817 0.17329581 -0.011164072 -0.10982301 0.22212896
0.22770141 0.16781856 0.042024165 0.043034952 0.051685672 0.23204157 0.17665239 -0.11096692
0.27964538 0.026896376 0.15047729 0.0037226672 -0.14017324 -0.22602622 0.031183342 0.04678939
0.24904121 -0.04340805 -0.12275038 0.032557823 0.18944356 -0.15914248 -0.10906954 -0.108396135
-0.04359876 -0.116245806 -0.34912583 0.3311246 0.06886421 -0.11587604 -0.14040807 0.13315268
-0.0569167 0.14046241 0.1252868 -0.047803048 0.3381771 -0.008851308 0.16769664 0.25843933
0.14015472 -0.10438591 -0.07520478 0.04503797 -0.7105776 0.37544826 0.026540397 -0.10764233
-0.16535152 -0.072604574 0.016490698 0.24385525 -0.073054455 -0.14501525 -0.004231952 0.156661
-0.056554325 -0.06547788 -0.09740841 -0.031236582 -0.16856086 -0.0118097495 0.025765482 0.0113991415
0.122871466 -0.7413722 -0.62614876 -1.1962793 0.13574855 -0.033228092 0.097591825 -0.2418616
0.20694955 0.21576801 0.13260971 0.08969071 0.87971133 -0.26174256 0.18146394 0.14821278
0.14412436 0.15635018 0.07320844 0.038736466 0.029004527 -0.14324206 0.11857974 -0.095675565
-0.024514629 -0.09508332 0.08199196 -0.034024157 -0.1886259 -0.12017885 0.009391561 -0.12886024
-0.15836388 -0.14426771 -0.13536964 -0.102276914 -0.13167116 -0.30648825 0.04220385 0.055662718
0.15326329 0.04424371 0.0702007 -0.12954655 -0.02140415 -0.15310532 -0.0075046257 0.18964972
0.109654166 -0.14851849 -0.21043697 0.12967813 0.043160353 0.22637713 0.05015509 0.24221295
0.17547098 0.15401627 0.0393495 0.12964743 0.087247886 0.23524524 0.08243 -0.13477823
0.18827957 0.114753656 -0.042763036 -0.27172166 -0.0835082 -0.1790548 -0.124204315 0.118474424
0.09996203 0.07474619 -0.002783821 -0.06294439 -0.33739248 -0.04719408 0.14279419 0.043396376
0.026266083 -0.15765755 -0.23416513 -0.08590893 0.027831886 -0.07482537 -0.080618344 0.1294502
-0.16352671 0.10969794 -0.10793516 0.07357378 0.030461498 0.07851151 -0.14684084 -0.09618254
-0.03561205 0.06293356 0.035421897 0.16646637 -0.13808997 -0.11007214 0.114186265 -0.17642936
-0.13912344 0.029018357 -0.15036216 -0.1811939 0.091275126 0.0579742 -0.079556294 0.16385558
-0.18845163 -0.016814422 -0.16431065 0.05353687 0.4654072 0.07683368 -0.25577506 0.05258389
0.12012975 -0.16475944 0.39399278 -0.1385948 0.01716994 -0.26461428 0.0039230287 0.07756916
0.13204724 0.3345506 -0.21075633 -0.20636702 -0.20351046 0.15703294 -0.11019082 0.016615383
0.081268534 -0.2888688 0.12919898 -0.18082345 0.24119914 -0.4368606 -0.22534323 0.026745563

fc3.bias f4 [16]
00000000: f5db a73e e148 12be 6594 d0bd 561f 163e
00000010: d5ff 1abe d19f 893e a58b 25bc d476 30be
00000020: 2c35 573e 0dc3 923e 0fbc 9dbd f298 42bd
00000030: f1a4 833d b57a 9d3e ef58 0f3e 9d61 41bd
0.32785 -0.14285614 -0.10184554 0.14660391 -0.15136655 0.26879743 -0.010104095 -0.1723283
0.21016377 0.28664437 -0.07701885 -0.04750914 0.064279445 0.3075768 0.13998769 -0.047212232

fc4.weight f4 [8, 16]
00000000: 92a2 2c3e 33df 96be dee0 313e f514 a53d
00000010: 1155 0a3e bf75 3bbe 1d02 b4bd 45b4 043f
00000020: 8002 78be c1dd 05be 6a7a 2ebe cf7c 9b3d
00000030: 8898 75bd 6193 483d cf16 ca3c 0137 123e
00000040: d003 34bc 0785 94bd 8aaa dd3d 1d60 93be
00000050: 3843 de3b 66bd 693e cbd0 15be 89b5 4cbe
00000060: b59b 9e3e 7785 79bd 2564 b9be e7af ebbd
00000070: ae84 383e f8a5 e63c 7760 d2bc d17c 883f
00000080: 01a5 003d a130 3fbe 89c7 5c3e 8757 033f
00000090: ca93 b3bd b670 3a3d 7f64 2bbe cd29 37be
000000a0: 2fc4 553c deb7 e33e d32a 1dbd a6cc c63d
000000b0: a450 923d 9be4 bc3e 1131 26be ade2 4abd
000000c0: 8fec 2ebd 74c4 a23d 3763 763d 47c6 7f3b
000000d0: 7634 1f3e f77b 81bd 98a5 523d 7f9a b7bd
000000e0: 1ed7 93be eece 95bd 6dc8 913e 9926 bfbd
000000f0: a0bb a0bd 77f9 b43d c7a0 c6bd 7090 21bf
00000100: 196f 2b3e cd27 d1be 7f07 15bf a284 9c3e
00000110: eb5d 77be ede9 ebbd d6f3 583d 5baa fbbe
00000120: 41f8 84be d33f 863e 45c5 553e 1356 ed3d
00000130: 4b6d 49be 247f d83e e16e e93d fe09 7d3e
00000140: cf37 2f3e feed 46be e115 0c3e 816b ebbe
00000150: 5072 483e 0f8b 403e 2705 ebbc 0be4 70bc
00000160: 905a 8c3e a201 e03e d312 02bf 5449 e4bd
00000170: 5d31 f03d 1676 adbe 1f9d 423e d42a 233f
00000180: 6699 8bbe 4445 283d c291 8dbc be6d fb3e
00000190: 1bb9 e73d 14ab d93d 0911 12bd e8e9 8fbe
000001a0: 3127 1cbe 2415 c83d 710c ec3e 9c5f 96be
000001b0: d2bd 15be 4d0c 8d3e b7ca 213e 8ba4 37bf
000001c0: 8f79 60be 521a 72be ec55 433e 06a3 1e3e
000001d0: a63d f73d bce7 043e 400f 5ebc 0ff5 3c3e
000001e0: 07e6 80bd cf79 42be 930c acbc d9c0 3cbd
000001f0: dfb5 6a3c 9957 633d 919e cabd 78f7 9b3d
0.1685889 -0.29467162 0.17370936 0.08060638 0.13509013 -0.18306635 -0.087894656 0.5183757
-0.24219704 -0.13072874 -0.17038885 0.07592165 -0.05995992 0.048968676 0.02466908 0.14278795
-0.010987237 -0.072519355 0.10823543 -0.28784266 0.0067829154 0.22826156 -0.1463043 -0.19991125
0.3097817 -0.060918298 -0.36209217 -0.1150816 0.18019363 0.028155312 -0.025680764 1.0663091
0.03140736 -0.18670894 0.21560492 0.5130543 -0.08768423 0.045517646 -0.16737555 -0.1788704
0.013047262 0.44476217 -0.03837092 0.09707002 0.07144287 0.36893162 -0.16229655 -0.04953258
-0.04270607 0.07947627 0.060153212 0.0039028095 0.15547356 -0.063224725 0.051427454 -0.08965015
-0.2887506 -0.07314859 0.28473225 -0.09333534 -0.07848287 0.08836644 -0.096986346 -0.6311102
0.16741599 -0.40850678 -0.58214563 0.3056994 -0.2415692 -0.11519227 0.052966915 -0.49153408
-0.25970653 0.2622057 0.20876034 0.11588683 -0.19670598 0.422845 0.113981016 0.24710843
0.17111133 -0.19426724 0.13680221 -0.45980456 0.19574857 0.18803047 -0.02868898 -0.014702807
0.27412844 0.43751246 -0.50809973 -0.11146799 0.11728165 -0.33879155 0.1900525 0.63737226
-0.2726547 0.04108168 -0.017281417 0.49107164 0.11314603 0.10628334 -0.035660777 -0.28108144
-0.15249325 0.09769657 0.46103242 -0.2936982 -0.14623192 0.27548447 0.15799986 -0.7173545
-0.21921371 -0.23642853 0.19075745 0.15491876 0.120723054 0.12979025 -0.013553441 0.18452857
-0.06293874 -0.18991779 -0.02100209 -0.04608235 0.014325588 0.05550346 -0.098935254 0.0761556

fc4.bias f4 [8]
00000000: 91a7 98bd f0af 8f3e d3ec 803e 542c 9f3f
00000010: f51a 6d3e 13c6 373e 5acd 433e 88fb f5bc
-0.07453836 0.28063917 0.25180683 1.2435403 0.23154815 0.17946653 0.19121304 -0.030027166

fc5.weight f4 [3, 8]
00000000: 0b16 72bc ef92 c2bc bcf2 773e bff7 bf3e
00000010: 40d5 eabd 0cb0 293e 2e3e ecbe d7e6 863e
00000020: e71d f4bc 89d1 fa3d d23d 223e 8102 a03d
00000030: cce1 a43e 7853 c6bd 7fc2 923e 9964 48bd
00000040: c178 b1be 5e71 b73e 6ee3 83be 1ddc d0bd
00000050: ef27 2dbf 492c 5c3e c7e3 87be 2ec2 08be
-0.014775763 -0.023751704 0.2421369 0.37493703 -0.114664555 0.16571063 -0.4614119 0.26347992
-0.029799415 0.12246997 0.15843895 0.078129776 0.3220352 -0.09683889 0.28664014 -0.048924062
-0.3466244 0.3582868 -0.25759453 -0.10198233 -0.6763906 0.21501268 -0.26540968 -0.13355324

fc5.bias f4 [3]
00000000: c431 763d 6ddb a73d 8f90 893e
0.060106054 0.08196149 0.26868102

exp_avg f4 [64, 4]
00000000: d0e6 cf36 aa1d 8739 b55a 9839 4857 2a37
00000010: 3645 8f37 4c16 6338 4b9d d6b9 9bd9 a937
00000020: 2aa0 75b9 2a78 ae3a 6f6a b2b9 364c 40ba
00000030: 44bd 44b9 7348 433b 389b a83a 3062 91ba
00000040: 2a9d 0538 88ca 6639 20dc 45b8 466b c038
00000050: c542 21b7 c750 8b37 56d0 d2b9 c583 67b7
00000060: 5313 a0b8 2de5 8d3a 5eff 1fb9 c63c 42b9
00000070: 4650 0138 231c 8ab9 0245 9d39 1db1 93b8
00000080: d0f0 8cb8 3467 d23a f684 5e3a 58d1 e2b9
00000090: a259 3b38 4a5a 95b9 0119 1b3a e8b1 9eb7
000000a0: e8ec 4e36 cfd5 af39 0408 53b8 6eeb 4bb8
000000b0: ff1b 2fb7 a3bc 9239 9b15 853a e94a bdb7
000000c0: 4c2d d8b8 a6c5 3539 4c80 69ba 5409 ef38
000000d0: 163b e5b7 c511 1eba 09a5 cd39 ca6e 2db8
000000e0: 2152 66b8 2524 aeb9 be1c 9439 56f1 00b8
000000f0: 877f 1937 497a 263a bc2e 4e39 986a e4b8
00000100: da0a c937 5109 e0b9 bcfe 333a f730 0ab8
00000110: cf75 ecb6 dce7 bfb9 c6e6 ccb9 4dbf aeb8
00000120: 08da 34b7 92df 3bba da76 563a 5cb0 5f37
00000130: 6ac5 f435 dc08 9a39 e9a2 25b9 a4f8 c3b8
00000140: b571 8bb9 4ad6 343b 54ef 84ba 5d57 b1ba
00000150: b18c b8b7 ae91 4b3a 166e cc39 d93e 61b9
00000160: 1f80 6eb6 3bb2 a4b6 9a47 f639 cf8a e037
00000170: 3c74 0239 9de5 fc39 f1b9 4eb9 8b9c 84b8
00000180: 47a2 bfb8 f18c afb9 bd56 f739 a909 40b8
00000190: 5b6d 9837 6f81 6fba 78cc 7038 ae27 f739
000001a0: 0794 0736 c53b b536 a839 8938 e5fe 7035
000001b0: f2b9 5eb9 8b10 c33a 47a6 88b8 2c4d 45ba
000001c0: 2c65 0438 5da4 1c3a 5f21 1538 0b95 cdb8
000001d0: bf0e f737 164f d1ba 4ead ab38 26eb 5db8
000001e0: e48b 2438 44d1 87b9 d5a2 1438 4000 70b7
000001f0: 5f22 8838 58a9 93ba 2fb3 ebb9 09c6 cd39
00000200: 4b6f e037 5d75 1839 3d73 f639 53fe 5fb7
00000210: a321 5f38 8066 c8b9 0ac0 d2b9 b23e f638
00000220: 4f20 34b7 fdd0 83b9 626a 5639 eaa0 95b7
00000230: f242 06b8 0689 633a c10c 62b9 899d eab8
00000240: feca 87b9 d986 023b 87b2 6fb9 9c67 47ba
00000250: 0668 0636 f65d 8238 9d7c bb39 c201 9535
00000260: 971c b0b7 da65 563a 10ed 20b9 e797 8fb9
00000270: 127e 9438 d640 80ba f6c9 91b9 79ed ae39
00000280: bb06 8d38 988f dd38 847c 6339 4b5b 8a38
00000290: 0663 8d35 3024 583a eaca 213a d430 63b8
000002a0: d3ef 18b9 6029 293b 941a 1dba 34cf a6ba
000002b0: 3cc6 e538 73f2 c3ba ba18 11ba 3733 2a3a
000002c0: abb7 4738 6c86 26ba a858 4538 bfba 0b39
000002d0: f330 b9b9 489c 0a3b 3b86 dd39 3400 8bba
000002e0: a42d 9937 3015 a738 f711 8439 1298 8038
000002f0: 7886 02b8 e3f7 793a 08d8 eab9 a5aa 8db9
00000300: 9085 0938 23d4 fdb9 b7b7 8db9 76b1 1539
00000310: 1ef5 62b8 d4e6 8939 0987 7f39 e3a7 c5b8
00000320: 5fb4 92b7 28d2 50ba ee26 33b9 f3ea 1a3a
00000330: 0d80 ecb7 24dd c139 ba67 92b9 a632 cc38
00000340: e34c b738 5c3b b0ba 98bb 58b9 e3d5 313a
00000350: ee2a 31b8 a37c 723a a03e 26ba 18a0 d4b9
00000360: 7eb7 d6b6 0803 0eb9 3398 ebb9 a8ef 0739
00000370: e3dc 6b37 fbaf 32ba 8ab0 2b39 ee4e 8639
00000380: 5bb1 0937 c3a4 5bba 2c18 8db8 9f41 ac39
00000390: 4e42 d1b7 15b1 30ba abca 2cba 3274 5938
000003a0: a9c4 cf38 0641 cdb9 21bb 04b9 84ff b439
000003b0: 1a0e 4d36 c4e2 0539 090e 3cb9 50c1 c337
000003c0: afb2 2e39 ba89 24ba fc90 a339 bd94 423a
000003d0: 07bf 6fb8 cf7a fe3a b3f3 8d3a e61f fcb9
000003e0: d196 1538 f5d8 4a3a aee6 643a ff0e dcb8
000003f0: af85 4839 e525 1abb bfdd a0b9 718a 6d3a
6.195951e-06 0.00025771308 0.0002905928 1.0153111e-05 1.7079157e-05 5.4141783e-05 -0.00040934453 2.02477e-05
-0.00023424687 0.0013310958 -0.00034030105 -0.0007335575 -0.00018762524 0.0029797822 0.0012863642 -0.0011091884
3.185604e-05 0.00022009958 -4.7173467e-05 9.175255e-05 -9.611894e-06 1.6607706e-05 -0.00040209544 -1.3799353e-05
-7.632994e-05 0.0010825746 -0.00015258553 -0.00018523922 3.0830757e-05 -0.00026342375 0.00029996788 -7.042496e-05
-6.720575e-05 0.0016052485 0.00084884407 -0.00043262052 4.466775e-05 -0.00028486765 0.00059165066 -1.8917912e-05
3.083429e-06 0.000335379 -5.0313785e-05 -4.8618233e-05 -1.0437331e-05 0.00027987835 0.0010153534 -2.2565438e-05
-0.0001030812 0.00017335135 -0.00089073624 0.000113981456 -2.7326441e-05 -0.00060298695 0.00039223608 -4.1349595e-05
-5.491276e-05 -0.00033214796 0.00028250174 -3.074234e-05 9.149203e-06 0.00063506194 0.00019663101 -0.00010891742
2.396612e-05 -0.0004273155 0.00068662665 -3.2947366e-05 -7.047063e-06 -0.00036603108 -0.00039081852 -8.332599e-05
-1.07796e-05 -0.00071667985 0.00081811624 1.3332898e-05 1.8236872e-06 0.0002937977 -0.00015796315 -9.3446375e-05
-0.00026596864 0.0027593547 -0.0010142126 -0.0013530065 -2.2000024e-05 0.00077655434 0.00038991933 -0.00021481085
-3.553934e-06 -4.9083296e-06 0.00046974124 2.6767519e-05 0.00012441067 0.0004823626 -0.0001971496 -6.323409e-05
-9.137816e-05 -0.0003348361 0.00047176136 -4.5785364e-05 1.8170735e-05 -0.00091364136 5.7410885e-05 0.00047141075
2.020273e-06 5.4011784e-06 6.5434084e-05 8.977789e-07 -0.0002124084 0.001488225 -6.515957e-05 -0.0007526453
3.1565476e-05 0.000597542 3.5555448e-05 -9.802923e-05 2.9451561e-05 -0.0015969004 8.186196e-05 -5.2909505e-05
3.923093e-05 -0.00025905122 3.54376e-05 -1.4305173e-05 6.4913875e-05 -0.0011265678 -0.00044956195 0.00039248195
2.6754706e-05 0.00014539571 0.00047006636 -1.335105e-05 5.319867e-05 -0.0003822334 -0.00040197402 0.00011741872
-1.07363585e-05 -0.00025141975 0.00020448261 -1.7837116e-05 -3.2010437e-05 0.0008679781 -0.00021557791 -0.00011187333
-0.00025900448 0.0019916801 -0.00022859323 -0.00076066866 2.0028106e-06 6.216385e-05 0.00035760264 1.1101877e-06
-2.0994148e-05 0.0008178629 -0.00015347102 -0.00027388262 7.0806724e-05 -0.0009784948 -0.00027807028 0.00033364797
6.7246576e-05 0.000105648476 0.00021694793 6.5973574e-05 1.0534138e-06 0.00082451385 0.0006171899 -5.4166492e-05
-0.00014585191 0.0025812015 -0.0005993035 -0.0012726546 0.00010956495 -0.0014949575 -0.00055349956 0.0006492617
4.761635e-05 -0.0006352428 4.7051028e-05 0.00013325641 -0.0003532242 0.002115028 0.00042252414 -0.0010604919
1.8260274e-05 7.967127e-05 0.00025190387 6.131841e-05 -3.111965e-05 0.0009535534 -0.00044792914 -0.00027020756
3.2787735e-05 -0.00048413975 -0.00027030494 0.00014275857 -5.4110882e-05 0.00026302657 0.00024369 -9.424963e-05
-1.7488548e-05 -0.0007965886 -0.00017085273 0.0005909644 -2.819302e-05 0.0003697659 -0.00027924572 9.736912e-05
8.740441e-05 -0.0013445425 -0.0002066925 0.0006783886 -4.224007e-05 0.00092501397 -0.00063417293 -0.0004055507
-6.3990583e-06 -0.00013543305 -0.0004493609 0.00012963882 1.4058521e-05 -0.0006816384 0.00016373597 0.0002561728
8.20713e-06 -0.00083787384 -6.727906e-05 0.00032855288 -2.4945617e-05 -0.00067402545 -0.0006591479 5.1845047e-05
9.90716e-05 -0.00039149093 -0.00012658212 0.0003452265 3.0555589e-06 0.00012768345 -0.00017934306 2.333583e-05
0.00016660498 -0.00062766264 0.00031197804 0.00074226764 -5.715995e-05 0.0019415262 0.0010830074 -0.00048088952
3.5664827e-05 0.00077380176 0.0008731884 -0.00010493211 0.00019123287 -0.0023521122 -0.00030682792 0.0009061462

exp_avg_sq f4 [64, 4]
00000000: 0e74 9032 cb53 da35 cd15 1437 faf9 2833
00000010: e279 f132 8025 a835 3cac 2b38 d4e8 bd33
00000020: e08b 5a36 7b58 2138 88a4 2638 e39a 6537
00000030: 93ac 9535 9fca a538 6104 393a 87a2 2f37
00000040: 4ae7 8f33 f957 1336 ac7f 0738 d051 1734
00000050: 14bd 5832 e3ec 3b33 a6c8 d636 7192 2332
00000060: e249 7534 c548 9837 29ef f338 14a4 3935
00000070: 0d77 ee34 e1b7 0837 d8ab 4f37 24e7 a035
00000080: 3ae5 3335 ec1f 4438 bb15 ff37 3d3c 5f36
00000090: 80b2 7933 8bb7 8136 64bb f537 e2d5 9632
000000a0: 7e5c 3f34 e9d4 4636 bf1d 2e38 f6eb 0835
000000b0: 9e53 0132 2356 0934 700b 9d38 c0a5 ae32
000000c0: dd32 2e35 dbf3 0038 9517 293a e9ea a835
000000d0: ad2c 0a32 ac11 3e37 1de9 c838 2ab5 9532
000000e0: 9371 d733 f622 1937 af86 7238 03a1 2834
000000f0: 6e3d 9c33 6212 3037 3525 1537 3a8e ab34
00000100: 0b66 5833 8a3f c736 ccac 8438 f397 6733
00000110: d020 c534 9e08 2137 59bf a836 bf9f 9b34
00000120: 86be 4031 d45f 4337 2945 9a39 fd81 0432
00000130: 68cb 9034 4930 1f37 1b29 6a37 0dc9 2d35
00000140: a458 e536 4a86 8739 ca6f 2639 55ed f437
00000150: e571 b433 3930 4d37 65c0 0a39 7d28 4035
00000160: 4fb5 2934 e02a 0d36 1f8b 6337 af6c f233
00000170: ab52 ac34 f4d5 f636 c9c2 9337 6f33 ae35
00000180: 3e9f 7033 7ba2 ea35 4ed7 fd37 5f08 2833
00000190: 9dad 0035 aff8 6c37 bee4 d136 645b 2b36
000001a0: 8f8d 582d 3b12 0333 a52b 9d38 7cb2 3d2e
000001b0: cb50 aa35 f006 9a37 8763 ad36 02c2 c736
000001c0: d401 ed32 72bf db36 0637 2638 1077 6334
000001d0: b4b0 c033 49e7 2538 695a 643a 5774 4b33
000001e0: 3078 e331 c1f8 3b36 42f1 5a37 cf74 9a31
000001f0: 187e 2f35 c755 f037 9c0d c836 04d1 4d36
00000200: b597 3832 ecef 0636 82a1 3038 ee33 d732
00000210: 1031 c233 3dbf 5836 5b1b b038 d0f4 9f34
00000220: 0d78 9c31 c935 5436 b7cd 4038 ae99 1a32
00000230: 7f4f f332 e94d e436 2685 0a38 2643 6934
00000240: 6be3 d635 91d3 0938 9eae ed37 4aa1 ff36
00000250: a467 4e2f 74b1 e533 facb b737 13a2 0730
00000260: b639 1034 1435 4137 ed88 0e38 29d2 6c35
00000270: da22 0035 e205 bd37 042e f538 eae8 f635
00000280: 0c78 dd33 67f7 7e36 0666 9039 9b5a 0c34
00000290: bb72 6733 e63f ad36 f0ef 2838 e25a 3334
000002a0: 2f6a a536 0c10 b238 5955 8c39 4835 c337
000002b0: fc2c 9335 b9e6 0038 d82b 9836 2625 b136
000002c0: 5b13 0f35 88b7 0337 0504 c336 ffcc eb35
000002d0: 4698 3035 bca4 4538 77a1 273b d689 d136
000002e0: 31a3 4f33 40a8 8435 2fb8 d637 9759 d233
000002f0: 1440 c233 79bf 1a37 bfa7 4238 8af1 1e35
00000300: 878f 1134 6586 b636 b50b b537 6857 dd34
00000310: 57e8 3f35 5597 7537 ccc5 4e36 45a5 0536
00000320: 442a 5d35 6d3b 1f38 059f 6538 471d 9336
00000330: 2df3 1635 2926 7b37 0316 fa38 afa2 5435
00000340: 546e 3f35 4db9 fc37 2f6d 0b37 0ab0 9d36
00000350: 58bf 0b36 fc75 1438 5260 7338 d172 eb36
00000360: 841e 8634 cf01 f736 0a91 7937 74bb 2f35
00000370: 43e2 c734 328b 3037 de0c 9936 95ef e335
00000380: 83d4 2834 1642 6c37 0721 cf35 a32f 9e35
00000390: f310 2534 4fae 9737 0d45 e637 a805 3535
000003a0: 4c1e c134 3847 3d37 3175 e239 e755 9135
000003b0: 795c d732 0e16 ab34 31d6 0e36 e857 4933
000003c0: b74b 8336 0598 a938 75b3 8837 f2f5 1437
000003d0: e60d 5e35 22db a938 6548 2239 0ae4 8f36
000003e0: 15c0 6332 1816 e336 32f2 de37 3443 6c34
000003f0: fe38 c335 183c a238 497a 7737 00dc 1c37
1.6816582e-08 1.6266653e-06 8.826563e-06 3.93429e-08 2.8111518e-08 1.2527889e-06 4.0929983e-05 8.8433495e-08
3.256595e-06 3.8467795e-05 3.9730716e-05 1.3685526e-05 1.1151591e-06 7.905554e-05 0.00070578424 1.0468654e-05
6.7010276e-08 2.1955914e-06 3.2305412e-05 1.4092734e-07 1.2615846e-08 4.3754778e-08 6.4010555e-06 9.521146e-09
2.2844281e-07 1.8153698e-05 0.0001163169 6.9156636e-07 4.4417575e-07 8.149044e-06 1.2378172e-05 1.19882e-06
6.7016265e-07 4.675977e-05 3.0408488e-05 3.3264653e-06 5.8137175e-08 3.865867e-06 2.9293536e-05 1.7559561e-08
1.782191e-07 2.962823e-06 4.1512536e-05 5.1007316e-07 7.527801e-09 1.2790456e-07 7.488474e-05 2.033164e-08
6.4894067e-07 3.0744686e-05 0.00064503524 1.2585343e-06 8.042815e-09 1.1328997e-05 9.580164e-05 1.7428267e-08
1.0032377e-07 9.127651e-06 5.782273e-05 1.5704795e-07 7.27549e-08 1.0494698e-05 8.889755e-06 3.1954715e-07
5.0384227e-08 5.938059e-06 6.3264364e-05 5.3922076e-08 3.6717984e-07 9.598354e-06 5.029066e-06 2.898723e-07
2.8047977e-09 1.16452175e-05 0.00029424697 7.712967e-09 2.6970088e-07 9.488381e-06 1.39570575e-05 6.474009e-07
6.835051e-06 0.0002584926 0.00015872638 2.9197583e-05 8.4026205e-08 1.223018e-05 0.00013232378 7.158449e-07
1.5805311e-07 2.1035594e-06 1.3562646e-05 1.12887726e-07 3.2097645e-07 7.3562787e-06 1.761447e-05 1.2978979e-06
5.6024184e-08 1.7481647e-06 3.026021e-05 3.912316e-08 4.7936356e-07 1.4124597e-05 6.2553145e-06 2.5534182e-06
1.2309611e-11 3.0517395e-08 7.494473e-05 4.313215e-11 1.2689501e-06 1.8361461e-05 5.1673883e-06 5.9532476e-06
2.7591263e-08 6.5489958e-06 3.962873e-05 2.1184337e-07 8.972839e-08 3.9554467e-05 0.0008710982 4.737043e-08
6.6202333e-09 2.8009965e-06 1.3049985e-05 4.4952695e-09 6.537607e-07 2.8650173e-05 5.962049e-06 3.0669044e-06
1.0744704e-08 2.010721e-06 4.2112086e-05 2.5052909e-08 9.0427534e-08 3.2297824e-06 8.397429e-05 2.9794182e-07
4.5538457e-09 3.1621769e-06 4.5967954e-05 8.9989225e-09 2.8325074e-08 6.8039994e-06 3.3025768e-05 2.1724244e-07
1.601043e-06 3.2860382e-05 2.8333914e-05 7.6183687e-06 1.8772411e-10 1.0695922e-07 2.1910284e-05 4.9343035e-10
1.343204e-07 1.1516055e-05 3.398296e-05 8.8222674e-07 4.773443e-07 2.2533295e-05 0.000116910815 1.8396215e-06
1.0312951e-07 3.7992957e-06 0.00027541834 1.3071478e-07 5.3888225e-08 5.1632405e-06 4.027778e-05 1.6703737e-07
4.9297446e-06 8.4906904e-05 0.0002676647 2.3270622e-05 1.0965446e-06 3.0732455e-05 4.535057e-06 5.2793357e-06
5.329982e-07 7.85094e-06 5.811921e-06 1.7568526e-06 6.5786696e-07 4.712188e-05 0.0025578418 6.2447316e-06
4.8344365e-08 9.883734e-07 2.5596555e-05 9.795183e-08 9.045485e-08 9.223696e-06 4.640943e-05 5.921107e-07
1.3556392e-07 5.4396683e-06 2.1582333e-05 4.1228054e-07 7.1491144e-07 1.4638373e-05 3.0811525e-06 1.9914744e-06
8.239042e-07 3.79639e-05 5.4745953e-05 4.3843497e-06 5.623322e-07 1.4969651e-05 0.00011925029 7.921289e-07
7.1313593e-07 3.0127028e-05 8.310467e-06 4.6994583e-06 2.082399e-06 3.539583e-05 5.802542e-05 7.016912e-06
2.4981648e-07 7.361384e-06 1.4875326e-05 6.546536e-07 3.7231266e-07 1.0522826e-05 4.5612533e-06 1.6982546e-06
1.572353e-07 1.4082083e-05 1.5432314e-06 1.1785781e-06 1.5372989e-07 1.8081771e-05 2.745029e-05 6.7435985e-07
3.5971095e-07 1.128186e-05 0.00043193394 1.0828343e-06 2.5071346e-08 3.186728e-07 2.1284325e-06 4.687891e-08
3.9129186e-06 8.086864e-05 1.629603e-05 8.878751e-06 8.272167e-07 8.099365e-05 0.00015476493 4.2882793e-06
1.3256813e-08 6.7676992e-06 2.6577243e-05 2.2003661e-07 1.4545219e-06 7.735955e-05 1.4750819e-05 9.349547e-06

exp_avg f4 [64]
00000000: 3f3c d4b7 f6d6 3439 969f 273a f735 ba3a
00000010: 15ca b1b8 f756 e8b7 b0b9 2339 fd1e 4cb9
00000020: 8623 db39 727c 0538 5c48 a239 2394 0438
00000030: 162f 8ab9 ce92 c4b8 ffa0 9738 b94d 0339
00000040: 7045 1638 03b3 e3b9 10ce 87b8 7589 5136
00000050: d41f 9a3a a13e 5b39 8686 7739 11b6 8839
00000060: a046 c3b9 2267 00ba 7c4a 9636 3d29 243a
00000070: 8ad5 6a39 a744 33b9 2a90 0638 95a2 08ba
00000080: 8287 d337 1f0f 62b9 0a82 2eb8 80f4 ab39
00000090: 06ec 1e3a 4a76 2037 41ce 9339 a23c 33b9
000000a0: a744 173a 5440 203a 6480 723a ca14 44ba
000000b0: 13a7 b3b9 a1c1 8b3a 9970 1339 ffb1 a739
000000c0: a311 aeb9 0dfe 7438 013f c0b9 30a9 503a
000000d0: 3557 14ba 5414 4739 081e 5bb9 d884 e2b9
000000e0: 7e62 bbb9 915d 29b9 7454 c637 8c89 3939
000000f0: bb8f 3a3a 4898 dd39 bf78 2438 628d 5cba
-2.5300424e-05 0.00017246217 0.00063943246 0.0014206757 -8.4776584e-05 -2.7697051e-05 0.00015614065 -0.000194665
0.00041797402 3.182557e-05 0.0003095296 3.1609216e-05 -0.00026356493 -9.373353e-05 7.230229e-05 0.00012522087
3.5827456e-05 -0.00043430188 -6.475684e-05 3.1223437e-06 0.0011758753 0.00020908799 0.0002360587 0.0002607559
-0.00037245918 -0.00048981805 4.4790195e-06 0.00062622485 0.00022395529 -0.00017096345 3.2082353e-05 -0.0005212215
2.521626e-05 -0.00021558673 -4.160594e-05 0.00032797828 0.0006062392 9.5642845e-06 0.00028191696 -0.00017093358
0.0005770423 0.0006113101 0.0009250699 -0.00074799045 -0.0003426602 0.0010662564 0.00014060958 0.0003198534
-0.00033201007 5.8410737e-05 -0.00036668035 0.0007959781 -0.0005658747 0.00018985692 -0.00020896655 -0.00043205055
-0.00035740802 -0.00016151952 2.3642766e-05 0.00017694215 0.00071167544 0.00042265863 3.92131e-05 -0.00084134017

exp_avg_sq f4 [64]
00000000: 2161 5734 3b5e 2c35 8df3 9737 49cd f437
00000010: d9f1 eb34 d5d6 bc33 5b50 1f36 7db3 3b36
00000020: fd37 6736 6921 ac34 d92e 6836 205a 0f32
00000030: de6c cc36 edcf 0934 818b 9736 b935 3935
00000040: 82ae 5435 e6ea 9237 5e32 e133 8211 7d36
00000050: 4249 3b38 02ce 3c35 115f ab36 a674 aa36
00000060: 7999 9c35 c70a 1e36 66f2 3b2f 7cf2 9636
00000070: 636a 3c35 7d96 bd35 9235 8233 2648 7536
00000080: 3bec 6533 60e1 b235 6286 8333 d4c3 3635
00000090: 172e 9f36 3e2e 3630 6de1 a335 c7ba 9736
000000a0: 15b1 2437 36e9 5036 0327 2238 7d12 0737
000000b0: ce22 5836 bffc 3b38 11a7 4735 93d5 b636
000000c0: a60c 7d35 dd72 2536 0425 8a36 ac4d e437
000000d0: 4da9 8d36 7d92 e837 93ff 0f36 e3a0 2a36
000000e0: 3eb6 b035 e89a 9136 f29a 2f37 fe87 e435
000000f0: d38c da38 f273 d836 28c3 e935 725b 5437
2.005877e-07 6.4212117e-07 1.8114015e-05 2.918266e-05 4.3948128e-07 8.79351e-08 2.373962e-06 2.7969647e-06
3.4454272e-06 3.2061806e-07 3.4597963e-06 8.344188e-09 6.0923476e-06 1.2834762e-07 4.516391e-06 6.899605e-07
7.9230097e-07 1.751394e-05 1.0486541e-07 3.7710129e-06 4.46525e-05 7.033524e-07 5.1072643e-06 5.0799745e-06
1.1667572e-06 2.3550108e-06 1.7093668e-10 4.4985773e-06 7.019027e-07 1.4125395e-06 6.063341e-08 3.654984e-06
5.3533068e-08 1.3327626e-06 6.124607e-08 6.808525e-07 4.743935e-06 6.627693e-10 1.2210054e-06 4.5218944e-06
9.816392e-06 3.1130162e-06 3.8660142e-05 8.050932e-06 3.2206767e-06 4.4819662e-05 7.437639e-07 5.448886e-06
9.426825e-07 2.4653775e-06 4.1170297e-06 2.7215887e-05 4.2218367e-06 2.772477e-05 2.1457424e-06 2.5425622e-06
1.3166061e-06 4.33937e-06 1.0466889e-05 1.7026903e-06 0.000104212806 6.4507994e-06 1.7416651e-06 1.2657476e-05

exp_avg f4 [32, 64]
00000000: 1a80 3539 312f d739 fbce 7137 941e b938
00000010: f227 5239 eb04 f1b4 d291 fa39 2de5 bd38
00000020: a7c4 033a 3551 be35 bc84 4eb7 8a14 06b6
00000030: 5153 fe39 0400 0080 1e9b bdb6 b79e 9939
00000040: 3a28 b9b7 da11 91b7 0400 0000 9762 2c39
00000050: 47ca 1c39 8a61 3039 c15c 0b37 8734 84b8
00000060: 0e96 26b8 8623 b039 0400 0000 b44e 2d38
00000070: c542 99b8 b23b 70b8 48d0 b0b5 4d26 9139
00000080: 39d8 0ab5 e4ef ad39 0400 0080 2cd4 7c39
00000090: 65f1 8038 21fd b4a7 e05b b539 acb9 a637
000000a0: 0214 b1b7 73ab a1b8 6cd0 2a38 90b8 9c37
000000b0: a191 e638 f3c9 0838 2577 5539 73e8 08b9
000000c0: 64d6 a839 6a40 2738 0cec a439 3ff3 cd37
000000d0: 1736 8939 12c2 93b7 c7af 0e3a ccf8 5039
000000e0: dd27 b139 1702 7136 60a2 b738 be3f 96b6
000000f0: 22b4 8b39 5642 7739 ee20 c8b8 4512 1638
00000100: 0400 0000 0000 0000 0400 0000 0400 0000
00000110: 0400 0000 0400 0000 0400 0000 0400 0000
00000120: 0400 0000 0400 0000 0400 0000 0000 0000
00000130: 0400 0000 0400 0000 0400 0000 0400 0000
00000140: 0400 0000 0400 0000 0000 0000 0400 0000
00000150: 0400 0000 0400 0000 0400 0000 0400 0000
00000160: 0400 0000 0400 0000 0000 0000 0400 0000
00000170: 0400 0000 0400 0000 0400 0000 0400 0000
00000180: 0000 0000 0000 0000 0400 0000 0400 0000
00000190: 0400 0000 0000 0000 0400 0000 0400 0000
000001a0: 0400 0000 0400 0000 0400 0000 0400 0000
000001b0: 0400 0000 0400 0000 0400 0000 0400 0000
000001c0: 0400 0000 0400 0000 0400 0000 0400 0000
000001d0: 0400 0000 0400 0000 0400 0000 0400 0000
000001e0: 0400 0000 0400 0000 0000 0000 0400 0000
000001f0: 0400 0080 0400 0000 0400 0000 0400 0000
00000200: da55 09b9 664f ecb7 ad4d 6538 11c5 d438
00000210: d197 95b8 c63a b3b5 aae8 05b9 b3e7 2bb9
00000220: 1b54 15b9 09b0 0637 f188 c538 d472 90b7
00000230: 28e4 d1b8 abf2 c437 f737 5337 e17e 17b9
00000240: 1124 cf37 7693 1538 e5be 91b7 7a2b 0838
00000250: 5f63 fc37 f14f b3b8 4f72 4936 7b6c 8638
00000260: 4b40 0a38 eaf6 2d38 2202 21b8 17c5 2e35
00000270: eef9 cd38 cf1b ea36 5032 2838 9394 efb8
00000280: a19e db38 6f86 b5b8 fb7e b236 38aa 8fb8
00000290: e217 2b35 6e9f 7e38 fdc5 f1b8 e763 91b8
000002a0: f1c0 8637 7755 ccb7 c189 5d38 186f fc37
000002b0: 23e3 85b9 da27 2b39 a557 d9b8 159b b738
000002c0: ae8a 02b8 2b40 ee37 d36e 0138 6c19 0939
000002d0: bf70 8d38 3bc8 9538 8670 84b9 1619 1fb9
000002e0: dc25 a238 83bb 25b8 4c15 2eb9 4ade bbb4
000002f0: 3cf6 c436 0dfb edb8 4e52 0439 35ba a338
00000300: e46f 27ba cef3 37ba 8e58 4eb9 7de9 a7b9
00000310: 9afe e5b9 9db5 4db7 8ac2 41ba 5dc6 85b9
00000320: 2b72 61ba cd6b 65b8 4f05 3bb9 b27d 75b5
00000330: 7d84 1eba 4c7f 8db7 024e 3db8 c5f1 35ba
00000340: 852a b1b8 62c6 a7b8 9203 47b9 3440 41b9
00000350: a33e 03b9 9e55 e3b9 5d6d b5b8 9dfa 1eb9
00000360: 049d fdb8 15c0 b3b9 257a 6d36 56ee 87b8
00000370: 0c66 9eb9 c83a 0db9 78a3 70b8 5d62 09ba
00000380: 8182 b0b9 6ddd 65ba b65b a5b7 f961 feb9
00000390: a326 d9b8 8db9 bfb8 5e4a 51ba 8bb6 0eba
000003a0: 0f22 c8b9 23dd c6b9 d3a5 59b9 bb3d 53b9
000003b0: 59a1 f1b9 5380 acb9 1f03 43ba 1234 52b9
000003c0: 7f1e 2eba 1169 efb8 2137 a0b9 761f 7cb9
000003d0: 78ba a7b9 24b1 24b9 8b97 4aba 5db8 0eba
000003e0: f024 0fba 8cd5 7eb8 76d0 6aba c990 40b8
000003f0: 7a9a 16b9 ab7c 0cba 3246 8eb9 8737 a6b9
0.00017309227 0.00041043156 1.4412911e-05 8.827183e-05 0.00020042041 -4.4893326e-07 0.0004779236 9.0549096e-05
0.0005026557 1.4179737e-06 -1.2309461e-05 -1.9979511e-06 0.0004850873 -6e-45 -5.650697e-06 0.00029300686
-2.207245e-05 -1.729366e-05 6e-45 0.00016439926 0.00014952674 0.00016821004 8.306642e-06 -6.3040345e-05
-3.9717233e-05 0.00033595803 6e-45 4.1319712e-05 -7.308045e-05 -5.7276055e-05 -1.317364e-06 0.00027685091
-5.172365e-07 0.00033175864 -6e-45 0.00024111633 6.148479e-05 -5.023448e-15 0.00034591462 1.9875202e-05
-2.1109361e-05 -7.709013e-05 4.0725266e-05 1.8682593e-05 0.0001099438 3.2613007e-05 0.00020357648 -0.00013056565
0.0003220319 3.9875893e-05 0.00031456386 2.4551175e-05 0.00026170976 -1.7614137e-05 0.0005443063 0.0001992911
0.0003378977 3.5913015e-06 8.756365e-05 -4.477769e-06 0.00026646355 0.00023580468 -9.542877e-05 3.57798e-05
6e-45 0.0 6e-45 6e-45 6e-45 6e-45 6e-45 6e-45
6e-45 6e-45 6e-45 0.0 6e-45 6e-45 6e-45 6e-45
6e-45 6e-45 0.0 6e-45 6e-45 6e-45 6e-45 6e-45
6e-45 6e-45 0.0 6e-45 6e-45 6e-45 6e-45 6e-45
0.0 0.0 6e-45 6e-45 6e-45 0.0 6e-45 6e-45
6e-45 6e-45 6e-45 6e-45 6e-45 6e-45 6e-45 6e-45
6e-45 6e-45 6e-45 6e-45 6e-45 6e-45 6e-45 6e-45
6e-45 6e-45 0.0 6e-45 -6e-45 6e-45 6e-45 6e-45
-0.0001309732 -2.8170365e-05 5.4670196e-05 0.00010145654 -7.133152e-05 -1.3353645e-06 -0.00012770543 -0.00016394145
-0.00014241079 8.028009e-06 9.419199e-05 -1.7219609e-05 -0.00010008394 2.3478022e-05 1.258961e-05 -0.00014447748
2.4693118e-05 3.5661702e-05 -1.737424e-05 3.2465417e-05 3.0087014e-05 -8.5502754e-05 3.001787e-06 6.409824e-05
3.296164e-05 4.147637e-05 -3.8387378e-05 6.5106855e-07 9.821715e-05 6.976981e-06 4.010118e-05 -0.00011424082
0.00010472281 -8.655793e-05 5.319596e-06 -6.850477e-05 6.373722e-07 6.07068e-05 -0.00011528654 -6.932747e-05
1.606389e-05 -2.4358493e-05 5.28188e-05 3.0092473e-05 -0.00025536967 0.00016322677 -0.000103636914 8.755006e-05
-3.112357e-05 2.8401691e-05 3.085921e-05 0.00013074809 6.7444045e-05 7.1421695e-05 -0.00025260838 -0.00015172767
7.731814e-05 -3.95137e-05 -0.00016601867 -3.49932e-07 5.8699206e-06 -0.000113478025 0.00012619162 7.8071294e-05
-0.00063872174 -0.0007017226 -0.0001967868 -0.00032026684 -0.00043867977 -1.2261237e-05 -0.00073913543 -0.0002551553
-0.0008600081 -5.4698252e-05 -0.00017835687 -9.1452523e-07 -0.0006046964 -1.6867787e-05 -4.5133762e-05 -0.00069406285
-8.4479376e-05 -8.000132e-05 -0.00018979449 -0.00018429832 -0.00012516468 -0.00043360604 -8.651123e-05 -0.00015161415
-0.000120932265 -0.00034284653 3.538685e-06 -6.481695e-05 -0.0003021214 -0.00013468706 -5.73727e-05 -0.00052407925
-0.0003366657 -0.0008768652 -1.9712239e-05 -0.0004851965 -0.00010354563 -9.142151e-05 -0.0007983799 -0.0005444071
-0.00038172348 -0.00037930263 -0.00020756507 -0.00020145524 -0.00046087315 -0.00032902005 -0.0007439125 -0.00020046558
-0.00066421175 -0.00011415978 -0.00030558652 -0.00024044313 -0.00031991652 -0.00015706249 -0.000772827 -0.00054443424
-0.0005460521 -6.07572e-05 -0.00089574547 -4.591121e-05 -0.00014362662 -0.0005359153 -0.0002713665 -0.00031703358
