toy_al/mini_exp/1000-200000-200-001-no/ckpt_phase0.pt (torch, 47981 bytes, 30 tensors)

fc1.weight f4 [64, 4]
0	0x3bd033a0	0.0063538104
1	0xbeb71095	-0.3575484
2	0x3ee0ab0f	0.43880507
3	0xbe631e94	-0.22179633
4	0xbf2e9ee2	-0.68211186
5	0xbea60084	-0.32422268
6	0x3b24adba	0.0025127963
7	0xbf7bf971	-0.9842749
8	0xbe60e49d	-0.21962209
9	0x3dd9f238	0.10641903
10	0x3ed48f43	0.4151555
11	0xbe9bbcbe	-0.30417436
12	0x3f227818	0.634645
13	0x3db16c07	0.08663183
14	0x3a03fb36	0.0005034687
15	0x3fd68da9	1.6761981
16	0x3e74c4bc	0.23903173
17	0xbe5f923b	-0.21833126
18	0x3ebf8bda	0.37411386
19	0xbefa8a31	-0.48933557
20	0xbf17e629	-0.5933557
21	0x3db4ceab	0.08828481
22	0xbe2bc77e	-0.16775319
23	0x3eed4569	0.46342018
24	0xbf4232b1	-0.758586
25	0x3eafe131	0.34351495
26	0x3cb5aee7	0.022178126
27	0xbed009e0	-0.40632534
28	0xbf18310c	-0.5944984
29	0xbe5dd492	-0.2166312
30	0x3e00a43b	0.12562649
31	0xbf00b511	-0.50276285
32	0x3ee1f0a9	0.44128922
33	0x3e1e8962	0.15482095
34	0x3ed29986	0.41132754
35	0xbe99a66c	-0.30009782
36	0x3e3d4277	0.18482386
37	0x3daace20	0.083400965
38	0x3e9b4b55	0.3033091
39	0xbf2f5461	-0.68488127
40	0xbef47978	-0.47748923
41	0x3ee43cdd	0.44577685
42	0x3e067110	0.13129067
43	0x3d808afa	0.06276508
44	0x3f6ca286	0.9243549
45	0x3db6906b	0.08914264
46	0xbe02f0bd	-0.12787147
47	0x3eda2bd6	0.4261157
48	0xbeceedca	-0.40415794
49	0x3ebee48e	0.37283748
50	0xbdfd449b	-0.12366601
51	0x3f02b0e0	0.5105114
52	0xbed040c6	-0.40674418
53	0x3f0b3296	0.54374063
54	0x3e40e291	0.18836428
55	0xbdc8a7f3	-0.09797659
56	0x3d47ea35	0.04880734
57	0x3d82a2fc	0.06378743
58	0xbe941ceb	-0.28928313
59	0xbef8a77d	-0.48565283
60	0xbe7f85e1	-0.24953414
61	0x3ecd8dc7	0.4014723
62	0xbf02d4ff	-0.51106256
63	0xbb38226e	-0.0028096694
64	0x3daf9643	0.08573582
65	0xbe128e4c	-0.14312094
66	0x3f163815	0.58679324
67	0x3d1b27da	0.037879802
68	0x3c933659	0.01797025
69	0x3dfc69fc	0.123249024
70	0x3e9f26e8	0.3108437
71	0x3dc8e607	0.09809499
72	0x3f66f1fe	0.90213
73	0xbca49951	-0.020092638
74	0xbd9a5616	-0.07535951
75	0xbd04daef	-0.032435354
76	0xbe31169b	-0.1729378
77	0xbe67e61e	-0.22646376
78	0xbe4a9ce8	-0.19786417
79	0xbf45cec8	-0.7726865
80	0x3f68e487	0.90973705
81	0xbc7aa1cf	-0.015297367
82	0xbca2fc41	-0.019895675
83	0xbf61794f	-0.8807573
84	0xbd20f254	-0.039293602
85	0x3eda415c	0.4262799
86	0xbede908a	-0.4346965
87	0x3ea59e03	0.32347116
88	0x3f836566	1.0265319
89	0xbeb23ccb	-0.34812006
90	0xbc4c8c30	-0.012484595
91	0xbe9a2de1	-0.30113128
92	0xbdcb2852	-0.099198
93	0x3d550c50	0.052013695
94	0x3f1ef81f	0.6209735
95	0x3e587350	0.21137738
96	0xbe5f25fc	-0.21791834
97	0x3d8246aa	0.06361134
98	0xbdfacc99	-0.12246055
99	0xbe83d708	-0.25749993
100	0xbd70ef9d	-0.058822263
101	0x3ed2f8ed	0.4120554
102	0x3f084090	0.53223515
103	0x3eca85b2	0.39555126
104	0x3e96af80	0.2943077
105	0x3e43ba07	0.19113933
106	0xbe6cd0b9	-0.23126496
107	0x3e0ed1d0	0.13947225
108	0xbf2c0696	-0.6719755
109	0x3eaf209a	0.3420456
110	0xbeaf60b3	-0.34253463
111	0x3f0caa1e	0.5494708
112	0x3f02e3ff	0.51129144
113	0x3e29724e	0.1654751
114	0xbd8c7cd9	-0.0685975
115	0xbe2bbc37	-0.16771017
116	0xbf959705	-1.1686713
117	0xbf11b19b	-0.5691163
118	0xbe6c170f	-0.23055671
119	0x3f3c590b	0.7357337
120	0x3ed3ddd5	0.41380182
121	0x3e831da1	0.25608543
122	0x3ed70600	0.41996765
123	0x3eebed19	0.4607933
124	0x3ec8dd6b	0.39231429
125	0xbe63e32e	-0.22254631
126	0xbe00d858	-0.12582529
127	0x3d258af1	0.040415708
128	0x3f9192e5	1.1372954
129	0xbe35b772	-0.1774576
130	0x3e898d8e	0.2686581
131	0xbe8c3537	-0.2738435
132	0x3f80899f	1.0041999
133	0xbc741d22	-0.014899524
134	0x398d9b21	0.00027009196
135	0xbe786d78	-0.24260509
136	0x3e6a69d5	0.22891934
137	0x3ee40d8c	0.44541585
138	0xbe7953f5	-0.24348433
139	0x3e141b0f	0.14463447
140	0xbe54a75e	-0.2076697
141	0x3e90a015	0.28247133
142	0x3ed58f59	0.41710928
143	0xbea336ce	-0.3187775
144	0x3f4ad27c	0.79227424
145	0x3e422a51	0.18961455
146	0xbe1b083d	-0.15139861
147	0x3fb735dc	1.4313312
148	0x3f05376d	0.520377
149	0xbf2d20a7	-0.6762795
150	0xbde79ba5	-0.11308984
151	0x3f426db2	0.7594863
152	0x3eedd0aa	0.4644826
153	0xbe9a37c3	-0.30120668
154	0x3e9f14fe	0.31070703
155	0xbdd70bbf	-0.10500287
156	0xbf20730f	-0.62675565
157	0xbf26f55c	-0.6521814
158	0x3ebd7475	0.37002912
159	0xbeee25c1	-0.4651318
160	0xbe5b3449	-0.21406664
161	0xbf0bdaa6	-0.54630506
162	0xbe9fa8d8	-0.31183505
163	0xbd747cf4	-0.059689477
164	0xbdd69a1c	-0.10478613
165	0x3e181971	0.14853455
166	0xbe98f472	-0.29873997
167	0xbefbf3a4	-0.4920932
168	0xbf2a64d8	-0.66560125
169	0xbeabbc4b	-0.33542094
170	0x3d895dc8	0.067073405
171	0x3ea66d0b	0.32505068
172	0xbd75d006	-0.06001284
173	0xbf1191f2	-0.5686332
174	0x3ec53096	0.3851363
175	0xbefc457e	-0.49271768
176	0x3e48906c	0.19586343
177	0xbf034d96	-0.5129026
178	0x3d46b538	0.048512667
179	0x3e0c2299	0.13685073
180	0x3f3b72b6	0.7322191
181	0x3e0ee91d	0.13956113
182	0xbec83de4	-0.3910972
183	0xbe3f2789	-0.18667425
184	0xbf285db9	-0.6576801
185	0xbf127612	-0.5721141
186	0xbdab0f7a	-0.08352561
187	0xbf0f94d9	-0.560865
188	0x3eb895c6	0.36051768
189	0x3e088a49	0.13334002
190	0xbe8f357a	-0.27970487
191	0x3f563821	0.83679396
192	0x3ee9a900	0.4563675
193	0xbe79183f	-0.24325655
194	0xbea3dc49	-0.32004002
195	0xbec7dbb4	-0.39034808
196	0xbe56ef32	-0.20989683
197	0xbee9685e	-0.45587438
198	0x3ef6e933	0.48224792
199	0x3f83b367	1.0289124
200	0x3eb70d26	0.3575222
201	0x3e58617e	0.2113094
202	0x3b003152	0.0019560647
203	0x3fc55573	1.5416702
204	0x3ecfea00	0.40608215
205	0x3dd71776	0.10502522
206	0x3ea64b16	0.3247916
207	0xbea2665a	-0.31718713
208	0xbe681216	-0.22663149
209	0x3ea2213b	0.31665978
210	0xbeac1024	-0.33606064
211	0x3e340f81	0.1758404
212	0xbf39e106	-0.72608984
213	0x3eafc980	0.3433342
214	0x3ec4127e	0.38295358
215	0xbe814707	-0.25249502
216	0xbf43b2bc	-0.764446
217	0xbdd71816	-0.10502641
218	0x3e208f4d	0.15679665
219	0xbe740399	-0.23829497
220	0xbf2e3d78	-0.68062544
221	0xbe0cd041	-0.13751318
222	0xbe7de757	-0.2479528
223	0x3e8f8c47	0.2803671
224	0xbf14b5f1	-0.5809012
225	0x3e2528f2	0.161289
226	0xbea0fa51	-0.31440976
227	0x3c492d0f	0.012278809
228	0x3eebfe30	0.46092367
229	0xbe1b348f	-0.15156768
230	0xbed723fd	-0.42019644
231	0x3f3f2fb9	0.74682194
232	0x3f507580	0.8142929
233	0xbea68508	-0.3252337
234	0x3d9ab3e4	0.07553843
235	0xbf534b82	-0.8253709
236	0xbf5dc9af	-0.8663587
237	0xbe9034bf	-0.28165242
238	0x3ec39b96	0.3820464
239	0x3f8c62b6	1.0967624
240	0x3f82a5e6	1.0206878
241	0x3e7a82b4	0.24463922
242	0xbd6ed6bc	-0.058310255
243	0x3e2c4e1f	0.16826676
244	0x3c9c2704	0.019061573
245	0x3d937d8e	0.07201682
246	0xbedae45b	-0.42752346
247	0xbee9f201	-0.45692447
248	0x3f79a211	0.9751292
249	0x3f1feb7c	0.62468696
250	0x3e02d782	0.12777522
251	0x3e816a8a	0.25276595
252	0xbf52aafd	-0.8229216
253	0x3de54ce2	0.11196305
254	0xbd1a6547	-0.03769424
255	0xbe87fe7a	-0.26561338

fc1.bias f4 [64]
0	0x3f2624cd	0.64899904
1	0xbf50c417	-0.8154921
2	0x3f1fb546	0.62385976
3	0xbeefa992	-0.4680906
4	0xbd665d35	-0.056241233
5	0x3f13d86f	0.57752126
6	0x3f3a045c	0.726629
7	0xbf706230	-0.9389982
8	0x3ee756da	0.4518345
9	0x3da70027	0.08154326
10	0xbe058f0d	-0.13042851
11	0xbf0213d3	-0.508115
12	0xbe4e5d5d	-0.20152803
13	0x3dfc5aef	0.12322032
14	0xbe47ed51	-0.19524123
15	0xbf04b865	-0.51843864
16	0x3f137123	0.5759451
17	0xbd886120	-0.0665915
18	0x3f02469a	0.5088898
19	0x3e45ff14	0.19335586
20	0xbd04c8f0	-0.03241819
21	0xbe15b2dc	-0.1461901
22	0x3f0e302a	0.5554224
23	0x3e26a016	0.16272005
24	0x3ef2a53f	0.47391698
25	0xbe727206	-0.23676309
26	0x3e779e3a	0.24181452
27	0xbe9ba303	-0.30397806
28	0x3e5ef156	0.2177175
29	0xbfb45f0d	-1.4091507
30	0x3f0a940c	0.5413215
31	0xbd5c58f5	-0.053795774
32	0x3e2425dc	0.16030067
33	0x3f1f97fa	0.6234127
34	0x3f154f4f	0.5832414
35	0xbe58dcc1	-0.21177961
36	0xbd45be54	-0.048277214
37	0x3e2909eb	0.1650769
38	0x3f370c1d	0.7150286
39	0x3ec6247c	0.3869971
40	0x3f28a142	0.6587106
41	0x3e9ac1e1	0.30226043
42	0xbf2bbb3a	-0.6708256
43	0x3ec68706	0.3877489
44	0x3e8bdcd3	0.27316913
45	0x3dbc9428	0.09207946
46	0x3ee355a8	0.44401288
47	0xbdfb2581	-0.12263013
48	0x3e9f20cc	0.3107971
49	0xbe9490b6	-0.29016656
50	0x3ed306b8	0.41216063
51	0xbd320ba7	-0.043468144
52	0x3e1926c8	0.149562
53	0xbe8e2287	-0.27760717
54	0x3e73fb60	0.2382636
55	0x3f017229	0.5056482
56	0xbe95beba	-0.29247075
57	0xbdbfab07	-0.09358793
58	0x3ec9e7ce	0.39434665
59	0xbfba7d33	-1.4569458
60	0x3ec88276	0.39162034
61	0x3ecbf422	0.39834696
62	0x3ea06c2e	0.31332535
63	0xbe84f322	-0.25966746

fc2.weight f4 [32, 64]
0	0x3d9ac953	0.07557931
1	0xbe0711fe	-0.13190457
2	0xbc05e54c	-0.008172344
3	0xbd9db376	-0.07700245
4	0x3d2195cb	0.039449494
5	0xbda4e718	-0.0805189
6	0xbd91bf98	-0.07116622
7	0x3e22b02c	0.15887517
8	0x3dda1f5c	0.106505126
9	0x3d4cd88d	0.050011206
10	0xbdd64f0f	-0.10464298
11	0xbd2c6eb1	-0.04209775
12	0xbdb2658b	-0.08710774
13	0x3dbfe381	0.09369565
14	0x3db64bcd	0.089011766
15	0x3dd717d1	0.105025895
16	0x3b367971	0.002784338
17	0x3d36fa6f	0.044672426
18	0xbcd8491f	-0.026402054
19	0xbd1b45b9	-0.03790829
20	0xbe48f242	-0.19623664
21	0x3d0e2b2b	0.034709137
22	0xbdcda109	-0.10040481
23	0xbd059e8c	-0.032621905
24	0xbd6055f2	-0.054769464
25	0xbdcd05d4	-0.10010877
26	0x3d8d1b73	0.06890001
27	0x3dd1173b	0.10209509
28	0x3e36a870	0.17837691
29	0x3d8d511e	0.069002375
30	0x3a84340d	0.0010086313
31	0xbb2ee218	-0.0026685055
32	0x3d05a288	0.032625705
33	0x3e0feee6	0.14055976
34	0x3df4acbc	0.11947009
35	0xbc039252	-0.008030491
36	0xbc830008	-0.015991226
37	0xbe037511	-0.12837626
38	0x3d372911	0.0447169
39	0xbe222a16	-0.15836367
40	0x3d250714	0.040289953
41	0xbd1b56ba	-0.037924506
42	0xbc6ba530	-0.0143826455
43	0x3e22559f	0.15852974
44	0xbea29948	-0.3175757
45	0x3da3722f	0.07980763
46	0x3e1b2bd9	0.15153445
47	0xbc3f6ddd	-0.011683908
48	0xbd8cd5ad	-0.06876693
49	0x3baada7e	0.0052140346
50	0xbdde51c0	-0.10855436
51	0xbd39b0b4	-0.045334533
52	0x3d954a38	0.07289547
53	0xbe472c67	-0.19450532
54	0xbd014127	-0.031556275
55	0xbd653450	-0.055958092
56	0xbd9782d2	-0.07397999
57	0x3da75aee	0.0817164
58	0x3e34482d	0.17605658
59	0xbdf83b93	-0.12120738
60	0x3e46a699	0.1939949
61	0x3e069f81	0.13146783
62	0x3e7e6da7	0.24846517
63	0x3ce13984	0.027493246
64	0x3ea3c747	0.31987974
65	0x3f615924	0.8802664
66	0xbd66f61f	-0.056387063
67	0xbf065868	-0.5247865
68	0x3f125666	0.57163084
69	0x3c82a9b5	0.015950063
70	0x3e461497	0.19343792
71	0xbc7a00d3	-0.015258986
72	0xbd6c5668	-0.05769959
73	0xbe3b567e	-0.18294713
74	0x3e56f58e	0.20992109
75	0xbe0f422b	-0.13990085
76	0x3d8ee670	0.06977546
77	0x3e142cc0	0.14470196
78	0x3d27df61	0.040984515
79	0xbcd7ca17	-0.026341481
80	0xbf61874b	-0.88097066
81	0xbdcb4fe3	-0.099273466
82	0x3c3c7cdf	0.011504381
83	0xbd8f5586	-0.06998734
84	0x3e3979e7	0.18112908
85	0x3df8f8c9	0.12156827
86	0x3f0ddff7	0.5541987
87	0xbf1ac06a	-0.6044985
88	0x3dd218ed	0.102586605
89	0xbe0d31fd	-0.137886
90	0xbdd6c792	-0.10487284
91	0x3c86e4c5	0.016466508
92	0xbc373f6f	-0.011184557
93	0x3cc9ccd7	0.024633808
94	0xbda7af69	-0.08187754
95	0x3d858266	0.06519012
96	0x3eafbcfc	0.3432387
97	0xbd8c71d8	-0.068576515
98	0x3ded2ac4	0.115804225
99	0xbac6ad75	-0.0015157895
100	0xbe1352a6	-0.14386997
101	0xbb63e67e	-0.0034774835
102	0x3e5a1c18	0.2129978
103	0xbd333f7c	-0.043761715
104	0xbc1c11aa	-0.009525696
105	0x3dd59f55	0.10430781
106	0x3d5cc7cc	0.05390148
107	0x3eae5265	0.34047237
108	0x3ee42d0b	0.44565615
109	0xbdf7504f	-0.120758645
110	0xbdb8726b	-0.090061985
111	0x3d565828	0.052330166
112	0x3cf3da52	0.02976719
113	0xbe8de9f8	-0.27717566
114	0x3e2123d4	0.15736324
115	0xbd5685e6	-0.05237379
116	0xbe060e9f	-0.13091515
117	0x3d250846	0.040291093
118	0xbe720847	-0.2363597
119	0xbd19c410	-0.037540495
120	0xbdf5d146	-0.12002806
121	0x3c52308f	0.01282896
122	0xbe1ac9c1	-0.15116026
123	0xbd9317b4	-0.071822554
124	0x3db8eacd	0.0902916
125	0xbe05c9cf	-0.13065265
126	0x3e1c2fc0	0.1525259
127	0x3df01cf8	0.11724275
128	0x3b297fe5	0.0025863585
129	0xbd590dab	-0.05299155
130	0x3d865830	0.06559789
131	0xbebf60c5	-0.37378517
132	0x3dac0eab	0.08401235
133	0x3d940f81	0.0722952
134	0x3e3d1bd2	0.18467644
135	0xbcb8d28f	-0.02256134
136	0x3d3a2d32	0.045453258
137	0xbd8dbd14	-0.069208294
138	0xbe31f162	-0.17377236
139	0xbdf65620	-0.12028146
140	0x3d14bea5	0.036314625
141	0x3d39005f	0.04516637
142	0x3c7d2ad8	0.015452109
143	0xbd1955aa	-0.03743521
144	0xbe07e564	-0.132711
145	0xbd45dba6	-0.048305176
146	0x3e295f1f	0.16540192
147	0xbde2dc58	-0.110771835
148	0x3e83a2cf	0.2571015
149	0x3d923fe5	0.07141093
150	0x3e9b5696	0.30339497
151	0xbe1a6145	-0.15076168
152	0xbdaafb0e	-0.08348666
153	0xbe14fab6	-0.14548764
154	0xbd8f9d0b	-0.070123754
155	0x3ddf37d1	0.10899318
156	0x3dca0ce9	0.09865744
157	0xbe0aeacd	-0.13566132
158	0xbd15a15d	-0.03653084
159	0x3dbff96e	0.09373747
160	0xbd0ddf99	-0.034637067
161	0x3de70251	0.11279739
162	0x3c6f8b58	0.0146206245
163	0x3ca49b76	0.02009366
164	0xbdebc702	-0.11512567
165	0x3dbcb854	0.09214845
166	0xba712363	-0.00091986934
167	0xbe747b9e	-0.23875281
168	0x3d58a155	0.052888233
169	0x3d8facf1	0.07015408
170	0xbde1db13	-0.11028113
171	0xbe4663ff	-0.19374083
172	0x3eae5cc2	0.34055144
173	0x3c6c5b33	0.01442604
174	0xbc99bd48	-0.018767014
175	0x3ce12ea8	0.027488068
176	0xbd93b09a	-0.072114184
177	0xbc521f11	-0.01282479
178	0x3d2ee196	0.042695604
179	0x3d7dc598	0.06195602
180	0x3e016742	0.12637046
181	0x3d580c1d	0.052745927
182	0x3dcaaa82	0.09895803
183	0x3d0920a1	0.033478383
184	0xbd46ad7b	-0.048505288
185	0xbd67261a	-0.05643282
186	0x3d429fe5	0.04751577
187	0xbe0a94bc	-0.135333
188	0x3daf2e1b	0.08553716
189	0x3dcf3ec6	0.10119395
190	0x3d42afa5	0.04753079
191	0x3dfd2cb1	0.1236204
192	0xbdb5a11b	-0.08868619
193	0xbd5a2e70	-0.053266943
194	0x3e4450af	0.19171403
195	0x3eea41c6	0.45753306
196	0x3d191938	0.037377566
197	0x3da4145c	0.08011696
198	0x3c061098	0.008182667
199	0x3ce2a851	0.02766815
200	0x3e1cc5f2	0.15309885
201	0xbd08885d	-0.03333317
202	0x3d973d2a	0.07384713
203	0xbd10092e	-0.035165004
204	0xbe179d24	-0.14806038
205	0x3bebf37d	0.007200657
206	0xbd0ec7ad	-0.034858394
207	0xbe7c5782	-0.24642757
208	0xbd283f6d	-0.041076113
209	0xbd6e1dfa	-0.058134057
210	0x3e01b8a4	0.12668091
211	0x3ef6bb9e	0.48190016
212	0xbee848ab	-0.4536794
213	0xbcd23918	-0.02566199
214	0x3dbeb519	0.093118854
215	0xbc458648	-0.012055941
216	0xbcc82644	-0.024432309
217	0x3dd81383	0.105505966
218	0x3dc829ca	0.09773596
219	0xbec105b4	-0.37699664
220	0x3d649f3b	0.055815917
221	0xbdda26e5	-0.1065195
222	0x3de2844f	0.11060392
223	0x3eb47256	0.3524348
224	0x3e2070aa	0.15667978
225	0x3e1dab9c	0.15397495
226	0x3dbf0535	0.09327165
227	0x3d8d20f2	0.068910494
228	0xbdb12605	-0.0864983
229	0x3e47c3c3	0.19508271
230	0xbdd1f34b	-0.102514826
231	0xbcfed440	-0.031107068
232	0xbf74bd34	-0.956012
233	0xbb675358	-0.003529748
234	0x3dfb2c4f	0.122643106
235	0x3d8a4c88	0.067528784
236	0x3f375bed	0.7162464
237	0xbc18120c	-0.009281646
238	0xbf4d58e4	-0.8021376
239	0xbe055326	-0.1302
240	0xbef2ee37	-0.47447369
241	0x3db98066	0.09057693
242	0x3eb2a7bb	0.34893593
243	0x3e333a8d	0.17502804
244	0xbd194178	-0.03741595
245	0x3dd16006	0.10223393
246	0xbd502fd5	-0.050826866
247	0xbe9b92d5	-0.3038546
248	0xbe7b71a2	-0.24555066
249	0xbefbb595	-0.49161974
250	0x3d97ced2	0.07412495
251	0xbd1902e7	-0.037356284
252	0x3d93a09c	0.07208368
253	0x3d57f77e	0.05272626
254	0x3df2bb55	0.11852137
255	0xbeaebf22	-0.34130198

fc2.bias f4 [32]
0	0xbe2f517d	-0.17120929
1	0xbb4f5b63	-0.0031640164
2	0x3ce12e2b	0.027487835
3	0x3e4e2616	0.20131716
4	0x3ed2b43d	0.41153136
5	0xbdd11800	-0.10209656
6	0x3e7e9bb1	0.24864079
7	0x3e723ab1	0.23655201
8	0xbc8313fa	-0.016000737
9	0x3de08f66	0.10964851
10	0x3e67b056	0.2262586
11	0x3e9a4853	0.30133304
12	0x3e73ef7e	0.23821828
13	0x3dd30d15	0.103052296
14	0x3d9358cf	0.07194673
15	0xbe75dc8a	-0.2400991
16	0xbe0a59a9	-0.13510765
17	0x3e738f45	0.23785122
18	0x3d81d570	0.06339538
19	0xbe1cf8a7	-0.15329228
20	0x3d14941b	0.036274057
21	0x3e35895c	0.1772818
22	0xbe684fde	-0.22686717
23	0x3e788404	0.2426911
24	0xbdd18338	-0.10230106
25	0x3d0546a0	0.032538056
26	0xbdaf15dd	-0.08549092
27	0xbe64eba6	-0.22355518
28	0x3b925cd0	0.0044666305
29	0x3eb146b0	0.34624243
30	0xbd01072a	-0.031500973
31	0x3e90fcfc	0.28318012

fc3.weight f4 [16, 32]
0	0xbe41d940	-0.1893053
1	0xbc5eaa1c	-0.013590362
2	0xbdeaceaf	-0.11465203
3	0xbe072b25	-0.13200052
4	0x3d15e6e9	0.036597166
5	0x3d60cbbe	0.054881804
6	0xbdca0887	-0.09864908
7	0x3d3756df	0.04476058
8	0xbdc3ea50	-0.09566176
9	0x3db18d50	0.08669531
10	0xbbd7fbc3	-0.0065912916
11	0xbe286af4	-0.1644705
12	0xbe01d73a	-0.12679759
13	0xbdfa52ec	-0.12222847
14	0xbda753d2	-0.08170284
15	0x3d6f1eb5	0.058378894
16	0xbb7599d0	-0.0037475713
17	0xbddb4b90	-0.10707772
18	0xbe3e67a4	-0.18594223
19	0x3e149e92	0.14513615
20	0xbe0ed462	-0.13948205
21	0x3d81e3f9	0.063423105
22	0x3cdbcca0	0.026830971
23	0x3ccdb8ae	0.025112476
24	0xbe0fc57a	-0.14040175
25	0xbe042d91	-0.12908007
26	0xbcb30bad	-0.021856153
27	0x3b93365d	0.0044925646
28	0xbde3d745	-0.11125044
29	0x3dfb9d48	0.122858584
30	0x3d030df6	0.031995736
31	0xbe53aad6	-0.20670637
32	0x3e3527f5	0.17691024
33	0x3d92f28e	0.0717517
34	0x3d28bc62	0.04119528
35	0x3e0e38f0	0.13888907
36	0xbdbdbc90	-0.09264481
37	0xbe4159b0	-0.1888187
38	0x3d4ec8a1	0.050484303
39	0x3e02428d	0.127207
40	0xbd7ec521	-0.062199716
41	0xbd0a73fd	-0.03380202
42	0x3c0aa0c3	0.00846118
43	0xbe02c5d6	-0.12770781
44	0x3e05c793	0.13064413
45	0x3e55dd16	0.20885119
46	0x3e2269f5	0.15860732
47	0x3db11b77	0.08647817
48	0xbceaabff	-0.028646467
49	0x3defef2c	0.1171554
50	0x3ca5b8de	0.020229753
51	0x3de89951	0.11357368
52	0x3e23f6b1	0.16012074
53	0xbd89ce59	-0.06728811
54	0x3cfd5fdc	0.030929498
55	0x3ceb4b36	0.028722387
56	0x3e23fbae	0.16013977
57	0xbde68d41	-0.11257411
58	0x3db9aa46	0.0906568
59	0x3e44b616	0.19210085
60	0x3e4e7274	0.20160848
61	0x3d89c925	0.067278184
62	0x3d32e522	0.04367555
63	0xbdfc7be8	-0.12328321
64	0xbc8fc930	-0.017551988
65	0xbd85732f	-0.0651611
66	0x3e09b8f2	0.13449457
67	0xbdd210b2	-0.10257091
68	0x3dbb1fe7	0.09136944
69	0xbde0a59c	-0.109690875
70	0x3e4d3b31	0.20042111
71	0x3e9c067b	0.30473694
72	0xbd491bcb	-0.04909877
73	0x3d26089d	0.040535558
74	0x3dee59e4	0.11638239
75	0x3df2ff11	0.11865056
76	0x3def3166	0.11679344
77	0x3e0aa365	0.13538893
78	0xbe25cd90	-0.16191697
79	0xbd8d13d7	-0.0688855
80	0x3d2d49dd	0.04230677
81	0x3dbca402	0.092109695
82	0xbd54c413	-0.051944803
83	0xbdd48f2f	-0.103788726
84	0x3d78d6c7	0.060751703
85	0x3ea1c3df	0.3159475
86	0xbccc66d3	-0.024951374
87	0x3e44a799	0.19204558
88	0xbdd30b70	-0.10304916
89	0x3dcef639	0.10105557
90	0x3d7e977b	0.06215618
91	0xbdb54986	-0.08851914
92	0x3dd072c7	0.10178142
93	0x3f03df56	0.5151266
94	0x3d2df187	0.042466667
95	0x3e04888b	0.12942712
96	0xbe4aee78	-0.19817531
97	0xbd939a9b	-0.07207223
98	0xbe1b36e7	-0.15157662
99	0x3c2ead02	0.010661365
100	0xbe72b20b	-0.2370073
101	0x3d0015b5	0.0312707
102	0x3d877366	0.066138074
103	0x3da8a3d7	0.08234375
104	0xbe2e4ad4	-0.17020732
105	0xbc8299a7	-0.015942408
106	0xbdd65b64	-0.1046665
107	0x3d7bea27	0.061502602
108	0xbe285cf4	-0.16441709
109	0xbe3a26b4	-0.18178827
110	0xbe0d7942	-0.13815787
111	0xbd31c931	-0.04340476
112	0xbd25f35a	-0.04051528
113	0x3ddc91d7	0.10770004
114	0x3e15ec46	0.14640912
115	0x3da27219	0.07931919
116	0xbe3fc794	-0.18728477
117	0x3cc76782	0.024341349
118	0xbe2d0fdf	-0.16900586
119	0xbe35eae7	-0.1776539
120	0x3dcec15f	0.10095476
121	0xbd5f5af4	-0.0545301
122	0x3a9b3728	0.0011841999
123	0x3da0dc5a	0.07854529
124	0x3d38215d	0.044953693
125	0x3c570a62	0.013125034
126	0x3d6073b1	0.054797832
127	0xbe202c60	-0.15641928
128	0xbe364232	-0.17798689
129	0x3e136056	0.14392218
130	0x3e3b8d52	0.18315628
131	0xbeac77a3	-0.33685026
132	0xbd3aeced	-0.045636106
133	0xbcc8bd45	-0.024504313
134	0x3f039260	0.51395226
135	0x3db30ed2	0.08743061
136	0x3c0058f9	0.007833713
137	0x3d2e3cc7	0.04253843
138	0xbd82fb10	-0.063955426
139	0xbd5fe859	-0.054664943
140	0xbde82d2d	-0.113367416
141	0xbe2d5ee0	-0.16930723
142	0x3e33c728	0.17556441
143	0xbe1d503b	-0.15362637
144	0xbe0608fc	-0.13089365
145	0x3dd9e4bb	0.1063933
146	0x3c9f58fa	0.019451607
147	0x3e34226f	0.1759126
148	0x3df81ebb	0.12115236
149	0x3f15d80b	0.5853278
150	0xbd1c16d1	-0.038107697
151	0xbdb1c4c3	-0.086801074
152	0xbe235de1	-0.1595378
153	0x3d444048	0.047912866
154	0x3e362933	0.17789154
155	0xbd6b0980	-0.057382107
156	0x3f5ddabf	0.86661905
157	0x3e7cb96a	0.24680105
158	0xbd6657f2	-0.056236215
159	0xbdac70e9	-0.084199734
160	0xbda57bb1	-0.08080233
161	0x3e3dc5e7	0.18532525
162	0x3e13e6bd	0.14443488
163	0xbd02e191	-0.0319534
164	0xbcb9d6f7	-0.022685511
165	0xbd939f4a	-0.07208116
166	0x3ee84608	0.4536593
167	0x3e540a39	0.20707025
168	0x3e51c0af	0.20483659
169	0x3e2fedf8	0.17180622
170	0xbe016e3b	-0.12639706
171	0xbde56977	-0.112017564
172	0x3e8973f1	0.2684627
173	0x3e3519bd	0.176856
174	0x3e23da06	0.16001138
175	0xbdf9e270	-0.12201393
176	0xbd5a47e1	-0.053291205
177	0x3e53b966	0.20676193
178	0xbdb81197	-0.0898773
179	0x3dfc5e35	0.12322656
180	0x3d5ed1bc	0.054399237
181	0x3e8e10df	0.27747247
182	0xbc82005a	-0.015869308
183	0xbe21933d	-0.15778823
184	0x3dd20057	0.10253971
185	0x3caa7c55	0.02081124
186	0xbdf266cc	-0.11836013
187	0xbd709b14	-0.058741644
188	0x3da39aea	0.07988532
189	0x3eb1920a	0.3468173
190	0xbdbd783b	-0.09251448
191	0x3d5706c3	0.052496683
192	0x3d408e42	0.047010668
193	0xbdc9bce4	-0.09850481
194	0x3e2bb485	0.16768081
195	0xbc23502b	-0.009967844
196	0x3e0ad09a	0.13556138
197	0xbe062739	-0.131009
198	0xbeb293ab	-0.34878287
199	0xbd861cc0	-0.065484524
200	0xbe13b9bb	-0.1442632
201	0x3da96d8d	0.08272848
202	0xbe26d859	-0.16293468
203	0xbce25f95	-0.027633468
204	0x3e85585f	0.26043984
205	0x3d142361	0.036166552
206	0x3e083fe0	0.13305616
207	0xbdea4502	-0.114389434
208	0xbddd2608	-0.107982695
209	0xba8f78f2	-0.0010946079
210	0x3e36c480	0.17848396
211	0x3dd1f2d4	0.10251394
212	0x3d9f6f4c	0.077849
213	0x3cb46172	0.022019122
214	0x3d3e85cf	0.04651433
215	0x3e2e14b8	0.17000091
216	0x3e299d96	0.1656402
217	0x3d8f942d	0.07010684
218	0x3ceb0502	0.028688911
219	0x3e22a880	0.1588459
220	0xbccb749c	-0.024835877
221	0xbe740ea2	-0.23833707
222	0x3e1f6580	0.15566063
223	0xbe313b55	-0.1730779
224	0xbdcef172	-0.10104646
225	0x3e601558	0.21883142
226	0x3d39897e	0.04529714
227	0xbf0d470c	-0.55186534
228	0x3d45a765	0.048255343
229	0xbeabf40d	-0.33584633
230	0x3f0bb062	0.54566014
231	0x3e625eac	0.22106427
232	0xbe2f6780	-0.17129326
233	0x3e52782d	0.20553656
234	0xbe12d37a	-0.14338484
235	0x3c79b151	0.015240029
236	0x3e0182e8	0.12647593
237	0xbe3569f3	-0.17716198
238	0x3e05d8bb	0.13070957
239	0x3ce35eb6	0.027755123
240	0xbde544f9	-0.11194796
241	0x3e39ba8e	0.18137571
242	0xbe88b5d5	-0.26701227
243	0xbdd0d016	-0.10195939
244	0xbd8b8054	-0.06811586
245	0x3ed53bb6	0.41647118
246	0xbe2e09cf	-0.16995929
247	0x3ddbbb4f	0.10729086
248	0xbe19ecb1	-0.15031697
249	0xbddc0610	-0.10743344
250	0x3d5a3a71	0.05327839
251	0x39d115d4	0.0003987985
252	0x3f49e244	0.7886088
253	0x3e798ab9	0.24369325
254	0xbcb12b07	-0.021626962
255	0xbd322404	-0.04349138

fc3.bias f4 [16]
0	0xbe005131	-0.12530972
1	0xbd87e94b	-0.06636294
2	0x3e9db518	0.30802226
3	0xbda601db	-0.08105823
4	0x3cb0fe57	0.021605654
5	0x3e8423ca	0.25808555
6	0xbd4167cb	-0.047218125
7	0x3e64b44b	0.22334401
8	0x3e526723	0.20547156
9	0x3d4a4a0c	0.049387023
10	0x3e605b36	0.21909794
11	0x3d14755a	0.036244728
12	0x3e8464f4	0.2585827
13	0xbdfbe1cc	-0.12298927
14	0xbe622bd5	-0.22087033
15	0x3d85928d	0.06522093

fc4.weight f4 [8, 16]
0	0xbd2c7661	-0.042105082
1	0xbe8b5d37	-0.27219555
2	0x3e4afee0	0.1982379
3	0x3d8facbc	0.07015368
4	0xbdf84063	-0.12121656
5	0xbdde9c81	-0.108696945
6	0x3ebc210b	0.3674396
7	0x3d8ca1ce	0.06866799
8	0xbcdb35e5	-0.026759097
9	0xbd1cd069	-0.038284693
10	0xbe19adb9	-0.15007676
11	0xbedb8858	-0.4287746
12	0x3f14b453	0.5808765
13	0x3e375dd7	0.17906891
14	0xbe606fe0	-0.21917677
15	0x3f51845c	0.8184259
16	0x3da3c328	0.079962075
17	0xbe7a6687	-0.24453174
18	0xbe77d61e	-0.24202773
19	0xbe6fefea	-0.23431364
20	0xbc8b661a	-0.01701646
21	0xbd368aed	-0.044566084
22	0xba3d0a81	-0.0007211343
23	0x3c64cdc9	0.013965079
24	0xbdc8c01e	-0.098022684
25	0x3d9f3cbe	0.077752575
26	0xbe0a74f1	-0.13521172
27	0x3db323dd	0.08747075
28	0x3e091fb8	0.13391006
29	0xbdd24b8e	-0.10268317
30	0xbd9d7a98	-0.076893985
31	0xbcb5b76e	-0.022182193
32	0x3e1ac0fa	0.15112677
33	0x3d1d4210	0.03839308
34	0x3eae5e6a	0.34056407
35	0x3c9dc648	0.019259587
36	0x3e481af4	0.19541532
37	0x3e0ffbf2	0.14060953
38	0x3e5a82c9	0.21338953
39	0x3e74639a	0.2386612
40	0xbe8ac906	-0.27106494
41	0xbe55cc02	-0.20878604
42	0x3de2711b	0.110567294
43	0x3e6f506a	0.2337052
44	0x3d871568	0.0659588
45	0xbd76feec	-0.060301706
46	0xbe08107e	-0.13287541
47	0xbf242542	-0.6411935
48	0x3e6143d4	0.2199853
49	0xbcfa61b3	-0.030564165
50	0x3dddce5a	0.10830374
51	0xbe1762ef	-0.14783834
52	0xbc2fd036	-0.010730794
53	0xbc890fbe	-0.01673114
54	0xbe586ce9	-0.21135296
55	0x3e8baafe	0.27278894
56	0xbe195ec1	-0.14977552
57	0xbe946f78	-0.28991294
58	0x3e46efc1	0.19427396
59	0x3dd45093	0.10366931
60	0x3d6c033e	0.05762028
61	0x3e2270e6	0.1586338
62	0x3dbe0a4f	0.0927931
63	0xbf02ce13	-0.51095694
64	0xbe023358	-0.12714899
65	0xbe917777	-0.28411457
66	0x3ed1847c	0.4092139
67	0x3cdac53b	0.026705375
68	0xbebd91a6	-0.37025183
69	0xbe8640fe	-0.2622146
70	0x3e2db63d	0.1696405
71	0x3be4e71a	0.0069855573
72	0x3ed44f20	0.41466618
73	0xbe2605cb	-0.16213147
74	0x3e0c5ae3	0.13706546
75	0x3ba50a78	0.0050366484
76	0xbe7d52ea	-0.2473866
77	0xbea7dddd	-0.32786456
78	0x3e130ebf	0.14361094
79	0x3f4d21f1	0.80129915
80	0xbc9c68d2	-0.019092951
81	0xbe4b7670	-0.19869399
82	0x3eb9175b	0.3615063
83	0xbe0d819a	-0.1381897
84	0x3ec28167	0.3798935
85	0x3e11dc41	0.14244176
86	0xbe544aff	-0.20731734
87	0x3e7197a8	0.23593009
88	0x3e43d5cc	0.19124526
89	0x3e61705a	0.22015515
90	0xbe30ed28	-0.17277968
91	0x3f2e7ffc	0.6816404
92	0xbd9e971e	-0.07743667
93	0xbe72164a	-0.23641315
94	0xbe0245f5	-0.12721999
95	0xbeffb933	-0.49945983
96	0x3e1c573a	0.1526765
97	0xbd4c217c	-0.04983662
98	0xbd9deccb	-0.0771118
99	0xbccecceb	-0.025244197
100	0xbe9d7048	-0.30749726
101	0x3bde0fe4	0.0067767967
102	0x3e6cb1de	0.23114726
103	0xbf0f3257	-0.5593619
104	0x3e8cd504	0.27506268
105	0x3db870af	0.09005868
106	0x3e50dbbc	0.20396322
107	0xbfb8a2f6	-1.4424732
108	0x3f3e3abc	0.7430837
109	0xbe8d48a3	-0.2759448
110	0xbcc7e13b	-0.02439939
111	0x3f8fc2d2	1.123133
112	0x3e5d4f1c	0.21612209
113	0xbe4fd32e	-0.20295402
114	0xbe0934c0	-0.13399029
115	0x3e5a429a	0.21314469
116	0xbdb3bbf8	-0.087760866
117	0x3d2ed258	0.04268107
118	0xbd0979a8	-0.033563286
119	0x3db72ea4	0.08944443
120	0xbcdcf180	-0.026970625
121	0xbd2ae260	-0.041719794
122	0x3d833ff8	0.064086854
123	0x3d66f6d0	0.056387722
124	0x3d33b0d0	0.043869793
125	0xbdab4c60	-0.08364177
126	0x3e1b1b2e	0.15147087
127	0xbe0adee0	-0.13561583

fc4.bias f4 [8]
0	0xbe0246af	-0.12722276
1	0x3dd576b2	0.1042303
2	0x3ef50402	0.4785462
3	0x3f14a658	0.5806632
4	0x3e54df34	0.2078827
5	0x3ec12766	0.3772537
6	0x3d152dbb	0.036420565
7	0xbe170ca2	-0.14750913

fc5.weight f4 [3, 8]
0	0x3c36f502	0.011166813
1	0xbe228002	-0.15869144
2	0x3e291cb6	0.16514859
3	0xbe8a935b	-0.27065548
4	0xbe2fef51	-0.17181136
5	0x3ef8a3ee	0.48562568
6	0xbea3225f	-0.3186216
7	0xbdae80e8	-0.08520681
8	0x3e3c3b47	0.18381988
9	0xbe8d1a00	-0.275589
10	0xbe9284ea	-0.2861703
11	0x3e84631a	0.25856858
12	0x3f150ced	0.5822285
13	0x3deeadf3	0.11654272
14	0x3e86a7a5	0.26299778
15	0xbde3e5a8	-0.11127788
16	0xbed1a4db	-0.40946087
17	0xbe21c5ce	-0.15798113
18	0x3e6854e0	0.22688627
19	0x3eaf1bd3	0.34200916
20	0xbe0d3b37	-0.1379212
21	0xbc50a896	-0.0127355065
22	0xbf6cd384	-0.9251025
23	0x3d8d5fc2	0.0690303

fc5.bias f4 [3]
0	0x3e36ad50	0.17839551
1	0x3e1d5881	0.15365793
2	0x3e9b608d	0.303471

exp_avg f4 [64, 4]
0	0xb7ad874c	-2.068621e-05
1	0xb8e03347	-0.000106907035
2	0x3a3de9b7	0.0007244604
3	0x38a503ed	7.868544e-05
4	0xb839d44d	-4.4305158e-05
5	0x392bc58f	0.00016381427
6	0x37249316	9.809408e-06
7	0xb8aa8d20	-8.132518e-05
8	0x372ba47a	1.0230689e-05
9	0x39a190f9	0.00030816326
10	0x398a8407	0.0002641978
11	0x3460b67a	2.092801e-07
12	0xb93d1941	-0.00018033852
13	0xbb156882	-0.0022797887
14	0xbbbc45cf	-0.0057456265
15	0xb96ad6e4	-0.00022396032
16	0x37cee771	2.4664887e-05
17	0xb95183c0	-0.00019980874
18	0xb95f9c10	-0.00021325075
19	0x38aaa6bc	8.1372884e-05
20	0x3848a451	4.7836747e-05
21	0x39b3897c	0.00034243974
22	0x3950c54a	0.00019909922
23	0x381bda33	3.7158094e-05
24	0x390989ed	0.0001311672
25	0x3a6988a7	0.00089086074
26	0x3a6232bb	0.0008628775
27	0x3813bb6f	3.5222092e-05
28	0xb68f6485	-4.273434e-06
29	0x3786a67f	1.6051576e-05
30	0x38e30a6d	0.000108261454
31	0xb6fabfd1	-7.472911e-06
32	0x37fc3708	3.0066367e-05
33	0xb95c0956	-0.00020984313
34	0xb9158033	-0.00014257505
35	0x37574638	1.2831348e-05
36	0xb83c732c	-4.4929955e-05
37	0x3a1269e4	0.0005585237
38	0x39e9fa0f	0.0004462753
39	0xb88a203f	-6.586359e-05
40	0xb88e4379	-6.7836554e-05
41	0x39b0b515	0.00033704253
42	0x3a023a54	0.0004967798
43	0xb8e7f8b1	-0.00011061261
44	0xb9000bb8	-0.00012211397
45	0xb8b61994	-8.6832006e-05
46	0xb9815a21	-0.0002467195
47	0x372a3fb8	1.0147625e-05
48	0xb8ad1d2c	-8.2547165e-05
49	0x39fa69ed	0.00047762637
50	0x395d3266	0.00021094977
51	0xb5ff8dd2	-1.9040256e-06
52	0x37aeb222	2.0825366e-05
53	0x3a28309e	0.0006415936
54	0x3a46046a	0.00075537583
55	0xb823073b	-3.8868962e-05
56	0x38266017	3.9666975e-05
57	0x374fd63d	1.2388043e-05
58	0xb85d0d9a	-5.2703173e-05
59	0x387c6259	6.0173075e-05
60	0xb7a9d424	-2.0245156e-05
61	0x39570ee3	0.00020509544
62	0xb83b839b	-4.470684e-05
63	0xb79c5fab	-1.8641198e-05
64	0xb8954d79	-7.119304e-05
65	0xba33f25d	-0.0006864423
66	0xb82cbcf6	-4.118398e-05
67	0xb8cb4295	-9.692196e-05
68	0xb9a9c602	-0.0003238172
69	0xb90b17df	-0.00013264966
70	0x394e0826	0.00019648726
71	0xb9a148fe	-0.00030762696
72	0x375edc9a	1.3283594e-05
73	0xb9df63e1	-0.0004260829
74	0xb8dda3c2	-0.000105686035
75	0x3797b29b	1.8083772e-05
76	0x391921cc	0.00014603807
77	0xb9d1ec5e	-0.00040039694
78	0x3861556b	5.3723732e-05
79	0x380aee95	3.312396e-05
80	0x37ea7b74	2.7952461e-05
81	0xb90616ba	-0.00012787702
82	0x39b4af16	0.00034462725
83	0x38d1dc4b	0.000100069294
84	0x38d0aa12	9.949891e-05
85	0x39cc8894	0.0003901167
86	0x391f444f	0.00015188869
87	0x36beda60	5.6878634e-06
88	0x392adf3b	0.00016295623
89	0x39f2e974	0.00046331773
90	0x39b76037	0.00034976166
91	0x392e6223	0.00016630492
92	0xb823112f	-3.8878232e-05
93	0xb99f6ffe	-0.00030410284
94	0xb8766647	-5.8746224e-05
95	0xb894cae5	-7.094982e-05
96	0xb767fc26	-1.3827381e-05
97	0xb8d26cce	-0.00010033847
98	0xb8af3427	-8.3543644e-05
99	0xb81df25f	-3.7657443e-05
100	0xb7a68e9f	-1.9855155e-05
101	0xba2bab10	-0.00065486226
102	0xba2faa17	-0.00067010656
103	0xb9176f14	-0.00014441862
104	0x382279bc	3.8737184e-05
105	0xb9634d5c	-0.00021677226
106	0xb88d42f3	-6.735874e-05
107	0xb7c64b73	-2.3638573e-05
108	0xb835d18f	-4.334893e-05
109	0x399a6ecd	0.00029455722
110	0xb792e598	-1.751147e-05
111	0x38050567	3.1714702e-05
112	0xb7dbb8aa	-2.6192825e-05
113	0xb8ddb925	-0.00010572587
114	0x38cd84b3	9.799879e-05
115	0xb8c623dc	-9.448055e-05
116	0x34a3e899	3.0530353e-07
117	0x360bc505	2.0827295e-06
118	0xb7e05a35	-2.6744887e-05
119	0xb4690b36	-2.1703895e-07
120	0x387ebe45	6.073552e-05
121	0xb9f19bd3	-0.000460832
122	0xb9dc471d	-0.00042014653
123	0x37e84812	2.7690116e-05
124	0x3893fe00	7.0568174e-05
125	0x37abd674	2.0484651e-05
126	0x37e8a299	2.773227e-05
127	0x3775d931	1.4653707e-05
128	0x391d1e5e	0.00014984
129	0x39ada8fb	0.00033123032
130	0x393bc75b	0.00017907975
131	0x392309e9	0.00015548583
132	0x37593001	1.2945385e-05
133	0xb9b3b9b7	-0.0003427991
134	0x393c999f	0.00017986305
135	0xb7ce26f7	-2.4575258e-05
136	0x38d218a5	0.00010018171
137	0x3984ee4b	0.00025354544
138	0x3835d611	4.3353128e-05
139	0x385222f1	5.0100443e-05
140	0xb76dc564	-1.4172259e-05
141	0x3922b83f	0.00015518161
142	0x398ccd8c	0.00026856025
143	0xb8924e37	-6.976391e-05
144	0xb9cc957f	-0.00039021295
145	0xba55cd67	-0.00081559125
146	0xba35aa5d	-0.0006929988
147	0xb983ffdf	-0.00025176906
148	0x38a012d1	7.632899e-05
149	0x38aa9883	8.134639e-05
150	0x361ffcf2	2.384008e-06
151	0x37d97051	2.5920717e-05
152	0xb7c5b9c2	-2.357073e-05
153	0xb9f1bd11	-0.00046107968
154	0xb9999b47	-0.00029298125
155	0x37527836	1.2544964e-05
156	0x39445f3f	0.00018727499
157	0xbadb66f1	-0.0016739053
158	0xba449c8a	-0.0007500133
159	0xb98474e2	-0.00025264086
160	0xb90f14c2	-0.00013645276
161	0xb94706d3	-0.00018980661
162	0xb9152c49	-0.00014226245
163	0xb88f80ab	-6.842738e-05
164	0x38206959	3.8245085e-05
165	0x39e7ab64	0.0004418745
166	0x3933b3ab	0.00017137702
167	0x3776e2a2	1.471551e-05
168	0x34ae09d4	3.2417176e-07
169	0x379e5002	1.8872324e-05
170	0x38fa8813	0.00011946275
171	0x3595ffd6	1.1175823e-06
172	0xb88f3ad7	-6.829731e-05
173	0xb9fcd813	-0.00048226173
174	0x39cc63a6	0.00038984156
175	0xb8748aed	-5.8303518e-05
176	0x3a288ffe	0.0006430148
177	0x3a562177	0.0008168439
178	0xb9927c66	-0.00027939974
179	0x39f03aff	0.00045820323
180	0xb852a438	-5.0220842e-05
181	0x38bd64a6	9.0309695e-05
182	0xb4faf734	-4.6745993e-07
183	0xb9147528	-0.00014158024
184	0x38730a14	5.79451e-05
185	0xba51a063	-0.0007996617
186	0x38b975ed	8.843453e-05
187	0x381702fb	3.600398e-05
188	0x3874e047	5.8383008e-05
189	0x38f61c61	0.0001173548
190	0x38810760	6.152573e-05
191	0x385fcb80	5.3356867e-05
192	0xb8e35c5d	-0.000108414075
193	0xb9913ec3	-0.00027703316
194	0xb90eb69f	-0.00013610207
195	0xb806dd92	-3.2154443e-05
196	0xb84086dc	-4.5901965e-05
197	0xb9edddc0	-0.0004536938
198	0xba76d1d5	-0.00094154227
199	0xb87eaa30	-6.071682e-05
200	0x37b2ccef	2.1314683e-05
201	0x391c3183	0.00014895764
202	0xbab8735f	-0.0014072469
203	0xb6c6c5a9	-5.9238705e-06
204	0xb6fed8b1	-7.595016e-06
205	0x39676121	0.0002206606
206	0x38c84de1	9.551249e-05
207	0xb867c081	-5.5253975e-05
208	0x38247bbc	3.9215884e-05
209	0x39bc4f15	0.00035917075
210	0x3963d432	0.00021727456
211	0x36781c83	3.6971476e-06
212	0xb8818c6e	-6.1773564e-05
213	0x3a139585	0.0005629885
214	0x3a09795f	0.0005244221
215	0xb8194a12	-3.6547026e-05
216	0xb7142915	-8.831053e-06
217	0x392d8c47	0.00016550823
218	0x39bc29b8	0.00035889237
219	0xb818a11a	-3.638966e-05
220	0x3818f11b	3.646417e-05
221	0xb9b70b7b	-0.00034913034
222	0x3887e4a5	6.47989e-05
223	0x38979dbf	7.2296236e-05
224	0xb8640d9d	-5.4372114e-05
225	0x3934350b	0.00017185898
226	0xb8925df6	-6.979324e-05
227	0xb8010b9c	-3.076681e-05
228	0xb920a19d	-0.00015318995
229	0xb90344d4	-0.00012518774
230	0xb87b51e0	-5.9919315e-05
231	0xb8846f28	-6.314955e-05
232	0xb5fbb1ca	-1.8752701e-06
233	0xb9fb0266	-0.00047876238
234	0xb9566828	-0.00020447432
235	0xb884d5c1	-6.334065e-05
236	0xb6612986	-3.3551783e-06
237	0xb9654d77	-0.00021868
238	0xba031bf0	-0.00050014164
239	0xb6db381e	-6.5332415e-06
240	0xb715ee62	-8.936595e-06
241	0xba048722	-0.0005055537
242	0xb9a616b7	-0.0003167891
243	0xb704840e	-7.8985595e-06
244	0x37d48d4d	2.5338168e-05
245	0xb9f0b257	-0.0004590924
246	0xb879a47e	-5.951942e-05
247	0xb7d7ac7c	-2.5710317e-05
248	0xb7fa3edf	-2.9831599e-05
249	0x39abd167	0.00032771679
250	0x39a7fb05	0.00032039746
251	0xb88323c9	-6.253232e-05
252	0xb889a3ee	-6.563203e-05
253	0x3a49fb3f	0.000770498
254	0x3a87bcb6	0.0010355923
255	0xb7e30a63	-2.7065345e-05

exp_avg_sq f4 [64, 4]
0	0x365e88a6	3.3160118e-06
1	0x38a080fc	7.65342e-05
2	0x37bfb678	2.2853943e-05
3	0x37aa89dc	2.0329775e-05
4	0x35c26090	1.448223e-06
5	0x37c215b7	2.3136714e-05
6	0x3c5bb46e	0.013409717
7	0x36d63ed3	6.3850107e-06
8	0x344bfe37	1.8998331e-07
9	0x365e0f86	3.3089614e-06
10	0x3851e06b	5.003849e-05
11	0x34d0d3b9	3.8897068e-07
12	0x3501e0f0	4.838357e-07
13	0x39698919	0.00022271684
14	0x3ae8cba3	0.0017760884
15	0x35299645	6.3176077e-07
16	0x344ef15f	1.9273055e-07
17	0x36d7cd84	6.4314245e-06
18	0x36eae932	7.000891e-06
19	0x36073b11	2.0150949e-06
20	0x3517ea2b	5.659264e-07
21	0x374ce1c3	1.2211912e-05
22	0x3b0e9282	0.0021754806
23	0x35ba23c2	1.3868487e-06
24	0x3587c80a	1.0116503e-06
25	0x37badb91	2.2275171e-05
26	0x39751532	0.00023372917
27	0x35b29c35	1.3307496e-06
28	0x3197692f	4.4066364e-09
29	0x338c61d3	6.537052e-08
30	0x38237fa3	3.89811e-05
31	0x3227ab50	9.759631e-09
32	0x35614a43	8.3927097e-07
33	0x37883339	1.6236316e-05
34	0x367c02ae	3.7552486e-06
35	0x367e59c9	3.7901211e-06
36	0x3486d161	2.5111788e-07
37	0x36f2873e	7.2279063e-06
38	0x36fcb7f5	7.5316007e-06
39	0x34e6d228	4.2993747e-07
40	0x34e97e34	4.3491457e-07
41	0x370f8e97	8.5566635e-06
42	0x37a36579	1.9478366e-05
43	0x35da3e46	1.626039e-06
44	0x347c660b	2.3506452e-07
45	0x36afb640	5.236623e-06
46	0x39eb0afa	0.0004483087
47	0x328212c8	1.5142533e-08
48	0x35d7444f	1.6038629e-06
49	0x37b71570	2.1825283e-05
50	0x3c052449	0.008126327
51	0x368893b4	4.0703108e-06
52	0x34fae9fa	4.673637e-07
53	0x3722eb40	9.710726e-06
54	0x3834f6ef	4.314532e-05
55	0x35a51048	1.2298196e-06
56	0x359eab1e	1.1821719e-06
57	0x380d62b8	3.370896e-05
58	0x391d03aa	0.00014974052
59	0x36ec0109	7.0334686e-06
60	0x3592dbea	1.0941851e-06
61	0x37d59d02	2.5464691e-05
62	0x3a327e6b	0.0006808999
63	0x368a838b	4.128034e-06
64	0x36855f40	3.9747974e-06
65	0x38a5c0ab	7.9037e-05
66	0x37be714a	2.270252e-05
67	0x37ad5a34	2.0665211e-05
68	0x3674be11	3.6469467e-06
69	0x3823a343	3.9014278e-05
70	0x36729613	3.6148165e-06
71	0x372723cc	9.96231e-06
72	0x358a17f2	1.028877e-06
73	0x374a8c8b	1.2072861e-05
74	0x389ad1ab	7.382346e-05
75	0x36041eca	1.9687454e-06
76	0x36660ecb	3.4281281e-06
77	0x388690cc	6.4165884e-05
78	0x3b0386c7	0.0020069347
79	0x377752f3	1.474166e-05
80	0x375c3111	1.3124446e-05
81	0x39accccc	0.00032958982
82	0x3c2d8277	0.010590187
83	0x38a87fbe	8.034658e-05
84	0x360778a7	2.0186797e-06
85	0x3844ea32	4.6948153e-05
86	0x38036a76	3.1331983e-05
87	0x373f6e53	1.1410174e-05
88	0x352c2c1e	6.413919e-07
89	0x377126a3	1.4373715e-05
90	0x3804608b	3.1561165e-05
91	0x36124ed9	2.180159e-06
92	0x366a96a2	3.4956397e-06
93	0x38887892	6.507443e-05
94	0x361e6f50	2.3608627e-06
95	0x378fcc09	1.714194e-05
96	0x3458c6b4	2.0188855e-07
97	0x369b5a8a	4.6299e-06
98	0x39f98481	0.00047591704
99	0x35882205	1.0142691e-06
100	0x362aadf3	2.5433226e-06
101	0x38584513	5.1562743e-05
102	0x37110ec5	8.646112e-06
103	0x373f3975	1.1397865e-05
104	0x35d18c63	1.5612571e-06
105	0x3865a56f	5.4751927e-05
106	0x39cf03c6	0.00039484928
107	0x3738bb95	1.10109295e-05
108	0x36044fe7	1.9716042e-06
109	0x37fd8c9f	3.0225432e-05
110	0x3a5123e1	0.00079780637
111	0x369e78c1	4.7228245e-06
112	0x34b85b37	3.4339038e-07
113	0x367d295e	3.7724017e-06
114	0x393e3047	0.00018137797
115	0x34f3aab4	4.538648e-07
116	0x2d8bf4a4	1.5911113e-11
117	0x32853da1	1.5511263e-08
118	0x369bef61	4.6472273e-06
119	0x2e087eb2	3.1035348e-11
120	0x34f2332e	4.511325e-07
121	0x375bc158	1.3098434e-05
122	0x36c5fb13	5.9002864e-06
123	0x362f3ae5	2.6111313e-06
124	0x33d997dc	1.0132473e-07
125	0x3497f9b0	2.8307613e-07
126	0x39bc494a	0.0003591276
127	0x32122325	8.506309e-09
128	0x34550672	1.9839516e-07
129	0x3705cae5	7.974658e-06
130	0x37c53e7a	2.3513323e-05
131	0x3521bd02	6.0252216e-07
132	0x3575a50d	9.150979e-07
133	0x37c17092	2.3059813e-05
134	0x3a0585b5	0.0005093471
135	0x368586ba	3.979393e-06
136	0x34e5d010	4.280596e-07
137	0x36df3595	6.6521557e-06
138	0x3a09911d	0.0005247759
139	0x354fc4e5	7.740003e-07
140	0x359a51c9	1.1497697e-06
141	0x37847380	1.578941e-05
142	0x3777b4f8	1.4764482e-05
143	0x369b8651	4.6349965e-06
144	0x35f9c7a4	1.8610049e-06
145	0x37d89d6b	2.582251e-05
146	0x3a9a3bab	0.001176705
147	0x34d71bb8	4.006704e-07
148	0x3389c5c9	6.4155365e-08
149	0x33977385	7.052498e-08
150	0x38109657	3.447229e-05
151	0x32688e2f	1.3536506e-08
152	0x35922b39	1.0890427e-06
153	0x37a670d7	1.9841287e-05
154	0x3801d698	3.0955853e-05
155	0x369ed6f5	4.7337912e-06
156	0x3731914d	1.0583853e-05
157	0x38c3ba6a	9.333047e-05
158	0x397742a4	0.00023580581
159	0x377ff5e5	1.5256436e-05
160	0x3641a7c9	2.8856905e-06
161	0x37dbafe1	2.6188734e-05
162	0x3aa181ba	0.0012321987
163	0x36e57542	6.8383824e-06
164	0x35711384	8.9807895e-07
165	0x377ae49a	1.4954387e-05
166	0x38b9bd20	8.856715e-05
167	0x3642a7bc	2.9005887e-06
168	0x2d703dca	1.36561405e-11
169	0x321a5382	8.982967e-09
170	0x375c1358	1.3117526e-05
171	0x2e849b43	6.030245e-11
172	0x36653101	3.4152183e-06
173	0x38096336	3.2755743e-05
174	0x3722e616	9.7095235e-06
175	0x36e526bd	6.8292416e-06
176	0x36a3ef44	4.8856327e-06
177	0x36b79fb6	5.472418e-06
178	0x39b55868	0.00034588878
179	0x35c1dd0d	1.4443955e-06
180	0x35901019	1.0733521e-06
181	0x380da28d	3.3768407e-05
182	0x38815668	6.167294e-05
183	0x36f4744e	7.2853063e-06
184	0x368faeb7	4.2820716e-06
185	0x38399273	4.424383e-05
186	0x39845608	0.000252411
187	0x3779b41d	1.4883492e-05
188	0x33df7da3	1.04071e-07
189	0x35b16a71	1.3218506e-06
190	0x3a1e16e7	0.00060306344
191	0x32a4439e	1.9122862e-08
192	0x35d7729c	1.6052104e-06
193	0x37985331	1.8158551e-05
194	0x3b35f5ce	0.002776492
195	0x36903470	4.297639e-06
196	0x32ffd462	2.9782488e-08
197	0x3643fe23	2.9205191e-06
198	0x38478aa4	4.7574416e-05
199	0x33296651	3.9441435e-08
200	0x356ac889	8.746361e-07
201	0x38216147	3.8475988e-05
202	0x39df8f64	0.0004264071
203	0x34ab34d6	3.1889675e-07
204	0x356a4752	8.727558e-07
205	0x373b079b	1.1147839e-05
206	0x36642f68	3.4002242e-06
207	0x35fc02dd	1.8776296e-06
208	0x3518807c	5.681138e-07
209	0x37424baf	1.1580923e-05
210	0x3a5c1985	0.00083961367
211	0x361c6291	2.3303185e-06
212	0x34381b4c	1.7146266e-07
213	0x369f88ab	4.7544795e-06
214	0x37fc74eb	3.0095185e-05
215	0x351a9ad5	5.759478e-07
216	0x350a82f7	5.1599585e-07
217	0x378fa84b	1.7125296e-05
218	0x36eaeccd	7.0013107e-06
219	0x36587684	3.2255493e-06
220	0x35cd4227	1.5292943e-06
221	0x37cd5a60	2.4479988e-05
222	0x3a89d6b1	0.0010516254
223	0x36919d8e	4.3396785e-06
224	0x359fbed1	1.1901958e-06
225	0x37ea6952	2.7944017e-05
226	0x3a8da451	0.0010806416
227	0x36b259d0	5.315269e-06
228	0x34bc1444	3.5032474e-07
229	0x35b9e652	1.3850606e-06
230	0x39f03b18	0.00045820395
231	0x3380294c	5.967976e-08
232	0x360229d3	1.9395854e-06
233	0x378c4b1f	1.6724282e-05
234	0x38d60f04	0.00010207112
235	0x367147e0	3.5953635e-06
236	0x2eaf33a2	7.9672505e-11
237	0x3500b18d	4.7942086e-07
238	0x36ee8cda	7.10935e-06
239	0x2f907cfe	2.628226e-10
240	0x34aaedfb	3.183812e-07
241	0x36d362f1	6.2998083e-06
242	0x37af4ca4	2.0897314e-05
243	0x34e25fc0	4.2165448e-07
244	0x362a760b	2.5400684e-06
245	0x388d2766	6.7307425e-05
246	0x394dc24a	0.00019622702
247	0x37702aa9	1.4315047e-05
248	0x3530155b	6.5596186e-07
249	0x37c77f70	2.3781991e-05
250	0x368ed3f0	4.2566026e-06
251	0x366b46ed	3.5059013e-06
252	0x3610f1a2	2.159832e-06
253	0x3857bf9f	5.1438456e-05
254	0x38d0fc61	9.965222e-05
255	0x371db928	9.401039e-06

exp_avg f4 [64]
0	0xba1bc6b3	-0.0005942389
1	0x38bcdb61	9.005401e-05
2	0x39cb36de	0.00038760056
3	0xba6a54b7	-0.0008939015
4	0xb8f99c84	-0.000119023985
5	0x39e3b986	0.0004343504
6	0x3a807a84	0.0009802138
7	0x3715c452	8.9268015e-06
8	0x37ab1faf	2.0399542e-05
9	0x39ea7078	0.00044715754
10	0x3935260b	0.00017275677
11	0xb92e58f7	-0.00016627075
12	0x3a317070	0.00067687687
13	0x3a23d3cb	0.0006249516
14	0xb82a8922	-4.0658873e-05
15	0x3890af1a	6.89907e-05
16	0xba8ddcbb	-0.0010823229
17	0xba80349a	-0.0009781301
18	0xba80d317	-0.0009828535
19	0xba12afa6	-0.00055956317
20	0x36b22666	5.3092836e-06
21	0x3a1aa07d	0.00058985484
22	0x3a6e592c	0.0009092267
23	0xb9ab5401	-0.0003267825
24	0xb969b3d8	-0.00022287609
25	0xba31bf07	-0.00067804795
26	0xb99e3e04	-0.00030182314
27	0x39adb655	0.0003313298
28	0xb9e7b0e6	-0.00044191553
29	0x35d1c1ea	1.562815e-06
30	0x388196f7	6.179319e-05
31	0x38fe358d	0.000121216384
32	0x3a51a2a0	0.00079969503
33	0xba1a8a18	-0.00058952114
34	0x3a110d6e	0.0005533312
35	0x37001d39	7.6361985e-06
36	0xbac0e606	-0.001471699
37	0x39769ba5	0.0002351837
38	0xba228928	-0.00062002474
39	0xbb6385f1	-0.0034717286
40	0xba2608ef	-0.00063337287
41	0x3a2baf97	0.0006549297
42	0x3588f113	1.0202951e-06
43	0xbab73081	-0.0013976247
44	0x3b22f5bd	0.002486571
45	0x37c3feda	2.3364486e-05
46	0xbabb925e	-0.0014310589
47	0x39a70b49	0.0003186113
48	0xba0532e9	-0.00050811336
49	0xb946ead9	-0.00018970239
50	0x3ac97351	0.001536945
51	0x39c51bcb	0.00037595475
52	0x3a294f22	0.000645863
53	0x39a924fe	0.00032261753
54	0xb900d7f1	-0.00012287476
55	0xb9614566	-0.00021483525
56	0x389364d3	7.028286e-05
57	0xb9dab58f	-0.00041715472
58	0xba8d85fe	-0.0010797379
59	0xb7412e3a	-1.1514459e-05
60	0xba0ff021	-0.0005490799
61	0xba20397d	-0.0006112082
62	0x398a2803	0.00026351222
63	0x390ad8f7	0.00013241531

exp_avg_sq f4 [64]
0	0x37d587c7	2.5454805e-05
1	0x366d5466	3.5364878e-06
2	0x35f5c09a	1.8309977e-06
3	0x36c44fcd	5.850545e-06
4	0x3595c780	1.1159427e-06
5	0x369cbde4	4.6712685e-06
6	0x3722de2e	9.707683e-06
7	0x31af5b86	5.1035753e-09
8	0x36834a0a	3.9127235e-06
9	0x3601e2a5	1.9354422e-06
10	0x36594e49	3.2381088e-06
11	0x3531ca75	6.623225e-07
12	0x37404151	1.14592995e-05
13	0x3674feef	3.6507224e-06
14	0x36bd9dd8	5.6510144e-06
15	0x3693fbf1	4.4102712e-06
16	0x37fa3e37	2.9831293e-05
17	0x380d76a5	3.3727516e-05
18	0x373afcb3	1.11453e-05
19	0x3796c90e	1.7975017e-05
20	0x38ab1675	8.158098e-05
21	0x37775372	1.4741776e-05
22	0x3787b0f1	1.6175649e-05
23	0x3795c3f9	1.7853441e-05
24	0x35dbdbcc	1.6380741e-06
25	0x37bb7ed3	2.2351194e-05
26	0x373fc108	1.1429431e-05
27	0x370ad024	8.2739025e-06
28	0x3646165f	2.951732e-06
29	0x2f3e32e7	1.7298483e-10
30	0x360caf39	2.0963619e-06
31	0x34b51d77	3.3735316e-07
32	0x36ac364e	5.1323213e-06
33	0x36f7ff77	7.3909137e-06
34	0x36bb8953	5.589021e-06
35	0x36e51f1f	6.828355e-06
36	0x379c28f3	1.8615718e-05
37	0x34d5136b	3.968847e-07
38	0x37425c86	1.1584843e-05
39	0x39038640	0.00012543146
40	0x37aef937	2.0858466e-05
41	0x370c7d8a	8.37388e-06
42	0x2f8ff5c3	2.6186173e-10
43	0x381401d1	3.528764e-05
44	0x383e1f4a	4.532867e-05
45	0x36e3eec4	6.792923e-06
46	0x37fd527f	3.0198365e-05
47	0x3545d22f	7.3694076e-07
48	0x375ceb1c	1.31677625e-05
49	0x34c7570f	3.7129982e-07
50	0x376445e6	1.36061335e-05
51	0x36738374	3.6286337e-06
52	0x369b8702	4.635077e-06
53	0x35a33111	1.2158727e-06
54	0x366cf728	3.5310604e-06
55	0x36fe523b	7.579363e-06
56	0x3680b146	3.8353346e-06
57	0x35e8a9e2	1.7334789e-06
58	0x378bf4f2	1.6684153e-05
59	0x31238a83	2.3798357e-09
60	0x365488e8	3.1670152e-06
61	0x378fa97e	1.7125854e-05
62	0x36a02b8a	4.77344e-06
63	0x371521cb	8.88896e-06
