toy_al/mini_exp/2000-200-200-001-no/ckpt_phase0.pt (torch, 47981 bytes, 30 tensors)

fc1.weight f4 [64, 4]
0.07758492 -0.28580892 0.40804392 -0.48410282 -0.657154 -0.4357599 -0.06763188 -0.9920085
0.07566155 -0.030727657 0.4104546 -0.63107497 0.42230833 0.07643904 -0.0002940629 2.1627755
0.06490907 -0.1866904 0.21680614 -0.4971516 -0.55744165 0.12610199 -0.21139565 0.46658465
-0.94818085 0.38787922 0.013963105 -0.36041045 -0.23570167 -0.037823185 0.17868197 -0.5781844
0.3628277 0.18530719 0.31958485 -0.37913057 0.13611533 0.13189983 0.5486852 -0.4903915
-0.13380781 0.4486536 0.17918582 -0.16094737 -0.21409667 0.025214883 -0.17287973 1.1583601
-0.4192925 0.3381597 -0.0039663976 0.6773346 -0.3858619 0.48130545 0.076972894 -0.09533229
0.06594386 -0.018284557 -0.21008088 -0.3579064 -0.005932462 0.31951708 -0.67577356 0.18913232
0.317033 -0.18344294 0.42972046 0.34533578 -0.08497592 0.22164442 0.072024986 0.18133512
0.7583401 0.057484377 -0.008072718 0.003632829 -0.2372652 -0.05982811 -0.17360182 -0.3925655
1.5589054 -0.1758051 0.024040248 -0.6855963 -0.229862 0.3743066 -0.7326444 0.4306838
0.88366604 -0.38900438 0.056696787 -0.30394518 -0.034265753 0.09868036 0.60659033 0.36843064
-0.3213573 0.009866245 -0.11547475 -0.12913653 0.097472265 0.41940916 0.5113427 0.35502788
0.4496399 0.121938035 -0.1976868 -0.010652428 -0.6000902 0.37242478 -0.49175465 0.34383166
0.41051438 -0.0027395352 -0.0068530464 -0.20231323 -0.1395035 -0.75819355 -0.14664735 1.3189479
0.49645436 0.22180341 0.36185148 0.55026686 1.0110648 -0.07935759 -0.16298454 1.0095394
1.0865339 -0.13044448 0.32407638 -0.67020553 1.2603624 -0.09618008 0.002797928 0.07802121
0.37865105 0.3398532 -0.13754146 0.36617807 0.20875108 0.43987307 0.2707609 -0.28624827
1.3341064 0.20027626 -0.076158725 1.3458996 1.29372 -0.46364987 -0.12864575 0.051933013
0.10028691 -0.6477332 0.1761719 -0.49232218 -0.71793777 -0.67317796 0.34567118 -0.06790051
-0.39082038 -0.26338315 -0.15673935 -0.043625366 -0.24626128 0.114800714 -0.29875982 -0.5181268
-1.8915057 -0.28314024 0.06347918 1.1227138 -0.016922921 -0.6509361 0.4917626 -0.43942982
-0.14625916 -0.24777232 0.0022771184 -0.16797447 0.50453687 0.067272544 -0.26760122 -0.21379295
-0.2506615 -0.54723835 -0.13531874 -0.32984436 1.1275498 0.11189138 -0.19705352 0.81668067
1.1060466 -0.4091921 -0.0015006552 -0.21821658 0.38800436 -0.448436 0.5156614 2.0428615
0.18423602 0.17265053 0.011073502 1.935027 0.6780667 0.13571769 0.2625447 -0.23438953
-0.25996977 0.4117051 -0.22779356 0.043636415 -0.41342098 0.29381216 0.5537268 -0.38717183
-0.9095141 -0.22486955 -0.00032122454 -0.03989844 -0.52641726 -0.11335738 -0.030012662 0.4786729
-0.56526977 0.19449338 -0.38157332 0.019089477 0.76280373 -0.2122206 -0.43380222 0.8725244
0.5639835 -0.35575458 0.113222115 -0.50778437 -0.71517956 0.028601151 0.29275638 -0.4735285
0.94641024 0.32410407 -0.031270344 0.5042517 0.12495433 -0.21058387 -0.35905632 -0.22679645
1.2160482 0.43205932 0.0034563525 -0.090285935 -0.9033756 0.07678994 -0.031311568 -0.32211998
00000000: d8e4 9e3d 8c55 92be 22eb d03e 53dc f7be
00000010: 3f3b 28bf ec1b dfbe 9582 8abd 45f4 7dbf
00000020: 71f4 9a3d 91b8 fbbc 1b27 d23e 218e 21bf
00000030: cc38 d83e 128c 9c3d 742c 9ab9 ea6a 0a40
00000040: 0cef 843d c52b 3fbe 6e02 5e3e a88a febe
00000050: 7fb4 0ebf e120 013e 1a78 58be 2fe4 ee3e
00000060: fbbb 72bf 1b98 c63e 82c5 643c b887 b8be
00000070: c75b 71be 7cec 1abd 68f8 363e e503 14bf
00000080: 8dc4 b93e 2bc1 3d3e a0a0 a33e 671d c2be
00000090: d161 0b3e c010 073e a276 0c3f 9814 fbbe
000000a0: ea04 09be edb5 e53e 7d7c 373e 63cf 24be
000000b0: 283c 5bbe 718f ce3c 6207 31be 2545 943f
000000c0: 82ad d6be 4523 ad3e 8ef8 81bb cd65 2d3f
000000d0: b18f c5be ab6d f63e f7a3 9d3d 933d c3bd
000000e0: 930d 873d 7fc9 95bc 711f 57be 823f b7be
000000f0: 1965 c2bb be97 a33e 7fff 2cbf e7ab 413e
00000100: 2652 a23e 77d8 3bbe 5204 dc3e dacf b03e
00000110: db07 aebd c1f6 623e d681 933d eaaf 393e
00000120: 9422 423f bd74 6b3d 6f43 04bc c214 6e3b
00000130: a6f5 72be 520e 75bd adc4 31be 58fe c8be
00000140: 368a c73f 4106 34be 0ef0 c43c 3d83 2fbf
00000150: f260 6bbe 1da5 bf3e 958e 3bbf 9682 dc3e
00000160: f037 623f 952b c7be e43a 683d b49e 9bbe
00000170: 3f5a 0cbd ee18 ca3d 8149 1b3f f1a2 bc3e
00000180: f288 a4be 08a6 213c 077e ecbd 5e3c 04be
00000190: 8a9f c73d ccbc d63e 5be7 023f 37c6 b53e
000001a0: 3337 e63e a6ba f93d 696e 4abe 8587 2ebc
000001b0: 839f 19bf 76ae be3e 44c7 fbbe b40a b03e
000001c0: f12e d23e c689 33bb 858f e0bb 332b 4fbe
000001d0: 01da 0ebe f918 42bf b92a 16be 49d3 a83f
000001e0: 442f fe3e 6f20 633e 9944 b93e 4ade 0c3f
000001f0: 926a 813f 3b86 a2bd 6be5 26be 9638 813f
00000200: 8b13 8b3f 3d93 05be 57ed a53e 9792 2bbf
00000210: 8e53 a13f 10fa c4bd 715d 373b 96c9 9f3d
00000220: 8dde c13e 3d01 ae3e abd7 0cbe b17b bb3e
00000230: d8c2 553e 0b37 e13e 2ca1 8a3e 228f 92be
00000240: 00c4 aa3f 3815 4d3e 1bf9 9bbd 7046 ac3f
00000250: 9e98 a53f 8463 edbe b6bb 03be b6b7 543d
00000260: 3963 cd3d d8d1 25bf 6866 343e a711 fcbe
00000270: c5ca 37bf 6455 2cbf d0fb b03e 6c0f 8bbd
00000280: 9c19 c8be 28da 86be 4880 20be 83b0 32bd
00000290: eb2b 7cbe a31c eb3d 0cf7 98be f5a3 04bf
000002a0: dc1c f2bf c2f7 90be 5f01 823d 16b5 8f3f
000002b0: f0a1 8abc c0a3 26bf 4fc8 fb3e f2fc e0be
000002c0: f6c4 15be 07b8 7dbe b53b 153b 8001 2cbe
000002d0: 5429 013f 30c6 893d 0703 89be 8aec 5abe
000002e0: b456 80be d017 0cbf ff90 0abe 5ce1 a8be
000002f0: 8d53 903f 4f27 e53d 66c8 49be fc11 513f
00000300: ef92 8d3f a081 d1be a2b1 c4ba 2b74 5fbe
00000310: 82a8 c63e 6799 e5be 6302 043f 3ebe 0240
00000320: 5ea8 3c3e 4dcb 303e a26d 353c f7ae f73f
00000330: c795 2d3f 94f9 0a3e 426c 863e cf03 70be
00000340: c21a 85be 03cb d23e b742 69be 19bc 323d
00000350: eaab d3be 8c6e 963e 0ac1 0d3f 633b c6be
00000360: ebd5 68bf 3444 66be 076a a8b9 8c6c 23bd
00000370: 48c3 06bf ea27 e8bd 1ddd f5bc 9d14 f53e
00000380: 85b5 10bf 4629 473e 945d c3be 8961 9c3c
00000390: 1b47 433f 5b50 59be 531b debe c25d 5f3f
000003a0: 3961 103f 7725 b6be ffe0 e73d 28fe 01bf
000003b0: 0216 37bf f64c ea3c 2ae4 953e 5472 f2be
000003c0: f147 723f f8f0 a53e 5515 00bd a416 013f
000003d0: 0ee8 ff3d 4ca3 57be 3bd6 b7be 543d 68be
000003e0: 78a7 9b3f e136 dd3e f983 623b d5e7 b8bd
000003f0: a043 67bf 0b44 9d3d 8f40 00bd e9ec a4be

fc1.bias f4 [64]
0.6195306 -0.47868195 0.57428306 -0.6376686 0.1085013 0.51230615 0.6424059 -0.9004285
0.44255826 0.09101124 -0.4196311 -0.718307 -0.07251046 -0.06949557 -0.29794532 -0.23074505
0.53102726 -0.18730405 0.6092608 0.0697516 -0.3124852 -0.15422638 0.73896813 0.1247683
0.5331862 -0.18495071 0.15394562 -0.04097034 0.23962224 -0.33960855 0.61487496 -0.49129164
0.19671538 0.70439965 0.41384244 0.00024866377 -0.3509758 0.011097294 0.5094241 0.43197924
0.9099986 0.10185927 -1.9234341 0.49332708 -0.024368048 0.080418445 0.66279227 -0.14157611
-0.36303207 -0.9435831 0.40656015 0.11427107 -0.008818543 -0.40834975 0.32368717 0.5625442
-0.338745 -0.4558863 0.47742364 -0.8005917 0.4107337 0.35041472 0.37360936 -0.23761886
00000000: 8f99 1e3f cd15 f5be 3704 133f 403e 23bf
00000010: ee35 de3d 7f26 033f b774 243f 7b82 66bf
00000020: ff96 e23e 1a64 ba3d e3d9 d6be f8e2 37bf
00000030: 5d80 94bd b253 8ebd 4a8c 98be 6e48 6cbe
00000040: 67f1 073f a2cc 3fbe 84f8 1b3f edd9 8e3d
00000050: 0ffe 9fbe 85ed 1dbe 042d 3d3f 8686 ff3d
00000060: e47e 083f b863 3dbe eca3 1d3e 84d0 27bd
00000070: 885f 753e 2ce1 adbe 7268 1d3f 948a fbbe
00000080: c26f 493e 8953 343f 28e3 d33e 165f 8239
00000090: 1ab3 b3be 6dd1 353c 9e69 023f 622c dd3e
000000a0: abf5 683f 989b d03d 1733 f6bf 5e95 fc3e
000000b0: 809f c7bc 6db2 a43d c1ac 293f 54f9 10be
000000c0: 57df b9be a98e 71bf a728 d03e f306 ea3d
000000d0: a67b 10bc 3813 d1be 53ba a53e e602 103f
000000e0: fc6f adbe ee69 e9be df70 f43e 94f3 4cbf
000000f0: b04b d23e 8f69 b33e ba49 bf3e 5c52 73be

fc2.weight f4 [32, 64]
0.11076501 -0.06626463 0.04472647 -0.3007251 0.08422463 -0.14266503 -0.078655936 0.18786025
0.16362569 0.09184856 -0.07069946 -0.06671818 -0.14209881 0.099148944 0.051391706 0.1603461
-0.024078637 0.054915313 0.09279982 0.024334248 0.0706486 0.03132313 0.08055514 -0.0661875
-0.06693562 -0.049555793 0.03979972 0.06870754 0.1781159 0.04007027 0.05220178 -0.01955518
-0.03623752 -0.099233806 0.09184547 0.08056622 -0.120858155 -0.11169362 0.16392891 -0.16919376
0.10007051 -0.062115777 0.059057996 0.13989694 -0.011048525 0.12806869 0.025183639 -0.023748603
-0.14281817 -0.063656256 -0.21326584 0.0210766 0.05561691 -0.11524911 -0.0216743 -0.013465324
-0.11691214 0.022994911 0.2699149 -0.11234101 -0.035583563 0.12044505 0.26389915 0.05391617
-0.036112513 0.055944413 -0.156847 -1.0682964 0.049078394 0.018854687 0.18857583 -0.11654347
-0.15194663 -0.26345438 -0.13190548 -0.13505246 0.0029002107 -0.12101518 0.022614686 -0.025127595
-0.059579715 -0.23605478 -0.069411725 -0.06361089 0.054398477 0.09346465 -0.57335687 -0.099049546
0.10566132 -0.22318573 -0.117644854 0.024822246 -0.02657368 -0.036761373 -0.34400678 0.026186714
-0.0055787265 -0.13093674 0.09821501 -0.2996488 -0.120002374 -0.090334065 0.015793553 0.049702123
-0.04538453 0.103127405 0.07975571 0.081305265 0.042366095 -0.13939261 -0.19118164 0.05580704
0.012520121 0.054880217 -0.143094 -0.13585034 -0.1348443 -0.08008381 0.010134087 -0.0092444755
-0.12371759 0.04617196 0.08417277 -0.15103903 0.029542215 -0.13810888 -0.049687993 0.13270354
-0.06767513 -0.22988045 -0.006310757 -0.5427773 0.09871729 0.12497512 0.22694111 0.17759196
-0.0005853234 -0.14354607 -0.167682 -0.110226795 -0.06965362 0.07492861 -0.046104215 0.009212633
-0.39409792 0.03233698 0.08160276 -0.056782234 -0.24795555 0.10953918 0.44252986 -0.31061253
-0.06682796 -0.09803466 -0.06855999 0.16108853 0.045384727 -0.13188413 -0.06854887 0.09697374
-0.056792863 -0.024130985 0.022036007 0.044348855 -0.0022477892 0.06086699 0.14801024 0.22543833
-0.0039332076 0.108575694 -0.22407772 -0.02146527 0.028107429 0.054090578 0.24987996 0.06389191
-0.23130491 -0.023202939 -0.09085895 -0.10216733 0.13280049 0.043465503 0.211926 0.12598908
-0.050520197 -0.018135827 0.16451925 -0.103012815 0.025826164 0.12041429 0.07605945 0.19908564
-0.0770294 0.38996485 0.23364113 0.64913076 0.054931693 0.024306796 0.029971976 0.06334716
0.18593358 -0.020975351 0.085301906 0.017845854 -0.07920828 0.019923272 -0.07380798 0.030648166
-0.030758485 -0.1287635 0.3104447 0.21375148 -0.0064145727 0.09990174 0.09684958 -0.056891132
-0.05412777 0.06101509 0.11708464 -0.12507668 0.13767043 0.17401947 0.09735042 0.13439271
0.04192068 -0.085910365 0.113825046 0.088663876 0.37723625 0.27723473 -0.08240031 -0.11291553
-0.26761404 -0.051888883 0.23922347 0.08536347 0.0016883609 -0.006140268 -0.56818724 0.19047917
0.018827109 0.09318644 0.29365164 0.18692681 -0.0029079579 0.09002633 0.00895289 -0.48690656
-0.20204285 0.029742932 -9.618011e-05 -0.14019969 0.15567617 -0.019260613 0.15859842 -0.35905728
00000000: c4d8 e23d c0b5 87bd 1a33 373d a4f8 99be
00000010: f67d ac3d c816 12be 5d16 a1bd 705e 403e
00000020: 7e8d 273e 191b bc3d e1ca 90bd 8ba3 88bd
00000030: 5a82 11be 9a0e cb3d 1c80 523d c531 243e
00000040: 9040 c5bc e1ee 603d d50d be3d 9e58 c73c
00000050: 37b0 903d af4c 003d 18fa a43d 508d 87bd
00000060: 8b15 89bd 04fb 4abd 0805 233d 8ab6 8c3d
00000070: 0464 363e b920 243d 89d1 553d 2f32 a0bc
00000080: cb6d 14bd 183b cbbd 7a19 bc3d e7ff a43d
00000090: 7b84 f7bd a0bf e4bd fbdc 273e 2141 2dbe
000000a0: c4f1 cc3d 1d6d 7ebd cce6 713d 2541 0f3e
000000b0: df04 35bc 7024 033e eb4d ce3c 6e8c c2bc
000000c0: ed3e 12be 365e 82bd 5c62 5abe d5a8 ac3c
000000d0: 8fce 633d ba07 ecbd 4d8e b1bc aa9d 5cbc
000000e0: a26f efbd d35f bc3c 4932 8a3e 0b13 e6bd
000000f0: 12c0 11bd e5ab f63d ca1d 873e 34d7 5c3d
00000100: b7ea 13bd f825 653d 809c 20be f0bd 88bf
00000110: 6d06 493d 2575 9a3c 061a 413e 58ae eebd
00000120: e697 1bbe 7ee3 86be 3b12 07be 314b 0abe
00000130: 7611 3e3b cfd6 f7bd 6f42 b93c 63d8 cdbc
00000140: dc09 74bd 58b8 71be bc27 8ebd 6d46 82bd
00000150: f0d0 5e3d 656a bf3d 84c7 12bf 7dda cabd
00000160: f664 d83d cd8a 64be c9ef f0bd 0658 cb3c
00000170: 0cb1 d9bc 1893 16bd a821 b0be 8585 d63c
00000180: c0cd b6bb 4814 06be f324 c93d 916b 99be
00000190: cec3 f5bd 1101 b9bd 7b61 813c 7494 4b3d
000001a0: 21e5 39bd 7634 d33d f656 a33d 6083 a63d
000001b0: 1288 2d3d f0bc 0ebe 1fc5 43be ec95 643d
000001c0: 3221 4d3c 14ca 603d 3c87 12be 5a1c 0bbe
000001d0: a014 0abe fb02 a4bd 7109 263c 2476 17bc
000001e0: a65f fdbd cf1e 3d3d c662 ac3d faa9 1abe
000001f0: 8402 f23c 6a6c 0dbe a385 4bbd 70e3 073e
00000200: 4299 8abd c865 6bbe 77ca cebb 74f3 0abf
00000210: 4a2c ca3d f5f2 ff3d 4063 683e abda 353e
00000220: 6370 19ba befd 12be d5b4 2bbe 96be e1bd
00000230: 8fa6 8ebd 2c74 993d c6d7 3cbd 95f0 163c
00000240: 34c7 c9be c873 043d 591f a73d 7d94 68bd
00000250: 0fe8 7dbe 1456 e03d 4693 e23e 9b08 9fbe
00000260: 19dd 88bd 65c6 c8bd 2e69 8cbd 64f4 243e
00000270: 56e5 393d a20c 07be 5a63 8cbd 2b9a c63d
00000280: a29f 68bd 58ae c5bc db84 b43c 25a7 353d
00000290: a54f 13bb aa4f 793d ff8f 173e 4ed9 663e
000002a0: 23e2 80bb ef5c de3d a174 65be efd7 afbc
000002b0: 8d41 e63c 158e 5d3d 88e0 7f3e c3d9 823d
000002c0: 32db 6cbe 1714 bebc 4214 babd 1b3d d1bd
000002d0: dafc 073e e208 323d 2103 593e 4803 013e
000002e0: 44ee 4ebd 9691 94bc bc77 283e 62f8 d2bd
000002f0: 6491 d33c c49b f63d 0fc5 9b3d 1bdd 4b3e
00000300: 97c1 9dbd 79a9 c73e 9f3f 6f3e 6f2d 263f
00000310: 0e00 613d 0c1f c73c ca87 f53c 28bc 813d
00000320: 5f65 3e3e 80d4 abbc c4b2 ae3d 7831 923c
00000330: f337 a2bd 2136 a33c a328 97bd dd11 fb3c
00000340: 38f9 fbbc 94da 03be 9cf2 9e3e abe1 5a3e
00000350: 5631 d2bb 4999 cc3d 1359 c63d ad06 69bd
00000360: 15b5 5dbd f6ea 793d 12ca ef3d 1a14 00be
00000370: 7af9 0c3e 2932 323e a85f c73d 3e9e 093e
00000380: 05b5 2b3d c6f1 afbd 1b1d e93d 6895 b53d
00000390: 1c25 c13e b6f1 8d3e 7ec1 a8bd 4240 e7bd
000003a0: b504 89be 7089 54bd fff6 743e 0bd3 ae3d
000003b0: fe4b dd3a 4d34 c9bb b874 11bf f90c 433e
000003c0: 4f3b 9a3c 88d8 be3d 8259 963e be69 3f3e
000003d0: 7093 3ebb b95f b83d 24af 123c d14b f9be
000003e0: 52e4 4ebe 73a7 f33c 4eb4 c9b8 8290 0fbe
000003f0: 9369 1f3e 6fc8 9dbc a067 223e 5bd6 b7be

fc2.bias f4 [32]
-0.14475827 -0.053057455 0.08596013 0.23052749 0.25480253 0.14250484 0.19662844 0.24350362
-0.2402738 0.14243996 0.057661477 0.37067252 0.23183234 0.07696097 0.19806983 -0.287777
-0.13080256 0.26687637 0.19384913 -0.06085932 0.18418203 0.264776 -0.5206328 0.4000829
-0.075176775 0.11071466 -0.12071803 -0.12966782 -0.20893027 0.31754357 -0.048891954 0.36814967
00000000: 833b 14be c652 59bd dd0b b03d 660f 6c3e
00000010: 7a75 823e caec 113e f758 493e 0359 793e
00000020: 560a 76be c8db 113e 712e 6c3d cac8 bd3e
00000030: 7565 6d3e b79d 9d3d d1d2 4a3e 8257 93be
00000040: 1bf1 05be 05a4 883e 6380 463e 9f47 79bd
00000050: 379a 3c3e b890 873e 3148 05bf aad7 cc3e
00000060: 48f6 99bd 5ebe e23d 043b f7bd a4c7 04be
00000070: d1f1 55be 1295 a23e ee42 48bd 1d7e bc3e

fc3.weight f4 [16, 32]
-0.19418165 -0.016729938 -0.14212275 -0.16325185 0.024621889 0.053654365 -0.09864908 0.043564312
-0.09574375 0.0893588 -0.00847628 -0.13262746 -0.09636841 -0.09175428 -0.11640288 0.057478372
-0.03544506 -0.11079644 -0.15598372 0.14685237 -0.1468353 0.063423105 0.026689127 -0.0047347858
-0.14040175 -0.16075228 -0.021856153 0.0035174221 -0.11125044 0.1215674 0.031995736 -0.2061559
0.2594296 0.10999737 0.0362595 0.15048237 -0.09252724 -0.09570073 0.01383471 0.15321858
-0.1432971 -0.034046836 0.032442346 -0.01758253 0.18920241 0.18585175 0.3512785 0.1384121
0.038885795 -0.036411583 1.3736521 0.21007407 0.21126083 -0.29692903 0.02210588 0.058018763
0.16151828 -0.21774977 0.051552832 0.25692755 0.24528205 0.01132292 0.045412485 -0.087079674
-0.0052854093 -0.20582224 0.18416384 -0.15532923 0.1356993 -0.15052806 0.06129886 0.0077050324
-0.11645476 -0.053876363 0.0899683 0.11210933 0.12142279 0.19509879 -0.11687723 -0.082895435
-0.03342766 0.011910084 -0.4339187 -0.14859138 0.07948243 0.08382154 -0.05880272 0.16611621
-0.10204808 0.18836516 0.08113034 -0.06223311 0.19446145 0.37815574 0.041639086 0.08199339
-0.1732752 -0.07207223 -0.11507712 0.051570028 -0.18517311 0.057711065 0.048082817 0.061489034
-0.113717385 -0.021442704 -0.056212023 0.083896756 -0.17447136 -0.15696684 -0.18569067 0.02813836
-0.06508952 0.09494382 0.12512857 0.033177566 -0.1732698 0.0081914235 -0.22039866 -0.19611521
0.10095476 -0.07794745 0.0011841999 0.1462277 0.12445484 -0.035468895 0.054467626 -0.09368967
-0.14000349 -0.03788182 0.122269444 -0.6710034 -0.15022492 -0.16257724 0.04134662 0.30927655
-0.06984901 0.010230273 -0.04629819 -0.13642986 -0.055556573 -0.066279314 0.17071982 -0.27427134
-0.80771303 -0.05519748 0.97591656 0.5969929 0.13848215 0.3523754 0.46396512 -0.18274078
-0.15853092 0.40299293 0.15283684 -0.055619523 0.7403575 0.03166851 -0.04737445 -0.10486169
-0.027615063 -0.0068396553 0.2174825 -0.1802327 -0.008743184 -0.021220665 0.17408328 0.3424554
0.13035828 0.2339065 -0.065371744 -0.14242473 0.03189968 -0.08900245 0.24494009 -0.10323089
-0.16523078 0.21318465 0.8855693 0.1303653 0.13556893 -0.17727655 -0.018417498 -0.1382196
0.103455655 -0.043222584 -0.16276215 -0.036776938 0.0048924233 0.24631453 -0.08522327 0.16129918
0.044543333 -0.10640364 0.15179636 0.04917689 0.038991228 -0.20837124 -0.4348396 0.05102391
-0.09248935 0.088412106 -0.2906714 0.29516885 0.27175418 -0.058975156 0.10659139 -0.16623208
-0.1539061 0.08096579 -0.04841937 0.2534478 0.25103477 -0.11369835 0.07718902 0.10573127
0.1689264 -0.25858203 -0.0074795214 0.08388752 0.35064325 -0.42314157 0.16240422 -0.22832744
-0.008959932 0.0133700045 0.093937956 -0.1740998 -0.016515817 -0.39908376 0.49394423 0.38427955
-0.4715779 0.3237557 -0.059104986 0.11917516 0.24396345 -0.21122015 0.18999185 0.05547523
-0.048605163 0.26066214 0.23024635 -0.30810982 -0.0054418254 -0.37248966 -0.16706775 0.21305522
-0.14895692 -0.14584942 0.038671236 0.021027405 0.33760944 0.21736872 -0.028735802 -0.034285825
00000000: 8ed7 46be 390d 89bc a088 11be 7e2b 27be
00000010: d8b3 c93c aec4 5b3d 8708 cabd 7e70 323d
00000020: 4d15 c4bd bf01 b73d 18e0 0abc 7ecf 07be
00000030: cd5c c5bd abe9 bbbd a264 eebd 716e 6b3d
00000040: d72e 11bd 3ee9 e2bd 32ba 1fbe 7860 163e
00000050: fe5b 16be f9e3 813d 28a3 da3c 4326 9bbb
00000060: 7ac5 0fbe 3f9c 24be ad0b b3bc 8d84 663b
00000070: 45d7 e3bd 54f8 f83d f60d 033d 881a 53be
00000080: f5d3 843e 4d46 e13d d784 143d 0d18 1a3e
00000090: ec7e bdbd bffe c3bd fbaa 623c 55e5 1c3e
000000a0: 7abc 12be b274 0bbd 44e2 043d 3d09 90bc
000000b0: 47be 413e ec4f 3e3e c7da b33e e7bb 0d3e
000000c0: b646 1f3d 5024 15bd d5d3 af3f a81d 573e
000000d0: c254 583e 1507 98be 6417 b53c 15a5 6d3d
000000e0: 0c65 253e ccf9 5ebe 1029 533d 028c 833e
000000f0: 382b 7b3e c583 393c 7102 3a3d d456 b2bd
00000100: 3a31 adbb 11c3 52be 7295 3c3e a00e 1fbe
00000110: c2f4 0a3e 0724 1abe 8314 7b3d 7f7a fc3b
00000120: d57f eebd 76ad 5cbd 4d41 b83d 9499 e53d
00000130: 83ac f83d fac7 473e 545d efbd 15c5 a9bd
00000140: 71eb 08bd 8322 433c 982a debe 5728 18be
00000150: afc7 a23d a1aa ab3d 1fdb 70bd 5e1a 2a3e
00000160: 95fe d0bd cce2 403e aa27 a63d 25e8 7ebd
00000170: e720 473e a19d c13e bf8d 2a3d 27ec a73d
00000180: 0e6f 31be 9b9a 93bd 8ead ebbd 183b 533d
00000190: 059e 3dbe 7062 6c3d 7df2 443d eddb 7b3d
000001a0: a9e4 e8bd 9ca8 afbc 943e 66bd 10d2 ab3d
000001b0: 9fa8 32be eabb 20be b225 3ebe 6b82 e63c
000001c0: a74d 85bd e871 c23d b421 003e 33e5 073d
000001d0: a36d 31be 5235 063c 30b0 61be 6dd2 48be
000001e0: 5fc1 ce3d eaa2 9fbd 2837 9b3a b7bc 153e
000001f0: 2ee2 fe3d d547 11bd 7219 5f3d 5fe0 bfbd
00000200: 135d 0fbe f829 1bbd 6768 fa3d e1c6 2bbf
00000210: 90d4 19be a67a 26be 135b 293d 7f59 9e3e
00000220: ff0c 8fbd e09c 273c 2ca3 3dbd 45b4 0bbe
00000230: 4a8f 63bd 73bd 87bd 2dd1 2e3e 4b6d 8cbe
00000240: 48c6 4ebf c116 62bd abd5 793f 87d4 183f
00000250: 44ce 0d3e 8c6a b43e d68c ed3e 6620 3bbe
00000260: ee55 22be 1755 ce3e 4381 1c3e 4cd1 63bd
00000270: 1288 3d3f d7b6 013d b60b 42bd bac1 d6bd
00000280: fc38 e2bc 301f e0bb bcb3 5e3e ec8e 38be
00000290: 923f 0fbc f6d6 adbc e342 323e 5056 af3e
000002a0: a47c 053e 2f85 6f3e 9fe1 85bd cad7 11be
000002b0: 3da9 023d eb46 b6bd 93d1 7a3e b86a d3bd
000002c0: 4232 29be 144d 5a3e abb4 623f 7b7e 053e
000002d0: 95d2 0a3e fc87 35be 4be0 96bc 7089 0dbe
000002e0: 8fe0 d33d 2a0a 31bd 1fab 26be 6aa3 16bd
000002f0: 9f50 a03b e039 7c3e 8a89 aebd 9d2b 253e
00000300: 1273 363d 27ea d9bd 8170 1b3e b56d 493d
00000310: 44b5 1f3d 455f 55be 4ca3 debe 73fe 503d
00000320: 0e6b bdbd 6811 b53d e2d2 94be 5f20 973e
00000330: 5d23 8b3e ef8f 71bd 964c da3d be38 2abe
00000340: 9099 1dbe 64d1 a53d 6453 46bd e9c3 813e
00000350: a187 803e aeda e8bd 4715 9e3d a389 d83d
00000360: 0bfb 2c3e dd64 84be c616 f5bb 38cd ab3d
00000370: 8387 b33e 03a6 d8be 4b4d 263e abce 69be
00000380: aecc 12bc dd0d 5b3c 8b62 c03d 3847 32be
00000390: 2e4c 87bc b554 ccbe 42e6 fc3e 4ac0 c43e
000003a0: a972 f1be 4fc3 a53e 1218 72bd 1b12 f43d
000003b0: 8ed1 793e 184a 58be 398d 423e ff39 633d
000003c0: 3516 47bd 8275 853e b3c5 6b3e 92c0 9dbe
000003d0: 5751 b2bb f7b6 bebe cf13 2bbe 262b 5a3e
000003e0: 2a88 18be 8d59 15be bb65 1e3d aa41 ac3c
000003f0: 25db ac3e e895 5e3e 5867 ebbc 4b6f 0cbd

fc3.bias f4 [16]
-0.15009211 -0.17031553 0.31884637 -0.050188757 0.027052844 0.1862372 -0.13954961 0.42187485
0.1376879 0.15755613 0.064160496 0.00076163287 0.04710256 -0.21017276 -0.89734006 0.03179418
00000000: bfb1 19be 3267 2ebe d53f a33e ba92 4dbd
00000010: ed9d dd3c f7b4 3e3e 18e6 0ebe fbff d73e
00000020: 0ffe 0c3e 6556 213e 9466 833d 51a8 473a
00000030: 9dee 403d 8737 57be 14b8 65bf 9d3a 023d

fc4.weight f4 [8, 16]
-0.042105973 -0.64528424 0.3219268 0.06414401 -0.3664615 -0.07230596 0.08386864 0.047601786
-0.19223827 0.12764513 -0.32074365 -0.20077147 -0.6246268 0.22939381 -0.29100564 0.13338092
0.079962075 -0.25514588 -0.32777452 -0.23277311 -0.018577086 0.007480933 -0.12783031 0.01731266
-0.09368842 0.12400933 -0.2098464 0.0835979 0.13340239 -0.23975818 -0.17450967 -0.026775053
0.13326336 0.037281223 0.24054757 0.021170251 -0.0166891 -0.0153829 0.6759861 0.17706472
-0.09472445 -0.2379518 0.19189323 0.09155599 1.0511724 -0.019245457 -0.1884181 -0.08530531
0.22206943 0.012117584 0.20378709 -0.14613828 0.45920342 -0.16867077 -0.14075738 0.4058353
-0.13195424 -0.2596915 0.2087974 0.1288703 0.5025057 0.18380284 -0.04354961 -0.10728633
-0.12542519 -0.62493193 0.44584024 0.029255416 -0.6711345 -0.3616093 0.1426651 0.018527627
0.20980881 -0.23353387 0.15233865 0.09471564 -0.5376921 -0.23586747 0.1679147 0.22421692
-0.049490273 -0.19711372 0.28118557 -0.14501105 0.7162012 0.18726954 -0.051631488 0.23880453
0.040749583 0.21324867 -0.22647768 -0.22807738 0.10929476 -0.15724708 -0.034782756 -0.016707098
0.15491942 -0.03345275 -0.093580335 -0.029019922 0.51300013 -0.07991854 0.22795631 -0.34802037
-0.08689752 0.11049063 0.27162102 -0.14405625 0.5138517 -0.096541785 -0.08394061 0.17851652
0.21612209 -0.101334326 -0.03404946 0.21314469 0.2734807 0.05242714 -1.443035 0.38446534
-0.026970625 -0.15053605 0.16541997 0.056387722 0.6360888 -0.04157505 0.08262318 -0.12098504
00000000: 5077 2cbd 5931 25bf 97d3 a43e ef5d 833d
00000010: d7a0 bbbe 2615 94bd 52c3 ab3d 17fa 423d
00000020: 1cda 44be 68b5 023e 8338 a4be 0997 4dbe
00000030: 8be7 1fbf 36e6 6a3e b1fe 94be 0295 083e
00000040: 28c3 a33d 7ba2 82be 10d2 a7be 135c 6ebe
00000050: f92e 98bc 9d22 f53b f3e5 02be 48d3 8d3c
00000060: b7df bfbd 9bf8 fd3d fae1 56be 6035 ab3d
00000070: a39a 083e 2b83 75be aab2 32be 5b57 dbbc
00000080: 3176 083e 32b4 183d 1a52 763e 3c6d ad3c
00000090: 94b7 88bc 8f08 7cbc 6d0d 2d3f 7450 353e
000000a0: e4fe c1bd a3a9 73be a97f 443e b581 bb3d
000000b0: d18c 863f a6a8 9dbc adf0 40be 8db4 aebd
000000c0: 2b66 633e d588 463c 90ad 503e 46a5 15be
000000d0: b61c eb3e 08b8 2cbe b422 10be a5c9 cf3e
000000e0: 031f 07be 49f6 84be fcce 553e 93f6 033e
000000f0: 37a4 003f d036 3c3e 1361 32bd efb8 dbbd
00000100: 766f 00be 8afb 1fbf 2c45 e43e 0ea9 ef3c
00000110: 78cf 2bbf db24 b9be cd16 123e 40c7 973c
00000120: 1fd8 563e 8123 6fbe aafe 1b3e 46fa c13d
00000130: 31a6 09bf 3e87 71be d5f1 2b3e 1f99 653e
00000140: 50b6 4abd 2ed8 49be 8ef7 8f3e c77d 14be
00000150: f658 373f 96c3 3f3e 8a7b 53bd 2d89 743e
00000160: 09e9 263d dc5d 5a3e c4e9 67be 1e8d 69be
00000170: eed5 df3d 6105 21be 5d78 0ebd 53dd 88bc
00000180: 32a3 1e3e c005 09bd 0ca7 bfbd 30bb edbc
00000190: fa53 033f 55ac a3bd 616d 693e ba2f b2be
000001a0: 54f7 b1bd e948 e23d e911 8b3e 7b83 13be
000001b0: c98b 033f b3b7 c5bd 0ee9 abbd 09cd 363e
000001c0: 1c4f 5d3e 5f88 cfbd 7277 0bbd 9a42 5a3e
000001d0: aa05 8c3e d7bd 563d 5fb5 b8bf a4d8 c43e
000001e0: 80f1 dcbc 1f26 1abe da63 293e d0f6 663d
000001f0: b7d6 223f 9a4a 2abd 5736 a93d 01c7 f7bd

fc4.bias f4 [8]
0.07585563 0.091779634 0.40970868 0.6468368 0.30224448 0.45350575 0.1843334 -0.27127242
00000000: 325a 9b3d f6f6 bb3d 56c5 d13e 1997 253f
00000010: cabf 9a3e e831 e83e e5c1 3c3e 38e4 8abe

fc5.weight f4 [3, 8]
-0.06538766 -0.18528453 0.16156045 -0.20135835 -0.5120589 0.4179285 -0.08255827 0.45981434
0.4204669 -0.35862663 -0.26340798 0.18421407 0.40525356 0.17126887 0.08350517 0.09947294
-0.9647538 -0.06065497 0.20481881 0.3343108 -0.5082709 -0.17517646 -0.43890858 0.30625734
00000000: f7e9 85bd 3abb 3dbe 1a70 253e e230 4ebe
00000010: 4b16 03bf b9fa d53e 4f14 a9bd c96c eb3e
00000020: 7047 d73e e99d b7be 69dd 86be 9da2 3c3e
00000030: 657d cf3e 1b61 2f3e c204 ab3d 78b8 cb3d
00000040: 1bfa 76bf 5971 78bd 06bc 513e c92a ab3e
00000050: 0b1e 02bf 7561 33be a0b8 e0be c3cd 9c3e

fc5.bias f4 [3]
0.2220687 0.19947259 0.32840332
00000000: fa65 633e 8b42 4c3e 7b24 a83e

exp_avg f4 [64, 4]
4.3553726e-05 -0.00021310941 8.6886546e-05 -3.168382e-05 -9.0360285e-05 0.00034986966 2.5507095e-05 -0.00015643927
-0.00015636155 0.0005338478 2.4744466e-05 -0.00033730027 -3.6272726e-05 0.00090720213 0.0012114132 -6.391191e-05
-3.8221995e-05 8.330894e-05 6.769575e-05 -3.5306464e-05 0.000104936895 -0.0009798493 -0.00010256958 0.00035621872
0.00016234073 -0.0010309778 -0.0002465517 0.0004101669 2.0685495e-05 -0.00066115934 -0.00033504376 0.00033227357
-0.00025058957 0.0008084467 7.239417e-05 -0.00042295715 -0.00044181282 0.0015038585 1.641807e-05 -0.0009137791
-0.00072519155 0.0020414658 0.00014574733 -0.001228592 -5.281573e-06 7.3035415e-05 9.325068e-05 -6.6333914e-06
0.00014599365 -0.0001961055 0.00036507825 9.4850606e-05 -0.00028525927 0.000978239 0.00034995424 -0.0006069857
-2.2340994e-06 0.00015434941 -2.4256915e-05 -4.9155433e-06 -0.0002158177 0.0010009127 9.479902e-06 -0.00040662897
3.5527788e-05 -0.00066920527 -0.00023598464 0.00018689723 -0.0007409801 0.0030291209 0.00046957083 -0.001886164
2.2537064e-05 -0.00016617806 1.4700316e-06 0.00023364079 -0.00025179653 0.0007601513 0.00012698589 -0.00033176225
0.00010513361 -0.0003116803 -0.0015621507 0.00017972731 0.0003131405 -0.00013734058 -4.535747e-05 0.00023369206
0.00037877721 -0.0016900749 0.0009731923 0.00082168845 -0.0005526483 0.0018631124 -0.0001079222 -0.0012223194
0.00023645526 -0.0011101585 -0.000312315 0.0005663211 -0.00042598476 0.0019582026 -1.8679717e-05 -0.0010384152
-0.00012549573 0.00047059043 -9.8668985e-05 -0.00018479938 -0.00015656637 -0.00013343393 0.00013134576 -0.000114724135
1.3744467e-05 2.4194434e-05 -0.00026527248 7.194578e-05 -8.770614e-06 -1.573829e-05 0.0001441401 -1.509308e-05
8.614719e-05 -0.00030184956 4.2330914e-05 0.0001728435 4.7375885e-05 1.0366697e-05 0.00018533757 -4.7564296e-05
0.0005781323 -0.003132059 -0.000315404 0.0018086847 0.00029827747 -0.0011235621 0.00087965076 0.0005102366
-8.474818e-06 -0.0002481437 -5.6428125e-05 0.0001989646 -0.00022697117 0.0010855624 0.00025783884 -0.00051013165
3.2298143e-05 0.0004834366 0.0003011143 6.562055e-06 3.6769005e-05 1.2493777e-05 0.00021415295 -4.638103e-06
-0.0010625072 0.002863958 0.00012992688 -0.0013260369 -0.00097029284 0.0021255868 -0.00036407032 -0.0013100912
0.00031491902 -0.0014380686 -0.0002918659 0.0006707578 3.0939635e-05 -0.00010333616 -0.00021817925 0.00013982588
-4.4387616e-07 5.2243668e-06 -0.00016965208 -1.0998584e-06 -0.0023078176 0.005090157 -0.00012223436 -0.0031640264
6e-45 6e-45 6e-45 6e-45 -6.3051084e-05 0.00024558062 -0.00019349379 -5.0114617e-05
0.0010543845 -0.0047543654 -0.0006863868 0.0024487735 -7.836055e-06 0.00015258373 7.620795e-05 -1.8292999e-06
8.0092155e-05 6.5164204e-05 -4.4342364e-06 2.5818208e-06 -3.2985959e-06 2.9191695e-05 -0.00041324602 -4.9316026e-07
-7.718849e-06 0.0007454188 -0.00022300947 -7.5951684e-05 -0.00022304672 0.0014166788 0.0002316649 -0.0005062829
-8.013387e-05 0.00018803975 -4.697612e-05 -0.00011462075 -0.000592896 0.0019047728 0.00023205623 -0.0011649949
0.00025626915 -0.0012398371 -0.00016721453 0.0004677007 3.0936957e-05 0.00018612485 9.735257e-05 -0.0002047763
0.00025001436 -0.00012225543 1.0390164e-05 0.00039818525 -5.7570855e-06 -8.0269136e-05 0.0003853277 -5.977749e-06
0.00057791366 -0.0015975006 3.3148146e-05 0.00087221403 -0.0002867543 0.0010035788 4.8492766e-05 -0.0006000483
-0.00014546138 0.0007525977 0.00028680326 -0.0001906548 0.00014939069 -0.0007002657 -0.00030401966 0.00034564623
-3.3149834e-05 0.0005286438 7.5029707e-06 -4.6565885e-05 0.0005956748 -0.0019502265 -0.00025116437 0.0009393935
00000000: 75ad 3638 1f76 5fb9 dc36 b638 3ee4 04b8
00000010: cf7f bdb8 b66e b739 12f8 d537 d909 24b9
00000020: fcf4 23b9 ebf1 0b3a 5692 cf37 add7 b0b9
00000030: 8b23 18b8 4ed1 6d3a 48c8 9e3a 7208 86b8
00000040: 8e50 20b8 26b6 ae38 e1f7 8d38 0716 14b8
00000050: 9111 dc38 496e 80ba a01a d7b8 dec2 ba39
00000060: 023a 2a39 e021 87ba 9c43 81b9 ab0b d739
00000070: c385 ad37 a751 2dba d0a8 afb9 0135 ae39
00000080: 9061 83b9 f1ed 533a 53d2 9738 59c0 ddb9
00000090: 1da3 e7b9 1e1d c53a 89b9 8937 ad8a 6fba
000000a0: c81a 3eba 1dca 053b c0d3 1839 b508 a1ba
000000b0: 5e38 b1b6 972a 9938 948f c338 6694 deb6
000000c0: df15 1939 aba1 4db9 f967 bf39 88ea c638
000000d0: da8e 95b9 4138 803a 107a b739 1f1e 1fba
000000e0: 89ed 15b6 dbd8 2139 547b cbb7 32f0 a4b6
000000f0: 1f4d 62b9 0f31 833a de0b 1f37 d130 d5b9
00000100: ac03 1538 9b6d 2fba a572 77b9 d8f9 4339
00000110: 553e 42ba 3784 463b bb30 f639 2939 f7ba
00000120: fa0d bd37 1540 2eb9 e74d c535 79fd 7439
00000130: 8f03 84b9 e444 473a 8427 0539 60f0 adb9
00000140: 2d7b dc38 0669 a3b9 14c1 ccba 2f75 3c39
00000150: 022d a439 1503 10b9 363e 3eb8 3c0b 7539
00000160: 9e96 c639 8185 ddba d41d 7f3a 9466 573a
00000170: 99df 10ba ae33 f43a 4a54 e2b8 3c36 a0ba
00000180: faf0 7739 bd82 91ba 36be a3b9 2a75 143a
00000190: b556 dfb9 3055 003b 63b2 9cb7 6f1b 88ba
000001a0: 8197 03b9 94b9 f639 82ec ceb8 b5c6 41b9
000001b0: f72b 24b9 66ea 0bb9 dcb9 0939 0d98 f0b8
000001c0: 0998 6637 27f5 ca37 4514 8bb9 99e1 9638
000001d0: 8025 13b7 b805 84b7 5024 1739 4938 7db7
000001e0: eca9 b438 9041 9eb9 798c 3138 533d 3539
000001f0: 78b5 4638 a0ec 2d37 2d57 4239 c67f 47b8
00000200: cd8d 173a 3b43 4dbb cf5c a5b9 6311 ed3a
00000210: 2062 9c39 7d44 93ba 5d98 663a 66c1 053a
00000220: 112f 0eb7 4919 82b9 3dad 6cb8 27a1 5039
00000230: 1cff 6db9 6e49 8e3a 8b2e 8739 5bba 05ba
00000240: de77 0738 c375 fd39 e1de 9d39 a02f dc36
00000250: 6b38 1a38 5d9c 5137 3f8e 6039 00a1 9bb6
00000260: d343 8bba 3eb1 3b3b fb3c 0839 6ace adba
00000270: 405b 7eba 6e4d 0b3b b1e0 beb9 5eb7 abba
00000280: b71b a539 937d bcba 9405 99b9 cbd5 2f3a
00000290: 2ec5 0138 2eb6 d8b8 0cc7 64b9 399e 1239
000002a0: e04d eeb4 f84c af36 a2e4 31b9 d99e 93b5
000002b0: c13e 17bb 55cb a63b 092c 00b9 8e5b 4fbb
000002c0: 0400 0000 0400 0000 0400 0000 0400 0000
000002d0: 4b3a 84b8 46c1 8039 98e4 4ab9 2932 52b8
000002e0: 4633 8a3a 82ca 9bbb a3ee 33ba 9a7b 203b
000002f0: 9a77 03b7 e2fe 1f39 d5d1 9f38 4486 f5b5
00000300: 26f7 a738 c4a8 8838 cdc9 94b6 5843 2d36
00000310: 725d 5db6 b0e0 f437 f1a8 d8b9 b761 04b5
00000320: 3480 01b7 3568 433a a6d7 69b9 4048 9fb8
00000330: a6e1 69b9 daaf b93a 13eb 7239 12b8 04ba
00000340: 8b0d a8b8 892c 4539 3a08 45b8 8c60 f0b8
00000350: 946c 1bba 92a9 f93a 1f54 7339 beb2 98ba
00000360: dd5b 8639 0882 a2ba 4f56 2fb9 ba35 f539
00000370: 4ec2 0138 822a 4339 c329 cc38 38b9 56b9
00000380: 5c14 8339 b131 00b9 6a51 2e37 85c3 d039
00000390: fd2c c1b6 2a56 a8b8 cf05 ca39 7994 c8b6
000003a0: 217f 173a 3a63 d1ba 8d08 0b38 4ba5 643a
000003b0: 8357 96b9 848a 833a b664 4b38 8f4c 1dba
000003c0: fe86 18b9 fa49 453a 155e 9639 82ea 47b9
000003d0: c2a5 1c39 0992 37ba d464 9fb9 da37 b539
000003e0: 5d0a 0bb8 af94 0a3a 07c2 fb36 bd4f 43b8
000003f0: 0f27 1c3a be9e ffba b6ae 83b9 a141 763a

exp_avg_sq f4 [64, 4]
1.0982872e-06 1.835961e-05 8.90653e-06 4.0807063e-06 1.2758196e-05 7.963515e-05 0.00012128464 3.8687773e-05
2.0455445e-06 1.8242881e-05 1.9425602e-06 4.7304648e-06 1.2546019e-07 0.00015228835 0.0010089723 2.5734988e-07
5.9433127e-08 2.777496e-06 2.9250352e-06 4.478255e-07 4.314026e-06 0.00012544883 1.1308352e-05 2.7546685e-05
2.93057e-06 4.7287824e-05 7.381637e-05 6.939175e-06 1.1981796e-06 2.2182978e-05 1.3596077e-05 7.546575e-06
4.0271934e-06 3.6322355e-05 2.3391938e-06 9.790671e-06 1.2254282e-05 0.00010104189 2.257848e-06 2.881345e-05
1.9193245e-05 0.00017897438 7.163101e-06 5.634909e-05 1.2057421e-09 3.6663876e-06 1.8330089e-05 4.222138e-09
1.2350857e-06 1.39881995e-05 5.345301e-05 2.6089451e-06 1.290033e-06 1.6964734e-05 2.0117528e-05 3.1840136e-06
2.8648574e-06 3.85081e-05 4.3070995e-06 1.4308675e-05 3.1503305e-06 6.8569585e-05 6.0404254e-06 1.7496834e-05
4.4376895e-07 8.125523e-06 1.6886696e-06 1.0387629e-06 4.053265e-05 0.0003759568 1.0699391e-05 0.00014345549
4.0229966e-06 8.781111e-05 5.0183586e-05 1.9889363e-05 4.8000925e-07 6.943774e-06 9.070888e-06 1.1186137e-06
2.0603828e-07 3.1099169e-06 9.10272e-05 6.1524656e-07 2.772695e-05 0.0003147114 4.030017e-06 9.158996e-05
7.865542e-06 0.00014031322 3.740478e-05 2.7080428e-05 1.4027961e-05 0.00016423025 2.472383e-06 2.7026663e-05
1.3028813e-06 1.8271296e-05 3.428009e-06 3.7830005e-06 1.689261e-05 0.00019587806 6.7762953e-06 4.6713038e-05
5.1368256e-06 7.5744545e-05 1.2362629e-05 1.9994537e-05 1.2470929e-05 0.00019686621 7.966286e-06 5.3793567e-05
1.06115436e-07 2.9666453e-06 9.795105e-06 2.3618016e-07 2.6133318e-09 1.5740703e-08 1.0574958e-05 5.076943e-09
1.8779245e-07 5.222364e-06 4.35379e-06 7.6676406e-07 1.264277e-07 1.5814776e-06 2.4724895e-05 3.8529322e-08
3.8408692e-05 0.0008311007 2.3277618e-05 0.00021817237 4.519846e-06 9.291896e-05 3.5103592e-05 1.5882004e-05
5.9431e-07 2.1398295e-05 1.7036043e-06 4.681956e-06 6.901866e-07 1.6134629e-05 1.1042166e-05 3.2042203e-06
2.8318178e-08 1.2969428e-05 5.5817112e-05 2.1215572e-08 5.683906e-08 8.2683925e-08 8.55494e-06 2.6617217e-08
6.3561776e-05 0.00058573874 6.012946e-06 0.00011067659 1.9632846e-05 0.00015047252 3.0761537e-05 2.6981646e-05
2.224904e-06 5.028514e-05 5.1907396e-06 1.2084737e-05 1.2676767e-06 1.3377581e-05 9.732836e-06 3.680853e-06
9.159577e-12 2.5834462e-08 5.8969135e-06 2.6852612e-11 0.000120334116 0.0011399823 1.0058486e-05 0.00021656936
4.1259905e-17 6.579726e-15 1.010111e-11 1.10492444e-16 1.1043975e-07 3.1361208e-06 9.412637e-06 4.710397e-07
7.688755e-05 0.0006923721 8.3027364e-05 0.00020915801 2.5314106e-08 4.044838e-06 1.8404497e-05 2.936251e-08
1.0040255e-07 5.4627364e-08 8.619654e-06 5.81509e-09 1.0020326e-09 1.5603243e-06 4.1864212e-05 1.2333976e-09
3.823755e-07 3.3409455e-05 0.00032660665 1.5391275e-07 1.8433878e-06 2.1908298e-05 1.0356526e-05 3.9607908e-06
2.3562872e-07 1.0738325e-05 1.101484e-05 1.7745169e-06 1.3070939e-05 0.00010473342 6.1556434e-06 3.3049982e-05
3.6811872e-07 5.319115e-06 1.6715543e-05 9.611363e-07 2.976646e-06 3.507209e-05 1.702935e-05 9.388988e-06
2.3596223e-05 0.00031835705 1.4213912e-05 9.917533e-05 2.0987315e-08 9.4055025e-07 1.3950353e-05 8.550418e-09
1.5087891e-05 0.00019523068 1.0632236e-05 5.0306026e-05 3.387772e-06 2.0297166e-05 1.448538e-06 9.301164e-06
1.7086602e-06 4.246525e-05 2.32308e-05 5.8458813e-06 4.692466e-07 7.1618783e-06 7.916139e-06 1.8557396e-06
4.5941493e-07 1.0542664e-05 2.1988148e-05 1.7465159e-06 2.5050584e-05 0.0002769092 8.495866e-05 7.918685e-05
00000000: dc68 9335 f602 9a37 416d 1537 00ed 8836
00000010: 090c 5637 cc01 a738 325a fe38 ae44 2238
00000020: 3046 0936 4a08 9937 ee5c 0236 62ba 9e36
00000030: 3cb6 0634 98af 1f39 7e3f 843a e629 8a34
00000040: 6a43 7f33 0565 3a36 b94b 4436 ab6c f034
00000050: 33c1 9036 ea8a 0339 01b9 3d37 0e14 e737
00000060: cfaa 4436 ea56 4638 ddcd 9a38 0fd7 e836
00000070: 23d1 a035 9515 ba37 b51a 6437 9638 fd36
00000080: 5421 8736 d558 1838 0bfb 1c36 9d42 2437
00000090: be97 4d37 74e6 d338 8985 1736 6ab4 f137
000000a0: 2e01 a137 12ab 3b39 925a f036 6058 6c38
000000b0: 47b7 a530 0f0c 7636 91c3 9937 5212 9131
000000c0: 39c5 a535 dcae 6a37 bc32 6038 5615 2f36
000000d0: 3225 ad35 7d4f 8e37 10c2 a837 f0ac 5536
000000e0: e041 4036 c283 2138 b485 9036 4b0f 7037
000000f0: 446a 5336 04cd 8f38 dcae ca36 2ac6 9237
00000100: 243f ee34 db52 0837 3fa6 e235 9f6b 8b35
00000110: 9a01 2a38 111c c539 8981 3337 8a6c 1639
00000120: 47fd 8636 3b27 b838 377c 5238 15d8 a637
00000130: fcd9 0035 91fe e836 2b2f 1837 4623 9635
00000140: 5f3b 5d34 f7b3 5036 dbe5 be38 6c27 2535
00000150: 2c97 e837 d9ff a439 9539 8736 fc13 c038
00000160: 3ff6 0337 0b21 1339 14e3 1c38 c72a e337
00000170: a259 6b37 3935 2c39 37eb 2536 51b7 e237
00000180: a9de ae35 4f45 9937 bf0c 6636 74df 7d36
00000190: 9bb4 8d37 9e64 4d39 ef5f e336 beed 4338
000001a0: ff5c ac36 0bd9 9e38 1669 4f37 f1b9 a737
000001b0: 3b3a 5137 df6d 4e39 f0a6 0537 67a0 6138
000001c0: 94e1 e333 9416 4736 a855 2437 b598 7d34
000001d0: 3896 3331 2c36 8732 196b 3137 4371 ae31
000001e0: ffa3 4934 c43b af36 c516 9236 a0d3 4d35
000001f0: 2ec0 0734 2843 d435 4f68 cf37 707b 2533
00000200: 0519 2138 39de 593a 4e44 c337 33c5 6439
00000210: 2ea9 9736 7ddd c238 323c 1338 583a 8537
00000220: ac88 1f35 7d80 b337 66a7 e435 b219 9d36
00000230: 4345 3935 da58 8737 be41 3937 1608 5736
00000240: 5540 f332 4597 5937 2b1d 6a38 893d b632
00000250: 351f 7433 f88f b133 3087 0f37 e1a3 e432
00000260: 784c 8538 438c 193a d0c2 c936 0b1b e838
00000270: 37b1 a437 29c8 1d39 f305 0138 a556 e237
00000280: 8f4f 1536 42e9 5238 1d2c ae36 8dbf 4a37
00000290: 0a25 aa35 4670 6037 364a 2337 9304 7736
000002a0: 1123 212d 95ea dd32 1ade c536 b532 ec2d
000002b0: e35b fc38 756b 953a dec0 2837 e516 6339
000002c0: 1947 3e24 430f ed27 5bb3 312d 3ac7 fe24
000002d0: e52a ed33 2576 5236 f8ea 1d37 34e3 fc34
000002e0: b03e a138 4e80 353a fa1e ae38 6d51 5b39
000002f0: 4f72 d932 e5b8 8736 5b63 9a37 d838 fc32
00000300: e39c d733 6c9f 6a33 229d 1037 13ce c731
00000310: e3b7 8930 566c d135 5b97 2f38 5284 a930
00000320: 4a49 cd34 2121 0c38 673c ab39 3743 2534
00000330: 536a f735 b6c7 b737 f1c0 2d37 efe6 8436
00000340: 2101 7d34 c128 3437 61cc 3837 f02b ee35
00000350: 414b 5b37 54a4 db38 938c ce36 269f 0a38
00000360: daa1 c534 da7a b236 5b38 8c37 6400 8135
00000370: 64c2 4736 5f1a 1338 40da 8e37 6585 1d37
00000380: 81f0 c537 29e9 a639 4a78 6e37 5afc cf38
00000390: 9847 b432 1f7a 7c35 4f0c 6a37 23e5 1232
000003a0: 0022 7d37 d6b6 4c39 1b61 3237 afff 5238
000003b0: 7b59 6336 d543 aa37 636b c235 320c 1c37
000003c0: 1e55 e535 b71c 3238 c3df c237 bd27 c436
000003d0: c3ec fb34 1150 f036 8fcf 0437 ba12 f935
000003e0: 82a5 f634 66e0 3037 3073 b837 d469 ea35
000003f0: b823 d237 202e 9139 d52b b238 1e11 a638

exp_avg f4 [64]
-0.00051853695 7.859683e-05 7.5028125e-05 -0.000117392134 -6.35971e-05 0.00016693515 -0.00035957198 -0.00019806842
0.0006819199 0.00080855313 0.0016158288 -1.3631579e-05 4.167942e-06 0.0006170797 1.2936257e-05 0.0002520412
-0.0006985127 0.0023013605 0.00014673841 0.0006292942 2.8934845e-05 -0.0009228044 -0.0018976477 0.0011631581
-0.0005520091 0.0015914425 0.0006603736 0.00089594413 -3.0114668e-05 -3.5339956e-05 -5.3048807e-05 -3.4603813e-06
-0.0028411688 -0.001293678 0.00023027486 0.0005785798 9.0955145e-05 6.484016e-05 0.0025424692 0.0018748901
-0.0004154313 0.00010766673 -1.3865404e-06 0.003958967 6e-45 0.00030931784 -0.004001366 -5.2203126e-05
0.0001275559 -1.7486926e-05 0.00051570527 0.0005188597 0.0004897273 0.0012025351 -0.0009555552 0.0004774179
-0.00063496357 -7.999383e-06 -0.001751064 0.00052122475 0.0009960402 -0.0006729018 0.0002257856 -0.0016029619
00000000: 6dee 07ba 5ad4 a438 6b58 9d38 6c30 f6b8
00000010: 6f5f 85b8 500b 2f39 ef84 bcb9 96b0 4fb9
00000020: dfc2 323a 15f5 533a 38ca d33a 30b3 64b7
00000030: 59da 8b36 85c3 213a cd08 5937 6624 8439
00000040: 651c 37ba 6cd2 163b cbdd 1939 38f7 243a
00000050: 1bb9 f237 5be8 71ba 7eba f8ba 1c75 983a
00000060: b4b4 10ba f397 d03a ec1c 2d3a cbdd 6a3a
00000070: c29e fcb7 fd39 14b8 b980 5eb8 e638 68b6
00000080: e732 3abb a190 a9ba f075 7139 d5ab 173a
00000090: 2cbf be38 ccfa 8738 8e9f 263b dfbe f53a
000000a0: 3fce d9b9 23cb e138 2a19 bab5 39ba 813b
000000b0: 0400 0000 f02b a239 e41d 83bb aef4 5ab8
000000c0: 87c0 0539 e3b0 92b7 6530 073a 1604 083a
000000d0: 0b61 003a 629e 9d3a 397e 7aba f24d fa39
000000e0: af73 26ba 1735 06b7 f583 e5ba cda2 083a
000000f0: 908d 823a ad65 30ba dcc0 6c39 7a1a d2ba

exp_avg_sq f4 [64]
9.202619e-06 3.0052415e-05 1.3920488e-05 1.7238123e-06 9.4205086e-07 2.4515806e-05 2.1031787e-05 3.047085e-06
2.8328646e-05 8.229696e-05 0.00011054498 1.7241845e-08 9.221372e-06 9.619658e-06 7.414035e-06 9.914996e-06
7.22554e-06 0.00018022463 2.1663689e-05 5.1560414e-06 9.794306e-07 0.00013340356 0.00012181106 0.0001810042
9.27703e-06 0.0001554564 3.786888e-05 8.0093705e-05 7.884644e-07 4.7037666e-08 8.545771e-07 6.029614e-07
0.00049174816 7.4047704e-05 5.0339663e-06 5.0975013e-06 3.695514e-07 4.3936916e-07 0.0006328036 0.00018495692
8.556746e-06 7.059918e-06 2.1773357e-10 0.0012141475 8.646959e-17 1.0867722e-06 0.00048642256 5.2545505e-07
2.429237e-07 1.6173132e-08 8.524e-06 1.3018185e-05 3.2832575e-06 7.214068e-05 5.478404e-06 1.7658638e-05
8.652364e-05 1.0564172e-07 0.00013858685 8.81531e-06 3.1625e-05 4.8372262e-06 3.3763447e-06 0.00014588174
00000000: f364 1a37 1219 fc37 0a8c 6937 bd5d e735
00000010: 3ee1 7c35 4ba7 cd37 6b6d b037 867c 4c36
00000020: 4ea3 ed37 d896 ac38 62d4 e738 381b 9432
00000030: 7eb5 1a37 1e64 2137 13c6 f836 9558 2637
00000040: ea72 f236 aefa 3c39 6bba b537 0f02 ad36
00000050: fb74 8335 3fe2 0b39 d174 ff38 f2cb 3d39
00000060: 8aa4 1b37 0202 2339 66d5 1e38 fbf7 a738
00000070: dca6 5335 7606 4a33 1766 6535 31db 2135
00000080: a9e8 003a 0f4a 9b38 71e9 a836 340b ab36
00000090: c266 c634 70e2 eb34 bbe2 253a fff0 4139
000000a0: f28e 0f37 3ce4 ec36 8d66 6f2f 0824 9f3a
000000b0: a362 c724 35dd 9135 8806 ff39 ff0c 0d35
000000c0: 2e6b 8234 18ed 8a32 4d02 0f37 ae68 5a37
000000d0: ef55 5c36 3c4a 9738 22d3 b736 a321 9437
000000e0: 0774 b538 26dd e233 a051 1139 78e5 1337
000000f0: 16a5 0438 754f a236 2995 6236 d5f7 1839

exp_avg f4 [32, 64]
0.0001265021 5.7886176e-05 0.00024597827 3.9612664e-06 2.5541436e-05 0.00018382221 0.00049190014 -2.2037839e-05
0.00023220266 0.00016538093 0.00013489778 2.9907134e-05 6.5115026e-05 0.00025158568 4.2522923e-05 0.0001014575
2.5771962e-05 3.465758e-05 0.00010845328 0.00011495924 1.2175738e-06 0.00012939336 4.135689e-05 5.728436e-05
0.00020015166 9.8342505e-05 6.3248e-05 0.00018926874 5.206409e-05 1.5215307e-05 0.00014125697 3.0238787e-05
2.380492e-05 6.823947e-05 0.0001795353 0.0002299607 4.540651e-05 2.4751887e-05 -3.665967e-06 4.7034794e-07
0.00022199046 0.00020957946 -2.6075859e-06 -2.654721e-05 6e-45 5.7271744e-05 0.000107859036 3.7575428e-05
1.381719e-06 -3.5337507e-05 6.651603e-05 6.8223e-05 0.00022190905 0.00014899348 0.00013638912 0.00010068204
0.00010645304 7.972783e-05 2.7128015e-05 2.9053632e-05 0.00014076287 0.00010427347 0.00017869241 0.00012461412
6e-45 6e-45 -6e-45 6e-45 6e-45 6e-45 6e-45 0.0
6e-45 6e-45 -6e-45 6e-45 6e-45 6e-45 6e-45 6e-45
0.0 6e-45 6e-45 6e-45 -6e-45 6e-45 6e-45 6e-45
6e-45 6e-45 6e-45 6e-45 6e-45 6e-45 6e-45 6e-45
0.0 6e-45 6e-45 -6e-45 6e-45 6e-45 -6e-45 6e-45
6e-45 6e-45 0.0 0.0 -6e-45 6e-45 6e-45 6e-45
6e-45 0.0 6e-45 6e-45 6e-45 6e-45 6e-45 6e-45
6e-45 6e-45 6e-45 6e-45 6e-45 6e-45 -6e-45 6e-45
3.526556e-05 9.828002e-06 3.5667355e-07 -7.4259574e-06 1.746654e-05 1.1295908e-05 -0.000108621345 -3.964841e-06
-4.7676247e-05 -1.9780104e-05 -0.00013622208 2.6917893e-05 -7.7229386e-05 -0.00013787777 3.7840768e-05 6.605632e-05
-1.2115099e-06 -6.642006e-05 2.8109089e-06 3.5875986e-05 -7.6051033e-06 6.310583e-05 -1.5827889e-06 -9.142509e-06
1.9191819e-05 -0.00012358156 1.905722e-05 3.2234916e-06 8.903252e-06 4.4057538e-06 -6.106891e-05 4.0685554e-05
3.916554e-06 8.147116e-06 -4.1276733e-05 -0.0001363801 -1.6281343e-06 3.6990357e-06 -5.718874e-06 -5.8680384e-06
5.202057e-05 2.76304e-05 6e-45 -1.1302895e-06 -6e-45 4.348875e-05 1.716231e-05 2.9091425e-05
-6.285443e-07 -9.917981e-08 -2.26225e-05 -2.4665438e-05 -5.406593e-05 -7.106373e-05 8.658854e-06 1.0184831e-06
2.2377402e-05 9.689402e-05 1.2553789e-05 -2.4600591e-05 -4.49153e-05 8.526418e-05 -8.210215e-05 -3.9000483e-05
0.000112302514 6.1016333e-05 0.00026797302 2.4725685e-05 -3.7263558e-06 0.00024216888 0.0007567961 -3.456707e-05
0.00031400408 0.00016249149 0.00028896093 8.015524e-06 0.00020731229 0.00047664993 2.1151534e-06 6.82423e-05
4.793486e-06 0.00012086025 0.00013968242 8.7396e-05 2.7481015e-06 0.00012111124 6.028728e-05 4.3355292e-05
0.00023430442 0.00024430608 6.172674e-05 0.00024723014 5.1578274e-05 -1.04053925e-05 0.0002467317 -2.7512724e-05
-1.13477045e-05 9.041937e-05 0.00028287983 0.00041255917 6.579637e-05 -1.8020907e-06 -5.0314673e-05 -4.5788667e-05
0.00024303958 0.00021348677 -2.0660169e-05 -9.527297e-05 6e-45 1.974994e-05 0.00010862312 8.340567e-06
2.3535288e-06 -0.000101215584 8.774954e-05 8.784264e-05 0.00035069225 0.00019507443 0.0001698288 0.00014005834
0.000120974975 -4.0877556e-05 1.3472064e-05 4.0292387e-05 0.00026331676 2.890236e-05 0.0003390193 0.00018348993
00000000: a6a5 0439 cfca 7238 a5f6 8039 05eb 8436
00000010: d141 d637 66c0 4039 dcf2 003a e6dd b8b7
00000020: 6d7b 7339 1b6a 2d39 5973 0d39 15e1 fa37
00000030: 5d8e 8838 42e7 8339 a45a 3238 95c5 d438
00000040: de30 d837 4b5d 1138 6971 e338 4616 f138
00000050: 846b a335 c4ad 0739 9f76 2d38 9d44 7038
00000060: cddf 5139 3b3d ce38 03a4 8438 7176 4639
00000070: 645f 5a38 3f45 7f37 611e 1439 4da9 fd37
00000080: adb0 c737 c91b 8f38 a441 3c39 9b21 7139
00000090: de72 3e38 46a2 cf37 d504 76b6 2184 fc34
000000a0: 1cc6 6839 8fc2 5b39 fcfd 2eb6 b3b1 deb7
000000b0: 0400 0000 1137 7038 6132 e238 4f9a 1d38
000000c0: 8173 b935 5c37 14b8 867e 8b38 f212 8f38
000000d0: 42b0 6839 223b 1c39 ad03 0f39 4225 d338
000000e0: 8a3f df38 8e33 a738 f890 e337 33b8 f337
000000f0: bf99 1339 65ad da38 615f 3b39 d9aa 0239
00000100: 0400 0000 0400 0000 0400 0080 0400 0000
00000110: 0400 0000 0400 0000 0400 0000 0000 0000
00000120: 0400 0000 0400 0000 0400 0080 0400 0000
00000130: 0400 0000 0400 0000 0400 0000 0400 0000
00000140: 0000 0000 0400 0000 0400 0000 0400 0000
00000150: 0400 0080 0400 0000 0400 0000 0400 0000
00000160: 0400 0000 0400 0000 0400 0000 0400 0000
00000170: 0400 0000 0400 0000 0400 0000 0400 0000
00000180: 0000 0000 0400 0000 0400 0000 0400 0080
00000190: 0400 0000 0400 0000 0400 0080 0400 0000
000001a0: 0400 0000 0400 0000 0000 0000 0000 0000
000001b0: 0400 0080 0400 0000 0400 0000 0400 0000
000001c0: 0400 0000 0000 0000 0400 0000 0400 0000
000001d0: 0400 0000 0400 0000 0400 0000 0400 0000
000001e0: 0400 0000 0400 0000 0400 0000 0400 0000
000001f0: 0400 0000 0400 0000 0400 0080 0400 0000
00000200: 1bea 1338 f2e2 2437 d77c bf34 7d2c f9b6
00000210: 1c85 9237 8e83 3d37 a4cb e3b8 ba09 85b6
00000220: fbf7 47b8 73ed a5b7 d6d6 0eb9 bccd e137
00000230: 36f6 a1b8 4893 10b9 37b7 1e38 b787 8a38
00000240: 2a9b a2b5 004b 8bb8 0ca3 3c36 8c79 1638
00000250: 572f ffb6 af57 8438 3670 d4b5 c762 19b7
00000260: 1efe a037 ac95 01b9 11dd 9f37 2a53 5836
00000270: 2d5f 1537 23d5 9336 1f12 80b8 c8a5 2a38
00000280: f16a 8336 99af 0837 8e20 2db8 4101 0fb9
00000290: 4586 dab5 f33c 7836 c1e4 bfb6 11e6 c4b6
000002a0: a930 5a38 d5c7 e737 0400 0000 74b4 97b5
000002b0: 0400 0080 b167 3638 c8f7 8f37 5c09 f437
000002c0: 3cb9 28b5 adfc d4b3 73c5 bdb7 a0e8 ceb7
000002d0: dac4 62b8 0d08 95b8 7f45 1137 d0b2 8835
000002e0: 1bb7 bb37 9533 cb38 1d9e 5237 5e5d ceb7
000002f0: 7063 3cb8 dccf b238 422e acb8 7394 23b8
00000300: f483 eb38 caeb 7f38 bb7e 8c39 016a cf37
00000310: 4e12 7ab6 b7ee 7d39 ba63 463a 1cfc 10b8
00000320: eaa0 a439 7a62 2a39 ae7f 9739 6a7a 0637
00000330: f861 5939 dfe6 f939 0ff2 0d36 4e1d 8f38
00000340: bbd7 a036 5a76 fd38 b777 1239 5f48 b738
00000350: 066c 3836 1afd fd38 f9dc 7c38 64d8 3538
00000360: 9daf 7539 3516 8039 4b73 8138 ab9e 8139
00000370: c055 5838 d292 2eb7 c55b 8139 20cb e6b7
00000380: 0562 3eb7 889f bd38 7d4f 9439 c14c d839
00000390: 28fc 8938 5ddf f1b5 f808 53b8 350d 40b8
000003a0: 71d8 7e39 6bdb 5f39 604f adb7 49cd c7b8
000003b0: 0400 0000 acac a537 98cc e338 76ee 0b37
000003c0: 51f1 1d36 b443 d4b8 2d06 b838 2938 b838
000003d0: 1edd b739 e58c 4c39 1214 3239 a0dc 1239
000003e0: f2b3 fd38 f173 2bb8 1306 6237 9fff 2838
000003f0: c70d 8a39 5873 f237 66be b139 3467 4039
