toy_al/mini_exp/2000-200-200-001-no/ckpt_phase1.pt (torch, 47981 bytes, 30 tensors)

fc1.weight f4 [64, 4]
00000000: 8319 bb3d 4d66 af3e 93d1 e03d 6c89 3b3f
00000010: 6709 d8be a567 a63d ea52 323e b71b 34bf
00000020: 6edf 213e 5095 d4be a597 b3be 7983 bebe
00000030: 11bd 5b3f d40b a2be 0d9d b13e 42dd 413f
00000040: 42b6 823e ba7b ab3c 7039 52bb a6ec fd3e
00000050: 44e1 bebf 8f40 183d 6a18 78bd a1ab 9bbe
00000060: 365b 713d f590 253e 232c b9bc 6f88 95be
00000070: 7cda 6abe 9f4d a03e 66ed 11be fb93 403e
00000080: f578 4b3f bda5 413e 99a2 bebd f2c1 0fbf
00000090: dcfd 4a3c 1690 9bbd 587c 97be 9c9e ccbe
000000a0: 6685 bf3e a223 03bf 7358 203e 840e 10bf
000000b0: 24e8 0dbf 5a68 8ebf a601 993d 434b 153f
000000c0: 486e 22bf bac4 a73d 66ee 71bd 0373 4abe
000000d0: 50ab f2be 9742 053c 905a c0be ad16 0e40
000000e0: 2250 17bf 97e0 b9bc af6f 793a f37f 8e3e
000000f0: ee70 d83e 82a9 833e 8514 babd 728e 72be
00000100: 9b09 593f 6d0c a7be 4de8 8abe fc6c 633f
00000110: 0ba1 25bc 9564 61be e244 aabe 9bc5 233f
00000120: 7156 2f3f c162 a33e e891 1b3e 74ae 863f
00000130: b0e3 84bd 1b0c 423d fe7f 2abe 264d 70be
00000140: eed0 85bf 2a04 d73d 05f1 b1bd acd4 223e
00000150: 4ddd 6abe a523 da3e a2b6 003e 4320 02bf
00000160: f718 83bf db6a 24be a6b7 8bbe 722b d93e
00000170: 32a2 6d3f d59c 68bf 6be0 93be f921 bf3c
00000180: f3db 4dbf 8d69 a0bd 0ce1 28be c15e 1e3f
00000190: 6af5 5cbf 3685 bdbd 6b82 71be 39bf 35be
000001a0: 4976 75bf b421 09bf a62a 903c bc5b ecbe
000001b0: 7624 b2be cad0 43be 672b debd 224b bbbe
000001c0: b074 193f 1869 80be c625 413e c08c b6bd
000001d0: 70b6 00bf 5693 3b3e e9fa 863b bb08 da3f
000001e0: 2f19 313f ee7b 4cbd 046e d2be ba51 b23f
000001f0: 39dc 88bd 8e3e a23e 2fbe 1fbe dfda f03e
00000200: ecbb 1c3f 3d65 4dbe be6f f73e 228d a7be
00000210: a74c 62be 9601 f93e 33d2 783e 7b7d 5cbe
00000220: 362d 8f3e 49f3 b3bd 712c 4abe e55d c8be
00000230: f243 a83f 8f8d 3c3e 2c36 aa3d f570 46be
00000240: 6c7f a0bf 557b 8bbe 6099 43be 7e90 0cbf
00000250: 0699 3cbe a072 61bf 9813 873e 70ce aa3f
00000260: c237 8d3e 2d8a d83e a29d 213e 77fa 90be
00000270: 48a9 c9be f675 383d 76e8 ef3e ba58 a53e
00000280: 1338 eb3d a09d 853d e1f6 9f3e 9f51 113f
00000290: 5422 5a3f 625e 313e 8e71 983e 5944 fdbe
000002a0: c29a 4a3f 57f2 6abf 8b9f dbbd 7804 2abf
000002b0: 14d0 d43e 2e75 cf3e 98c6 debe bdd0 643e
000002c0: 7f93 bb3e 26c2 dc3e 837b 2dbe 5add 873e
000002d0: b80c cabd 3d5d 2ebf 7d18 9c3e 2547 0abf
000002e0: ac6c e03e 6212 bd3e 2af8 223e 198e b8be
000002f0: 3e3d 2bbb e286 9a3d 9766 66be 1dd2 bcbe
00000300: 6d75 ecbe 0f09 64be 8580 943e de65 80be
00000310: 7044 abbe 59ce b83e c69f b8be 6975 873e
00000320: 7fd6 0bbf c518 5fbd ad2e 38be eb98 1dbe
00000330: c70c 99be c074 9bbe 1933 c33e 4942 4d3f
00000340: b8f5 00bf 17de e03d 405c acbe e96b 933d
00000350: 8db5 01bc a1dc 98bd 87bb b5be bc2a 4dbe
00000360: 7c7e 26bf fae4 e03e 198a 4cbe 5809 6ebe
00000370: 7cd0 423e eb56 8c3e 7dcd 1cbe 3356 473e
00000380: d7b4 2b3e bb1a b53d 30c3 4abe 21a9 83be
00000390: 60be 5bbf 061f 593e 7c31 68ba bfc4 ea3c
000003a0: fa8f a73d 73bd ed3e a97e 213f 7c37 963e
000003b0: 228a 61be 1e92 923d 2b95 40be a3e8 c3bc
000003c0: dc76 94bf 9106 9bbe 075e 6c3a ead4 00bf
000003d0: 9821 a83e d16f 3e3e 4a85 8bbc 18f1 1c3e
000003e0: 96a0 833f 18d0 4fbe 73e5 803e 29f4 4f3f
000003f0: a952 803e 48b8 413e 8841 eabe 27f4 cd3d
0.09135725 0.34257737 0.10977473 0.73256564 -0.42194673 0.081252374 0.17414442 -0.7035479
0.15807888 -0.41520166 -0.35076633 -0.3720968 0.8583537 -0.3164965 0.34690133 0.7572824
0.25529677 0.02093302 -0.0032077692 0.4959461 -1.4912496 0.037170943 -0.060570158 -0.3040438
0.058924876 0.16168578 -0.022604054 -0.29205653 -0.22934908 0.3130922 -0.14250717 0.1880645
0.7948144 0.1891088 -0.09308357 -0.5615531 0.012389626 -0.075958416 -0.29587054 -0.3996476
0.37406462 -0.51226246 0.1565874 -0.5627215 -0.55432343 -1.1125596 0.074710175 0.58317965
-0.63449526 0.081918195 -0.059065245 -0.19770436 -0.47396326 0.008133552 -0.37569094 2.220134
-0.5910665 -0.0226901 0.00095152383 0.27831993 0.4227366 0.25715262 -0.09085945 -0.23687151
0.8478028 -0.32626668 -0.27130356 0.8883817 -0.010109196 -0.22011025 -0.33255678 0.63973397
0.68491274 0.3191128 0.15192378 1.0521989 -0.064887404 0.047374826 -0.16650388 -0.2346693
-1.0454385 0.10498841 -0.08688549 0.1590144 -0.22935982 0.4260532 0.12569669 -0.5083048
-1.0241994 -0.16056387 -0.2728855 0.4241596 0.92825615 -0.90864307 -0.28882155 0.02333163
-0.8041374 -0.07832632 -0.16492099 0.61863333 -0.8631197 -0.092539236 -0.23584907 -0.17748727
-0.95883614 -0.5356705 0.017598461 -0.46163738 -0.34793442 -0.19122615 -0.10848122 -0.3658076
0.59943676 -0.2508018 0.18862066 -0.08913565 -0.5027838 0.18317923 0.0041192663 1.7033914
0.6917905 -0.049922876 -0.4109956 1.3931191 -0.06682629 0.3168835 -0.15599893 0.47041985
0.61224246 -0.2005815 0.4832744 -0.32724863 -0.22099553 0.48634022 0.24298935 -0.21532242
0.2796418 -0.08786637 -0.19743516 -0.39134136 1.3145735 0.18413375 0.08311114 -0.19379027
-1.2538886 -0.27242532 -0.19101477 -0.5490798 -0.18417749 -0.8806553 0.26382136 1.334425
0.27581602 0.4229292 0.15782788 -0.2831609 -0.39386964 0.04503437 0.4685704 0.32294255
0.11485305 0.06524205 0.3124304 0.5676517 0.8520863 0.1732116 0.29774135 -0.49466208
0.7914239 -0.9177603 -0.1072379 -0.6641307 0.41565 0.40519089 -0.4351089 0.22345252
0.36635968 0.43116874 -0.16941647 0.26536065 -0.09865707 -0.6811102 0.30487433 -0.5401481
0.4383291 0.36928087 0.1591498 -0.36045912 -0.0026129032 0.07545258 -0.22500072 -0.36879054
-0.4618334 -0.2226908 0.29004303 -0.25077718 -0.3345065 0.3609493 -0.36059397 0.26456764
-0.5462417 -0.05446698 -0.17986555 -0.15390365 -0.2989256 -0.3036251 0.38124922 0.8017927
-0.5037494 0.1097986 -0.3366413 0.071983166 -0.00791682 -0.074639566 -0.35494635 -0.20035833
-0.6503675 0.43924695 -0.19974555 -0.23245752 0.19024843 0.27410063 -0.15312763 0.19466476
0.16768204 0.08842989 -0.1980102 -0.25714973 -0.85837364 0.21203241 -0.00088574714 0.028658269
0.08181758 0.464336 0.63083893 0.29339206 -0.2202535 0.07156776 -0.18806903 -0.02391464
-1.1598773 -0.30278447 0.0009016697 -0.5032488 0.3283813 0.18597342 -0.01703133 0.15326345
1.0283382 -0.20294225 0.25175056 0.81231934 0.25063065 0.18917954 -0.4575312 0.10056334

fc1.bias f4 [64]
00000000: bc6e 083f 59f1 7e3e dafd a23e 97f5 72be
00000010: 7fff 673f 5d05 05c0 3c76 f23e 6e4e 8bbe
00000020: 5cf7 ef3d 3c48 39be 9bf5 1e3f 25dd 19bf
00000030: 2cdb f73e ee2b 35bf dd51 d13e d8b5 66be
00000040: 1107 31bd af41 b33b 629c f9be 3b66 e93d
00000050: 57a0 42bf 017c b4be d16b 0a3f 7690 b03e
00000060: 75d5 ac3e 4b03 803e edd0 5abf 7a2d 06bf
00000070: 2b42 243f 7e61 9bbe 2f72 46be f117 203f
00000080: 6558 fdbd 89bc adbe 2509 8bbe 0da7 003e
00000090: 3a6b b2bf 6190 acbe c613 aabe 3188 c53e
000000a0: 0154 773e 8af6 13be db81 563f db45 11be
000000b0: 62aa babd a262 d33e cb9b e63d 4b26 04be
000000c0: e49a 013f 6078 13bf d980 453f 506b 383f
000000d0: cd06 bd3e c75a 143f ec0f 6c3e 6e75 88bd
000000e0: 85fd f83e 57c3 d23d ef26 a6be 139e f9bd
000000f0: aecb 6ebe 4ff7 d83c f285 2cbb 3b94 9b3d
0.5329397 0.24896754 0.31834298 -0.23726498 0.9062423 -2.0784523 0.4735583 -0.27208275
0.11717102 -0.18093961 0.62093514 -0.60103065 0.48409402 -0.70770156 0.4088277 -0.22530305
-0.04321963 0.0054704766 -0.48752123 0.11396452 -0.7602591 -0.35250857 0.54070765 0.34485215
0.33756605 0.25002512 -0.85475045 -0.5241314 0.64163464 -0.30347818 -0.19379495 0.6253653
-0.123703755 -0.33932903 -0.27155414 0.12563725 -1.3938973 -0.33703902 -0.3321821 0.38580468
0.24153139 -0.14449516 0.83791894 -0.14186804 -0.09114529 0.41286188 0.11260184 -0.12905233
0.5062697 -0.5760555 0.7714973 0.72038746 0.3691925 0.57951015 0.23052949 -0.06663023
0.4863092 0.10291164 -0.3245158 -0.121883534 -0.23319885 0.026485113 -0.0026324955 0.07596632

fc2.weight f4 [32, 64]
00000000: f94d d0bd fe3e 4f3e 9a79 aebd 83cb 96bd
00000010: c608 38be 8dcf 8dbd 14e5 163e e069 e5bd
00000020: 7955 e4bd a1e6 1b3e c86e 7c3e 0ec0 56bc
00000030: 197f 533e 1648 47be 0f2b 553e 68ac 4c3d
00000040: 9855 6abe efb2 d8bd 9459 5fbf c420 7abd
00000050: 5bbd db3e ba6c 9f3c 824e 4f3d 99bb b7bd
00000060: e6f9 8e3e 010f 1c3d 634c 38bd 63a0 4abe
00000070: 5eaf af3e 8fad debc 85f2 33bd a582 eabd
00000080: bf70 df3e c9b1 96bd 0afb e2bd 4b74 0a3e
00000090: ff8a 30be 41a0 5cbe 97e2 c2bc f47c 22be
000000a0: f975 a4be 4ddd a83e 036d be3e f247 cabd
000000b0: a5db f5bd d9ea 4b3e c1e2 c6bd 9902 093d
000000c0: 72e3 1abd 72ed 243e 85c6 233e b083 8a3e
000000d0: d4a2 c53c abfa 00bd 3375 71bd d187 44bd
000000e0: 27b5 0e3e c722 953d fc33 a1be b326 143d
000000f0: f8da 3f3e b7dd acbe b558 cc3c 0f31 6bbd
00000100: 1bcb 883d 5dee 4a3b 1b32 b53c bdb7 e6be
00000110: a0ed eebc 9e5b 4a3e af46 173e 10e4 dc3b
00000120: 2063 3d3d 9a4d 3a3c fd36 4d3e eaf8 9dbd
00000130: b3ab 803d 2428 1a3d 1e75 11bd 66d8 50bd
00000140: 2c82 d03c bcb8 d4bb ab4d 23be 9482 b13d
00000150: 2049 f53d f943 f53c dbdd 83be 0520 8ebd
00000160: c988 41be c05e 4abd 7cf4 38bf 7af1 253c
00000170: beb0 f23e def7 adbd 7acf 543d 104d 1f3d
00000180: 8664 e03e 71a5 3a3d 5f7b 443d 303f 243e
00000190: b924 443d ce80 6fbd 2181 b63c 816d 94bd
000001a0: e323 a5bd 6986 81be a8e8 a4be de40 45bc
000001b0: 84c1 e23d 7aaa 17c0 486e 6a3d 9c67 193d
000001c0: f3ac 4ebd eaf8 4abd c5b7 063d 9b42 e4be
000001d0: 63cb dcba a46b ca3d fac2 8abd 319e 8cbc
000001e0: 60a8 c4bb b5be 0bbd ff00 32be f26c cc3d
000001f0: e5a3 073e e9b9 6c3c 6c45 f7bd ae4c b73b
00000200: 8ced b03d 7146 843d c1a8 3f3d f1a4 573d
00000210: fc21 023d a46e 44bd 34d2 123d 9220 a0bc
00000220: 2e75 813d aef9 6fbe 2b0b 9fbd 44e4 3a3c
00000230: c30d 85bc 565e 9ebe 8fcd 2b3e d99a ef3c
00000240: bc4d 24bd ee20 7fbc 9168 f03d ed29 283b
00000250: b573 29be f859 34be ede0 073e bb85 433e
00000260: a529 36be 2d7b a6bd 759b 253e a0f6 b13b
00000270: 87fd 033d 169f a2bd 8c60 d53c 6873 a63c
00000280: cfc7 13be 41dd b8bc a92d 41be f6ff 73be
00000290: 0e09 cc3d fc75 9d3d 1af1 853c f064 993d
000002a0: b5c8 873d 48ef 263b 7ce1 983e 6d4f 08bd
000002b0: 0a84 4cbc ba56 943d 8b67 ddb9 7407 1c3d
000002c0: 7f7d a03b 76be 8bbe 5e20 a7bd 0162 c93c
000002d0: 30c7 5c3d a454 1f3d 4362 d33d 6223 dfbd
000002e0: 8c58 ee3a 10fc 013e 804b 4e3c cc15 23be
000002f0: 714e afbe 6f27 bdbd 9317 513d 0ba6 38bd
00000300: 20ff fbbc afcf 7b3e 5927 eabd 11ae 05be
00000310: 936d 34bd 8cbd e63b 9653 56bc a8bc 03be
00000320: aaf8 babd 6a84 443d 9df3 92bd 768e b0bd
00000330: 4ccc d03c 1635 07be 8bed 03bd b4ac ca3d
00000340: 45b0 033e 8ea7 e8bd 89de 8abe 45a9 2abc
00000350: 0a2d baba 99eb 6f3e 1047 823d c51a ddbd
00000360: 113e f63d 672b e2bd d7b8 e1bd 53e6 75bd
00000370: 8e83 803c 7b1f c2bd 60c7 1dbe 22e4 f6bc
00000380: 0885 e53d b62e 193e e2f1 dfbd fc78 133e
00000390: 2617 0abe 7d13 59be 8ffe df3d a44c dfbc
000003a0: 75b4 84bd 1e29 86bc 7bb1 8ebd c913 823d
000003b0: e2de 4abc 98bf f0bb 6774 943d d774 0abc
000003c0: 2bc8 db3d e9e2 1e3d 3e4f ad3d adb4 433d
000003d0: 7ac4 0a3e a659 7b3c 1c49 ff3d 2db9 493d
000003e0: 0e90 af3d 26de 773b 5193 ad3d e470 41bd
000003f0: a7ab 933a c147 cb3d de36 07be 3be4 c43d
-0.10171122 0.20238873 -0.085192874 -0.073630355 -0.17972097 -0.06924353 0.14735824 -0.11201835
-0.11149115 0.15224697 0.24651635 -0.013107313 0.20653953 -0.19461092 0.20817207 0.049969107
-0.22884214 -0.10581004 -0.8724606 -0.061066404 0.42917904 0.019461025 0.05061198 -0.08971328
0.27925032 0.038100246 -0.044994723 -0.19787745 0.34313482 -0.027182369 -0.043932457 -0.114507
0.43640706 -0.073581286 -0.11083038 0.13520925 -0.17240523 -0.21545507 -0.023789687 -0.15867978
-0.32121256 0.3298134 0.37192544 -0.09877004 -0.120047845 0.19913806 -0.097112186 0.033449743
-0.037814565 0.16106203 0.15993698 0.27053595 0.024125494 -0.031489056 -0.05894966 -0.047981087
0.13936292 0.07282024 -0.31484973 0.03616972 0.18735874 -0.33762905 0.024944643 -0.057419833
0.06679364 0.003096483 0.022118619 -0.45062056 -0.029166043 0.19761512 0.14773057 0.0067410544
0.04623711 0.011371041 0.20040508 -0.07713492 0.06282749 0.037635937 -0.035512082 -0.050987624
0.025452696 -0.0064917486 -0.15947597 0.08667484 0.11976838 0.029939638 -0.257552 -0.06939701
-0.18899836 -0.049406767 -0.72248054 0.010128373 0.4740047 -0.084945425 0.051955678 0.038891852
0.43826693 0.045567933 0.04796922 0.16039729 0.047886584 -0.058472447 0.02227837 -0.07247449
-0.080634855 -0.2529786 -0.32208753 -0.012039391 0.110720664 -2.36978 0.05723408 0.037452325
-0.050457906 -0.04955379 0.0328901 -0.44582066 -0.0016845282 0.09883812 -0.0677547 -0.017165275
-0.006001517 -0.03411742 -0.17383192 0.09981717 0.13246115 0.014448621 -0.12073788 0.0055938577
0.086390585 0.06458748 0.046791796 0.052647535 0.03177069 -0.047957078 0.035844997 -0.01954678
0.063211784 -0.23435089 -0.07765802 0.011406962 -0.016241914 -0.30931348 0.16777633 0.029248642
-0.040113196 -0.015571816 0.117386945 0.0025659755 -0.16548045 -0.17612445 0.13269396 0.19093983
-0.17789324 -0.08128963 0.16172583 0.0054310113 0.032224204 -0.079404995 0.026047014 0.020318702
-0.1443169 -0.02256644 -0.18865074 -0.2382811 0.099626645 0.07688519 0.016350318 0.074899554
0.06630079 0.0025472213 0.2985953 -0.03327887 -0.012482652 0.07243104 -0.0004222955 0.038093045
0.004897773 -0.27293748 -0.081604704 0.024582865 0.053900898 0.03889908 0.10321476 -0.108954206
0.0018184348 0.1269381 0.012591243 -0.15926284 -0.34239534 -0.09236037 0.051047873 -0.045080226
-0.030761302 0.24590944 -0.11433286 -0.13054682 -0.04404981 0.0070416387 -0.013081452 -0.12864935
-0.0912946 0.047977842 -0.07175372 -0.08620922 0.025488041 -0.13203844 -0.03220896 0.09896222
0.1286021 -0.113600835 -0.27122906 -0.010416334 -0.0014204097 0.23429717 0.0636121 -0.107961215
0.12023557 -0.110434346 -0.110215835 -0.060034107 0.01568773 -0.09478661 -0.15408087 -0.03013808
0.11207014 0.14959225 -0.10934807 0.1440162 -0.13485393 -0.2119884 0.10937225 -0.027258225
-0.06479732 -0.016377028 -0.069674455 0.0635143 -0.012382241 -0.0073470585 0.072487645 -0.008450708
0.107315384 0.038790617 0.0846238 0.047779728 0.13551512 0.015341198 0.124651164 0.049248863
0.08572398 0.003782162 0.08475364 -0.0472268 0.0011266366 0.09925795 -0.13204524 0.09613844

fc2.bias f4 [32]
00000000: 2b9d a03c 7aef 043b 47d6 ed3d a4cc 8f3d
00000010: 2094 703e 41a1 773e 5ac1 793e 30fc 83bd
00000020: 8f72 333e 7fef 563e 51df 523c 6f7c 6c3d
00000030: d3e0 40be 354e 063e 1026 aa3d 9b8b 5ebd
00000040: 96b5 343e 6dcd 203e e740 0f3e c77d 123e
00000050: b6f2 883e c3e5 1e3d 04d5 bc3d 9850 693d
00000060: 8962 a33d a181 3c3e 8671 b73c df9a 2e3d
00000070: 5f94 293d a927 8a3e bcfe a83e a335 253d
0.019606194 0.002028434 0.11613136 0.07021454 0.23494005 0.24182607 0.24390164 -0.06444585
0.1752417 0.20989798 0.012870626 0.057735857 -0.18835764 0.13115771 0.08308041 -0.054332357
0.17647395 0.15703364 0.13989602 0.14305793 0.26747674 0.038793337 0.09220317 0.056961626
0.079777785 0.18408825 0.022393 0.042628165 0.041401263 0.26983383 0.33006847 0.040334355

fc3.weight f4 [16, 32]
00000000: a72a b13e d755 413e e792 ac3d d0af 34be
00000010: 55a0 503d 58be a83d a3ca 86bd 3c3d debd
00000020: 6789 0d3d 6a47 b4bc 34a7 ba3d b58d 80bd
00000030: df7a c93d a980 6b3e 3e3e 14bd bdeb fb3d
00000040: 0519 043c 1619 2e3e 400d 633e d5df 09be
00000050: 4883 31be b1c8 92bc f4ec 45bc 1bfd aabd
00000060: 02bf 2dbe b2dc 8b3c ea40 363d af90 b93d
00000070: 76ac a43c ca13 1f3e 5940 be3d 1573 2cbd
00000080: e651 f1bd e0e7 813d ab11 e53d 3a34 1b3d
00000090: 9515 34bc cd69 dabb c4da 263e ea7e 903d
000000a0: de10 ed3d 979b 363e dcd0 d8bc 89a7 853d
000000b0: 7409 813d d426 a3bd 1fec debd d220 113e
000000c0: 7e5b 573e c42e 68bd a3aa cbbc d598 173e
000000d0: 5e41 943d 170f 6a3e f3d7 143e 6f01 5dbd
000000e0: ae35 8a3e 904a 883c efe6 7d3d 908a dabd
000000f0: 2aad b7bd 29fc 37be d35c d93b a7c5 a33d
00000100: d3e2 353d 6932 86be d0ea dabd c512 733a
00000110: e841 7abc dc03 62be ae03 1dbe 6683 9dbe
00000120: 4170 6abd ff49 61be 517b 70be 0f9e a13a
00000130: 897e 543d 6398 423d 22c7 0fbe dec1 f63d
00000140: 1dc0 6dbe 6874 e03d 7d38 043e fe74 ddb8
00000150: 2c90 023e 0871 0fbe abb8 2b3e 3496 babd
00000160: 4d4b 75be c4fe ffbb 2a78 c7bd 2ab9 96bd
00000170: 4929 01be 6571 4cbc 4a3e a4bd 9573 dcbd
00000180: 30d6 343d 17c8 b0bd e9e5 44be 6ad2 823e
00000190: c205 3e3d 01cc 43be fbe1 5a3e fb47 2b3e
000001a0: fe32 a0bd a9ce 6c3e ced1 c1bd 088a bd3c
000001b0: 7a58 08be f7c7 aabd 7d52 e53c 9d37 ffbc
000001c0: 75f6 0e3c 2954 5cbe 6f5b 86bd 77d0 91be
000001d0: a4d8 2d3e 3e20 1a3d 3a10 6c3d 7017 97be
000001e0: b0c4 b83e 4ef9 973e ea5c a6bc 45f6 d33d
000001f0: 5a8b ad3d caa4 90bd 1725 6f3e d5ad 213e
00000200: 4085 ca3e dafe 533e bed7 2d3c 9c51 e63d
00000210: d354 993e 60fc 053d eecd 763e 6fef 59bd
00000220: 76c9 debc 3481 8b3d a257 553e b506 0dbc
00000230: d439 78be 797c 65bc 10df 193c 260d f0bd
00000240: e957 f7bd 16ce b23d 3e04 683e 0cb3 72bd
00000250: 7769 19be 49b9 18bf 7285 893d 7e93 853e
00000260: 2f59 af3e cc4a fe3d c980 e13d a848 23be
00000270: c257 afbc 8320 8fbe 0b81 b13d 3161 403e
00000280: 6829 613e 4dde c9bd c5a8 4dbe 6499 c93d
00000290: 4c40 2f3e e1c9 eb3d 6f20 013e a0a6 4c3e
000002a0: e6ff 213d 55c7 883e 413e ba3c 0e7c 0f3e
000002b0: 045c a43c d6d3 d53c c395 a83d 2af2 65be
000002c0: a3fa dd3c 9fa4 9bbe 61a3 36be 48ae 8bbe
000002d0: 2167 0cbd 8592 a3bd b334 cebd 2292 d43d
000002e0: f135 693e a1fe 4d3d 5fc8 91bc 7c03 59bd
000002f0: 700f d7bd 282d c7bd 6b95 bf3d e995 cf3b
00000300: 1fbb a73e 9828 ddbb d9c0 32be fc18 7fbd
00000310: fb49 0c3f 8383 fc3d d6fc 823c 45ac 1c3e
00000320: 1bb3 0bbe 37b0 503d 211d 893e 0e9d 7c3e
00000330: d525 943d ca53 8e3e 725d 16be 3e93 a63d
00000340: 9cbc c6bd 0acc 853e 3513 5d3f c88f 323f
00000350: 0ab1 4dbe a6e8 b6be c725 be3d bfca 503e
00000360: 9766 95be 4629 93bd f9e7 03bd 3be1 f0be
00000370: af68 0c3e 64f9 8cbb 8c21 94bc c2c9 273e
00000380: 9925 703e c457 3f3c b56c 85be ca60 f83d
00000390: 90b9 173e c8cf 9b3d ab48 66bd e4ec 9a3e
000003a0: dd4a 273e c8cb cb3c e3be 843d 7735 a8bd
000003b0: 368b 173d 3a84 f6bd c08c 803b 2911 c3bd
000003c0: f417 7b3e 41ff cf3e c0ce 253e 8059 b03e
000003d0: 61ef 03be f2b8 1cbe 6bfd 15be 516e 193c
000003e0: 9918 fd3d effe 43be ccbf 873d 2bd9 b5bd
000003f0: ed5f 2d3e 286e 38be 7cc8 febc 2b87 9e3d
0.34602854 0.18880402 0.08426457 -0.17645192 0.050934155 0.0823943 -0.06581619 -0.10851523
0.034554865 -0.02200671 0.09113923 -0.062770285 0.09837889 0.22998299 -0.03619217 0.12300823
0.008062606 0.17001757 0.22173023 -0.13464291 -0.17335236 -0.017917963 -0.01208042 -0.08349057
-0.16967395 0.01707301 0.0444955 0.09060799 0.020101767 0.15534893 0.09289617 -0.04210194
-0.11783199 0.06343055 0.111850105 0.037891604 -0.010991474 -0.0066654445 0.1629439 0.07055457
0.11575483 0.1783279 -0.02646678 0.065260954 0.06300631 -0.0796639 -0.1088488 0.14172676
0.21030995 -0.056685224 -0.02486164 0.14804395 0.0723903 0.22857319 0.14535503 -0.053956445
0.2699408 0.016637117 0.061987814 -0.1067096 -0.08968575 -0.17967285 0.00663338 0.079966836
0.04440577 -0.26210335 -0.10689318 0.0009272511 -0.015274502 -0.22071785 -0.15333435 -0.30764312
-0.05723596 -0.22000884 -0.23484541 0.001233043 0.051878486 0.04750861 -0.14040807 0.12048696
-0.23217817 0.10959703 0.12912174 -0.00010559893 0.1275031 -0.14007962 0.16769664 -0.0911068
-0.23954506 -0.007812353 -0.09739716 -0.07359536 -0.12613405 -0.012478207 -0.08019693 -0.10764233
0.044149578 -0.08631914 -0.19228329 0.25551158 0.04639221 -0.1912079 0.21375267 0.16726677
-0.07822226 0.2312571 -0.09463845 0.023137107 -0.13315001 -0.083389215 0.027993435 -0.031154448
0.008725752 -0.2151648 -0.06560408 -0.2847936 0.16977173 0.037628405 0.057632662 -0.2951007
0.3608756 0.29682392 -0.020307977 0.103497066 0.08473845 -0.07062681 0.23353992 0.15788968
0.39554787 0.20702687 0.010610519 0.112460345 0.29947528 0.032711387 0.24101993 -0.053206857
-0.027195673 0.06811753 0.2083421 -0.008607556 -0.2424081 -0.014006727 0.009391561 -0.11721258
-0.120773144 0.08730714 0.22657868 -0.059252784 -0.14981638 -0.5965772 0.06714906 0.2608909
0.3424773 0.1241661 0.11010892 -0.15945685 -0.02140415 -0.27954492 0.08667191 0.18787076
0.21988451 -0.09856854 -0.20083912 0.0984371 0.17114371 0.11513115 0.12610029 0.19985437
0.039550684 0.26714578 0.022734763 0.14012167 0.020063408 0.026101988 0.0823169 -0.2245566
0.027097052 -0.30399033 -0.17835762 -0.27281404 -0.03427804 -0.07986931 -0.10068645 0.10379435
0.22774483 0.05029166 -0.01779574 -0.05298184 -0.10500991 -0.0972541 0.09354671 0.0063350094
0.3275995 -0.006749224 -0.17456378 -0.062279686 0.54800385 0.12329771 0.015989702 0.1530009
-0.13642542 0.0509493 0.26780036 0.24669287 0.072337784 0.277983 -0.14684084 0.08133553
-0.09703943 0.26132232 0.8635743 0.6975064 -0.20087066 -0.35724372 0.09284549 0.20389841
-0.29179832 -0.07185607 -0.03220365 -0.47046837 0.13711809 -0.0043021906 -0.018082403 0.16385558
0.23451842 0.01167864 -0.260595 0.12127836 0.1481688 0.076079905 -0.056221645 0.30258858
0.16337152 0.024877444 0.06481721 -0.082133226 0.036997996 -0.12036939 0.0039230287 -0.095247574
0.24520856 0.4062443 0.1619215 0.34443283 -0.12884285 -0.15304926 -0.14647453 0.00936468
0.12358207 -0.19140218 0.06628379 -0.08879312 0.16931124 -0.18010771 -0.031101458 0.07740625

fc3.bias f4 [16]
00000000: 24be 9f3e cf1c 1dbe 8fed 4abd dd7d 4b3e
00000010: 7d4f 9ebc 8551 813e c519 ad3d 322a 95be
00000020: 26cb 553e 9a77 fe3e f690 b1be 52ef 193e
00000030: 5e6d 873d 1c12 903e ab19 7e3e aa32 da3d
0.31199753 -0.15343021 -0.04954296 0.19872232 -0.019325012 0.25257507 0.08452181 -0.29133755
0.20878276 0.49700624 -0.3468091 0.150327 0.06612657 0.28138816 0.24814479 0.10654195

fc4.weight f4 [8, 16]
00000000: 8bdf 253e 4588 1abe 9e5f 033e 873f 33bf
00000010: 4e99 703d a74e 7fbf b0e4 013e 98d3 043e
00000020: 9b25 fabd 7ba1 03be a8a5 67be ae39 593e
00000030: 2e4b f3be 3824 38bc a1ce 0c3e 77b5 cc3d
00000040: 5917 c8bd b005 6bbd c9d2 fb3c 76c6 5c3e
00000050: a528 d5bc 3b8b 8a3e b39d 88bf a4ad e8be
00000060: 72a0 493e a219 0ebe feb9 16be af6f 96bc
00000070: 878a 5b3e 8b63 a23e b961 a6bc ea95 cb3d
00000080: e44b 57bc 2983 9cbd ee20 583e 3d98 b33d
00000090: 852b 10bf ab13 4ebd 12bf b5bc d11c b3bd
000000a0: 486c 933c cc1a 743e 339f 90bd 0429 ec3d
000000b0: 8d62 963e a4f6 223e fe1e 40be 67c1 febd
000000c0: 6e15 72be a627 3e3e dce1 02be a020 0a3f
000000d0: e5f1 4f3e 6483 123e 8a24 3f3e 998e d6bd
000000e0: 38d5 41be 7f05 58be 962f 8c3d abc6 403e
000000f0: ac63 0fbe 044a 6ebf 3ec1 cdbd 5922 30be
00000100: e0cc d93d ef4f 85be a228 61be b7ab 863e
00000110: 7e88 aabe 2047 9ebd cb6d 2bbf e7ce 4bbf
00000120: 8642 87be 085e 613e 95b9 293e 9949 a53e
00000130: 0918 2abe 9253 c73e ebe6 043e b0af 4f3e
00000140: 8102 4b3e 5a54 eabd 9bcb 11be 1c0d 1e3d
00000150: 608c c83e 5697 303e f11f a83e 3d1e 0ebe
00000160: 1844 433e 7341 943e a706 95be f616 0bbe
00000170: 0182 b73e 3c2d 74bc b97b d13e 58a3 aebd
00000180: 6af1 71be 860d 3c3e d94e 353e 7faf b23e
00000190: 5758 373e 5f78 403e e7b4 2bbe be57 d2be
000001a0: e9ca 5cbe fc83 003e 6d13 883d 5571 07be
000001b0: 9bb4 8b3b 66aa 43be 137c 5f3e efc8 8bbd
000001c0: 50ca 85be 4b09 99be ec55 433e bdb6 823d
000001d0: 51c2 583d 5c85 863d 299f 913c 3060 fa3d
000001e0: 3e97 01be b384 74be bd2d a9bd 4923 98bd
000001f0: fce6 33bd 9886 303d 86e2 00be 78f7 9b3d
0.16198556 -0.15091045 0.12829444 -0.7001881 0.058739953 -0.9972939 0.12684894 0.12971342
-0.12214204 -0.12854569 -0.22621787 0.2121341 -0.47518295 -0.011239104 0.13750698 0.09995549
-0.09770078 -0.05737847 0.030740159 0.21560082 -0.026020357 0.2705935 -1.0673126 -0.45444977
0.19690111 -0.13876966 -0.14719388 -0.018363802 0.21439563 0.3171657 -0.02031027 0.09940703
-0.013140652 -0.07642204 0.21106312 0.087692715 -0.56316406 -0.050311726 -0.022185836 -0.08745731
0.017995968 0.23838347 -0.07061615 0.115312606 0.29372063 0.15914398 -0.18761823 -0.12439232
-0.23640987 0.18569812 -0.12781471 0.5395603 0.20307119 0.14307934 0.18666282 -0.10476417
-0.18928993 -0.21095847 0.06845014 0.18825786 -0.14002866 -0.9308169 -0.10046624 -0.17200603
0.1063478 -0.26037547 -0.21988156 0.26302883 -0.3330726 -0.0772841 -0.66964406 -0.7961258
-0.2641794 0.22008526 0.165747 0.32282713 -0.16610731 0.38930947 0.12978713 0.20281863
0.19825174 -0.1144187 -0.14237826 0.03858672 0.39169598 0.1724523 0.3283687 -0.13878722
0.19068944 0.28956184 -0.29106638 -0.13582978 0.35841373 -0.014903363 0.40914705 -0.08527249
-0.23627248 0.18364534 0.17705859 0.34899518 0.17904793 0.18795918 -0.16768228 -0.41082567
-0.21561779 0.12550348 0.0664433 -0.13226826 0.004263473 -0.1910797 0.21824674 -0.068254344
-0.26130915 -0.29889902 0.19075745 0.06382511 0.05291969 0.06568405 0.017776089 0.122253776
-0.1265535 -0.23878746 -0.08260677 -0.07428605 -0.043921456 0.04309711 -0.12586412 0.0761556

fc4.bias f4 [8]
00000000: 2882 5cbd 31b8 d73d d304 193f 63de a93e
00000010: f2a8 193e bfd4 903e fbc1 253e f07b 00be
-0.053835064 0.105331786 0.59772986 0.3317748 0.15005854 0.28287312 0.16187279 -0.12547278

fc5.weight f4 [3, 8]
00000000: dbea d9bc 12c7 47bd 3fb7 9d3e ddd0 dbba
00000010: 5d91 d3be f17c a23e 65a2 5abe 694a 253e
00000020: d82d ddbd 1477 a93e a6f1 aa3e 1a93 783d
00000030: 8452 493e 97f3 1ebd ad14 bb3d 6fe8 54bd
00000040: 0fc3 fabe 0555 c2be fed2 32be 9373 c93e
00000050: 3dad 27bf 3f69 483e b937 c73e 80dc ffbd
-0.026601246 -0.048773833 0.30803868 -0.001677062 -0.4132184 0.31735948 -0.21351011 0.16141666
-0.107997596 0.33098662 0.33387488 0.060687162 0.19660383 -0.038806524 0.09134803 -0.05197948
-0.48976943 -0.3795549 -0.174633 0.3934599 -0.65498716 0.19571398 0.389097 -0.12493229

fc5.bias f4 [3]
00000000: 9fda 123d 8c10 083b 6ffc b03d
0.035853025 0.0020761816 0.08641898

exp_avg f4 [64, 4]
00000000: 4a9e 13b7 177d 0839 bd31 9939 5839 8ab8
00000010: 1135 ac37 3704 75b8 6d5a cfb9 717e 7db8
00000020: fac4 dd37 20df 99b8 280a 9e38 a2c7 89b7
00000030: 9534 0038 8fd3 eb38 9183 423a 4dd0 2538
00000040: a822 04b7 b155 1939 e461 9739 631a 2037
00000050: d028 c336 000f c1b8 0125 a3b9 76c8 2d37
00000060: 9b7e 2f37 a031 6eb9 ca41 38b9 1305 e538
00000070: 6de0 05b8 1fd1 e239 c788 e438 26f5 58b9
00000080: d4b7 d137 5c36 74b9 baa1 5cb6 45d6 a438
00000090: f33b 43b8 efb0 10b8 11e1 50b9 ec80 8638
000000a0: ca8d 23b8 f388 eeb9 af6a 74ba 1f1f 5439
000000b0: 4715 2037 f8b4 f237 b366 593a b579 8ab4
000000c0: 4176 8e37 544f a138 9784 2639 0d8b 3538
000000d0: 3db3 d9b6 c003 39b9 45d4 a2b8 3010 77b7
000000e0: 6264 afb7 8853 5139 3f9a 2239 8157 dbb6
000000f0: 1d9c b7b7 7156 0db8 85c5 8fb8 189a 8737
00000100: e10d d437 c1bf a1b7 3ab1 a038 1577 fd37
00000110: 7a44 da37 5ec1 33b8 49cf 6bb7 bd18 9a37
00000120: 1325 1b38 8c86 1e39 8f9a 903a b24e ea37
00000130: 0577 2637 1fc9 61b9 8803 4e38 6911 ea38
00000140: b091 1038 114c 2eb9 c6c6 5fb9 63a0 2a38
00000150: d6c6 36b7 ade4 b338 5965 97b9 279c a3b8
00000160: 17ae 1eb8 5a9b fe39 78ba 2e38 c75e 6bb9
00000170: c801 8237 f898 dc36 1882 4c38 c09f e137
00000180: 9d19 0ab8 574f 7838 aa40 d838 c5bf a5b7
00000190: 4370 3eb7 4caa 0838 c888 b337 aaaa a5b7
000001a0: 101a fa33 e740 1134 fcfa 7938 46fc c533
000001b0: 9a8e 5434 4e7b 6b35 ee95 c7b8 afab 9034
000001c0: 2a2a 19b8 1450 2bba 18ce 50ba 9a59 5c39
000001d0: 8155 81b6 9635 16b3 8a2d 1a3a cbb3 d6b7
000001e0: c78a c3b7 51e0 0db9 e250 abb8 9856 85b7
000001f0: efdb 1db7 0f6b 0339 1a5d 5139 ee78 7037
00000200: 84ef 91b8 c249 01ba 891f 3eba d78b d538
00000210: ced3 a335 cd72 7c39 fef9 56b8 5cfa 0cb9
00000220: accd 9236 701c 9337 35e6 0fb8 44e0 9136
00000230: b2e4 71b8 9e69 58ba 68f5 9dba a08f 8139
00000240: a6e7 98b7 871b 3c38 5b7c 3eb9 2707 0fb8
00000250: e229 7138 7547 f536 7196 5d3a e050 4938
00000260: 921f 45b7 b379 6ab8 88ab 86b9 ce51 c6b7
00000270: 1b0d a0b5 6839 5039 183a c6b8 1959 d4b8
00000280: 2c90 1238 f535 1238 8be4 143a 278b 2ab8
00000290: 0a80 ac38 ebaa 08ba 1dc9 5bb9 06e6 8939
000002a0: 9259 2f38 76f6 2bb9 3884 8739 31d8 4937
000002b0: 2e28 38b5 7cce 3339 25b7 4c39 4127 deb8
000002c0: 1343 74b7 ef9d 15b9 5172 49b8 36d9 1638
000002d0: d605 113a 7cfa caba 8f3d 10b9 d6ee 0b3a
000002e0: eedc e9b6 6154 7eb9 cea4 deb9 a9ae 2938
000002f0: e428 4437 390b 2bb8 3d46 ba38 4ed9 d137
00000300: ab85 b836 9115 fb33 2639 9ab9 6e07 0737
00000310: 438e 5d38 9567 94b9 69f5 1db9 f7f7 ab38
00000320: 1a40 a637 c8bc 1e39 5ff3 9e39 26c4 23b8
00000330: c046 d335 683c ca38 15f6 b238 36b8 2cb8
00000340: 29f9 a136 8308 8c38 421a e137 9799 bcb6
00000350: 8732 ccb7 85d3 51b9 2af5 f637 100a d738
00000360: 018b df35 af3e ed38 3162 f4b7 ceb5 93b7
00000370: 6f60 4eb5 5362 92b8 8586 c8b8 1615 0536
00000380: 67a1 0d36 3932 eab6 d603 3c39 89df c6b6
00000390: 2fb9 09b8 a0a2 1f3a 22f5 da39 1610 2cb9
000003a0: 89a7 afb8 73a8 743a ee2e e838 49c3 e6b9
000003b0: 9ee5 fd37 3b3b 1db9 a0c0 aab8 d3a5 a138
000003c0: f236 5638 348f 84b9 422d 14b8 d850 e938
000003d0: 376c c036 3e65 d5b8 6eab 02b7 5035 3db8
000003e0: dd8c 0c38 a772 f438 1ea1 3a3a 7683 0638
000003f0: cd01 5f37 a153 a2b8 bced 0ab8 dbd0 0638
-8.798737e-06 0.0001301657 0.00029219492 -6.591034e-05 2.0528709e-05 -5.8416477e-05 -0.0003954949 -6.043766e-05
2.6436977e-05 -7.337169e-05 7.535919e-05 -1.6424634e-05 3.056655e-05 0.00011245079 0.00074201176 3.953306e-05
-7.875882e-06 0.0001462314 0.000288739 9.542887e-06 5.816204e-06 -9.205751e-05 -0.00031117353 1.0358277e-05
1.04602905e-05 -0.00022715935 -0.00017572116 0.00010920516 -3.1918684e-05 0.00043261886 0.00010897364 -0.0002069069
2.5000343e-05 -0.00023289904 -3.2876692e-06 7.86004e-05 -4.6547455e-05 -3.4497058e-05 -0.0001992027 6.4136315e-05
-3.899428e-05 -0.00045496933 -0.00093237584 0.00020229489 9.541697e-06 2.8932918e-05 0.00082931964 -2.5793057e-07
1.6982785e-05 7.691854e-05 0.00015880387 4.3283264e-05 -6.48797e-06 -0.00017644372 -7.7643e-05 -1.4726116e-05
-2.090837e-05 0.00019962911 0.00015506985 -6.5368954e-06 -2.1887996e-05 -3.3697524e-05 -6.855562e-05 1.616501e-05
2.5278832e-05 -1.9281988e-05 7.6624056e-05 3.0215402e-05 2.6019512e-05 -4.2857013e-05 -1.4055354e-05 1.836975e-05
3.6989408e-05 0.00015118177 0.001103239 2.793162e-05 9.922082e-06 -0.00021532596 4.9117516e-05 0.000111612324
3.4467957e-05 -0.0001662227 -0.00021340986 4.068053e-05 -1.089434e-05 8.577979e-05 -0.00028876474 -7.801531e-05
-3.783227e-05 0.000485624 4.1658495e-05 -0.00022446654 1.5498037e-05 6.574319e-06 4.875855e-05 2.689648e-05
-3.2925618e-05 5.92017e-05 0.00010311727 -1.9758832e-05 -1.13510205e-05 3.2583528e-05 2.1402157e-05 -1.9749004e-05
1.1646273e-07 1.3527789e-07 5.9599974e-05 9.2194156e-08 1.9795917e-07 8.7723754e-07 -9.516986e-05 2.6947006e-07
-3.651731e-05 -0.0006535065 -0.00079652807 0.00021014214 -3.8544536e-06 -3.4973333e-08 0.00058814196 -2.559451e-05
-2.3310435e-05 -0.00013530372 -8.168981e-05 -1.5895159e-05 -9.4091365e-06 0.00012533016 0.00019966476 1.4333271e-05
-6.958752e-05 -0.000493195 -0.0007252624 0.00010182679 1.220609e-06 0.0002407536 -5.12544e-05 -0.00013444707
4.3750824e-06 1.7537008e-05 -3.4308254e-05 4.3474447e-06 -5.7671867e-05 -0.0008255484 -0.0012051286 0.00024711806
-1.8227682e-05 4.484833e-05 -0.00018166138 -3.4100518e-05 5.7497884e-05 7.3098877e-06 0.00084528985 4.7997455e-05
-1.1749466e-05 -5.590329e-05 -0.00025686272 -2.3641533e-05 -1.1924743e-06 0.00019857811 -9.4521965e-05 -0.000101255435
3.4943383e-05 3.4859364e-05 0.00056798075 -4.0660754e-05 8.225448e-05 -0.0005213457 -0.00020960388 0.00026302057
4.180667e-05 -0.00016399645 0.00025847717 1.203087e-05 -6.860381e-07 0.00017147692 0.00019523183 -0.000105930965
-1.455915e-05 -0.00014268582 -4.80286e-05 3.596508e-05 0.00055321807 -0.0015486027 -0.00013755843 0.00053380185
-6.9696607e-06 -0.00024254761 -0.0004246593 4.0455405e-05 1.1692031e-05 -4.078003e-05 8.882254e-05 2.5015932e-05
5.4991883e-06 1.1692021e-07 -0.00029415748 8.048357e-06 5.2822998e-05 -0.00028305934 -0.00015064109 8.2001025e-05
1.9818592e-05 0.0001513838 0.00030317434 -3.9044906e-05 1.5741316e-06 9.643362e-05 8.533538e-05 -4.1179555e-05
4.82718e-06 6.677306e-05 2.6834317e-05 -5.620717e-06 -2.4342224e-05 -0.0002001059 2.9439649e-05 0.00010253873
1.665525e-06 0.000113127164 -2.913279e-05 -1.7608425e-05 -7.688131e-07 -6.980137e-05 -9.5617994e-05 1.9830818e-06
2.1104586e-06 -6.97959e-06 0.00017930506 -5.9268827e-06 -3.283581e-05 0.00060896017 0.00041762838 -0.0001640919
-8.375856e-05 0.0009332962 0.000110713634 -0.00044014517 3.0266874e-05 -0.00014994752 -8.142111e-05 7.7079654e-05
5.1072748e-05 -0.00025283697 -3.53281e-05 0.00011125364 5.7346438e-06 -0.00010175489 -7.788518e-06 -4.5110763e-05
3.350979e-05 0.00011656182 0.0007119345 3.2070522e-05 1.3292255e-05 -7.740339e-05 -3.312317e-05 3.21426e-05

exp_avg_sq f4 [64, 4]
00000000: 3162 d433 8e8b 2236 ce4c 0435 a287 1d35
00000010: b8e8 cd34 a0e6 0037 bf56 b735 c441 1135
00000020: 9f72 4e34 2574 bc35 ff16 4734 94b4 4e34
00000030: 0c95 3833 2ec6 2b35 aed1 8336 2460 a432
00000040: 2e8c 1133 8b0e b335 7cf0 d435 ee6d aa34
00000050: 9630 a430 6bcd d135 7ba8 5536 240b 3931
00000060: 310f 3234 905c e836 a10d b835 594a 8935
00000070: c951 c234 ccd7 3037 2a72 3936 8419 0636
00000080: 7e46 2633 271b ba35 2c9f d634 b595 8034
00000090: 03e5 c435 8fed a037 99ca e534 1a09 0437
000000a0: abcc 7135 40dc d037 b554 a936 3801 fd36
000000b0: 2e2d eb2f 9cbf 5c30 386b a635 d744 6d2f
000000c0: 9111 2534 df97 8036 b7a2 b835 85ad dc34
000000d0: d673 f330 970b bd36 df3a 4536 ae88 b931
000000e0: 6056 dc33 cfe9 d835 8090 d135 8e23 0d34
000000f0: 5587 0334 1c97 5436 97f5 3435 4fc8 0835
00000100: f332 9432 09b1 b732 13d5 7034 51f7 8832
00000110: ca27 2b32 55eb 2034 be34 f034 03e8 8132
00000120: d00c 5d33 5604 e236 9dd6 1137 6c54 c732
00000130: 8e92 a634 6829 b036 f60d 5a34 5db5 ac35
00000140: 86a4 9033 a476 c636 d439 2736 c511 1834
00000150: 8f14 1034 300c 3f36 e2bc 2735 5e53 e734
00000160: 54e9 3c35 a27b 1f37 7592 2335 a3db 2536
00000170: e758 6c32 c275 6c32 0996 e235 d0cf 0d32
00000180: 325f 5034 1892 0136 beef 2c35 55f5 7c34
00000190: 7b0b 8533 3960 ca34 f5a8 4734 7073 f833
000001a0: aaa4 952c a646 092d 03d1 6334 6e3b 832c
000001b0: 5ecd 8e2d 3594 462e c5da 4734 b684 2e2d
000001c0: ecd5 b434 b6d2 a337 fa54 0d37 d43b 7336
000001d0: 990c 1a32 05cb 9b37 4efa 2d37 457b 7f32
000001e0: dc22 8031 1b12 4f36 3f52 c835 4a81 2531
000001f0: 5f3b 9c33 226e 2535 7ed4 7534 d489 db33
00000200: a501 0d33 304a 2237 9f15 e936 ef8c db34
00000210: 76b4 0a35 4e08 1337 36d0 2435 b8d7 f635
00000220: f156 082f f956 a332 cc40 8434 1b92 1c30
00000230: 4e13 9734 6d14 5338 48b8 ac37 55c9 8436
00000240: 1515 2030 edd8 6331 c211 9e35 4c8e b830
00000250: 6a22 c932 ef3f 9832 3081 8036 979e d332
00000260: df20 3334 5f59 ad35 17d1 8135 0e75 aa34
00000270: c9dc ce34 c91a f536 be95 2034 fc50 e835
00000280: 73a6 3733 8610 6e36 d59d dc35 d9a7 1834
00000290: 608b 2734 deb5 8c37 8fde b036 8b3a 9a35
000002a0: b242 1633 d399 3e35 1db6 a236 922e de32
000002b0: 1c47 3733 b183 5b36 7ee1 0a35 c2e8 e434
000002c0: 6e0e 7c34 9ad5 9c36 4122 ec34 6fe5 3a35
000002d0: 6b5a b737 70d6 e738 a2ed 7834 4e22 0138
000002e0: e52b b432 9f08 7136 121b e635 b735 9d34
000002f0: 4f26 d331 19c2 8535 b80d 0e35 7fc2 8333
00000300: 412e 5a33 cd5e c634 d9b5 0a35 10ae a933
00000310: c698 a034 72aa 3037 9613 5c35 6db8 f035
00000320: bd48 d632 98fe 0f36 3265 b035 336e 0f34
00000330: 49c8 9833 6910 6336 bb4f bd35 a7fd 6d34
00000340: 1baa 5532 2d4c 9f35 651a 1435 7a5c 0a33
00000350: 2ab1 ac34 321a ce36 e678 1735 9ef2 ab35
00000360: 7099 5632 35e3 5036 f135 ba35 cf84 4f33
00000370: 5974 4e33 1739 9235 5b8c 3a35 d0d5 0534
00000380: 5e80 a331 1586 8235 bc3b c834 95ec 4633
00000390: d5fc 0c33 bcf5 8837 cd1f df36 b597 3235
000003a0: d1c4 2536 4d11 4a38 663b 7935 ce56 6637
000003b0: 333f b034 39e1 fd36 949d 0335 cc77 f535
000003c0: fcb6 1f36 0e8f ae37 d9b3 c234 7944 f636
000003d0: 15b0 2233 8761 c535 6f6c 5d35 85ea 8734
000003e0: 64a0 9532 2068 9535 5bcd 9836 8222 7232
000003f0: 9065 7c32 acef 6635 791b a034 09f7 b833
9.88988e-08 2.4221113e-06 4.92856e-07 5.868443e-07 3.835355e-07 7.683091e-06 1.3659809e-06 5.411241e-07
1.9226944e-07 1.4040894e-06 1.8541685e-07 1.9250939e-07 4.2976396e-08 6.3990854e-07 3.928514e-06 1.9135832e-08
3.3887936e-08 1.3340772e-06 1.5865221e-06 3.1744952e-07 1.1946379e-09 1.5631498e-06 3.1837542e-06 2.6927376e-09
1.6583068e-07 6.9249145e-06 1.3713035e-06 1.0228933e-06 3.6194822e-07 1.0540662e-05 2.76336e-06 1.9982408e-06
3.8714e-08 1.3865982e-06 3.997642e-07 2.3950784e-07 1.4669789e-06 1.9184108e-05 4.2801983e-07 7.869932e-06
9.007733e-07 2.4898094e-05 5.0464537e-06 7.5401294e-06 4.2778353e-10 8.0307827e-10 1.2399169e-06 2.1579481e-10
1.5373213e-07 3.8323774e-06 1.3756425e-06 4.1104445e-07 1.77135e-09 5.633988e-06 2.9389555e-06 5.3997473e-09
1.026026e-07 1.6161301e-06 1.5613768e-06 1.3144583e-07 1.2249559e-07 3.167842e-06 6.7412606e-07 5.0955435e-07
1.7252637e-08 2.138451e-08 2.2429258e-07 1.594495e-08 9.962557e-09 1.4986774e-07 4.4741859e-07 1.5123083e-08
5.1467225e-08 6.7358296e-06 8.692642e-06 2.320504e-08 3.1026542e-07 5.250029e-06 2.0307911e-07 1.2867782e-06
6.735449e-08 5.9146714e-06 2.49186e-06 1.4162568e-07 1.3418524e-07 2.8468312e-06 6.248721e-07 4.308776e-07
7.0374995e-07 9.505924e-06 6.0935355e-07 2.4714761e-06 1.3757222e-08 1.3763783e-08 1.6881978e-06 8.254531e-09
1.9406141e-07 1.9307536e-06 6.4423864e-07 2.355858e-07 6.1953834e-08 3.7695443e-07 1.8594785e-07 1.1569398e-07
4.253116e-12 7.8032355e-12 2.121706e-07 3.729842e-12 1.6234732e-11 4.5151622e-11 1.8612907e-07 9.920223e-12
3.368326e-07 1.9529234e-05 8.42404e-06 3.6244646e-06 8.966844e-09 1.8571978e-05 1.0369882e-05 1.4870982e-08
3.7292534e-09 3.0855942e-06 1.4925098e-06 2.4084152e-09 7.2751156e-08 6.1627554e-07 2.2894707e-07 1.0223053e-07
3.2830616e-08 9.673226e-06 6.946458e-06 4.0894471e-07 5.167161e-07 8.763816e-06 6.139775e-07 1.8391211e-06
1.2400016e-10 1.9015248e-08 2.4634062e-07 5.69601e-10 2.8139988e-07 5.0325343e-05 2.058981e-05 3.9573447e-06
5.823762e-10 3.3156156e-09 1.1777086e-06 1.3428205e-09 2.341513e-08 1.7724203e-08 3.8297367e-06 2.4635751e-08
1.6682633e-07 1.2915515e-06 9.672102e-07 3.1750136e-07 3.8531132e-07 7.304687e-06 1.4955637e-07 1.7308917e-06
4.2759392e-08 3.5474382e-06 1.6437212e-06 1.4217166e-07 1.5603791e-07 1.6773989e-05 5.271118e-06 1.1490932e-06
3.4985256e-08 7.100436e-07 4.849177e-06 2.586538e-08 4.267268e-08 3.2710198e-06 5.173714e-07 4.2637663e-07
2.3474578e-07 4.674029e-06 4.3983349e-07 6.962427e-07 2.1857404e-05 0.000110548805 2.318325e-07 3.0787945e-05
2.0974719e-08 3.5916817e-06 1.7144214e-06 2.9282612e-07 6.1452634e-09 9.965762e-07 5.2919086e-07 6.1355415e-08
5.0799148e-08 3.694935e-07 5.167363e-07 7.9013375e-08 2.991348e-07 1.0530102e-05 8.198489e-07 1.7935068e-06
2.4945956e-08 2.1456854e-06 1.3142474e-06 1.3358003e-07 7.114483e-08 3.3835188e-06 1.4104802e-06 2.2164623e-07
1.2436909e-08 1.1868593e-06 5.5172706e-07 3.2214736e-08 3.21664e-07 6.142328e-06 5.6427814e-07 1.2811104e-06
1.2491327e-08 3.1126667e-06 1.3873779e-06 4.8316732e-08 4.806893e-08 1.0894463e-06 6.9494644e-07 1.2464375e-07
4.758518e-09 9.724778e-07 3.7296365e-07 4.6315638e-08 3.282624e-08 1.6326892e-05 6.64962e-06 6.653093e-07
2.4701478e-06 4.8176666e-05 9.2846165e-07 1.3729279e-05 3.2828538e-07 7.566207e-06 4.903061e-07 1.8288788e-06
2.3799357e-06 2.0809031e-05 3.6266172e-07 7.3393426e-06 3.787871e-08 1.4706028e-06 8.248671e-07 2.5316345e-07
1.741882e-08 1.113167e-06 4.5538595e-06 1.40941e-08 1.4691423e-08 8.6030445e-07 2.982231e-07 8.613103e-08

exp_avg f4 [64]
00000000: b3e0 f338 237a 42b9 f1d3 f7b8 1126 f138
00000010: 97fa 8338 b8a5 15b6 af05 fcb8 489c 6839
00000020: 6732 4bb9 d33c dab7 491f 13ba 9d5a d937
00000030: 8df8 b238 79e3 c2b7 d065 2039 239a b1b7
00000040: 9401 af38 32c0 3e38 a2dc 0939 74eb 84b8
00000050: 8b67 2eb8 652e 8f38 2064 8439 1781 a238
00000060: 7b31 a438 602e 2e38 f89b 7834 1dda 3f35
00000070: 4051 16ba 3c68 00b7 6eb9 6ab8 0a30 b038
00000080: a6e7 95b9 7495 f538 2f1f 1737 3129 c2b9
00000090: 039d e437 7ad0 2d39 2104 4338 049f ef38
000000a0: 61a3 8e38 0041 a7b9 2d2b 7cb9 75a6 0938
000000b0: d877 4938 a0ab ecba 1379 f4b8 0d5b 0cb7
000000c0: deea 1db8 5181 8ab8 c901 ed38 40f5 2a38
000000d0: f78b 8638 593c beb8 5138 2238 40dc 8e38
000000e0: 5b7f 0bb8 0e45 3739 33a4 383a 2a94 b5b8
000000f0: 9f20 83b9 1e10 4bb8 d842 d138 9966 4bb8
0.000116289964 -0.00018546781 -0.00011817355 0.00011498866 6.293243e-05 -2.2299191e-06 -0.00012017355 0.00022183463
-0.00019378365 -2.6015949e-05 -0.0005612267 2.5910611e-05 8.5339976e-05 -2.3232527e-05 0.00015296717 -2.117182e-05
8.344944e-05 4.5478526e-05 0.0001314753 -6.338107e-05 -4.1581265e-05 6.827413e-05 0.000252516 7.748807e-05
7.829346e-05 4.1528023e-05 2.3153541e-07 7.147044e-07 -0.0005734153 -7.6536635e-06 -5.5962642e-05 8.401282e-05
-0.00028592086 0.00011710348 9.007562e-06 -0.00037033253 2.7252832e-05 0.00016576229 4.649547e-05 0.00011426027
6.801519e-05 -0.0003190115 -0.00024048677 3.281837e-05 4.8033748e-05 -0.0018056519 -0.000116573785 -8.36585e-06
-3.7650454e-05 -6.60444e-05 0.00011301373 4.0759565e-05 6.4156884e-05 -9.0711466e-05 3.867626e-05 6.8121124e-05
-3.325879e-05 0.00017477965 0.00070435106 -8.65835e-05 -0.00025010572 -4.8413982e-05 9.978347e-05 -4.8494523e-05

exp_avg_sq f4 [64]
00000000: 548f 1335 6e0a 8836 d2dc 2836 2246 9834
00000010: 3517 9f34 5857 0631 1e90 0e36 cdcf 2836
00000020: c491 ee34 6a16 d736 829c 6237 caf9 fa30
00000030: 5c57 5a35 8973 e832 1e55 0e35 15b9 4335
00000040: 2517 4334 e474 4034 171b 0035 2693 2036
00000050: 4a98 0534 0586 6d35 a4a3 8136 0cb3 ee33
00000060: 21a2 3236 f557 6434 bae9 8d2d c6ad 9a2e
00000070: b06e e536 38b4 2734 d099 ce32 f5ce 0d35
00000080: f2cb 8c35 8d8f 6e36 435f af30 63bb 8337
00000090: 7681 ae30 7964 6c34 10f1 3035 cfcb 3736
000000a0: 0295 0b36 7e13 1e36 21ef d035 1321 4335
000000b0: cad9 1736 584c de38 1582 ee34 8229 6633
000000c0: db3b 3734 e516 8435 d039 8434 09ce 0136
000000d0: f4f6 1534 e1ed 8936 dffe a533 e208 ba34
000000e0: ac81 cf33 dc10 ce35 1ac0 b137 536f c535
000000f0: e38e 1737 272b 6035 b883 6934 d7a4 f133
5.497034e-07 4.05433e-06 2.5162485e-06 2.8363235e-07 2.9632943e-07 1.9549216e-09 2.1243536e-06 2.5154907e-06
4.4437013e-07 6.4101087e-06 1.35070895e-05 1.8260888e-09 8.1338453e-07 2.7060894e-08 5.3022984e-07 7.291249e-07
1.816921e-07 1.7923918e-07 4.7723137e-07 2.392751e-06 1.2441993e-07 8.8484404e-07 3.86355e-06 1.1115307e-07
2.6618438e-06 2.1266153e-07 1.613364e-11 7.0339776e-11 6.8376175e-06 1.561865e-07 2.4051502e-08 5.2827755e-07
1.0490169e-06 3.5548321e-06 1.2760001e-09 1.5703676e-05 1.2696961e-09 2.2015765e-07 6.59159e-07 2.7387757e-06
2.0799348e-06 2.355518e-06 1.5566803e-06 7.269129e-07 2.2627523e-06 0.00010600005 4.4425602e-07 5.35888e-08
1.7064978e-07 9.84143e-07 2.462898e-07 1.9342426e-06 1.3966547e-07 4.110611e-06 7.729772e-08 3.4651663e-07
9.662776e-08 1.5353103e-06 2.1189499e-05 1.4710043e-06 9.03357e-06 8.35093e-07 2.1747735e-07 1.1252421e-07

exp_avg f4 [32, 64]
00000000: ca4f 8eb7 9f6e fcb8 f601 28b7 549f 21b8
00000010: 04ca 3ab7 a853 3eb5 d01c bcb8 d222 cab7
00000020: c181 e0b8 5a9a cbb6 6ea1 53b8 0400 0000
00000030: ffc3 72b8 67a9 4330 eb0a 8437 9219 52b8
00000040: 6456 54b8 e5a9 99b7 0486 00b7 9d3f 19b8
00000050: e76c 32b7 3a3d 17b9 fe65 5c38 57a4 8ab8
00000060: 9803 2938 8a05 17b7 0400 0000 7e09 302f
00000070: f55d 42b8 da04 10b7 2368 41b8 2e3c 14b8
00000080: 5ae4 edb6 c693 02b9 9562 1233 4f06 aab8
00000090: 9187 8033 227b 4eb7 a34a ccb8 34fc 2cb7
000000a0: 839d d836 699d 8db8 8265 2db8 bf30 07b8
000000b0: 9f61 10b8 afef e9b7 6194 fab8 fc15 46b8
000000c0: fa6d f5b7 1f7c bdb7 4464 44b8 c087 6e37
000000d0: f00c 94b7 a961 15b8 bf65 e4b8 d920 8ab7
000000e0: f402 94b8 b8fe 30b8 7754 5cb8 7e71 ffb6
000000f0: 2370 b834 cd75 89b7 e6cd 88b8 3f5c 6cb7
00000100: 7957 30b9 7ee0 78b9 ed31 45b7 0c8b 93b4
00000110: f364 edb8 f793 6fb6 6191 6cb9 25a4 9bb8
00000120: 4eef 3ab9 484d 3336 96c7 43b8 0000 0000
00000130: 9741 4fb9 0065 33b7 a7f8 65b8 faeb d3b8
00000140: b93f 52b7 8709 14b7 5bfd a0b7 f978 aab8
00000150: 2295 96b7 0b87 7fb9 f309 0ab8 140a 13b7
00000160: 1272 70b7 252a 87b8 0400 0080 7bde 35b6
00000170: 9269 7bb8 3f89 3ab7 de96 50b7 1409 5cb9
00000180: f2d7 f3b6 37b9 77b9 1d62 a6b6 c654 f7b8
00000190: d708 c2b6 0400 0080 671d 46b9 5418 c6b8
000001a0: c6f1 d5b6 3d32 03b9 2878 c3b6 84de dbb8
000001b0: ccf3 09b9 f880 c232 26fb 88b9 3112 84b8
000001c0: 27fb b2b8 c58d 8eb8 92ba 38b9 b1b4 1db7
000001d0: 5f3c 05b9 fb8f d8b8 6578 aab9 dad5 a1b8
000001e0: acf2 38b9 13ce 27b9 f9e8 27b9 2c1c 9bb7
000001f0: 98bb 6a36 8512 85b8 4c2b a7b6 a756 8bb8
00000200: 076b 8939 8dfd 9839 0d20 8636 0033 8b39
00000210: abd5 e338 0400 0000 f96f 2339 974a 5238
00000220: cc1a 0a39 57b8 afb6 90c4 2139 8f0f 4437
00000230: 6c0e c838 314c 5435 1be9 8537 6088 a838
00000240: 36fb e437 ebcc 2237 1fcc 4339 8462 2038
00000250: d1e5 a636 ab24 9e39 e73a f8b7 2f82 1138
00000260: 6a45 abb7 b87c 0b37 0bc5 8935 0400 0000
00000270: 82cb 5039 318f 1d38 da6b ce37 f691 f838
00000280: f847 c039 4c30 d439 1b32 5f34 e60a 6d39
00000290: 7513 0234 682a 2339 b44c a039 ef97 ef39
000002a0: 5c62 9839 7a13 c239 f14e 9f37 8759 3038
000002b0: 8a0b cc38 02fd 5539 0e36 bd39 3c8c 1838
000002c0: c49e 8539 1a78 c337 e35b 8c38 9435 9c39
000002d0: 734f 0738 426d 1638 ea3f 4239 7027 4038
000002e0: 637c b738 18e5 d138 fa30 333a 023c 3436
000002f0: b7bc 59b7 a3a2 8938 64d6 7b39 ae80 7537
00000300: 5dcf 62b9 17bc 94b9 f932 cc33 bfaa 50b9
00000310: 3a10 4ab8 14b8 afb1 d689 11b9 2b1b 77b8
00000320: a57f dfb8 85d0 d8b5 38d6 d2b8 9cf2 6fb7
00000330: df66 d0b8 2804 7e37 f8c7 84b7 1840 a6b8
00000340: e746 1a36 1a67 3bb6 e9c8 1fb9 4295 04b8
00000350: 34db 7eb6 252a 9eb9 28af 3837 98da 2335
00000360: dd42 6d37 0b43 dab7 55cb e2b5 7867 2232
00000370: 6593 06b9 f9f3 ceb6 1e3f 3137 4737 beb8
00000380: de7c 9db9 337d cfb9 5304 b2b6 349d 34b9
00000390: 7a73 e8b4 a1b0 0bb9 3127 9bb9 3cb5 d6b9
000003a0: 7718 84b9 8b08 b0b9 1c91 ad37 5f3f 98b7
000003b0: 4372 c3b8 6562 28b9 e9aa aeb9 c007 eab7
000003c0: e2ad 4ab9 23a2 2eb7 5e54 60b8 f46a 60b9
000003d0: caba c6b7 d9bc 9ab7 1b28 57b9 35ad 35b8
000003e0: 8c46 59b8 219f fdb8 c983 29ba 43e1 5db5
000003f0: 72b7 eb35 82b5 69b8 c1b2 29b9 5ba9 5437
-1.6964874e-05 -0.00012036901 -1.0014037e-05 -3.8533777e-05 -1.1133499e-05 -7.090225e-07 -8.969905e-05 -2.4096491e-05
-0.00010705321 -6.0678403e-06 -5.0456663e-05 6e-45 -5.787983e-05 7.118132e-10 1.574071e-05 -5.0091716e-05
-5.0625196e-05 -1.8318135e-05 -7.6605975e-06 -3.6537287e-05 -1.0634983e-05 -0.00014423291 5.2547075e-05 -6.6109635e-05
4.0296087e-05 -9.001591e-06 6e-45 1.6010479e-10 -4.634071e-05 -8.584198e-06 -4.611177e-05 -3.5341996e-05
-7.089734e-06 -0.00012452816 3.4082934e-08 -8.107407e-05 5.985124e-08 -1.2307226e-05 -9.74138e-05 -1.03107195e-05
6.4556384e-06 -6.752724e-05 -4.134095e-05 -3.2231907e-05 -3.4423192e-05 -2.7887376e-05 -0.00011948567 -4.7227353e-05
-2.9257488e-05 -2.2588354e-05 -4.682342e-05 1.4217512e-05 -1.7649e-05 -3.561532e-05 -0.00010890839 -1.6466178e-05
-7.05774e-05 -4.2198895e-05 -5.253075e-05 -7.6128044e-06 3.435426e-07 -1.6386528e-05 -6.523337e-05 -1.4088174e-05
-0.00016817254 -0.00023734753 -1.1753739e-05 -2.7482054e-07 -0.00011319844 -3.5699902e-06 -0.00022560872 -7.42155e-05
-0.0001782749 2.6718062e-06 -4.66775e-05 0.0 -0.00019765492 -1.0692747e-05 -5.482943e-05 -0.00010105218
-1.2531812e-05 -8.823706e-06 -1.9191464e-05 -8.1287646e-05 -1.7950839e-05 -0.00024369002 -3.291103e-05 -8.764229e-06
-1.4331674e-05 -6.445152e-05 -6e-45 -2.7100602e-06 -5.9941383e-05 -1.1118419e-05 -1.2432893e-05 -0.00020984217
-7.2671037e-06 -0.00023624754 -4.9586074e-06 -0.00011793668 -5.7826796e-06 -6e-45 -0.00018893705 -9.445907e-05
-6.376041e-06 -0.00012511849 -5.825441e-06 -0.000104841805 -0.0001315616 2.264322e-08 -0.00026127062 -6.297639e-05
-8.534482e-05 -6.797494e-05 -0.0001761711 -9.4e-06 -0.00012706358 -0.00010326501 -0.00032514628 -7.716911e-05
-0.0001763801 -0.0001600313 -0.0001601315 -1.8490558e-05 3.497791e-06 -6.345384e-05 -4.9820283e-06 -6.644177e-05
0.00026210418 0.0002918061 3.9972424e-06 0.00026550144 0.00010864002 6e-45 0.00015586604 5.013737e-05
0.00013170688 -5.2368664e-06 0.00015427382 1.1686133e-05 9.5394294e-05 7.908703e-07 1.5963384e-05 8.036266e-05
2.7296697e-05 9.703664e-06 0.0001867269 3.8238722e-05 4.9739397e-06 0.00030163428 -2.9591332e-05 3.4691937e-05
-2.0417112e-05 8.314084e-06 1.0264642e-06 6e-45 0.00019912238 3.7565074e-05 2.4607336e-05 0.00011852749
0.00036674715 0.00040471775 2.0786722e-07 0.00022606141 1.2114272e-07 0.00015560689 0.00030574726 0.00045698832
0.00029064983 0.00037017075 1.8991037e-05 4.204505e-05 9.729627e-05 0.00020407516 0.00036089163 3.6370227e-05
0.00025486026 2.3301738e-05 6.6928354e-05 0.00029794557 3.22605e-05 3.586454e-05 0.00018525092 4.5813096e-05
8.749289e-05 0.00010008569 0.0006835606 2.685702e-06 -1.29781465e-05 6.5629625e-05 0.00024017092 1.46330985e-05
-0.00021630288 -0.00028368898 9.508762e-08 -0.00019900034 -4.8175665e-05 -5.1140976e-09 -0.00013879625 -5.891469e-05
-0.00010657244 -1.6153941e-06 -0.00010053482 -1.4301997e-05 -9.937374e-05 1.51405475e-05 -1.5828744e-05 -7.927435e-05
2.2989059e-06 -2.7925184e-06 -0.00015238266 -3.161026e-05 -3.7976542e-06 -0.00030167509 1.1008036e-05 6.104033e-07
1.4141869e-05 -2.6018844e-05 -1.689749e-06 9.453167e-09 -0.00012834145 -6.1676806e-06 1.0564718e-05 -9.070202e-05
-0.00030038407 -0.00039575397 -5.305317e-06 -0.000172247 -4.3297388e-07 -0.00013321872 -0.00029593104 -0.0004095229
-0.0002519523 -0.000335757 2.0690779e-05 -1.8149321e-05 -9.3196075e-05 -0.00016058383 -0.00033315204 -2.7898583e-05
-0.00019328998 -1.0408959e-05 -5.3484335e-05 -0.00021402148 -2.369042e-05 -1.844617e-05 -0.00020518938 -4.3315074e-05
-5.1802534e-05 -0.0001209362 -0.0006466476 -8.2656715e-07 1.7562254e-06 -5.572057e-05 -0.00016183687 1.2675616e-05
