toy_al/mini_exp/500-200-200-001-no/ckpt_phase0.pt (torch, 47981 bytes, 30 tensors)

fc1.weight f4 [64, 4]
0	0xbe6fb9e3	-0.23410754
1	0xbee44705	-0.44585434
2	0x3eb428d1	0.3518739
3	0xbd1bd919	-0.038048837
4	0xbf3b0dfe	-0.73068225
5	0xbf0b3026	-0.54370344
6	0x3db730f5	0.08944885
7	0xbf5f5aab	-0.87247723
8	0xbc2ed935	-0.010671903
9	0x3e565008	0.20928967
10	0x3ea94c62	0.33066088
11	0xbeca4c92	-0.39511544
12	0x3ef34594	0.4751402
13	0x3d8dd653	0.06925645
14	0xbb8439fe	-0.0040352335
15	0x3f99f2bd	1.2027203
16	0xbd731bff	-0.05935287
17	0xbe0fc551	-0.14040114
18	0x3ed40cf5	0.41416135
19	0xbf0243aa	-0.508845
20	0xbf23b1e6	-0.63943326
21	0x3e5dd825	0.21664484
22	0xbe89385e	-0.26800817
23	0x3ef72374	0.48269236
24	0xbf22a543	-0.6353342
25	0x3ec46a98	0.38362575
26	0x3d1531f0	0.036424577
27	0xbe9b3532	-0.30314022
28	0xbe54fe91	-0.20800234
29	0xbe53cb4b	-0.20683019
30	0x3db6ee6d	0.08932195
31	0xbf268f23	-0.6506216
32	0x3e33dbd4	0.17564327
33	0x3e33f7e8	0.17575037
34	0x3edee97c	0.4353751
35	0xbe8cf44d	-0.27530137
36	0x3e62cd87	0.22148715
37	0x3bdc8516	0.0067297323
38	0x3eb15538	0.3463533
39	0xbf2e1ef3	-0.68015975
40	0xbeac1027	-0.33606073
41	0x3eff3ea6	0.49852484
42	0x3e468a50	0.193887
43	0xbe14c17e	-0.14526936
44	0x3e26adb9	0.16277207
45	0x3e25447a	0.16139403
46	0xbdc550c7	-0.09634548
47	0xbe8ffe5c	-0.28123748
48	0xbe3c78ce	-0.18405458
49	0x3eb6b487	0.35684606
50	0xbdd8d406	-0.10587315
51	0x3ee1f0b8	0.44128966
52	0xbe45f66b	-0.19332282
53	0x3f1d086f	0.61340994
54	0x3e39fa7a	0.18161955
55	0xbe45e84a	-0.19326892
56	0x3de20ba2	0.11037375
57	0xbe050a16	-0.12992129
58	0xbeb6eece	-0.3572907
59	0xbbc2dd2a	-0.005946775
60	0xbe83e094	-0.25757277
61	0x3ea84e08	0.32872033
62	0xbf1385e4	-0.57626176
63	0x3d5d5201	0.054033283
64	0x3dc6e89d	0.09712336
65	0xbe6ae3c6	-0.22938451
66	0x3f03ee2c	0.51535296
67	0x3e362e59	0.17791118
68	0xbe2602fc	-0.16212076
69	0x3e659d0f	0.22423194
70	0x3e22dac9	0.15903772
71	0x3e458b3b	0.19291393
72	0x3f3debbc	0.7418783
73	0x3bc29708	0.0059384145
74	0xbb8cc6ac	-0.0042961445
75	0x3e3897d6	0.18026671
76	0x3d592483	0.053013336
77	0xbeb89274	-0.36049235
78	0xbe1ea740	-0.15493488
79	0xbf09cbfc	-0.5382688
80	0x3f75413d	0.9580267
81	0xbe9fd0e1	-0.3121405
82	0x3bfdbc9c	0.0077434313
83	0xbf68e7c1	-0.9097863
84	0xbd891edb	-0.06695338
85	0x3e918281	0.2841988
86	0xbf1797dd	-0.592161
87	0x3ebb3436	0.3656327
88	0x3f351e2d	0.7074917
89	0xbec16896	-0.37775105
90	0x3b9c01d3	0.0047609597
91	0xbeaa69e8	-0.33283925
92	0x3ebe7f84	0.37206662
93	0xbdd1deb6	-0.10247557
94	0x3ef2d810	0.47430468
95	0x3febaf57	1.8412884
96	0xbe680dd2	-0.22661522
97	0x3dc9b0b6	0.09848158
98	0xbe60b198	-0.21942747
99	0xbe3b8237	-0.18311392
100	0x3e0a51b5	0.13507731
101	0x3eed6257	0.4636409
102	0x3ee2a3fa	0.4426573
103	0x3ecabba9	0.39596298
104	0x3e9a1d61	0.3010054
105	0x3df855b3	0.12125721
106	0xbe4f052f	-0.20216821
107	0xbc6aa8f4	-0.014322508
108	0xbeb4447f	-0.35208508
109	0x3e9db024	0.30798447
110	0xbf0f3a1a	-0.5594803
111	0x3f0d2dd0	0.5514803
112	0x3ed87b91	0.42281774
113	0x3e826e5d	0.25474826
114	0xbd199ca5	-0.037502903
115	0xbd3a127a	-0.045427777
116	0xbff4dadc	-1.912929
117	0xbead660f	-0.33866927
118	0xbe707701	-0.23482896
119	0xbe82b702	-0.2553025
120	0x3f326abd	0.6969412
121	0x3e8fec2b	0.2810987
122	0x3ee6c801	0.45074466
123	0x3ed3a868	0.4133942
124	0x3f4d1010	0.80102634
125	0xbdf09118	-0.117464244
126	0xbe41fa79	-0.18943204
127	0xbea83bd5	-0.32858148
128	0x3f716e22	0.94308674
129	0xbec8c779	-0.39214686
130	0x3e457c2a	0.19285646
131	0x3edccf5a	0.43126947
132	0x3f726b4b	0.94694966
133	0x3cc81e06	0.024428379
134	0xbb90b3b3	-0.004415953
135	0xbe8bd03c	-0.27307308
136	0x3eb7b42c	0.35879648
137	0x3f139049	0.57642037
138	0xbe242530	-0.16029811
139	0x3e84faed	0.2597269
140	0x3ddef48e	0.10886489
141	0x3eff495e	0.49860662
142	0x3ea4014a	0.32032233
143	0xbea3a00f	-0.31958053
144	0x3f3ccdae	0.7375134
145	0x3e4de25b	0.20105879
146	0xbdc4c1c7	-0.096072726
147	0x3fa45cc9	1.2840816
148	0x3f832081	1.0244294
149	0xbf02b623	-0.5105917
150	0xbe8a9369	-0.2706559
151	0x3e755024	0.23956352
152	0x3e0d99c3	0.13828187
153	0xbea5b8dd	-0.32367602
154	0x3eaaa76b	0.33330855
155	0x3cb1f081	0.021721127
156	0xbf649aad	-0.89298517
157	0xbf1a0d88	-0.601769
158	0x3ead1f27	0.3381283
159	0xbe969109	-0.29407528
160	0xbeb6e894	-0.35724318
161	0xbea8ffd8	-0.33007693
162	0xbee55412	-0.44790703
163	0x3e812003	0.25219736
164	0xbc957c93	-0.018247878
165	0x3d60c764	0.054877654
166	0xbeb3904b	-0.35071024
167	0xbf14db8b	-0.58147496
168	0x3f744a0e	0.954255
169	0xbd892ac9	-0.06697614
170	0x3e01400f	0.12622093
171	0x3f832a6a	1.0247319
172	0x3ebee785	0.3728601
173	0xbeca94f0	-0.39566755
174	0x3eb6e747	0.35723326
175	0xbde6b57e	-0.11265086
176	0xbe27fda5	-0.16405351
177	0xbe8c1008	-0.2735598
178	0xbd0a556b	-0.033772867
179	0xbe3861b4	-0.18006021
180	0x3f344fdb	0.7043435
181	0x3e357abf	0.17722605
182	0xbe7e7958	-0.24850976
183	0xbef56eaf	-0.47936007
184	0x3ecffb9f	0.4062166
185	0xbf2db824	-0.678591
186	0xbd4a72b0	-0.04942578
187	0x3e49f922	0.19723943
188	0x3e4ee5d8	0.20204866
189	0x3db6e0fe	0.089296326
190	0xbe912341	-0.2834721
191	0x3f3e5f21	0.74363905
192	0x3f3733bc	0.71563315
193	0xbe0782d3	-0.13233499
194	0xbeb3bff5	-0.3510739
195	0xbf1f706d	-0.62280923
196	0x3f8d6da7	1.1049088
197	0xbedd37b0	-0.4320655
198	0x3eea7f1c	0.45800102
199	0x3ee06887	0.43829748
200	0x3eba0eab	0.36339316
201	0x3e138d9d	0.1440949
202	0xbc5922c6	-0.01325292
203	0x3f4dc3eb	0.8037707
204	0x3f00e24d	0.5034531
205	0x3e3f7452	0.18696716
206	0x3e8a0d5c	0.26963317
207	0xbe0d8fc9	-0.13824381
208	0xbdc733a1	-0.09726644
209	0x3eedede1	0.4647055
210	0xbeb76965	-0.35822597
211	0x3d899af2	0.067190066
212	0xbf473c85	-0.7782672
213	0x3e919b2c	0.284387
214	0x3ecbc3d0	0.3979783
215	0xbe85969b	-0.26091465
216	0xbf80275f	-1.0012015
217	0xbd7ad24b	-0.061235707
218	0x3ddac497	0.10682028
219	0xbe25f90e	-0.16208288
220	0xbf211804	-0.6292727
221	0xbcc48bd8	-0.023992464
222	0xbe309215	-0.17243226
223	0x3e68bbd9	0.22727908
224	0xbf0fc1dc	-0.5615518
225	0x3e06789d	0.13131948
226	0xbe9eea37	-0.31038067
227	0xbdc4988e	-0.0959941
228	0x3ed96f33	0.4246765
229	0xbe6d9172	-0.23200014
230	0xbeae832e	-0.34084457
231	0x3f5c0e9f	0.8595981
232	0x3f3a1b83	0.7269823
233	0xbe71dbcc	-0.23619002
234	0x3e66865c	0.22512192
235	0xbf153d99	-0.58297116
236	0xbf0f5e6c	-0.5600345
237	0xbe1b53bd	-0.15168662
238	0x3ebbaf36	0.36657113
239	0x3f163a6e	0.58682907
240	0x3f29adf1	0.6628104
241	0x3eaee2b0	0.34157324
242	0xbda338fd	-0.07969854
243	0x3eaccc34	0.33749545
244	0xbd6eb6c0	-0.058279753
245	0x3b2baef2	0.0026196805
246	0xbeec5b6c	-0.461635
247	0xbeab14bb	-0.33414254
248	0x3f650131	0.8945494
249	0x3f1d81d4	0.61526227
250	0x3e02bc3b	0.12767117
251	0x3e75ea35	0.24015124
252	0xbf4d846d	-0.8028019
253	0x3dbba722	0.091627374
254	0xbdd6b69e	-0.1048405
255	0xbe530bfc	-0.2061004

fc1.bias f4 [64]
0	0x3f136cbb	0.57587785
1	0xbf27b30a	-0.65507567
2	0x3f04101a	0.5158707
3	0xbeb4d8b1	-0.35321572
4	0xbdebabba	-0.115073636
5	0x3f0be951	0.5465289
6	0x3f1ff300	0.62480164
7	0xbf0eaa39	-0.5572849
8	0x3ea18258	0.31544757
9	0xbd0d76a3	-0.03453697
10	0xbf11386b	-0.5672671
11	0xbf31aea7	-0.69407123
12	0xbdd48dc0	-0.10378599
13	0x3bc05bdd	0.005870326
14	0x3d454588	0.048162013
15	0xbe8345ec	-0.25639284
16	0x3f16100b	0.5861823
17	0xbde7a566	-0.11310844
18	0x3f039a2e	0.51407135
19	0x3c8410a5	0.016121218
20	0x3e8b8171	0.27247193
21	0xbd21f89d	-0.039543737
22	0x3f33a18f	0.70168394
23	0xbb3b34b2	-0.0028565344
24	0x3f069ec6	0.5258602
25	0xbe37ad7f	-0.17937277
26	0x3d0e8b38	0.034800738
27	0xbda74aeb	-0.08168586
28	0x3e6dfd60	0.23241186
29	0xbfd71309	-1.6802684
30	0x3f1e5ce7	0.6186051
31	0xbe0cc7bb	-0.13748066
32	0xbe0286db	-0.12746756
33	0x3f1066f9	0.56407124
34	0x3f111af2	0.5668174
35	0xbe732187	-0.23743258
36	0xbd8e05e4	-0.06934717
37	0x3d1f5377	0.038897958
38	0x3f098b2b	0.5372798
39	0x3ea94d9b	0.3306702
40	0x3f22b4a9	0.63556916
41	0x3e6558e8	0.22397196
42	0xbf0c55ab	-0.5481822
43	0x3f3c7e65	0.7363036
44	0xbddbbcb0	-0.10729349
45	0x3d887868	0.06663591
46	0x3f14f3d2	0.5818454
47	0xbd9f2534	-0.07770768
48	0xbe09bcba	-0.134509
49	0xbd5788b2	-0.052620597
50	0x3ee4dd2a	0.44699985
51	0x3da94c22	0.08266474
52	0x3e4d8537	0.20070349
53	0xbf0d9e97	-0.55320114
54	0x3e5ed6ad	0.2176158
55	0x3f32821f	0.697298
56	0xbe451d08	-0.19249356
57	0xbf12efd2	-0.57397187
58	0x3ebd6c06	0.36996478
59	0xbf350835	-0.7071565
60	0x3ed1c0fe	0.40967554
61	0x3eb34012	0.3500982
62	0x3eaf9f43	0.34301195
63	0xbe6baf41	-0.23016073

fc2.weight f4 [32, 64]
0	0x3d78dff9	0.060760472
1	0x3d0e2b43	0.034709226
2	0x3d132c05	0.035930652
3	0xbdbd7a93	-0.09251895
4	0x3d0b80c4	0.034058347
5	0xbe1f60bc	-0.15564245
6	0xbd47e15e	-0.04879891
7	0x3df44f72	0.119292155
8	0x3e0dab30	0.13834834
9	0x3dde0481	0.10840703
10	0xbcd43675	-0.025904873
11	0xbe15cca7	-0.1462885
12	0xbdf93104	-0.12167552
13	0x3e00ff0a	0.1259729
14	0x3d808609	0.06275565
15	0x3da02213	0.07818999
16	0x3af0d4c5	0.0018373957
17	0x3da27423	0.079323076
18	0x3de265d1	0.11054576
19	0xbd4ff950	-0.050774872
20	0xbe7ca0e0	-0.24670744
21	0x3ba698ab	0.0050841174
22	0xbe28f721	-0.16500522
23	0xbc2bd3f2	-0.010487543
24	0xbde2a039	-0.11065716
25	0xbd02be9c	-0.03192006
26	0x3cb36557	0.021898909
27	0x3d9eb30f	0.077489965
28	0x3e10087c	0.14065737
29	0x3be7c18e	0.007072634
30	0x3cd4fe56	0.026000183
31	0xbcb4e7f4	-0.02208326
32	0xbc0c5080	-0.008564115
33	0x3e2b9d52	0.16759232
34	0x3d9066e1	0.070508726
35	0x3d5cfad1	0.053950135
36	0xbd5b3bd9	-0.053523872
37	0xbd6a24e6	-0.057164095
38	0x3d81fc42	0.063469425
39	0xbe1becfa	-0.15227118
40	0x3d22dcab	0.039761227
41	0xbd930a52	-0.07179703
42	0xbd9cd726	-0.07658224
43	0x3e026028	0.12731993
44	0xbce71db8	-0.028212413
45	0x3d1dafec	0.03849785
46	0x3e28221e	0.16419265
47	0xbd1723c2	-0.036899336
48	0xbda396f0	-0.079877734
49	0x3d872efe	0.0660076
50	0x3d069545	0.0328572
51	0x3c0acf0d	0.008472216
52	0x3c1d026b	0.009583096
53	0xbd98214a	-0.074282244
54	0xbba2ea79	-0.004971799
55	0xbd9dcfed	-0.07705674
56	0xbdd765b6	-0.10517447
57	0x3d303d11	0.043026987
58	0x3e51714c	0.20453376
59	0xbdbf7595	-0.09348599
60	0x3e090ad2	0.13383034
61	0x3dcc43b0	0.09973848
62	0x3e6482fa	0.22315589
63	0xbc1d54d9	-0.009602749
64	0xbefa90ed	-0.48938695
65	0x3dbf9a5e	0.09355615
66	0xbe8961f5	-0.26832548
67	0x3dd6d96a	0.10490687
68	0x3de8b1b6	0.11362021
69	0x3d86bf1a	0.065794185
70	0x3e0a1e6a	0.13488165
71	0xbdeeae58	-0.11654347
72	0xbe0059d3	-0.12534265
73	0xbf90832c	-1.129003
74	0x3c141f55	0.009040673
75	0xbdc2dc85	-0.09514717
76	0x3cd3765b	0.025813272
77	0x3d5ac097	0.053406324
78	0x3cfce357	0.030870123
79	0xbbf00162	-0.0073243836
80	0xbe2a4f0b	-0.16631715
81	0xbe8c7684	-0.2743417
82	0x3cecbd22	0.02889878
83	0xbd85b06d	-0.06527791
84	0x3a72ec6f	0.0009266799
85	0x3de8fa66	0.11375885
86	0x3f58efa9	0.8474069
87	0xbed912d6	-0.42397183
88	0x3e196664	0.14980465
89	0xbe59f19f	-0.21283577
90	0xbdc4f840	-0.096176624
91	0x3d1f7523	0.03893007
92	0xbbe19c0a	-0.0068850564
93	0x3d1c2c04	0.038127914
94	0xbc4d004e	-0.01251228
95	0x3d20aab5	0.0392253
96	0xbefb8726	-0.49126548
97	0xbd104da9	-0.035230312
98	0x3e0f3853	0.1398633
99	0xbe9e43be	-0.30911058
100	0xbda79124	-0.0818198
101	0xbc7b9600	-0.015355587
102	0xbef861cd	-0.48512116
103	0xbe8f76cb	-0.2802032
104	0xbb4f7d92	-0.003166054
105	0x3e022acf	0.12711643
106	0xbe06bd0f	-0.13158058
107	0xbe55cdab	-0.20879237
108	0x3d37cf3b	0.044875365
109	0xbde67823	-0.11253383
110	0xbda9bdde	-0.082881674
111	0x3daea0a4	0.085267335
112	0x3c2fd909	0.010732898
113	0xbe1be19f	-0.15222786
114	0x3ddb816f	0.10718047
115	0xbe0028c3	-0.1251555
116	0xbde9133a	-0.1138062
117	0x3d87ecf7	0.06636994
118	0xbfb13b1b	-1.3846163
119	0x3d423d9e	0.047422044
120	0xbde18e2c	-0.11013445
121	0x3d9a3314	0.07529274
122	0xbef54361	-0.4790297
123	0xbdb078e0	-0.08616805
124	0x3db95254	0.09048906
125	0xbde5f6dd	-0.11228726
126	0x3e5f4b08	0.21805966
127	0x3e401407	0.1875764
128	0x3b9f9ec9	0.0048712236
129	0xbe026ec5	-0.12737568
130	0x3db39b5e	0.08769868
131	0xbead7621	-0.33879188
132	0x3e1262a8	0.14295447
133	0x3d8b684e	0.06807004
134	0x3e2822b2	0.16419485
135	0x3c9d2a6b	0.019185266
136	0x3d9f00c0	0.07763815
137	0xbd60ff8e	-0.054931216
138	0xbddfceb1	-0.10928095
139	0xbde8870a	-0.11353882
140	0xbd1fe07e	-0.03903245
141	0x3db601b1	0.08887041
142	0xbd460bd2	-0.048351116
143	0xbd8f2d0e	-0.069910154
144	0xbd886598	-0.066600025
145	0x3cca8e4f	0.024726061
146	0x3e18a3ce	0.14906237
147	0xbde2fe08	-0.11083609
148	0xbd4483a3	-0.0479771
149	0x3d4e044a	0.05029706
150	0x3e5a6867	0.21328889
151	0xbdf4da20	-0.119556665
152	0xbde8ffe5	-0.11376933
153	0xbd823486	-0.06357674
154	0xbdc26646	-0.09492163
155	0x3dc98e64	0.09841612
156	0x3d9775fa	0.07395549
157	0xbdd65414	-0.104652554
158	0x3c3c275d	0.011483994
159	0x3dc9de5a	0.09856863
160	0xbdcf8426	-0.10132627
161	0x3e0cda59	0.13755168
162	0xbb42862f	-0.002968203
163	0x3d7521bc	0.059846625
164	0xba6e67bf	-0.0009094439
165	0x3dd336a0	0.10313153
166	0x3c916c9b	0.017751982
167	0xbd8fe25a	-0.07025595
168	0x3ca24ffb	0.019813528
169	0x3d322421	0.043491486
170	0xbe61a515	-0.2203563
171	0xbdb6dac2	-0.089284435
172	0xbcb0054d	-0.021486903
173	0xbd218be7	-0.039440062
174	0x3c241390	0.01001443
175	0x3d432499	0.047642324
176	0xbdbd74c8	-0.0925079
177	0x3c4ba27e	0.012428878
178	0xbd9b1272	-0.075718775
179	0x3d88e7f0	0.066848636
180	0x3dbcd143	0.09219601
181	0x3db5b4c8	0.08872372
182	0x3e0c4418	0.1369785
183	0x3cf05944	0.02933944
184	0xbdc57669	-0.096417256
185	0xbd3fa718	-0.046790212
186	0x3e1609d1	0.14652182
187	0xbd9e35dd	-0.07725117
188	0x3d98516e	0.074374065
189	0x3d9709cb	0.07374915
190	0x3dc2229b	0.09479257
191	0x3d167b87	0.0367389
192	0xbdd8084b	-0.10548457
193	0xbdf968aa	-0.12178166
194	0x3e141bc7	0.14463721
195	0x3e823920	0.25434208
196	0xbce51e4a	-0.027968545
197	0xbd96c6ae	-0.07362114
198	0xbd0b8ce0	-0.034069896
199	0xbdc3f83b	-0.095688306
200	0x3de9c28d	0.11414061
201	0xbd2d5f43	-0.042327177
202	0x3d59bcf3	0.05315871
203	0x3d010076	0.03149458
204	0xbe1480de	-0.14502284
205	0xbc740279	-0.014893168
206	0xbdd6e195	-0.10492245
207	0x3d7d742c	0.06187837
208	0xbdd61ff5	-0.10455314
209	0xbdd83a48	-0.10557991
210	0x3e5abb36	0.21360478
211	0x3d175ab8	0.03695175
212	0x3ef08153	0.46973667
213	0x3df6854b	0.12037142
214	0x3ea659ab	0.32490286
215	0xbdc52839	-0.096268125
216	0xbdcccc52	-0.099999085
217	0x3d9231e2	0.07138421
218	0x3dfba9a2	0.12288214
219	0xbd175a7b	-0.036951523
220	0x3d80a468	0.06281358
221	0xbe1808e0	-0.14847136
222	0x3d3dac04	0.046306625
223	0x3d872d5f	0.06600451
224	0x3e0435d8	0.12911165
225	0x3e93ffbf	0.28906056
226	0x3d8e7d1e	0.06957458
227	0x3d8dd50e	0.069254026
228	0x3e27c8e5	0.16385229
229	0x3e597de6	0.21239433
230	0xbdef2d85	-0.11678604
231	0xbdce1366	-0.10062294
232	0xbd227412	-0.039661475
233	0xbd370490	-0.044682086
234	0x3de40dc1	0.11135436
235	0x3dcf5e82	0.10125448
236	0xbe5aaa99	-0.2135414
237	0x3d5fb105	0.05461218
238	0xbe3ae99e	-0.1825318
239	0x3ddccbef	0.10781085
240	0xbc813c6f	-0.015775887
241	0x3cf55bb9	0.029950963
242	0x3e8b229e	0.27174848
243	0x3e11d55f	0.14241551
244	0xbd349721	-0.04408944
245	0x3d8c8460	0.06861186
246	0xbe0ad323	-0.13557105
247	0xbeaf8142	-0.34278303
248	0xbd0c90fc	-0.034317955
249	0x3c9b9d45	0.01899589
250	0x3d344389	0.04400972
251	0xbe163547	-0.14668761
252	0x3dff1760	0.1245563
253	0x3cbefc9d	0.023313815
254	0x3df57d4f	0.11986791
255	0xbe086214	-0.13318664

fc2.bias f4 [32]
0	0xbdd15563	-0.10221364
1	0x3e575f67	0.21032487
2	0x3ccd997c	0.025097601
3	0x3d9d0784	0.07667449
4	0x3e3d658a	0.18495765
5	0xbf032ce4	-0.5124037
6	0x3e8b5125	0.27210346
7	0x3e250b0f	0.161175
8	0x3ddf1608	0.10892874
9	0x3c40e399	0.0117730135
10	0xbcacffa7	-0.021117998
11	0x3e783b21	0.24241306
12	0x3e55286b	0.208162
13	0x3dab8340	0.08374643
14	0x3de19272	0.1101426
15	0xbe171611	-0.14754511
16	0xbe09e0eb	-0.13464706
17	0x3e5a137f	0.212965
18	0x3db53ef5	0.08849899
19	0xbe1c35b6	-0.15254864
20	0x3dfe4ec1	0.12417365
21	0x3e1e4bb0	0.1545856
22	0xbe53581d	-0.20639081
23	0x3e70fe7d	0.2353458
24	0xbd99f648	-0.075176775
25	0x3be49277	0.006975468
26	0xbd9f5e17	-0.07781618
27	0xbdc09ead	-0.09405265
28	0xbd1b8480	-0.03796816
29	0x3e7b928a	0.24567619
30	0xbcd472ca	-0.025933642
31	0x3e3c4703	0.18386464

fc3.weight f4 [16, 32]
0	0xbe3a5c18	-0.18199193
1	0x3c22a6cd	0.009927464
2	0xbe0ad26c	-0.13556832
3	0xbe091413	-0.13386564
4	0x3c196bc4	0.009364072
5	0x3d848a19	0.064716525
6	0xbdf5c3ba	-0.120002225
7	0x3d5b18dd	0.05349051
8	0xbdedb4f4	-0.1160678
9	0x3d89b2b8	0.06723541
10	0x3a31bb2a	0.0006779904
11	0xbe19f834	-0.15036088
12	0xbde44e54	-0.111477524
13	0xbdf82633	-0.12116661
14	0xbdbeed55	-0.09322611
15	0x3d8d5bfe	0.06902312
16	0xbb7599d0	-0.0037475713
17	0xbdb116ea	-0.08646949
18	0xbe2833c9	-0.16426004
19	0x3e001c17	0.12510715
20	0xbe041928	-0.12900221
21	0x3d81e3f9	0.063423105
22	0x3d17b109	0.03703407
23	0x3bdcaab7	0.006734218
24	0xbe0fc57a	-0.14040175
25	0xbe042d91	-0.12908007
26	0xbcb30bad	-0.021856153
27	0x3c5aded8	0.013358794
28	0xbde3d745	-0.11125044
29	0x3e0e99b5	0.13925822
30	0x3d030df6	0.031995736
31	0xbe48c0ea	-0.19604841
32	0x3e33c9cc	0.17557448
33	0xbd4877f6	-0.04894253
34	0x3dd215e2	0.1025808
35	0x3e832238	0.25612044
36	0xbde66161	-0.11249042
37	0xbe38c436	-0.18043599
38	0x3e3a7f11	0.18212534
39	0x3e150e68	0.14556277
40	0xbe13dc24	-0.14439446
41	0xbdc2dae4	-0.09514406
42	0x3c595687	0.013265259
43	0xbc883eaf	-0.016631452
44	0x3e1d6ded	0.15373965
45	0x3e24b158	0.16083276
46	0x3e0f8ed0	0.14019322
47	0x3d402fac	0.046920463
48	0xbcb9b7a8	-0.022670582
49	0x3c76eff6	0.01507186
50	0xbe3dfd70	-0.1855371
51	0x3e0b4247	0.13599502
52	0x3c3f7bb9	0.011687213
53	0xbec50351	-0.38479093
54	0xb9d1b118	-0.00039995532
55	0x3d88f5aa	0.06687482
56	0x3e25650c	0.16151828
57	0xbdfabb5f	-0.122427694
58	0x3db66eae	0.08907829
59	0x3e36c918	0.17850149
60	0x3e28c625	0.16481836
61	0x3de85e3f	0.11346101
62	0x3d3151cd	0.043290902
63	0xbddede8c	-0.10882291
64	0xbd4dc359	-0.050235126
65	0xbe0b2c0a	-0.13591018
66	0x3e215a66	0.1575714
67	0xbe19acff	-0.15007399
68	0x3df47c53	0.119377755
69	0xbdcfa3a2	-0.10138632
70	0x3d34a210	0.044099867
71	0x3e7d5c6a	0.24742284
72	0xbd9b995e	-0.07597612
73	0xbd1c17ef	-0.038108762
74	0x3db9d30e	0.090734586
75	0x3df8ed02	0.12154581
76	0x3e036f16	0.12835345
77	0x3d3945d8	0.045232624
78	0xbe327e06	-0.17430887
79	0xbda0c337	-0.07849734
80	0x3d8f38fd	0.069932915
81	0x3d906a4f	0.07051527
82	0xbe0bf96d	-0.13669367
83	0xbdec4acc	-0.11537704
84	0x3da0085f	0.07814097
85	0x3cceeccb	0.025259396
86	0xbd73d440	-0.05952859
87	0x3dfa2a5e	0.12215112
88	0xbdd0fe95	-0.10204808
89	0x3ddbbe3e	0.10729645
90	0x3d79eb75	0.061015565
91	0xbe0705a7	-0.1318575
92	0xbdd9e87f	-0.10640048
93	0x3ed64d73	0.41855964
94	0x3d150c0e	0.03638845
95	0x3d5d767c	0.054068074
96	0xbe1abf92	-0.15112141
97	0xbf0c70c4	-0.54859567
98	0xbd9bc9f8	-0.07606882
99	0x3dae7c0d	0.085197546
100	0xbe500775	-0.20315345
101	0xbd6d2dcf	-0.057905015
102	0x3ee2e8b9	0.44318178
103	0x3eb78d17	0.3584983
104	0xbea34243	-0.3188649
105	0xbe79944a	-0.24372974
106	0xbd6d9176	-0.05800005
107	0x3e2d2f36	0.16912541
108	0x3d4a59b9	0.049401972
109	0xbe747a09	-0.23874678
110	0x3f03f306	0.515427
111	0x3d9e88ec	0.077409595
112	0x3a1d2c8d	0.0005995713
113	0x3e7196cb	0.23592679
114	0x3e599db7	0.2125157
115	0x3ecf4d95	0.40488878
116	0xbf989e6e	-1.1923349
117	0xbf27fc19	-0.65619045
118	0xbec263d6	-0.37966794
119	0xbe042174	-0.12903386
120	0x3dcec15f	0.10095476
121	0xbd46c325	-0.048525948
122	0xbc83b0cc	-0.016075514
123	0x3e0f0eed	0.13970537
124	0x3dfee85d	0.124466635
125	0x3e9ba3bf	0.30398366
126	0x3d60e845	0.05490901
127	0xbde5d30b	-0.11221894
128	0xbea08261	-0.3134947
129	0xbdb98bb9	-0.09059853
130	0x3e1e6eb7	0.15471922
131	0xbdf40595	-0.11915127
132	0x3dfd4b5a	0.12367888
133	0x3cdcfba0	0.026975453
134	0x3ef4b686	0.47795504
135	0x3e9c7820	0.30560398
136	0xbe8c3194	-0.27381575
137	0xbdc2b1bf	-0.095065586
138	0xbd55ce54	-0.052198723
139	0xbdac5c4d	-0.084160425
140	0x3d97d422	0.07413508
141	0xbe0f26df	-0.13979672
142	0x3e2fdf97	0.17175137
143	0xbe68d71e	-0.2273831
144	0xbe18f67b	-0.14937775
145	0x3cce760a	0.02520277
146	0xbeaa6a0f	-0.3328404
147	0xbd762f5f	-0.06010377
148	0x3eab14d4	0.33414328
149	0x3dfc07d0	0.123061776
150	0x3e25417f	0.16138266
151	0xbd997412	-0.07492842
152	0xbe2255ee	-0.15853092
153	0x3d499564	0.049214736
154	0x3e2cb6a3	0.16866545
155	0xbe1853ec	-0.14875764
156	0x3e30a62e	0.17250893
157	0x3edc56bd	0.43034926
158	0xbd64d755	-0.05586942
159	0x3e3e5dca	0.18590465
160	0xbdfe7e7b	-0.12426468
161	0x3de6fb4d	0.112784006
162	0x3da6032a	0.08106072
163	0x3e00cfe0	0.12579298
164	0xbd5c4761	-0.05377901
165	0x3d24b328	0.04020992
166	0x3edcf90f	0.43158767
167	0x3e83e8ee	0.2576365
168	0x3e1f23f3	0.15541057
169	0x3d38ba6a	0.045099653
170	0xbe2f0200	-0.17090607
171	0xbe53a2e3	-0.20667605
172	0x3e724023	0.23657279
173	0x3e0bd82b	0.1365668
174	0x3e055335	0.13020022
175	0xbdcaac40	-0.09896135
176	0xbd8fc46f	-0.070198886
177	0x3e3b23fb	0.18275444
178	0xbe9143dd	-0.28372088
179	0x3e4c6323	0.19959693
180	0x3db58543	0.08863308
181	0xbe5d689a	-0.21621934
182	0x3d4bf9b0	0.049798667
183	0xbe96e9b8	-0.29475188
184	0x3dd3e08f	0.103455655
185	0x3cecbe3c	0.028899305
186	0xbe14d9ab	-0.14536159
187	0xbd7d09e7	-0.06177702
188	0x3d613971	0.05498642
189	0x3e6cc565	0.23122175
190	0xbdbf6ce9	-0.09346945
191	0x3d0d1d06	0.034451507
192	0xbcd06346	-0.025437962
193	0xbdc78e0e	-0.09743892
194	0x3dd09892	0.101853505
195	0xbc218497	-0.009858272
196	0x3dbf5f81	0.09344388
197	0xbde4e87b	-0.11177155
198	0xbe70f357	-0.23530327
199	0xbd2d28d7	-0.042275276
200	0xbe0e3140	-0.13885975
201	0x3e04acc4	0.1295653
202	0xbe2aeb2b	-0.16691272
203	0xbcf2dc9d	-0.029646212
204	0x3e59882c	0.21243352
205	0xbd996b2c	-0.074911445
206	0x3e06ef44	0.1317721
207	0xbe0f3ddc	-0.13988441
208	0xbde45686	-0.111493155
209	0x3beede0c	0.0072896536
210	0x3e2c4baf	0.16825746
211	0x3de88443	0.11353352
212	0x3d3a1c0d	0.045436908
213	0x3e8c6060	0.27417278
214	0x3dd56a25	0.10420636
215	0x3e1d95dd	0.153892
216	0x3e2cfb0b	0.1689264
217	0x3d943e56	0.07238452
218	0x3cde134b	0.027108809
219	0x3e003419	0.12519874
220	0x3d4b3039	0.049606536
221	0xbe1bacdd	-0.15202661
222	0x3e20de1d	0.1570973
223	0xbe121264	-0.14264828
224	0xbda469de	-0.08028005
225	0xbe95f758	-0.2929027
226	0x3dab68cb	0.08369597
227	0xbe454c43	-0.19267373
228	0x3e288595	0.16457208
229	0xbe9f59cb	-0.31123194
230	0x3f3a03ae	0.72661865
231	0x3e7f1d52	0.24913529
232	0x3d520b75	0.051280458
233	0x3ea1c4aa	0.31595355
234	0xbd6842ea	-0.05670444
235	0x3def50c8	0.1168533
236	0x3ea7536e	0.3268084
237	0xbe41611b	-0.18884699
238	0x3e66a281	0.22522928
239	0x3d65fd59	0.056149814
240	0xbddf52b5	-0.10904447
241	0x3e997666	0.29973143
242	0xbed7a313	-0.42116603
243	0xbe39029a	-0.18067399
244	0x3eaab5e8	0.33341908
245	0xbede941e	-0.4347238
246	0xbe873573	-0.26407966
247	0x3e4d9068	0.20074618
248	0xbe18882a	-0.14895692
249	0xbddfacbb	-0.109216176
250	0x3d50c25d	0.05096661
251	0xbb1817b0	-0.0023207478
252	0x3e3a9f54	0.18224841
253	0x3e27ac46	0.16374311
254	0xbceb210c	-0.028702281
255	0x3e130104	0.14355856

fc3.bias f4 [16]
0	0xbe19b791	-0.15011431
1	0xbc66fd3b	-0.014098461
2	0x3e5c783b	0.2153024
3	0x3d39ddbb	0.045377474
4	0x3df62f68	0.12020761
5	0x3e2b266f	0.1671388
6	0xbc8a1d26	-0.016859602
7	0x3e839399	0.25698546
8	0x3e250d48	0.16118348
9	0x3e493450	0.19648862
10	0xbcd359e1	-0.025799694
11	0xbaa3f1c4	-0.0012507965
12	0x3d83e33c	0.06439826
13	0xbccd07d8	-0.025028154
14	0xbe460808	-0.19339001
15	0x3d3017c8	0.04299143

fc4.weight f4 [8, 16]
0	0xbd30efe2	-0.04319752
1	0xbee83b41	-0.45357707
2	0x3ea4fb49	0.32222965
3	0xbfb0117f	-1.3755339
4	0x3e7281f2	0.23682383
5	0xbe57630b	-0.21033876
6	0x3ed16c42	0.40902907
7	0x3cefb758	0.02926223
8	0xbe4f16da	-0.20223561
9	0xbc9bc409	-0.019014375
10	0xbe5dea37	-0.21671377
11	0xbeeb3a19	-0.45942762
12	0xbf29cf98	-0.6633239
13	0x3e15f38f	0.14643691
14	0xbe600de9	-0.21880306
15	0x3e2c245e	0.16810748
16	0x3da3c328	0.079962075
17	0xbe759e60	-0.23986197
18	0xbe79f8e1	-0.24411346
19	0xbe6e94b0	-0.23298907
20	0xbca745a5	-0.020418951
21	0xbd2a5bac	-0.04159133
22	0x39c3068b	0.00037198173
23	0x3c4476f9	0.011991256
24	0xbdd6782e	-0.10472141
25	0x3df1c942	0.11805965
26	0xbe0b7a59	-0.1362089
27	0x3db28495	0.08716694
28	0x3e06f3be	0.13178918
29	0xbdbc3d74	-0.09191409
30	0xbd9d7a98	-0.076893985
31	0xbcba2b62	-0.022725765
32	0x3e36cf1f	0.17852448
33	0x3e2699a8	0.16269553
34	0x3e8c0292	0.2734571
35	0x3f974921	1.1819192
36	0xbc657ac6	-0.014006322
37	0x3e85cccc	0.2613281
38	0x3e181e7e	0.14855382
39	0x3e08378a	0.13302436
40	0xbda383ab	-0.07984098
41	0xbd2c28f4	-0.042031243
42	0x3e7786fa	0.24172583
43	0x3dfb4a2f	0.12270009
44	0x3f293680	0.66098785
45	0x3da5e858	0.08100957
46	0xbe1aff3a	-0.15136424
47	0xbe010013	-0.12597685
48	0x3e464110	0.19360757
49	0x3d8a4f42	0.067533985
50	0x3e15ea21	0.14640094
51	0x3efb6ad2	0.49104935
52	0xbe13c65f	-0.14431141
53	0xbde4b90a	-0.11168106
54	0xbe83f7d7	-0.25775024
55	0x3ebaf89e	0.36517805
56	0xbe048763	-0.12942271
57	0xbe5ec5ea	-0.21755186
58	0x3e6e8226	0.23291835
59	0x3e02fec3	0.12792496
60	0x3ec3ba13	0.382279
61	0x3e1d5813	0.15365629
62	0x3df12757	0.117750816
63	0xbded0720	-0.115736246
64	0xbe03f64d	-0.12886925
65	0xbeafc1cb	-0.3432754
66	0x3ec81b92	0.39083534
67	0xbf8724df	-1.0558127
68	0xbdf4eb59	-0.119589515
69	0xbe6b6d61	-0.22990943
70	0x3eaa4e8f	0.3326306
71	0x3e2f3f4c	0.1711399
72	0x3e4aa488	0.19789326
73	0xbe6f2bab	-0.23356502
74	0x3dc071a6	0.09396677
75	0x3c465f40	0.01210767
76	0xbefbf359	-0.49209097
77	0xbede49b5	-0.4341561
78	0x3e16e9a6	0.14737567
79	0x3e615ea1	0.22008754
80	0xbd15feb8	-0.03661987
81	0xbd5e791c	-0.054314718
82	0x3e92af55	0.28649393
83	0xbe491120	-0.19635439
84	0x3ef9d9c7	0.48798963
85	0x3e058563	0.13039164
86	0xbe25e9b7	-0.16202436
87	0x3e8d13cd	0.2755417
88	0x3d67b852	0.056572266
89	0x3e9f2bdc	0.3108815
90	0xbe056542	-0.13026908
91	0xbeae7fb4	-0.34081805
92	0x3ef340ad	0.4751028
93	0xbe49af65	-0.19695814
94	0xbd8feed8	-0.07027978
95	0xbc979f0d	-0.018508459
96	0x3e23a856	0.15982184
97	0x3d00494e	0.03131991
98	0xbe17f934	-0.14841157
99	0xbeb5bd7d	-0.3549613
100	0x3d9bde80	0.07610798
101	0x3e06bc39	0.13157739
102	0x3e9f770d	0.31145516
103	0xbed1ef64	-0.41002953
104	0xbdb1f754	-0.08689752
105	0x3e6941ef	0.22779058
106	0x3e669a35	0.22519763
107	0xbe2698de	-0.16269252
108	0xbe3749ef	-0.17899297
109	0xbebc38c3	-0.36762056
110	0x3d73a337	0.059481826
111	0x3e40301e	0.18768355
112	0x3e5d4f1c	0.21612209
113	0xbe46f700	-0.1943016
114	0xbe0934c0	-0.13399029
115	0x3e5a429a	0.21314469
116	0xbdb3bbf8	-0.087760866
117	0x3d51441c	0.051090345
118	0xbce1fe46	-0.027587067
119	0x3db72ea4	0.08944443
120	0xbcdcf180	-0.026970625
121	0xbd2ae260	-0.041719794
122	0x3d8f7d12	0.07006277
123	0x3d66f6d0	0.056387722
124	0x3d33b0d0	0.043869793
125	0xbd9a2146	-0.07525878
126	0x3e1b1b2e	0.15147087
127	0xbe0adee0	-0.13561583

fc4.bias f4 [8]
0	0x3e00acb5	0.12565883
1	0x3dd203ff	0.102546684
2	0x3eb7a764	0.35869896
3	0x3d9bcb94	0.07607189
4	0x3e8416c3	0.25798616
5	0x3e95498c	0.29157674
6	0xbe2f54b1	-0.17122151
7	0xbe0e693d	-0.13907333

fc5.weight f4 [3, 8]
0	0xbe4abd12	-0.19798687
1	0xbe20c08f	-0.15698455
2	0x3e3c0e00	0.18364716
3	0xbe4a24a3	-0.19740538
4	0xbead2d5f	-0.33823678
5	0x3edb16dc	0.42790878
6	0xbd8ab740	-0.067732334
7	0xbdbfe7ca	-0.09370382
8	0x3e1b804e	0.15185663
9	0xbe8ee5c3	-0.2790967
10	0xbea3611b	-0.31910023
11	0x3e809edd	0.25121203
12	0x3ef904d6	0.48636502
13	0x3e86dff3	0.26342735
14	0x3e1b92a3	0.15192656
15	0xbdeb1e70	-0.11480415
16	0xbf3f7b3e	-0.7479743
17	0xbe1b890e	-0.15189001
18	0x3e6502b5	0.22364314
19	0x3eadde02	0.3395844
20	0xbe84e4da	-0.2595585
21	0xbd1bd1cd	-0.03804188
22	0xbf1f965e	-0.6233882
23	0x3d9e922a	0.07742722

fc5.bias f4 [3]
0	0x3d7d926b	0.061907213
1	0x3ec3ac21	0.3821726
2	0x3e36b280	0.1784153

exp_avg f4 [64, 4]
0	0x38ec8fd2	0.000112801456
1	0xb97be695	-0.00024023124
2	0x38cba16d	9.709862e-05
3	0x3936728a	0.00017399542
4	0x371e5fe5	9.439861e-06
5	0x370abb68	8.269075e-06
6	0xb8aa241e	-8.112959e-05
7	0x380d4b4f	3.3687156e-05
8	0x3838328e	4.39161e-05
9	0x397a7b07	0.00023887689
10	0x3768de84	1.3880086e-05
11	0x38955308	7.1203394e-05
12	0xb745d47d	-1.1791589e-05
13	0xb9e7c781	-0.00044208395
14	0xb98044a4	-0.00024465204
15	0xb82f1d2a	-4.1750412e-05
16	0x39257e5e	0.00015782702
17	0x38b48a0c	8.608782e-05
18	0x3998465a	0.00029044115
19	0x3934b162	0.00017232218
20	0xb8583ef9	-5.155706e-05
21	0x38d70e5f	0.00010254676
22	0xb82e5a3a	-4.1568863e-05
23	0xb89efaf2	-7.580769e-05
24	0x381755bc	3.608105e-05
25	0x399cb8f7	0.00029892448
26	0xb7509671	-1.24327935e-05
27	0x3854ffd6	5.0783005e-05
28	0x37945e86	1.768699e-05
29	0xb65ae811	-3.2619612e-06
30	0x389b6f25	7.411678e-05
31	0x37944dad	1.7679145e-05
32	0x38203467	3.8195776e-05
33	0x37b23d50	2.1247804e-05
34	0xb7cfa0a8	-2.4751134e-05
35	0x38659324	5.473489e-05
36	0xb7da3d73	-2.601624e-05
37	0xb73c7b23	-1.1234343e-05
38	0xb8c5561f	-9.409733e-05
39	0xb843f676	-4.6721158e-05
40	0xb9710217	-0.0002298433
41	0x39ec193c	0.0004503223
42	0x396b68b0	0.00022450346
43	0xb9843bea	-0.0002522164
44	0xb802f245	-3.1220046e-05
45	0x39df03f3	0.00042536817
46	0xb8b58949	-8.656324e-05
47	0xba3551b7	-0.00069167785
48	0xb965e61a	-0.00021924861
49	0xb9930d58	-0.00028047967
50	0x39fe140e	0.00048461597
51	0xb9b2af7e	-0.00034081558
52	0xb83c01a3	-4.4824217e-05
53	0x39c4fea7	0.00037573764
54	0x39bc575e	0.00035923248
55	0xb8ae6bdb	-8.317056e-05
56	0xb8028285	-3.111597e-05
57	0xb906fbc3	-0.00012873024
58	0x39910a4a	0.0002766422
59	0xb688b860	-4.07458e-06
60	0x36c7586f	5.940957e-06
61	0xb9828371	-0.00024893464
62	0x39c3aa95	0.00037320392
63	0x38ac6fe9	8.222444e-05
64	0xb74da2b2	-1.2256833e-05
65	0x3a129760	0.00055920146
66	0x390c1969	0.00013360906
67	0xb8a01369	-7.63301e-05
68	0xb912d645	-0.00014003467
69	0x39e64135	0.00043917602
70	0xb6a1e145	-4.8243987e-06
71	0xb96e902b	-0.00022751155
72	0x383b98b5	4.4726494e-05
73	0x3a7ea475	0.0009713837
74	0xba7f8527	-0.0009747319
75	0x387ddbe6	6.0524697e-05
76	0xb88fd1e0	-6.8578636e-05
77	0xb6a4d7b8	-4.912694e-06
78	0xb69b770a	-4.633218e-06
79	0xb763ffb8	-1.35897935e-05
80	0x3994e9c5	0.00028402932
81	0x37e5473f	2.7332104e-05
82	0x39067a5f	0.00012824823
83	0x39dd6fc6	0.00042235682
84	0x3800de3a	3.0724543e-05
85	0xb98aac5c	-0.0002644983
86	0x38f69c3a	0.000117592936
87	0x390aae83	0.00013225716
88	0x39289d2c	0.0001608028
89	0xb978daf6	-0.00023732692
90	0x39165a28	0.000143387
91	0x3988e1b6	0.0002610811
92	0xb8002be3	-3.055845e-05
93	0xb98669d1	-0.0002563731
94	0xb9b1ae39	-0.00033889877
95	0xb7495748	-1.2000855e-05
96	0x36a469e1	4.899907e-06
97	0xb994b040	-0.00028360076
98	0x38d80744	0.00010301036
99	0x37f35f3f	2.901221e-05
100	0xb912bfa6	-0.0001399504
101	0x3a0ed20a	0.00054481684
102	0xb7742bd0	-1.4553734e-05
103	0xb98384c7	-0.00025085194
104	0xb83f30be	-4.5583343e-05
105	0x39d46568	0.00040511345
106	0xb99adfcb	-0.00029539908
107	0xb8c05b92	-9.17233e-05
108	0x38b9f4ad	8.867062e-05
109	0x39dfefed	0.00042712633
110	0xb98a5aa3	-0.0002638894
111	0x389539a6	7.1156115e-05
112	0x380ff365	3.4320536e-05
113	0x39887b02	0.0002603159
114	0xb9d80423	-0.00041201813
115	0x385cdacb	5.2655854e-05
116	0xb5ad346a	-1.2904759e-06
117	0xb7d10f48	-2.4921857e-05
118	0x397d52b6	0.00024158772
119	0xb64b6124	-3.03059e-06
120	0xb896e9a9	-7.19608e-05
121	0x39c79bc8	0.00038072304
122	0xb7e83c4e	-2.7684637e-05
123	0xb90ce52f	-0.00013436818
124	0xb849ec2a	-4.814208e-05
125	0xb645b3d3	-2.945996e-06
126	0xb90f0962	-0.00013641038
127	0x36bbd79f	5.598136e-06
128	0xb7ab4cdc	-2.0420579e-05
129	0xb82b261d	-4.0805073e-05
130	0xb977ed95	-0.00023644262
131	0x35ffb02a	1.9050251e-06
132	0x38e6855a	0.00010992093
133	0x3962e333	0.00021637678
134	0xba9945cc	-0.0011693775
135	0x39365adf	0.00017390725
136	0xb8ee3130	-0.00011357886
137	0x39320f12	0.00016981017
138	0xb954c0fe	-0.0002028979
139	0xb9490583	-0.00019170907
140	0xb85def70	-5.29135e-05
141	0x39992321	0.00029208607
142	0xb8c63921	-9.452017e-05
143	0xb90a6ca4	-0.00013201177
144	0xb8488f09	-4.7816928e-05
145	0xba45d8ec	-0.00075472775
146	0x3a1bcb65	0.0005943089
147	0xb8264d6b	-3.9649585e-05
148	0xb855ea2d	-5.100125e-05
149	0xb8ed734a	-0.00011322515
150	0x38e4cf2c	0.00010910476
151	0x35445207	7.3135055e-07
152	0x386038cf	5.345867e-05
153	0xb905dd21	-0.00012766245
154	0x37fc0cd0	3.0046707e-05
155	0x388720fa	6.443444e-05
156	0x3982441a	0.00024846272
157	0xba3644b3	-0.0006952986
158	0xb91ee8c5	-0.00015154768
159	0x39a036b6	0.0003055834
160	0x38189fea	3.6388556e-05
161	0x3948b027	0.00019139108
162	0xb9528b5f	-0.0002007908
163	0x38d14ab5	9.979812e-05
164	0x38d5efb7	0.00010201282
165	0xba00a14b	-0.0004906847
166	0xb712e756	-8.75614e-06
167	0x39372f7d	0.00017469931
168	0xb86150fc	-5.3719603e-05
169	0xb92e8cda	-0.00016646404
170	0xb9917dab	-0.00027750185
171	0x374e6f18	1.2304423e-05
172	0x38d6e46d	0.00010246863
173	0xb8257635	-3.9449154e-05
174	0x3953426d	0.00020147274
175	0x3937c63c	0.00017526088
176	0x3501972b	4.8276223e-07
177	0xb73deafa	-1.1319988e-05
178	0x39cec600	0.00039438903
179	0x34ac937c	3.2144806e-07
180	0x3802832f	3.111659e-05
181	0x39a95ba8	0.0003230248
182	0xb9e216de	-0.00043123116
183	0x3840d7c2	4.5977307e-05
184	0xb8b27eb7	-8.511304e-05
185	0xb9aed60b	-0.0003334734
186	0x39a4425c	0.0003132996
187	0x37f783d2	2.9506078e-05
188	0x37d431ff	2.529565e-05
189	0xb97451fa	-0.00023300192
190	0x391ae8f2	0.00014773363
191	0xb7fa9e28	-2.987597e-05
192	0xb885f72e	-6.387975e-05
193	0xba2ae8b3	-0.000651966
194	0x36ce8b6e	6.15551e-06
195	0x39431e0d	0.00018607844
196	0x361b709d	2.316235e-06
197	0xb7f15693	-2.8769753e-05
198	0xb8e3dcf1	-0.00010865357
199	0xb790ef69	-1.7277622e-05
200	0xb8b1fb47	-8.486822e-05
201	0x3a51d687	0.00080046844
202	0xba8a3e79	-0.0010547183
203	0xb8d9e11f	-0.000103892984
204	0x36ef4f8b	7.132015e-06
205	0xba15cb95	-0.0005714235
206	0xb8c3da67	-9.339005e-05
207	0x381da7b4	3.7587903e-05
208	0xb752f366	-1.2573646e-05
209	0x391f2560	0.00015177345
210	0xb9b37905	-0.00034231707
211	0xb717bc63	-9.044164e-06
212	0x3642595f	2.8960274e-06
213	0x3889a889	6.564061e-05
214	0x38e44299	0.00010884292
215	0x3872eecc	5.7919693e-05
216	0x38a35b49	7.789449e-05
217	0xb9541c76	-0.00020228498
218	0x38ce1541	9.826804e-05
219	0x38e8161b	0.000110667395
220	0xb79e5c7c	-1.8878134e-05
221	0xb8e2d44d	-0.00010816064
222	0x39e4e1ea	0.00043655868
223	0xb7b4e668	-2.1564963e-05
224	0x37abcb65	2.0479501e-05
225	0x39b24bd0	0.0003400729
226	0xb92b6201	-0.0001634434
227	0x38698d5b	5.5683176e-05
228	0xb7251372	-9.839294e-06
229	0xb9228aa2	-0.00015501169
230	0x39b54ccf	0.00034580237
231	0xb7d9e660	-2.5975693e-05
232	0x3939fffe	0.0001773834
233	0xba40f194	-0.00073602167
234	0xb6eeba7e	-7.1146633e-06
235	0x39c37911	0.000372835
236	0xb6101ab7	-2.1473222e-06
237	0xb845c8e9	-4.7155572e-05
238	0xb91944d8	-0.00014616863
239	0xb5deffc0	-1.6614722e-06
240	0xb8ddacd3	-0.00010570292
241	0x38ce0e50	9.8255114e-05
242	0xb892d4e4	-7.0014765e-05
243	0xb9316abb	-0.00016919796
244	0x38fd25fa	0.00012071054
245	0x383709cd	4.3639728e-05
246	0xb81eff95	-3.7908165e-05
247	0x3929979b	0.00016173573
248	0xb83d6a5a	-4.516016e-05
249	0xb99b7e7f	-0.0002965815
250	0xb84b724c	-4.850542e-05
251	0xb89c7c03	-7.461759e-05
252	0xb97a7020	-0.00023883628
253	0x3a88593d	0.0010402572
254	0xb9338963	-0.00017121951
255	0xb9410bfa	-0.00018410376

exp_avg_sq f4 [64, 4]
0	0x343d168f	1.7610203e-07
1	0x360dc831	2.1127164e-06
2	0x37106978	8.607625e-06
3	0x34f9a5a8	4.6500395e-07
4	0x33effa35	1.1174817e-07
5	0x352e5fad	6.495928e-07
6	0x379a34c8	1.8382809e-05
7	0x34a57b98	3.082357e-07
8	0x339fbb46	7.438079e-08
9	0x371bf2ef	9.295282e-06
10	0x3668d0d5	3.469225e-06
11	0x349962b1	2.8570278e-07
12	0x335a2151	5.078738e-08
13	0x393a9f73	0.00017797742
14	0x39254622	0.00015761753
15	0x33ea9124	1.0922875e-07
16	0x3620ef89	2.3981286e-06
17	0x3821a192	3.8535865e-05
18	0x3707c392	8.092162e-06
19	0x3731f279	1.0606477e-05
20	0x36d8f1cc	6.4654505e-06
21	0x391a7d06	0.0001473316
22	0x36fdd448	7.5647004e-06
23	0x3805a81e	3.1866242e-05
24	0x343f0b7c	1.7792439e-07
25	0x382af576	4.075976e-05
26	0x383f020c	4.5539855e-05
27	0x355dbe15	8.260552e-07
28	0x34e0641d	4.1796093e-07
29	0x3687be8a	4.045495e-06
30	0x37133233	8.773571e-06
31	0x35f50c29	1.8257462e-06
32	0x333035cb	4.1027118e-08
33	0x35cc7d72	1.5235694e-06
34	0x36cb750b	6.063497e-06
35	0x346b81d3	2.193331e-07
36	0x348992a8	2.5624945e-07
37	0x36d10aef	6.229958e-06
38	0x3664fe1b	3.4122556e-06
39	0x3596d5c0	1.123808e-06
40	0x35247155	6.125968e-07
41	0x37d7c8cf	2.5723506e-05
42	0x378ac485	1.6542393e-05
43	0x3655ed14	3.187747e-06
44	0x37d7f05c	2.5741923e-05
45	0x3a372709	0.00069867127
46	0x3788ad49	1.6293156e-05
47	0x39146a0c	0.00014153885
48	0x3783f044	1.57283e-05
49	0x39b5967e	0.00034635136
50	0x377b7158	1.4987156e-05
51	0x3898de79	7.2893636e-05
52	0x33c9c488	9.395541e-08
53	0x3810772b	3.444326e-05
54	0x38461257	4.722396e-05
55	0x346fc4f6	2.2330264e-07
56	0x33cdd1eb	9.58424e-08
57	0x352ea24b	6.505622e-07
58	0x367b9d60	3.749352e-06
59	0x332e6d4b	4.0611933e-08
60	0x3736f9a9	1.0906174e-05
61	0x393cccd1	0.00018005377
62	0x36a06876	4.7805324e-06
63	0x38445e99	4.6818142e-05
64	0x3539fd41	6.9286403e-07
65	0x3750a749	1.2436715e-05
66	0x3631edbd	2.6513437e-06
67	0x35edffd9	1.7732337e-06
68	0x3644c04a	2.9318203e-06
69	0x384ffc1f	4.9587452e-05
70	0x36a05327	4.778052e-06
71	0x375f0b1f	1.3294425e-05
72	0x34728572	2.2586553e-07
73	0x380fb92c	3.426631e-05
74	0x389359a0	7.0262e-05
75	0x35edb822	1.7711466e-06
76	0x359e32ab	1.1786664e-06
77	0x37172454	9.00876e-06
78	0x3626c897	2.4852686e-06
79	0x36980ea8	4.531659e-06
80	0x37fdee15	3.0270816e-05
81	0x3a0c0836	0.00053417997
82	0x37c74dec	2.3758934e-05
83	0x392a43aa	0.0001623767
84	0x389d2253	7.492737e-05
85	0x3a8be224	0.0010672254
86	0x36b5286e	5.398927e-06
87	0x3981aa15	0.00024731518
88	0x36da1aac	6.5000113e-06
89	0x39022639	0.00012412005
90	0x37120a8e	8.704736e-06
91	0x37f9a3b0	2.9759336e-05
92	0x3318b85d	3.5557935e-08
93	0x35e39e3f	1.6958874e-06
94	0x37a22e7e	1.9333555e-05
95	0x330177d0	3.0144122e-08
96	0x3563adbf	8.4816924e-07
97	0x37a787d2	1.9971198e-05
98	0x36749ee2	3.6451315e-06
99	0x366f9d79	3.5705436e-06
100	0x360412df	1.9680517e-06
101	0x381b24ee	3.6989273e-05
102	0x378d6a72	1.6858077e-05
103	0x37160a1c	8.9430505e-06
104	0x34bc433e	3.5066654e-07
105	0x37397fc8	1.1056611e-05
106	0x36340382	2.6824132e-06
107	0x35b95f95	1.3811392e-06
108	0x385f7cae	5.328346e-05
109	0x3a4230e4	0.0007407798
110	0x36d39784	6.3059288e-06
111	0x391bd7e3	0.00014862376
112	0x3347ddf9	4.653518e-08
113	0x368178a6	3.858545e-06
114	0x36f602c5	7.3316937e-06
115	0x340744fb	1.259795e-07
116	0x309dddb0	1.1486261e-09
117	0x336c2421	5.498089e-08
118	0x37174ec2	9.018639e-06
119	0x312371e5	2.3784363e-09
120	0x357835d3	9.2465524e-07
121	0x37628184	1.3500805e-05
122	0x369a7dce	4.6042032e-06
123	0x366f3362	3.5643684e-06
124	0x3489e31d	2.5683485e-07
125	0x34963fde	2.7986147e-07
126	0x36c56c93	5.883697e-06
127	0x32aba152	1.998038e-08
128	0x32737c99	1.4172792e-08
129	0x3586e07a	1.0049109e-06
130	0x37c3a9b6	2.332484e-05
131	0x31c63a1b	5.7691643e-09
132	0x362aaff1	2.5434385e-06
133	0x38b2e9b7	8.531234e-05
134	0x3789d717	1.6431832e-05
135	0x377c65fb	1.5044115e-05
136	0x35d7d8cc	1.6081844e-06
137	0x37f62073	2.9340596e-05
138	0x366cf963	3.5311903e-06
139	0x36e5d423	6.849428e-06
140	0x35347e68	6.723917e-07
141	0x3729918c	1.0107073e-05
142	0x36b36652	5.3465274e-06
143	0x3630d3d3	2.6349342e-06
144	0x34bd527b	3.5264006e-07
145	0x387d082b	6.0327508e-05
146	0x37d6a3d6	2.558708e-05
147	0x345d6a9d	2.0621015e-07
148	0x34e159a6	4.1974744e-07
149	0x35131d55	5.480445e-07
150	0x36cf16ed	6.1717496e-06
151	0x33d61ee4	9.9707705e-08
152	0x346ff2f1	2.2346991e-07
153	0x3629746e	2.5250733e-06
154	0x368468be	3.9461e-06
155	0x34a77d58	3.1197374e-07
156	0x35fde928	1.8917826e-06
157	0x37a76297	1.995386e-05
158	0x3749edb2	1.2035876e-05
159	0x36380464	2.7420692e-06
160	0x360e59eb	2.1211988e-06
161	0x37c30bd7	2.3251325e-05
162	0x36db372e	6.5331324e-06
163	0x36917604	4.3350756e-06
164	0x3530f544	6.592202e-07
165	0x3791dfe5	1.7389606e-05
166	0x36d04fae	6.208159e-06
167	0x366ccaa4	3.5284693e-06
168	0x33499046	4.6930175e-08
169	0x373fd1bc	1.143332e-05
170	0x38aa4393	8.1188184e-05
171	0x3285095b	1.5487492e-08
172	0x3578f58e	9.274453e-07
173	0x3795e530	1.7868908e-05
174	0x38046a0e	3.1570024e-05
175	0x366da159	3.5409669e-06
176	0x2f8901bf	2.4921396e-10
177	0x31e55064	6.6739165e-09
178	0x372c3e91	1.0266566e-05
179	0x30217f80	5.8752647e-10
180	0x35303d6e	6.56545e-07
181	0x37f0689c	2.8658942e-05
182	0x36ab552d	5.106113e-06
183	0x367a17e0	3.72668e-06
184	0x354a2969	7.5311124e-07
185	0x36daccf4	6.520766e-06
186	0x3784b3f8	1.581943e-05
187	0x34dbc6ef	4.0936672e-07
188	0x345741d0	2.0047378e-07
189	0x36cd01a6	6.109668e-06
190	0x36a55207	4.9269324e-06
191	0x3442fb3e	1.815906e-07
192	0x3669ffff	3.4868715e-06
193	0x392ec156	0.00016665956
194	0x36731e39	3.6227414e-06
195	0x386fa369	5.7134228e-05
196	0x33122ca9	3.4033892e-08
197	0x358bbfb2	1.0412098e-06
198	0x372b55cc	1.021237e-05
199	0x329a2f1d	1.7949384e-08
200	0x347df410	2.365125e-07
201	0x37ce8c99	2.4622585e-05
202	0x389cf8be	7.4849915e-05
203	0x34d0b29c	3.8872975e-07
204	0x35757ba8	9.1449556e-07
205	0x37df782f	2.6639636e-05
206	0x36890a34	4.084106e-06
207	0x3603f78d	1.9664615e-06
208	0x3694fa59	4.439888e-06
209	0x3898c75b	7.285058e-05
210	0x3733d209	1.0718134e-05
211	0x37999d2b	1.8312208e-05
212	0x3632a1a6	2.6618159e-06
213	0x38382e68	4.3912238e-05
214	0x370829a2	8.115925e-06
215	0x3724bf48	9.819698e-06
216	0x33f0809f	1.1199267e-07
217	0x3615903e	2.228669e-06
218	0x36dd284a	6.5910035e-06
219	0x34b170ff	3.3051035e-07
220	0x3683c544	3.927069e-06
221	0x38daf626	0.00010440899
222	0x374ed81d	1.2328875e-05
223	0x37a5f8b3	1.9785342e-05
224	0x35f7b1d2	1.8454687e-06
225	0x3841f735	4.6245015e-05
226	0x376b9660	1.4042103e-05
227	0x36ec155e	7.0358356e-06
228	0x31bc9396	5.4882987e-09
229	0x355392ca	7.881723e-07
230	0x363410d3	2.6831883e-06
231	0x325c220f	1.2813429e-08
232	0x3550aa2d	7.7733677e-07
233	0x37113af9	8.656404e-06
234	0x369180cd	4.336331e-06
235	0x35c92d4b	1.4988849e-06
236	0x2ef230f8	1.10135845e-10
237	0x349ac6ca	2.8829373e-07
238	0x36a20216	4.828219e-06
239	0x2f7801c6	2.2556099e-10
240	0x3560e81b	8.378426e-07
241	0x380880c4	3.254485e-05
242	0x3714c79b	8.867962e-06
243	0x368dbb0d	4.223903e-06
244	0x36b8ae77	5.5039377e-06
245	0x38efe331	0.00011438726
246	0x36799ecb	3.719632e-06
247	0x37d32c4e	2.5173791e-05
248	0x35ed38e9	1.7674439e-06
249	0x3819a456	3.6631092e-05
250	0x37b8bbf0	2.2022024e-05
251	0x36ad1ce2	5.159164e-06
252	0x370cbef3	8.389109e-06
253	0x3919bd8e	0.00014661832
254	0x3804ab22	3.1630632e-05
255	0x37b40ba6	2.1463096e-05

exp_avg f4 [64]
0	0xb973e6d0	-0.0002326027
1	0xb789b45a	-1.6415655e-05
2	0xb85cac57	-5.261259e-05
3	0xb874bfc7	-5.835274e-05
4	0xb91d6c1b	-0.00015012959
5	0x38319577	4.233929e-05
6	0xb5520f1a	-7.825307e-07
7	0xb5e94005	-1.7378485e-06
8	0xb8d7c8eb	-0.00010289423
9	0x3918ab17	0.00014559586
10	0x3a17a312	0.0005784492
11	0x399c8515	0.00029853793
12	0x3994293c	0.00028259482
13	0x39741cb5	0.00023280348
14	0xb81d0be0	-3.7442776e-05
15	0xb942c7ec	-0.00018575758
16	0x39aef4f4	0.0003337037
17	0x39b13d04	0.0003380553
18	0x38eeda01	0.00011389331
19	0x387ba4cd	5.9996546e-05
20	0x39b2cada	0.00034101942
21	0x3a2ad489	0.00065166556
22	0xb7adcb28	-2.071781e-05
23	0xb8f937cf	-0.000118836404
24	0xb976f845	-0.00023552876
25	0x39db1191	0.00041784023
26	0x393fda2b	0.00018296453
27	0x39b9f6ba	0.00035469775
28	0xb83f1e24	-4.556602e-05
29	0x36e9d10c	6.9682774e-06
30	0x397f3e15	0.00024341822
31	0xb8d4d682	-0.00010148903
32	0xb7f0f3d1	-2.8723765e-05
33	0xb8d3f047	-0.00010106019
34	0x39807285	0.00024499386
35	0x3938879e	0.00017598129
36	0xb9aa8656	-0.00032525015
37	0xb8de18c0	-0.00010590395
38	0xb92b3a47	-0.00016329541
39	0xba594d18	-0.0008289381
40	0x3942ec5f	0.00018589337
41	0xb9e78706	-0.00044160354
42	0xb8781cc5	-5.91546e-05
43	0x3704479f	7.884489e-06
44	0x35c29d42	1.4499894e-06
45	0x3789ffb4	1.6450744e-05
46	0xb9e8812a	-0.00044346723
47	0xb81e6304	-3.776235e-05
48	0xb998da97	-0.0002915456
49	0xb6ec7977	-7.0474885e-06
50	0x39e41411	0.000435025
51	0xb9681841	-0.0002213428
52	0x351aa546	5.7609975e-07
53	0x3894e18f	7.0992035e-05
54	0xb9765376	-0.0002349148
55	0xb8b08c92	-8.418517e-05
56	0x389dc9d8	7.52394e-05
57	0xb8291641	-4.0313465e-05
58	0xba21be5d	-0.0006170029
59	0xb6c60900	-5.9019076e-06
60	0x39813f1b	0.00024651815
61	0xb870121f	-5.7237336e-05
62	0xb560ef00	-8.3794293e-07
63	0x3a50d255	0.0007965912

exp_avg_sq f4 [64]
0	0x359fe7f9	1.1913936e-06
1	0x3416c74c	1.4042342e-07
2	0x34e44337	4.2517215e-07
3	0x358b74a1	1.039025e-06
4	0x36f05c8d	7.1633317e-06
5	0x3805a5af	3.1863976e-05
6	0x3566068f	8.569122e-07
7	0x355c2b80	8.201969e-07
8	0x34bd803b	3.5297293e-07
9	0x3635a29a	2.7065748e-06
10	0x366833ec	3.4600916e-06
11	0x38a0b814	7.663682e-05
12	0x389c8872	7.4640746e-05
13	0x359d9a84	1.1742382e-06
14	0x3557cdc5	8.0393175e-07
15	0x3830ae6a	4.2124106e-05
16	0x373a248e	1.1094975e-05
17	0x37633f05	1.3544927e-05
18	0x36dbae9b	6.5470354e-06
19	0x362e470b	2.5969373e-06
20	0x3968b03d	0.00022190898
21	0x39aec05b	0.00033331182
22	0x38be3dbc	9.071405e-05
23	0x358a588c	1.0307572e-06
24	0x37020ca5	7.751548e-06
25	0x3709cc46	8.213397e-06
26	0x362eb9c8	2.603616e-06
27	0x3956f735	0.00020500722
28	0x34db3329	4.0829153e-07
29	0x30ad5ab8	1.261319e-09
30	0x36597e31	3.2408973e-06
31	0x357ad45a	9.344127e-07
32	0x33e24163	1.0535839e-07
33	0x378d6f57	1.6860356e-05
34	0x36bfb48c	5.713262e-06
35	0x364bcd26	3.036877e-06
36	0x36b69797	5.44167e-06
37	0x361c0aed	2.325217e-06
38	0x36301bed	2.6242299e-06
39	0x37d3c5b1	2.5245217e-05
40	0x37c63b89	2.3631163e-05
41	0x365ff26a	3.3370693e-06
42	0x34a0dc3b	2.996256e-07
43	0x375066f8	1.242174e-05
44	0x2fd66456	3.8997666e-10
45	0x36aa11e8	5.0684794e-06
46	0x37c4e4ad	2.3471506e-05
47	0x368eb52d	4.2530214e-06
48	0x380b55d5	3.322012e-05
49	0x34c0f7ea	3.5943168e-07
50	0x36b7bd09	5.4758316e-06
51	0x36a3bb92	4.8796146e-06
52	0x379e2ab6	1.8854957e-05
53	0x371230bd	8.713626e-06
54	0x35462e60	7.382823e-07
55	0x37bae93c	2.2281536e-05
56	0x36dc85e3	6.5720974e-06
57	0x337c80f3	5.87906e-08
58	0x37024743	7.765196e-06
59	0x31348037	2.626633e-09
60	0x36708fc8	3.5846479e-06
61	0x37d3a484	2.5229769e-05
62	0x36f313f3	7.2442867e-06
63	0x38314dcc	4.2272542e-05
