toy_al/mini_exp/500-200-200-001-no/ckpt_phase1.pt (torch, 47981 bytes, 30 tensors)

fc1.weight f4 [64, 4]
-0.13772717 0.40357324 0.19510087 0.4230081 -0.49859336 0.098304465 0.22587524 -0.4815307
0.9283155 -0.42887786 -0.37452096 -0.97586775 0.5930993 -0.16487606 0.40829194 -0.2657554
0.17659403 0.14463398 0.09902732 0.4441151 -0.23980813 -0.31429914 -0.23572268 0.21285854
-0.0454324 0.21593866 -0.091570765 -0.26285306 -0.2152911 0.33129993 -0.1389306 0.057115283
0.33835265 0.28250864 -0.1606742 -0.6684102 -0.112575896 -0.16891184 -0.4467845 -0.10554786
-0.10783848 -0.45635915 0.26482043 -0.43327615 -0.39957327 -0.33450282 0.009390593 0.079256654
-0.5839788 0.14481638 -0.11687669 -0.28402984 0.80162376 0.14982446 -0.4340495 1.0944101
-0.29163733 -0.0186383 0.12073989 0.4093228 0.36293557 0.30033153 -0.14227845 -0.36880085
0.9276413 -0.072846875 -0.3311925 -0.6571492 -0.20312679 -0.06610554 -0.49126777 0.3355283
0.77094394 0.19714706 0.33715662 0.37080145 -0.14405411 0.10388976 -0.16756105 -0.075506926
-0.9845694 0.1532495 -0.20658697 0.21009164 -0.3668286 0.36118826 0.07649561 -0.6265643
-0.7464899 -0.5750145 -0.2532384 0.2200311 0.8873597 -0.37834978 -0.33010313 -0.016681643
-0.62098485 -0.1835259 -0.42608976 0.18200077 -0.73697597 -0.19484149 -0.39975506 -0.11910765
-0.396838 -0.48296958 0.08111274 -0.15876663 -0.6823997 -0.15036444 -0.23239663 -0.33439428
1.0204774 -0.24752985 0.37222034 -0.31261873 0.21857211 0.044847663 -0.11498848 1.5115722
0.2754054 0.045805696 -0.51117444 0.8875339 -0.03499488 0.47678462 -0.16977067 0.40953067
0.5151983 -0.15187474 0.49047464 -0.061758827 -0.5438045 0.4553714 0.36470598 -0.15161657
0.4339302 -0.044352833 -0.28312775 0.34925315 0.35200578 0.15971412 0.15542455 -0.09696561
-0.64102393 -0.39473748 -0.28781462 -0.58265156 -0.52859414 -0.47295654 0.37842736 -0.35730243
0.08852993 0.40825585 0.14644405 -0.26091853 -0.60572517 0.16676818 0.50224817 0.3116846
0.5872927 -0.082370676 0.3499646 0.23984756 1.0424119 0.044002134 0.32799307 0.040898997
0.58565784 -0.4117428 -0.03209383 0.09046889 0.26288766 0.5624118 -0.29510936 0.2691901
0.23816702 0.49333006 -0.16140237 0.3358549 0.2196384 -0.60956866 0.4749363 -0.19870095
-0.011947908 0.36681366 0.23692475 -0.5810938 0.7253183 -0.1297984 -0.30099198 -0.45900288
-0.3742001 -0.090277754 0.38552815 -0.18814303 -0.4461735 0.47839797 -0.37605 0.42906424
-0.67868423 -0.13417731 -0.24584973 -0.15074953 0.38302058 -0.35815704 0.43194506 0.76984143
-0.33569312 0.163909 -0.45271105 0.037849437 0.007808231 -0.16208449 -0.57006496 -0.21470675
-0.4697664 0.48298243 -0.2666197 -0.22139446 0.019049268 0.25304854 -0.19687463 0.057866722
0.1685306 0.29090348 -0.2876339 -0.36208278 -0.5453018 0.21813639 0.012820077 0.0339455
-0.20475501 0.5098439 0.6100287 0.33070403 0.38130906 -0.31063876 -0.26772067 0.8078344
-0.8701935 -0.35363925 -0.056036398 -0.1880762 0.06972987 0.16797906 -0.017524268 -0.1246851
0.6195839 -0.2791611 0.37854013 1.1667095 0.3545015 0.38473985 -0.46127817 0.12197252
00000000: 5a08 0dbe 27a1 ce3e 86c8 473e 8594 d83e
00000010: a147 ffbe da53 c93d d74b 673e 318b f6be
00000020: 16a6 6d3f e195 dbbe 36c1 bfbe 78d2 79bf
00000030: 5bd5 173f 45d5 28be a40b d13e 1711 88be
00000040: 11d5 343e ee1a 143e d6ce ca3d 0e63 e33e
00000050: 4390 75be d1eb a0be 4961 71be 97f7 593e
00000060: 5317 3abd 061f 5d3e 7489 bbbd ad94 86be
00000070: 4575 5cbe 25a0 a93e d343 0ebe b7f1 693d
00000080: 8f3c ad3e f9a4 903e c787 24be ee1c 2bbf
00000090: 318e e6bd 3af7 2cbe f0c0 e4be 7a29 d8bd
000000a0: 6cda dcbd e8a7 e9be 8b96 873e 5fd6 ddbe
000000b0: de94 ccbe f443 abbe 00db 193c 5051 a23d
000000c0: a27f 15bf bf4a 143e 0c5d efbd 5c6c 91be
000000d0: 3737 4d3f 956b 193e bc3b debe a115 8c3f
000000e0: 7d51 95be 59af 98bc 7a46 f73d c292 d13e
000000f0: b1d2 b93e 0ec5 993e 71b1 11be 77d3 bcbe
00000100: e679 6d3f be30 95bd 1092 a9be ee3a 28bf
00000110: 7800 50be 5762 87bd 7387 fbbe 5eca ab3e
00000120: 955c 453f ebe0 493e cb9f ac3e b0d9 bd3e
00000130: ec82 13be 28c4 d43d 2095 2bbe 60a3 9abd
00000140: bd0c 7cbf 70ed 1c3e 898b 53be 4322 573e
00000150: f5d0 bbbe abed b83e bba9 9c3d 8566 20bf
00000160: f619 3fbf 2634 13bf 77a8 81be d54f 613e
00000170: 012a 633f 10b7 c1be 4703 a9be f1a7 88bc
00000180: ddf8 1ebf 37ee 3bbe 7028 dabe 695e 3a3e
00000190: 75aa 3cbf 8784 47be b2ac ccbe b6ee f3bd
000001a0: 5a2e cbbe ca47 f7be 701e a63d b893 22be
000001b0: bfb1 2ebf 23f9 19be 62f9 6dbe ba35 abbe
000001c0: 019f 823f 7778 7dbe aa93 be3e 900f a0be
000001d0: 5ed1 5f3e 2fb2 373d 157f ebbd 337b c13f
000001e0: f001 8d3e c19e 3b3d 54dc 02bf 6c35 633f
000001f0: cb56 0fbd 1d1d f43e 5dd8 2dbe 01ae d13e
00000200: 09e4 033f 0d85 1bbe 7e1f fb3e d3f6 7cbd
00000210: c636 0bbf 7126 e93e beba ba3e 6041 1bbe
00000220: 192c de3e 51ab 35bd 1ff6 90be 4fd1 b23e
00000230: 1a3a b43e 198c 233e 9d27 1f3e e895 c6bd
00000240: 251a 24bf 081b cabe 705c 93be a728 15bf
00000250: f251 07bf 5c27 f2be 3bc1 c13e 58f0 b6be
00000260: 2e4f b53d e906 d13e 6ef5 153e 1d97 85be
00000270: ce10 1bbf 47c5 2a3e 5693 003f 2095 9f3e
00000280: d058 163f f5b1 a8bd 8f2e b33e 999a 753e
00000290: c16d 853f 953b 343d b5ee a73e b585 273d
000002a0: aced 153f f4cf d2be d274 03bd c147 b93d
000002b0: 3699 863e 38fa 0f3f 9318 97be 49d3 893e
000002c0: 0ee2 733e c295 fc3e aa46 25be 2cf5 ab3e
000002d0: e4e8 603e b10c 1cbf da2a f33e 4378 4bbe
000002e0: 29c1 43bc 00cf bb3e 679c 723e 90c2 14bf
000002f0: 76ae 393f dfe9 04be 9f1b 9abe 6d02 ebbe
00000300: 2897 bfbe 8be3 b8bd f263 c53e 91a8 40be
00000310: da70 e4be 94f0 f43e a089 c0be 4fae db3e
00000320: 40be 2dbf c765 09be 08c0 7bbe 165e 1abe
00000330: 461b c43e 5c60 b7be e727 dd3e 5414 453f
00000340: f8df abbe c3d7 273e bec9 e7be 0308 1b3d
00000350: 30dc ff3b 7af9 25be c7ef 11bf 16dc 5bbe
00000360: 3985 f0be 7949 f73e 6182 88be 3bb5 62be
00000370: 360d 9c3c 948f 813e 8199 49be a805 6d3d
00000380: 4993 2c3e 4df1 943e c044 93be ea62 b9be
00000390: e698 0bbf 255f 5f3e 4d0b 523c 700a 0b3d
000003a0: 4cab 51be 2185 023f d72a 1c3f 0a52 a93e
000003b0: f13a c33e 0b0c 9fbe af12 89be 3cce 4e3f
000003c0: 00c5 5ebf 3410 b5be 6c86 65bd 0c97 40be
000003d0: 89ce 8e3d b402 2c3e 0e8f 8fbc e75a ffbd
000003e0: 0d9d 1e3f 34ee 8ebe 03d0 c13e bd56 953f
000003f0: 3881 b53e 9ffc c43e a72c ecbe bbcc f93d

fc1.bias f4 [64]
0.49605614 0.13433576 0.039262075 -0.09106113 0.6368046 -0.4919917 0.45405513 -0.42393017
-0.14235112 0.09726718 0.48999366 -0.1939944 0.44245416 -0.68633884 0.3687962 0.024053412
-0.17158273 0.1724815 -0.28666878 0.13307317 -0.20100811 -0.2884764 0.43413907 0.03294282
0.116093084 0.30414268 -0.3335703 -0.032299813 0.3874487 -0.46142447 -0.20361923 0.5562638
-0.0018951696 -0.15400086 -0.2787807 0.02391461 0.054715466 -0.4573558 -0.37730205 0.27273503
0.16727293 0.10649479 0.66003066 -0.16128409 -0.1563529 0.13511136 -0.004313797 0.17014031
0.46536973 -0.3273833 0.63097614 0.72609484 0.4417866 0.37257302 0.28096625 -0.015710935
0.5135988 0.070604116 -0.21696454 0.21693549 0.32981437 -0.04221516 0.1538491 0.18530208
00000000: 12fb fd3e 508f 093e 45d1 203d 427e babd
00000010: a005 233f 56e6 fbbe ea79 e83e 600d d9be
00000020: 7ec4 11be 0434 c73d 73e0 fa3e 78a6 46be
00000030: 5a89 e23e e7b3 2fbf dbd2 bc3e a90b c53c
00000040: 62b3 2fbe fe9e 303e 40c6 92be 5544 083e
00000050: 12d5 4dbe 2eb3 93be 7a47 de3e 0def 063d
00000060: 36c2 ed3d 97b8 9b3e bac9 aabe cf4c 04bd
00000070: ad5f c63e d43f ecbe 8f81 50be 4e67 0e3f
00000080: 5767 f8ba 67b2 1dbe 58bc 8ebe 92e8 c33c
00000090: 531d 603d 8a2a eabe bc2d c1be eda3 8b3e
000000a0: 9849 2b3e f119 da3d c5f7 283f a827 25be
000000b0: fa1a 20be a25a 0a3e c15a 8dbb 4339 2e3e
000000c0: f144 ee3e c99e a7be a787 213f 5ae1 393f
000000d0: da31 e23e e4c1 be3e cfda 8f3e 38b4 80bc
000000e0: 367b 033f e498 903d f42b 5ebe 5624 5e3e
000000f0: 6edd a83e cee9 2cbd 9e8a 1d3e d4bf 3d3e

fc2.weight f4 [32, 64]
0.007002797 0.12936807 0.01179667 -0.10273244 -0.042452116 0.032359604 0.17552653 -0.7049565
-0.015980665 0.83146966 0.30137062 0.057871222 0.20330985 -0.13745318 0.19188422 -0.063089475
-0.21383604 -0.1443847 -0.039697412 -0.038418632 -0.04600916 -0.0050681117 -0.10982741 -0.29765415
0.46966314 0.04004767 0.059902444 -0.047260284 0.21544363 -0.10533159 -0.25834715 -0.089666136
-0.16819543 -0.10119646 -0.3127303 -0.021795746 0.2625722 -0.15155503 -0.016997106 -0.07125111
-0.056209143 -0.043598708 0.20200281 -0.36284128 -0.29356614 -0.18295792 -0.02629451 0.41329283
-0.013703521 -0.23754174 0.22939162 -0.0044665067 0.059813727 0.15933369 -0.082107075 -0.091047086
0.19324836 -0.13896209 -0.22237761 -0.19095199 -0.046362147 -0.25640854 -0.07052154 -0.11185861
0.04224675 -0.0022152364 0.06012543 -0.067485705 -0.10284214 -0.09007299 0.053651255 0.006416473
-0.014115665 -0.022549747 0.03339978 -0.07713492 0.0005201971 0.057534978 -0.044411443 -0.09994836
0.025657378 0.023710718 0.07289243 0.05288859 0.09104272 -0.040213004 -0.020692332 -0.080917165
-0.114881344 -0.032903578 -0.08607577 0.013630407 0.107232265 -0.09357055 0.024005406 -0.0151177915
-0.05731538 0.030156896 0.051852614 0.10373047 0.016040362 -0.07392754 -0.008653348 0.009280412
0.06939638 -0.10189243 0.036614515 -0.022979528 0.08295808 -0.06498288 -0.006508757 0.032262035
-0.05342381 -0.12161736 -0.016709836 -0.055332433 -0.035677947 0.08645396 -0.12334145 -0.02992553
-0.059429035 -0.054976936 -0.075751945 0.08614458 0.11547796 -0.01933112 -0.12239903 -0.006343464
0.121476814 -0.08460352 0.20786539 -0.119676635 0.14105904 0.06603098 0.03125542 -0.14488232
0.010181445 0.074597366 -0.19246861 -0.075673476 -0.14546312 -0.08568311 0.00811836 0.09902079
0.06227617 0.030659948 0.042595368 -0.014705858 -0.3361243 -0.27070707 -0.14279167 0.4870287
-0.11227279 -0.11634805 -0.010418966 -0.15424623 0.28858644 -0.059108205 0.011609034 0.06311034
-0.22979826 -0.053624175 -0.13078189 -0.00082656177 0.10902536 0.26162612 -0.0054413555 0.08076765
-0.018853419 0.3136662 0.26639014 0.13059609 0.13866262 0.21303067 -0.030343775 0.17988294
-0.057032052 -0.16000915 -0.34596872 -0.19588104 0.07775657 -0.11669591 0.057211857 -0.02754659
-0.009381541 0.024619486 0.036206726 -0.040271495 -0.12725928 -0.02486861 0.13734776 0.020339837
-0.049901195 0.10874383 -0.10706316 -0.08215951 -0.017648088 -0.11982086 -0.03596756 -0.1143477
-0.083616704 0.11063914 0.06342951 -0.052594453 0.056089062 -0.07362277 0.12545341 0.09526493
0.104878694 -0.09307226 -0.23838244 -0.02059286 0.14750263 0.13926807 0.050663695 -0.21454547
0.14524312 -0.10931541 -0.05911416 -0.16645834 0.11599368 -0.10230626 -0.13352948 -0.009375617
0.046514686 0.061172076 -0.092314005 -0.011603829 0.054500163 -0.13646108 0.040298823 -0.061251096
-0.008723103 -0.062112723 0.23665816 0.08018045 -0.010600367 -0.07792401 0.0032708016 -0.0022932305
0.019717254 0.024316028 0.14883551 0.013520106 0.123088144 -0.006996753 0.1386896 0.07844334
0.13856603 -0.035615176 0.0435104 -0.059075255 -0.45594588 0.10061845 -0.13600181 0.12025665
00000000: b877 e53b 1079 043e d246 413c 6365 d2bd
00000010: 45e2 2dbd 818b 043d 3abd 333e 0778 34bf
00000020: e2e9 82bc 32db 543f 404d 9a3e 600a 6d3d
00000030: 7530 503e 87c0 0cbe 4c7d 443e 0e35 81bd
00000040: d6f7 5abe 95d9 13be c199 22bd db5c 1dbd
00000050: 1a74 3cbd 6712 a6bb 31ed e0bd 2066 98be
00000060: b077 f03e 0709 243d 445c 753d 0094 41bd
00000070: 419d 5c3e 17b8 d7bd 1446 84be e1a2 b7bd
00000080: 6c3b 2cbe 1740 cfbd 301e a0be fe8c b2bc
00000090: dd6f 863e 3e31 1bbe 843d 8bbc 1aec 91bd
000000a0: 8f3b 66bd 8f94 32bd d3d9 4e3e 55c6 b9be
000000b0: 4d4e 96be 5259 3bbe 9667 d7bc 1e9b d33e
000000c0: bc84 60bc 243e 73be a3e5 6a3e c65b 92bb
000000d0: 3dff 743d 5f28 233e c127 a8bd e576 babd
000000e0: e6e2 453e 144c 0ebe f5b6 63be eb88 43be
000000f0: 3ce6 3dbd fb47 83be 996d 90bd 2016 e5bd
00000100: ee0a 2d3d 802d 11bb 1546 763d f235 8abd
00000110: e69e d2bd 3078 b8bd 6bc1 5b3d 4741 d23b
00000120: 6445 67bc 3fba b8bc 35ce 083d eaf8 9dbd
00000130: d65d 083a cca9 6b3d c6e8 35bd bab1 ccbd
00000140: 6c2f d23c fb3c c23c a048 953d b5a1 583d
00000150: 9b74 ba3d 64b6 24bd f782 a9bc e6b7 a5bd
00000160: e946 ebbd e7c5 06bd 7e48 b0bd 1252 5f3c
00000170: 979c db3d eba1 bfbd fca6 c43c 9db0 77bc
00000180: 88c3 6abd 980b f73c 6863 543d a470 d43d
00000190: 1467 833c 5267 97bd c6c6 0dbc df0c 183c
000001a0: b01f 8e3d faac d0bd 1af9 153d 903f bcbc
000001b0: ede5 a93d bf15 85bd 6947 d5bb 3225 043d
000001c0: edd2 5abd 8612 f9bd 11e3 88bc 43a4 62bd
000001d0: 0a23 12bd c60e b13d 719a fcbd 6326 f5bc
000001e0: dc6b 73bd 7f2f 61bd d623 9bbd 926c b03d
000001f0: b57f ec3d 4c5c 9ebc 58ac fabd d5dc cfbb
00000200: d6c8 f83d 9c44 adbd aada 543e 0619 f5bd
00000210: c871 103e 403b 873d af05 003d 085c 14be
00000220: 13d0 263c 81c6 983d 7e16 45be b2fa 9abd
00000230: 49f4 14be a07a afbd df02 053c 69cb ca3d
00000240: 4c15 7f3d 922a fb3c 7b78 2e3d d7f0 70bc
00000250: 7c18 acbe 1e9a 8abe fb37 12be d35b f93e
00000260: 47ef e5bd e347 eebd 50b4 2abc b9f2 1dbe
00000270: 9ac1 933e 721b 72bd d133 3e3c fe3f 813d
00000280: 3c50 6bbe 06a5 5bbd b0eb 05be 9fad 58ba
00000290: b048 df3d dcf3 853e 664d b2bb 8269 a53d
000002a0: 7c72 9abc db98 a03e 4a64 883e fbba 053e
000002b0: 93fd 0d3e b624 5a3e 8293 f8bc 3c33 383e
000002c0: 719a 69bd 70d9 23be d022 b1be 0a95 48be
000002d0: d63e 9f3d 44fe eebd fb56 6a3d 63a9 e1bc
000002e0: 09b5 19bc ceae c93c 814d 143d b9f3 24bd
000002f0: 4250 02be 41b9 cbbc e4a4 0c3e bb9f a63c
00000300: 3265 4cbd 16b5 de3d ee43 dbbd 3f43 a8bd
00000310: b992 90bc a464 f5bd b852 13bd 202f eabd
00000320: 3c3f abbd c696 e23d 55e7 813d 486d 57bd
00000330: a5bd 653d 89c7 96bd dc76 003e 421a c33d
00000340: a4ca d63d ab9c bebd 871a 74be 5cb2 a8bc
00000350: ee0a 173e 4a9c 0e3e bc84 4f3d cfb1 5bbe
00000360: 9dba 143e c2e0 dfbd b021 72bd 0e74 2abe
00000370: 188e ed3d f285 d1bd f4bb 08be 309c 19bc
00000380: 2f86 3e3d 928f 7a3d 200f bdbd fd1d 3ebc
00000390: 903b 5f3d 74bc 0bbe 6110 253d 6ee2 7abd
000003a0: 59eb 0ebc e969 7ebd 8456 723e a635 a43d
000003b0: 29ad 2dbc a096 9fbd f25a 563b 064a 16bb
000003c0: 1486 a13c 6832 c73c 5668 183e 6f83 5d3c
000003d0: a315 fc3d 0545 e5bb a604 0e3e e7a6 a03d
000003e0: 41e4 0d3e 38e1 11bd f637 323d e5f8 71bd
000003f0: bd71 e9be 0c11 ce3d 0f44 0bbe 1e49 f63d

fc2.bias f4 [32]
0.09206069 -0.06845413 0.05755215 0.11158805 0.16172798 0.15494613 0.18959564 -0.013580742
0.15262182 0.08713995 0.07557548 -0.056344867 -0.18591379 0.02985584 0.08500708 -0.05597448
0.1267509 0.080175616 0.0751591 0.08318035 0.21069197 -0.16139159 0.08676621 0.010541338
0.0603052 0.03869651 0.038149443 -0.013283554 0.032233514 0.17224163 0.24335198 0.17343713
00000000: 518a bc3d ae31 8cbd cebb 6b3d 4788 e43d
00000010: 059c 253e 33aa 1e3e 5c25 423e c381 5ebc
00000020: e548 1c3e 6e76 b23d 51c7 9a3d e0c9 66bd
00000030: 2f60 3ebe 3c94 f43c 3118 ae3d 7f45 65bd
00000040: fdca 013e 1d33 a43d 04ed 993d 765a aa3d
00000050: a3bf 573e d643 25be 7cb2 b13d 93b5 2c3c
00000060: 9602 773d 3b80 1e3d 9742 1c3d 44a3 59bc
00000070: 4a07 043d 1c60 303e 4331 793e 8199 313e

fc3.weight f4 [16, 32]
0.0024108745 0.13882615 0.19776997 -0.2455095 0.10044439 0.16983226 -0.09775825 -0.11083205
0.05269226 -0.09936661 0.087865666 -0.06918359 0.056962926 0.18660991 -0.036763784 0.06455932
-0.013736465 0.24380252 0.15265332 -0.049884517 -0.220496 0.18587129 -0.04375087 -0.1088932
-0.14951201 -0.00289152 0.08867271 0.030117562 0.024892002 0.34337935 0.09444724 -0.064857565
0.13462001 0.08561579 0.026067425 0.085573 -0.11884281 -0.13858233 0.10815178 0.03934292
0.06963696 0.14825381 -0.093603976 0.04022543 0.14873697 -0.16991435 -0.10982301 0.2411268
0.14561264 -0.028252818 -0.013231475 -0.0034980346 -0.031876653 0.100483485 0.17665239 -0.040423475
0.19359523 -0.065227434 0.06547995 -0.079084285 -0.08968575 -0.21849537 -0.034022104 0.21433982
0.058512934 -0.04340805 -0.120996594 -0.11120102 0.059212904 -0.21164495 -0.02974105 -0.3328155
0.0023186281 -0.1327837 0.06354381 0.1598627 0.10230897 -0.022959495 -0.14040807 0.16141562
-0.24348389 0.16503489 -0.09897547 -0.00010559893 0.06814889 -0.14007962 0.16769664 -0.04436153
-0.20977215 -0.033996683 -0.15955997 -0.039941043 -0.12613405 -0.099961735 0.004390779 -0.10764233
-0.06736845 -0.070963226 0.03829289 0.20060979 0.032059167 -0.08479495 0.07758585 0.11501302
-0.073156096 0.07482469 -0.1560124 -0.002693885 -0.1951299 -0.03206322 0.033605557 -0.069159456
0.06895961 -0.473417 0.2649961 -0.014150443 0.28312165 -0.20649564 0.097591825 -0.31100085
0.25296468 0.27551144 -0.03408814 0.1397325 0.08473845 -0.12662265 0.23002677 -0.23959666
0.62423235 0.15635018 -0.06324255 0.184054 0.19569185 -0.0542424 0.21673296 0.049438953
0.08803689 0.00040826036 0.22130357 0.009810452 -0.16787586 -0.100512475 0.009391561 -0.17122568
-0.028322581 0.12422181 -0.26015484 -0.49017227 -0.17496566 -0.25403547 0.04220385 0.15100929
0.26399726 0.021099944 0.15841128 -0.08020595 -0.02510858 -0.17062905 0.14544645 0.4232645
0.25532404 -0.14844628 -0.098251104 0.12909369 0.09288724 0.18506823 0.116154015 0.15932837
0.1371134 0.23245025 0.034237243 0.11618161 0.06593903 0.14780633 0.080350615 -0.15082803
0.1056612 -0.031607326 -0.09166422 -0.08860165 -0.012895249 -0.09703403 -0.124204315 0.14946349
0.14391483 0.11169185 0.01215931 -0.054770097 -0.10002793 0.006926651 0.16447975 0.034006935
0.7304273 -0.15765755 -0.7587306 -0.046770625 0.16018395 0.022917585 -0.012390614 0.15935749
-0.053830937 0.1075941 0.28696072 0.06573275 -0.028530018 0.2762103 -0.14684084 0.047837444
-0.07745991 0.53558505 -0.37085983 0.044729505 -0.34482276 -0.23005667 0.114186265 0.24436687
-0.17933533 -0.10426685 -0.08766541 -0.50241214 0.13349982 0.014987971 0.021174725 0.6294826
0.23474018 -0.018149637 -0.23247989 0.1424633 0.053088337 0.050318692 -0.05044213 0.18760562
0.13108717 0.03278834 0.20549218 -0.09578326 0.030057922 -0.12152066 0.0039230287 0.15968126
0.18857026 0.40536445 -0.20966841 -0.16240121 -0.20566319 0.053353716 -0.11019082 0.063097365
0.08639733 -0.21660867 0.13280591 -0.15645325 0.16730286 -0.2479781 -0.009546042 0.225599
00000000: c3ff 1d3b 7128 0e3e 3684 4a3e d866 7bbe
00000010: cab5 cd3d 82e8 2d3e 7a35 c8bd eafb e2bd
00000020: d7d3 573d b980 cbbd eaf2 b33d 20b0 8dbd
00000030: f551 693d ab16 3f3e 9f95 16bd ad37 843d
00000040: e90e 61bc 5ea7 793e 2751 1c3e b553 4cbd
00000050: b4c9 61be 0b55 3e3e 1d34 33bd 6603 dfbd
00000060: ad19 19be a87f 3dbb 0a9a b53d 1bb9 f63c
00000070: 50ea cb3c 6bcf af3e 8e6d c13d 0bd4 84bd
00000080: d4d9 093e 5557 af3d 5a8b d53c e640 af3d
00000090: dc63 f3bd 87e8 0dbe ae7e dd3d 0b26 213d
000000a0: d39d 8e3d d9cf 173e 71b3 bfbd 6cc3 243d
000000b0: 814e 183e 07fe 2dbe e3ea e0bd f2e9 763e
000000c0: 7b1b 153e 7472 e7bc d4c8 58bc 483f 65bb
000000d0: 1891 02bd 49ca cd3d 5de4 343e 1693 25bd
000000e0: d43d 463e f695 85bd 5a1a 863d f1f6 a1bd
000000f0: 2aad b7bd 40bd 5fbe c35a 0bbd e67b 5b3e
00000100: 42ab 6f3d a4cc 31bd 10cd f7bd 5cbd e3bd
00000110: 3b89 723d 74b9 58be 81a3 f3bc cb66 aabe
00000120: 20f4 173b 73f8 07be 4223 823d 0cb3 233e
00000130: 5e87 d13d 8d15 bcbc 22c7 0fbe 234a 253e
00000140: d753 79be e8fe 283e a7b3 cabd fe74 ddb8
00000150: a591 8b3d 0871 0fbe abb8 2b3e 70b4 35bd
00000160: 83ce 56be 1b40 0bbd b063 23be 3899 23bd
00000170: 4929 01be bdb8 ccbd 86e0 8f3b 9573 dcbd
00000180: 78f8 89bd 2b55 91bd 01d9 1c3d a76c 4d3e
00000190: 7950 033d faa8 adbd 55e5 9e3d f28b eb3d
000001a0: ddd2 95bd b03d 993d b7c1 1fbe e48b 30bb
000001b0: 22d0 47be b954 03bd fba5 093d 79a3 8dbd
000001c0: b23a 8d3d b763 f2be 92ad 873e 42d7 67bc
000001d0: 52f5 903e 9873 53be 39de c73d 813b 9fbe
000001e0: 9684 813e d60f 8d3e 01a0 0bbd 0916 0f3e
000001f0: 5a8b ad3d 5ea9 01be 238c 6b3e d458 75be
00000200: b1cd 1f3f 431a 203e 4f85 81bd a778 3c3e
00000210: 7263 483e 472d 5ebd 3fef 5d3e 8080 4a3d
00000220: af4c b43d c70b d639 679d 623e 05bc 203c
00000230: a6e7 2bbe 7cd9 cdbd 10df 193c c955 2fbe
00000240: c204 e8bc 0168 fe3d 0433 85be dcf7 fabe
00000250: 332a 33be f010 82be f2dd 2c3d 2ea2 1a3e
00000260: a62a 873e cad9 ac3c 9136 223e 0443 a4bd
00000270: 82b0 cdbc 62b9 2ebe eaef 143e 20b6 d83e
00000280: d5b9 823e 4d02 18be e037 c9bd 2331 043e
00000290: aa3b be3d 8782 3d3e 28e2 ed3d fa26 233e
000002a0: 7567 0c3e 7007 6e3e 5a3c 0c3d a0f0 ed3d
000002b0: 0b0b 873d 8b5a 173e dd8e a43d aa72 1abe
000002c0: e664 d83d af76 01bd 73ba bbbd c874 b5bd
000002d0: 9846 53bc c7b9 c6bd d55e febd f50c 193e
000002e0: 695e 133e b2be e43d d837 473c 9c56 60bd
000002f0: 72db ccbd f6f8 e23b 616d 283e db4a 0b3d
00000300: 49fd 3a3f fb70 21be 2b3c 42bf 8e92 3fbd
00000310: 4307 243e a9bd bb3c 0002 4bbc 9c2e 233e
00000320: d47d 5cbd 4c5a dc3d 84ec 923e e49e 863d
00000330: c9b7 e9bc 706b 8d3e 725d 16be 32f1 433d
00000340: 4da3 9ebd 1a1c 093f 57e1 bdbe 4936 373d
00000350: 9c8c b0be fa93 6bbe 7dda e93d 4f3b 7a3e
00000360: aea3 37be dc89 d5bd ec89 b3bd 159e 00bf
00000370: 2db4 083e 1b90 753c 9e76 ad3c c625 213f
00000380: bb5f 703e 8cae 94bc 350f 6ebe e6e1 113e
00000390: 2873 593d f91a 4e3d 689c 4ebd b01b 403e
000003a0: b73b 063e 114d 063d 8b6c 523e 042a c4bd
000003b0: 083c f63c d3df f8bd c08c 803b 7c83 233e
000003c0: 9018 413e ee8b cf3e 51b3 56be 814c 26be
000003d0: 5f99 52be 6d89 5a3d baab e1bd 3139 813d
000003e0: 15f1 b03d aace 5dbe 46fe 073e 4835 20be
000003f0: 7151 2b3e f9ed 7dbe 0167 1cbc 6d03 673e

fc3.bias f4 [16]
0.13979791 -0.110660285 -0.114076175 0.071136914 -0.023754954 0.11892331 0.07649843 -0.16484028
0.07984603 0.21746229 -0.08038131 0.0820113 0.0087814 0.2560355 0.18557069 0.0827425
00000000: 2f27 0f3e dca1 e2bd c5a0 e9bd 3bb0 913d
00000010: c099 c2bc 108e f33d 35ab 9c3d e4cb 28be
00000020: 5186 a33d 6fae 5e3e f59e a4bd 8af5 a73d
00000030: dcdf 0f3c 1617 833e 3e06 3e3e e674 a93d

fc4.weight f4 [8, 16]
0.18227509 -0.18641467 0.13499431 0.09749354 0.13705161 -0.20284756 -0.10695526 0.215478
-0.07549669 -0.20347612 -0.16880555 0.086346485 -0.056409802 0.04522699 0.046757564 0.14997983
-0.08162262 0.010438029 -0.024931885 0.119342215 0.020102143 0.25805762 -0.809613 -0.2061289
0.22338626 -0.16224892 -0.18506226 -0.021062808 0.20170876 0.2430883 -0.0397571 0.1458932
0.101719454 -0.16036467 0.15612231 0.22811468 -0.22571103 0.016004084 -0.56015366 -0.12119838
0.043919627 0.4066169 -0.08146403 0.07012902 0.07572496 0.18681204 -0.022031894 0.42071742
-0.15146087 0.19574694 -0.39636797 0.072995216 0.74757266 0.09525933 0.69155 -0.029741637
-0.14053015 -0.102357514 0.14203654 0.09606193 0.06850409 -0.40114376 0.24092641 -0.28996587
0.12081247 -0.27733898 0.06861489 0.56167984 -0.40381142 -0.06943067 -0.43931195 -0.5668488
-0.23713188 0.24985641 0.039555017 0.17927809 -0.13547713 0.23071456 0.111617625 0.20540583
0.22790857 -0.17453457 -0.37923256 -0.10114799 0.28882396 0.22739872 0.8004419 -0.16196652
0.2258749 0.3526459 -0.40429252 0.0042863516 0.18752857 -0.047528386 0.34690973 0.0087687485
-0.32479966 0.20749427 -0.062448397 0.29064614 0.1261191 0.2106965 -0.24072264 -0.30160287
-0.06554664 0.1264611 0.12148944 -0.44016996 -0.016957229 -0.26702178 0.30649552 0.11837593
-0.23072855 -0.24740946 0.19075745 0.111714974 0.090396814 0.11708433 -0.013553441 0.17427266
-0.06969493 -0.21589394 -0.033118133 -0.07570527 -0.0062707877 0.007853746 -0.11934196 0.048893243
00000000: 52a6 3a3e 7de3 3ebe f33b 0a3e b1aa c73d
00000010: 4257 0c3e 45b7 4fbe 5c0b dbbd 44a6 5c3e
00000020: 029e 9abd 0b5c 50be 5ddb 2cbe 6dd6 b03d
00000030: f70d 67bd f03f 393d dc84 3f3d 5094 193e
00000040: c329 a7bd 4404 2b3c f43d ccbc b169 f43d
00000050: 40ad a43c 2120 843e cc42 4fbf 7413 53be
00000060: 5ebf 643e 9524 26be f680 3dbe e98b acbc
00000070: be8c 4e3e 24ec 783e 57d8 22bd 0765 153e
00000080: 4a52 d03d a336 24be 87de 1f3e e596 693e
00000090: cb20 67be ff1a 833c 3b66 0fbf db36 f8bd
000000a0: 11e5 333d 1730 d03e 9dd6 a6bd ce9f 8f3d
000000b0: b015 9b3d a84b 3f3e 3b7c b4bc 4668 d73e
000000c0: 8f18 1bbe e371 483e bef0 cabe 847e 953d
000000d0: ec60 3f3f 5317 c33d 6c09 313f bca4 f3bc
000000e0: 23e7 0fbe d1a0 d1bd 0772 113e 1ebc c43d
000000f0: df4b 8c3d b762 cdbe 6ab5 763e 6876 94be
00000100: 876c f73d 60ff 8dbe f785 8c3d 40ca 0f3f
00000110: 5fc0 cebe ab31 8ebd 7fed e0be 011d 11bf
00000120: b3d2 72be 5cda 7f3e 7104 223d ad94 373e
00000130: 84ba 0abe 7040 6c3e c897 e43d e855 523e
00000140: dd60 693e 31b9 32be c52a c2be ad26 cfbd
00000150: bce0 933e 36db 683e c3e9 4c3f 8dda 25be
00000160: c04b 673e 018e b43e 6eff cebe 8674 8c3b
00000170: 7d07 403e 20ad 42bd 279e b13e ccaa 0f3c
00000180: 244c a6be 6179 543e e4c9 7fbd 92cf 943e
00000190: 5e25 013e d3c0 573e ff7f 76be b16b 9abe
000001a0: 513d 86bd 057f 013e 75cf f83d f55d e1be
000001b0: e3e9 8abc 14b7 88be fbec 9c3e 146f f23d
000001c0: 1b44 6cbe e858 7dbe ec55 433e d2ca e43d
000001d0: f721 b93d e9c9 ef3d 400f 5ebc 8874 323e
000001e0: 37bc 8ebd 4d13 5dbe e1a6 07bd 5d0b 9bbd
000001f0: 2e7b cdbb 00ad 003c 8f69 f4bd 4844 483d

fc4.bias f4 [8]
-0.22422503 0.057550304 0.23797949 0.2375434 0.17020492 0.11012579 0.16158484 -0.07323194
00000000: 3f9b 65be deb9 6b3d e5b0 733e 943e 733e
00000010: 334a 2e3e a189 e13d 7f76 253e a1fa 95bd

fc5.weight f4 [3, 8]
-0.0016042694 0.15161777 0.17824915 0.069944076 -0.16708232 0.3506219 -0.32067475 0.26677236
0.050240234 0.31854358 0.13640553 0.0063885697 0.24548104 -0.013045699 0.36611372 -0.05040017
-0.31793633 -0.067049876 -0.3647125 0.33296242 -0.65324974 0.10546546 0.08129921 -0.12687479
00000000: 5946 d2ba b041 1b3e f286 363e d73e 8f3d
00000010: a117 2bbe b784 b33e 7b2f a4be 6396 883e
00000020: b4c8 4d3d 2518 a33e e4ad 0b3e 3557 d13b
00000030: 625f 7b3e a1bd 55bc 4273 bb3e 6970 4ebd
00000040: 8dc8 a2be 7251 89bd 99bb babe 0d7a aa3e
00000050: 603b 27bf 46fe d73d 3380 a63d 77eb 01be

fc5.bias f4 [3]
-0.1481478 -0.08245862 0.33427835
00000000: 0fb4 17be 11e0 a8bd 8826 ab3e

exp_avg f4 [64, 4]
9.926234e-06 0.000175772 6.2680294e-05 -3.353635e-05 -1.900039e-05 0.00014240421 3.356846e-05 -3.433324e-05
-9.64868e-06 0.00010382121 -0.00012578433 -2.657372e-07 -4.302892e-06 -0.000672727 -0.00040040966 0.00010623368
6.0136652e-05 0.0003975208 -3.6727262e-05 -1.241232e-05 2.6404064e-06 8.048247e-05 -0.00040553702 6.1379915e-06
-3.6837002e-05 -7.826659e-05 0.00033888879 -8.0628575e-05 0.00014033129 0.00027342906 -0.0003074282 0.00011729093
-1.7792774e-05 -0.00032232574 0.00010695773 3.7476548e-05 -0.0002644749 0.000542525 0.0001412449 -0.0004300269
-7.521962e-05 0.00022527925 -0.00032937631 -0.000101187645 0.0 0.0 0.0 0.0
-6.588326e-05 -0.0001971022 0.0006811355 -0.00013427595 4.0820555e-06 0.00036535054 -0.00046492481 1.8140077e-05
-0.0001575476 0.00059235457 0.00015331154 -0.00022024306 1.4493624e-05 -0.00030036573 -0.00019999137 6.0869825e-05
-7.986488e-05 0.00037010218 -4.596503e-05 -0.00023482484 4.307318e-05 0.00014660569 -0.00038358307 5.458366e-05
-5.2109694e-06 -0.00014044874 -0.00017380923 5.4704156e-05 6.379676e-06 1.5825324e-05 6.512545e-05 -1.9971362e-06
-7.782972e-05 -0.00011021585 0.0003565883 -1.1258617e-05 3.5048393e-05 -0.00041068438 1.2723157e-05 8.473093e-05
0.00013392304 -0.00028722206 0.00014294616 0.0001266843 -3.9549e-05 0.00020268034 -0.00017548133 1.6498718e-05
-0.00018290801 0.00020266099 0.00032705994 -0.0002646491 -1.1307545e-05 -4.4733242e-05 0.000108261054 -5.5168017e-05
0.0 0.0 0.0 0.0 -3.3725624e-05 -0.00024044105 0.00042397625 -2.5104406e-08
4.0148963e-05 -0.00047050545 -0.00038042787 0.00021449607 1.2984309e-05 0.0008003626 -0.0005828045 2.9272758e-05
3.5207718e-06 0.00027544165 -0.00034525405 1.4407794e-05 2.1024296e-05 3.7373724e-05 0.0001977219 -7.682739e-06
-5.2068995e-06 -0.0007250719 -0.0005603939 8.28351e-05 2.3017787e-05 -2.3957573e-05 3.7834725e-05 2.1918633e-05
-2.5620027e-05 0.0003804665 -0.00048263327 1.633219e-05 0.00011920508 -0.00024657344 -4.6320733e-05 0.000119252894
-0.00024081577 0.00041781602 0.00011521636 -0.00030281753 6.316257e-06 5.242961e-05 0.00015506397 7.4418567e-06
2.1208167e-05 -8.051611e-05 -7.945558e-05 4.33046e-05 7.489372e-05 0.00022867548 0.000225678 -2.7509075e-05
-6.5022546e-06 -0.00027993033 -0.00015602777 4.020986e-05 -1.5834707e-05 -0.000106000734 -3.7786896e-05 -4.735949e-06
-6.719111e-05 0.00030249852 0.00023851996 -8.460452e-05 8.963878e-05 -0.00025451332 -6.606548e-05 0.00013487208
7.027554e-05 3.3161195e-05 -0.0002928016 9.08721e-05 -1.6889544e-05 6.926662e-05 0.00015809064 1.3916895e-05
-2.1232241e-05 -0.00019995021 -0.000100769554 -9.602725e-06 8.3813466e-05 -0.00017228276 0.00018124851 0.00010694372
7.966346e-05 1.343955e-05 2.052286e-05 5.5695822e-05 2.9820744e-06 -0.0004170773 -0.00024132106 0.00013353262
-8.049589e-05 -0.0002113518 0.0007662921 -0.00012169179 -2.3365727e-05 0.00011467367 -0.0001643609 -3.3018416e-05
-2.0965883e-05 -9.580493e-05 0.00031751898 -4.476256e-05 -5.775442e-05 0.00014041683 0.00016689756 -2.4690768e-05
2.3524632e-05 -0.00029231037 0.00024545463 3.3726945e-05 -8.113747e-06 -9.293675e-05 -0.00013607788 1.6402066e-05
-6.0624898e-05 2.789306e-05 3.9190938e-05 -6.43914e-05 7.899337e-05 0.00011349145 0.00012689005 3.1544023e-05
8.9109424e-05 -2.9852261e-05 5.927395e-05 7.669593e-05 -8.834932e-06 0.00013644365 6.6748034e-05 7.257746e-07
0.0002227903 -0.00069542846 0.00040520294 0.0003593629 5.654954e-05 -0.00049216225 -0.0004761195 0.00016637101
-2.8047837e-06 0.00012610467 0.00024460212 3.0175079e-06 -1.467708e-05 -0.00019720203 -1.4781101e-06 -4.5303514e-06
00000000: da88 2637 704f 3839 3a73 8338 62a9 0cb8
00000010: 0763 9fb7 5752 1539 dccb 0c38 0901 10b8
00000020: c4e0 21b7 96ba d938 f9e4 03b9 a5aa 8eb4
00000030: 9061 90b6 f259 30ba 13ee d1b9 c6c9 de38
00000040: 3d3b 7c38 576a d039 990b 1ab8 823e 50b7
00000050: d631 3136 b2c8 a838 429e d4b9 f2f4 cd36
00000060: 6e81 1ab8 0e23 a4b8 e2ac b139 2317 a9b8
00000070: e525 1339 075b 8f39 512e a1b9 17fa f538
00000080: b141 95b7 d4fd a8b9 7e4e e038 2330 1d38
00000090: 38a9 8ab9 3d38 0e3a 241b 1439 3c75 e1b9
000000a0: 3abf 9db8 f038 6c39 24b0 acb9 b434 d4b8
000000b0: 0000 0000 0000 0000 0000 0000 0000 0000
000000c0: ce2a 8ab8 38ad 4eb9 3b8e 323a 6dcc 0cb9
000000d0: 97f8 8836 858c bf39 27c1 f3b9 852b 9837
000000e0: 5d33 25b9 3e48 1b3a 41c2 2039 0cf1 66b9
000000f0: a429 7337 687a 9db9 c6b4 51b9 7a4e 7f38
00000100: 227d a7b8 460a c239 93ca 40b8 503b 76b9
00000110: 7aa9 3438 2aba 1939 a61b c9b9 c2f0 6438
00000120: e3d9 aeb6 6c45 13b9 8f40 36b9 2472 6538
00000130: 0011 d636 a0c0 8437 f693 8838 8a06 06b6
00000140: 8338 a3b8 af23 e7b8 79f4 ba39 64e3 3cb7
00000150: ed00 1338 2051 d7b9 8b75 5537 92b1 b138
00000160: b16d 0c39 4b96 96b9 d1e3 1539 8fd6 0439
00000170: 6ae1 25b8 9786 5439 6901 38b9 ba66 8a37
00000180: ffca 3fb9 6581 5439 3e79 ab39 9ac0 8ab9
00000190: 89b5 3db7 f49f 3bb8 360a e338 3564 67b8
000001a0: 0000 0000 0000 0000 0000 0000 0000 0000
000001b0: 9d74 0db8 e71e 7cb9 2149 de39 2ca5 d7b2
000001c0: 9f65 2838 2cae f6b9 2a74 c7b9 5aea 6039
000001d0: 2fd7 5937 6dcf 513a 59c7 18ba c58e f537
000001e0: 6646 6c36 2769 9039 3703 b5b9 01b9 7137
000001f0: 555d b037 bbc1 1c38 9253 4f39 1de5 00b7
00000200: edb6 aeb6 c012 3eba 66e7 12ba c1b7 ad38
00000210: 5216 c137 7ff8 c8b7 bab0 1e38 e8dd b737
00000220: 97ea d6b7 5979 c739 f109 fdb9 1c01 8937
00000230: bdfd f938 8746 81b9 8248 42b8 6917 fa38
00000240: 7e83 7cb9 510e db39 50a0 f138 7bc3 9eb9
00000250: 3cf0 d336 dde7 5b38 ab98 2239 10b5 f936
00000260: 31e8 b137 c2da a8b8 64a1 a6b8 f6a1 3538
00000270: 4210 9d38 9bc8 6f39 faa3 6c39 4ac3 e6b7
00000280: f12d dab6 9dc3 92b9 639b 23b9 02a7 2838
00000290: c6d4 84b7 b64c deb8 5f7d 1eb8 7ee9 9eb6
000002a0: f4e8 8cb8 aa98 9e39 371b 7a39 b56d b1b8
000002b0: 74fc bb38 3370 85b9 a28c 8ab8 736c 0d39
000002c0: e560 9338 9016 0b38 2a83 99b9 9692 be38
000002d0: 05ae 8db7 3c43 9138 22c5 2539 9c7c 6937
000002e0: e41b b2b7 baa9 51b9 3e54 d3b8 641b 21b7
000002f0: 03c5 af38 cda6 34b9 870d 3e39 f946 e038
00000300: ff10 a738 6d7a 6137 8228 ac37 ef9a 6938
00000310: a61f 4836 2bab dab9 210b 7db9 e404 0c39
00000320: e7cf a8b8 519e 5db9 fee0 483a c834 ffb8
00000330: 8401 c4b7 f57c f038 4b58 2cb9 417d 0ab8
00000340: e4df afb7 e1ea c8b8 ad78 a639 6fbf 3bb8
00000350: 563d 72b8 db3c 1339 3901 2f39 051f cfb7
00000360: c356 c537 3c41 99b9 5db0 8039 0876 0d38
00000370: 4720 08b7 0ae7 c2b8 21b0 0eb9 2b97 8937
00000380: 7d47 7eb8 e4fb e937 f360 2438 df09 87b8
00000390: 3ea9 a538 4202 ee38 ca0d 0539 234e 0438
000003a0: 42e0 ba38 3e6b fab7 eb9c 7838 d0d7 a038
000003b0: be39 14b7 5012 0f39 14fb 8b38 dad2 4235
000003c0: d19c 6939 6a4d 36ba 6b71 d439 df68 bc39
000003d0: 9b2f 6d38 7304 01ba ad9f f9b9 e173 2e39
000003e0: d139 3cb6 f73a 0439 f13d 8039 6480 4a36
000003f0: 943d 76b7 04c8 4eb9 7a63 c6b5 6c03 98b6

exp_avg_sq f4 [64, 4]
5.0114454e-07 1.4156762e-05 1.0719002e-06 2.3979583e-06 7.881872e-08 1.4096911e-06 8.768397e-07 2.7779976e-07
2.7081208e-08 6.452459e-07 1.9281836e-06 3.3881488e-08 2.1562874e-08 1.99332e-05 6.98481e-06 8.9139155e-07
4.019653e-06 8.854143e-05 7.734897e-06 1.73889e-05 1.6215349e-09 4.644167e-06 4.586644e-05 2.2788873e-09
2.6376347e-07 1.914621e-05 1.4785914e-05 1.0316012e-06 7.0684064e-06 7.953973e-05 2.87699e-05 2.242139e-05
1.194893e-06 3.6684778e-05 2.4096314e-06 6.5886557e-06 1.5728108e-05 8.984933e-05 1.9975065e-05 3.3598815e-05
6.8371905e-06 0.00013448426 1.0513162e-05 3.446071e-05 0.0 0.0 0.0 0.0
7.71357e-07 6.0993716e-05 5.496595e-05 2.4045225e-06 3.535035e-09 2.3152947e-05 4.066925e-05 1.0177609e-08
1.900627e-06 1.1290719e-05 9.386976e-07 4.1163357e-06 2.8071116e-07 1.9332638e-05 3.369783e-06 2.2744414e-06
1.6070385e-07 1.3911001e-05 1.2939357e-06 3.1339753e-06 4.729763e-08 1.0865249e-05 1.6959959e-05 5.4009668e-08
1.7195678e-09 1.7056101e-06 6.189111e-07 1.1432267e-08 2.2095785e-08 1.2614748e-06 1.482237e-06 4.647374e-08
6.875602e-06 0.000117132906 1.5753554e-05 2.4659323e-05 5.9404176e-08 8.128934e-06 4.9010637e-06 2.3121437e-07
9.61169e-07 7.999552e-06 5.3107406e-06 1.0898597e-06 6.206695e-07 5.9020176e-06 3.3573968e-05 7.69384e-08
3.4449936e-06 3.183704e-05 2.0135561e-05 7.024428e-06 5.848372e-07 1.4138708e-05 1.9198683e-06 3.410599e-06
0.0 0.0 0.0 0.0 2.2107783e-07 1.0548684e-05 1.6008413e-05 1.4062131e-06
1.605885e-07 6.3823965e-05 9.546973e-06 8.3113755e-06 1.1570779e-08 9.03748e-05 0.00014353587 4.7107577e-08
4.6365236e-09 1.01005035e-05 1.31753895e-05 4.447315e-09 3.9499284e-07 6.6930133e-06 2.769511e-06 1.6639058e-06
6.876873e-08 2.1883186e-05 1.1618029e-05 5.011404e-07 3.2228655e-07 8.536732e-06 1.8313959e-06 1.6596489e-06
2.808731e-09 2.3414792e-05 3.2802684e-05 8.990695e-09 1.7803338e-06 1.6186656e-05 1.7111373e-06 3.7742939e-06
1.9792242e-05 0.00015170014 3.314636e-05 5.489747e-05 2.1134463e-09 1.3233998e-07 1.0869451e-06 3.448795e-09
2.1062245e-07 5.3302692e-06 7.134202e-07 1.1926342e-06 3.8749363e-06 9.756384e-05 4.827772e-06 1.9666903e-05
3.1492595e-09 1.2628093e-06 6.083288e-07 2.3557632e-08 2.0340195e-08 1.5392332e-06 8.146375e-07 2.1108136e-07
1.6579767e-07 2.2027828e-06 4.1905514e-06 2.0180346e-07 2.7526044e-06 2.8901506e-05 6.7264165e-07 8.945272e-06
9.2023964e-07 2.5315045e-05 1.1170495e-05 3.3650356e-06 1.1012781e-07 3.216572e-07 1.4914268e-06 2.663099e-08
5.205491e-07 2.5604682e-05 3.876359e-06 2.904398e-06 8.088563e-07 6.5347675e-05 9.137569e-06 1.1826188e-05
1.5430974e-06 1.621051e-05 7.40743e-07 4.5960696e-06 7.050083e-07 2.9453075e-05 4.57411e-06 4.853558e-06
1.1117642e-06 6.630119e-05 6.5117616e-05 4.0988593e-06 5.060095e-08 3.198072e-06 2.4977153e-06 3.373115e-08
4.1552816e-08 8.048172e-06 9.213513e-06 1.4972235e-07 4.2302177e-06 8.502326e-05 5.278876e-06 2.1211139e-05
1.402219e-07 1.0507078e-05 9.07307e-06 4.1474027e-07 4.683873e-08 2.2161323e-06 3.3332149e-06 2.6035002e-07
1.8151503e-06 4.0045907e-05 2.3132525e-06 8.016495e-06 3.9440824e-06 9.63806e-05 7.27524e-06 1.8337854e-05
2.8736933e-06 4.9889684e-05 1.973015e-06 1.1287037e-05 1.7772754e-08 2.6287914e-06 8.4435105e-06 6.025197e-09
2.6393785e-05 0.00026036182 3.80281e-05 8.5276e-05 1.6004763e-07 1.6383996e-05 6.532163e-06 1.6181499e-06
1.8116639e-07 2.4562519e-06 4.0276004e-06 3.089213e-08 3.0449897e-08 4.098713e-06 9.778755e-06 1.8494156e-07
00000000: 6486 0635 d482 6d37 36de 8f35 9cec 2036
00000010: 0d43 a933 9e34 bd35 f75f 6b35 8224 9534
00000020: 35a0 e832 f634 2d35 f165 0136 1785 1133
00000030: 4339 b932 3936 a737 105f ea36 f647 6f35
00000040: 8ee0 8636 51af b938 21c5 0137 61de 9137
00000050: b0dc de30 17d5 9b36 b760 4038 9c9a 1c31
00000060: 609b 8d34 2c9c a037 0411 7837 8c75 8a35
00000070: 262d ed36 91ce a638 e456 f137 9215 bc37
00000080: 3660 a035 fbdd 1938 27b5 2136 1f14 dd36
00000090: dbef 8337 7e6d bc38 2090 a737 74ec 0c38
000000a0: 056b e536 5804 0d39 b061 3037 e889 1038
000000b0: 0000 0000 0000 0000 0000 0000 0000 0000
000000c0: 400f 4f35 81d3 7f38 3d8b 6638 625d 2136
000000d0: feec 7231 9338 c237 4694 2a38 99d9 2e32
000000e0: 0c19 ff35 456d 3d37 cffa 7b35 0e1f 8a36
000000f0: a6b4 9634 862c a237 6e24 6236 9ba2 1836
00000100: f08d 2c34 4b63 6937 4bab ad35 4951 5236
00000110: 4b24 4b33 e449 3637 3c45 8e37 42f8 6733
00000120: ea55 ec30 51ec e435 3f23 2635 a467 4432
00000130: 25cd bd32 f24f a935 47f1 c635 6b9a 4733
00000140: f9b4 e636 40a5 f538 8026 8437 7edb ce37
00000150: 9523 7f33 8161 0837 d173 a436 b943 7834
00000160: 8401 8135 d035 0637 ea32 b236 4b47 9235
00000170: 159c 2635 f209 c636 c6d1 0c38 5539 a533
00000180: 8a30 6736 c388 0538 cae8 a837 61b3 eb36
00000190: b5fd 1c35 4a35 6d37 16d7 0036 a5e1 6436
000001a0: 0000 0000 0000 0000 0000 0000 0000 0000
000001b0: 6961 6d34 41fa 3037 ce49 8637 1dbd bc35
000001c0: 3b6e 2c34 3bd9 8538 f02b 2037 1671 0b37
000001d0: d3c8 4632 9a87 bd38 1e82 1639 5453 4a33
000001e0: 4b4f 9f31 5575 2937 de0b 5d37 ffce 9831
000001f0: 670f d434 8c94 e036 d6db 3936 5e53 df35
00000200: 02ae 9333 c991 b737 0eeb 4237 1b86 0635
00000210: ba06 ad34 fc38 0f37 49ce f535 1ac1 de35
00000220: b803 4131 e26a c437 9d95 0938 7f75 1a32
00000230: cef3 ee35 94c8 8737 3baa e535 e049 7d36
00000240: 8407 a637 b211 1f39 a206 0b38 b641 6638
00000250: 243c 1131 5619 0e34 26e3 9135 d8ff 6c31
00000260: 7527 6234 aada b236 dd81 3f35 9912 a035
00000270: 7305 8236 309b cc38 3ffe a136 5afa a437
00000280: 5c6a 5831 cc7d a935 094c 2335 c85b ca32
00000290: 90b8 ae32 a697 ce35 76ad 5a35 9aa5 6234
000002a0: 1e06 3234 85d3 1336 909c 8c36 50af 5834
000002b0: 62b9 3836 8371 f237 958f 3435 a713 1637
000002c0: 6306 7735 a55b d437 e968 3b37 dfd2 6136
000002d0: 677f ec33 3bb0 ac34 092d c835 2bc2 e432
000002e0: ddbb 0b35 a3c9 d637 ac11 8236 2de9 4236
000002f0: 2f20 5935 440b 8938 8f4d 1937 1769 4637
00000300: 6c1c cf35 cefb 8737 79d7 4635 f037 9a36
00000310: cd3f 3d35 ff11 f737 4e7b 9936 bfdb a236
00000320: ed37 9535 2e0b 8b38 c18f 8838 ef88 8936
00000330: 5554 5933 759e 5636 6c9e 2736 cbdf 1033
00000340: ce77 3233 a306 0737 bd93 1a37 5ec3 2034
00000350: 4bf1 8d36 844e b238 3321 b136 93ee b137
00000360: e78f 1634 8e47 3037 8a38 1837 78a9 de34
00000370: ba2b 4933 ddb8 1436 32b0 5f36 3cc6 8b34
00000380: 17a0 f335 f7f6 2738 603d 1b36 957e 0637
00000390: 6957 8436 f11f ca38 d61d f436 3ed4 9937
000003a0: add9 4036 a440 5138 2468 0436 745d 3d37
000003b0: b3aa 9832 4b6a 3036 9aa8 0d37 3106 cf31
000003c0: 3968 dd37 2c81 8839 5d80 1f38 34d6 b238
000003d0: 8fd9 2b34 5d70 8937 da2e db36 352f d935
000003e0: a386 4234 16d6 2436 d324 8736 42ae 0433
000003f0: 04c8 0233 ad87 8936 6f0f 2437 5994 4634

exp_avg f4 [64]
-1.9632316e-05 6.393641e-05 1.19350325e-05 -0.00017606393 -0.0001031446 2.095351e-05 0.00012697754 8.454769e-05
4.3441945e-05 0.00070132077 0.0004162738 0.0 0.00020260489 4.0390172e-05 0.0003730995 -6.302e-05
0.0002536552 -9.7855824e-05 -4.4750515e-05 2.9967972e-05 0.0001952481 -0.00011076187 -0.0003735065 -9.372458e-05
0.00048093728 2.3949064e-05 0.0 4.586862e-06 3.2401902e-05 8.203111e-05 1.9114099e-05 -4.586792e-05
-0.00019906877 -8.38944e-05 -4.2850806e-06 -0.00025271403 0.00051369524 2.3797333e-05 -3.297052e-05 -0.00012945723
-9.973444e-05 -2.7427632e-06 0.00033466535 -0.00032805168 -0.00021242863 2.4754534e-05 5.4510863e-05 -2.0602065e-05
-0.00012050315 -0.00013855383 0.00022773875 0.00014219756 5.1488605e-05 0.00029592979 -9.55476e-05 -1.0969611e-05
0.00022322059 -0.00024444913 -0.0002856605 -5.600975e-05 -0.00087228976 -0.00021626931 2.698892e-05 -4.4338285e-05
00000000: 14b0 a4b7 9915 8638 933c 4837 cd9d 38b9
00000010: 564f d8b8 52c5 af37 4625 0539 324f b138
00000020: 6f35 3638 d7d8 373a 533f da39 0000 0000
00000030: 5672 5439 9e68 2938 919c c339 9b29 84b8
00000040: 06fd 8439 f237 cdb8 80b2 3bb8 bb63 fb37
00000050: 83bb 4c39 d348 e8b8 32d3 c3b9 008e c4b8
00000060: 4f26 fc39 39e6 c837 0000 0000 d8e8 9936
00000070: 47e7 0738 1e08 ac38 3757 a037 4e62 40b8
00000080: 1ebd 50b9 77f0 afb8 90c8 8fb6 b47e 84b9
00000090: 81a9 063a 62a0 c737 d449 0ab8 e9be 07b9
000000a0: 8528 d1b8 5010 38b6 0676 af39 5afe abb9
000000b0: 60bf 5eb9 f5a7 cf37 98a2 6438 99d2 acb7
000000c0: a3b6 fcb8 c348 11b9 28cd 6e39 de1a 1539
000000d0: 78f5 5738 0627 9b39 ba60 c8b8 1f0a 38b7
000000e0: 5210 6a39 6829 80b9 b4c4 95b9 03ec 6ab8
000000f0: 60aa 64ba 5ac6 62b9 4466 e237 dff7 39b8

exp_avg_sq f4 [64]
2.8548936e-06 3.3690742e-07 1.1483425e-07 2.0037044e-06 2.1088354e-05 6.924847e-08 3.2329351e-06 1.9531186e-05
6.8973322e-06 4.526017e-05 7.129337e-05 0.0 6.006208e-06 1.3684274e-07 7.0431097e-06 2.2500265e-06
3.140703e-06 6.4241243e-07 6.910075e-08 2.66308e-07 2.3545308e-05 4.5436346e-07 1.1766954e-05 2.3220427e-06
1.0600547e-05 2.8387976e-06 0.0 1.253763e-06 2.0462265e-05 4.167301e-07 6.365681e-08 2.1497312e-06
2.5350218e-06 2.743792e-06 1.1115268e-07 5.0433364e-06 6.0919057e-05 2.803238e-08 6.793388e-07 2.7521164e-05
1.18121115e-07 2.3638174e-07 3.1074146e-06 1.5902226e-05 7.4390723e-06 4.956821e-07 5.3694616e-06 1.9437464e-05
5.43268e-06 3.5497499e-06 1.09595985e-05 1.9254237e-06 3.4261598e-07 3.47257e-05 8.4396726e-07 3.6588858e-07
1.4901336e-05 2.9077519e-05 1.8733572e-05 1.2019099e-07 0.00011701439 1.7357588e-06 1.6594498e-06 2.7435388e-07
00000000: b396 3f36 34e0 b434 cc9a f633 6177 0636
00000010: e5e6 b037 c0b5 9433 67f5 5836 e7d6 a337
00000020: a26f e736 bdd5 3d38 5683 9538 0000 0000
00000030: ef88 c936 0cef 1234 da53 ec36 29ff 1636
00000040: dec4 5236 3f72 2c35 8a64 9433 18f9 8e34
00000050: 2a83 c537 3def f334 af6a 4537 64d4 1b36
00000060: 01d9 3137 2c82 3e36 0000 0000 f846 a835
00000070: 61a6 ab37 f3ba df34 b4b3 8833 1a44 1036
00000080: 581f 2a36 fd21 3836 d5b2 ee33 ee39 a936
00000090: 5783 7f38 dbcb f032 cf5b 3635 40dd e637
000000a0: c5a9 fd33 1ed0 7d34 fa88 5036 c565 8537
000000b0: 259d f936 040f 0535 532b b436 a30d a337
000000c0: 5e4a b636 3d38 6e36 1edf 3737 8736 0136
000000d0: c8f0 b734 70a6 1138 fd8c 6235 586f c434
000000e0: c000 7a37 7feb f337 0a26 9d37 d90d 0134
000000f0: 9f65 f538 38f8 e835 43ba de35 e94a 9334

exp_avg f4 [32, 64]
0.00065057917 0.0005308279 3.0331332e-05 2.3696199e-05 0.00046724503 6e-45 0.00067631627 6.0980183e-05
0.00022742919 -3.1599535e-05 0.00025041561 0.0 0.0007354141 9.329695e-06 0.00020628593 0.00031900732
2.8853166e-05 4.1864834e-05 1.929645e-05 0.0002507006 0.00016184391 0.00039990715 3.763106e-05 4.3293345e-05
-1.3314973e-05 0.00033392955 0.0 0.00022381938 0.00011293362 3.5227129e-06 2.425668e-05 0.0007202713
1.9724057e-05 0.0004937564 8.837993e-06 0.00012015005 0.0001821681 6e-45 9.738486e-05 0.00046162333
4.7232676e-05 8.756084e-05 0.00013857115 0.00015430621 8.850889e-05 2.2963282e-05 0.00055329 4.6922272e-05
0.0005108612 3.4090594e-05 0.00062905095 0.00012532162 0.0005454571 0.00020768326 0.00082103035 0.0001606771
0.0007652041 0.00037692604 0.0002447855 3.7474936e-05 0.00032507585 0.00013392474 3.3102315e-05 0.0003231594
6e-45 0.0 6e-45 0.0 6e-45 6e-45 6e-45 6e-45
6e-45 6e-45 6e-45 0.0 6e-45 6e-45 6e-45 6e-45
6e-45 6e-45 0.0 6e-45 6e-45 6e-45 6e-45 6e-45
6e-45 6e-45 0.0 6e-45 6e-45 6e-45 6e-45 6e-45
0.0 0.0 6e-45 6e-45 6e-45 0.0 6e-45 6e-45
6e-45 6e-45 6e-45 6e-45 6e-45 6e-45 6e-45 6e-45
6e-45 6e-45 6e-45 6e-45 6e-45 6e-45 6e-45 6e-45
6e-45 6e-45 0.0 6e-45 6e-45 6e-45 6e-45 6e-45
0.00022553415 0.00023080353 -6.5244512e-06 9.119731e-05 6.842102e-05 5.110309e-07 0.00012870014 6.336275e-05
0.00015217435 2.4320147e-05 6.430086e-05 0.0 0.00012595317 5.794514e-05 2.4057634e-05 0.00012179971
4.1746694e-06 3.116642e-05 0.00015764478 4.4241886e-05 2.5119896e-05 0.00026428024 8.861368e-06 4.3710173e-07
1.5200027e-05 -2.332749e-06 0.0 6.716479e-06 7.2089766e-05 1.8534318e-05 5.9620455e-05 0.00013497814
0.00014216048 0.0003703378 2.2097849e-05 0.00012361472 5.410139e-06 1.875495e-05 0.00023335151 0.00026383786
0.000112646005 9.4706214e-05 -5.734226e-05 0.00010514229 9.775044e-05 3.9737057e-05 0.0003300891 -1.761484e-05
0.00020470988 0.00010782126 8.859016e-06 0.000100819176 4.7288813e-05 2.4572844e-05 0.00020764956 5.633891e-05
0.00012427018 0.00011540445 0.00040477616 6.2733525e-06 -7.776595e-06 7.761069e-05 9.1346985e-05 5.0029023e-05
-0.0001323824 -3.5443027e-05 5.6356057e-05 -6.136191e-06 -3.492597e-05 3.7951635e-05 -0.00013507396 -0.00017460129
-0.0002040322 -3.6230795e-05 3.2459793e-05 0.0 -8.52343e-05 -0.00015168905 3.012408e-05 -0.00020346038
-3.4907007e-05 -9.1824135e-05 -2.4820563e-05 -8.2070095e-05 -7.9143465e-05 -0.00017150107 6.904244e-05 4.246253e-05
-1.8736882e-05 3.1283173e-05 0.0 2.6541691e-05 -1.1200037e-05 -4.8767804e-05 -0.00014237067 -0.0002645453
-1.6268592e-05 -0.00012913626 -4.17176e-05 -6.4636406e-05 6.131903e-05 6e-45 -0.00017067381 -1.5026625e-05
-1.1874449e-05 -3.0147497e-05 1.4940095e-05 -0.00034237248 -0.0002836527 2.9532569e-06 -0.0001351198 -1.7173485e-05
-1.6126082e-06 -0.0002900631 6.002531e-05 9.3762665e-06 -0.0001471629 -5.459795e-05 -0.0002893359 -0.0001620837
-0.0002133746 -9.462028e-05 -0.00014281276 1.8216608e-05 4.6548437e-05 -9.811728e-05 -3.217996e-06 -0.0002810759
00000000: a18b 2a3a 4227 0b3a 0a70 fe37 33c7 c637
00000010: 91f8 f439 0400 0000 d14a 313a f9c4 7f38
00000020: 0f7a 6e39 be89 04b8 374a 8339 0000 0000
00000030: cec8 403a bc86 1c37 754e 5839 7040 a739
00000040: b409 f237 0698 2f38 d0de a137 7770 8339
00000050: a5b4 2939 a1aa d139 0bd6 1d38 e095 3538
00000060: 6063 5fb7 4413 af39 0000 0000 0fb1 6a39
00000070: c7d6 ec38 bf67 6c36 d37a cb37 97d0 3c3a
00000080: 1775 a537 6e6f 013a e446 1437 11f9 fb38
00000090: 6104 3f39 0400 0000 193b cc38 0906 f239
000000a0: b31b 4638 dea0 b738 694d 1139 42cd 2139
000000b0: d99d b938 46a1 c037 aa0a 113a 68ce 4438
000000c0: 51eb 053a 7ffc 0e38 e5e6 243a c468 0339
000000d0: 02fd 0e3a 8dc5 5939 6a3a 573a 6e7b 2839
000000e0: fa97 483a 289e c539 8e56 8039 682e 1d38
000000f0: f16e aa39 266e 0c39 57d7 0a38 b86d a939
00000100: 0400 0000 0000 0000 0400 0000 0000 0000
00000110: 0400 0000 0400 0000 0400 0000 0400 0000
00000120: 0400 0000 0400 0000 0400 0000 0000 0000
00000130: 0400 0000 0400 0000 0400 0000 0400 0000
00000140: 0400 0000 0400 0000 0000 0000 0400 0000
00000150: 0400 0000 0400 0000 0400 0000 0400 0000
00000160: 0400 0000 0400 0000 0000 0000 0400 0000
00000170: 0400 0000 0400 0000 0400 0000 0400 0000
00000180: 0000 0000 0000 0000 0400 0000 0400 0000
00000190: 0400 0000 0000 0000 0400 0000 0400 0000
000001a0: 0400 0000 0400 0000 0400 0000 0400 0000
000001b0: 0400 0000 0400 0000 0400 0000 0400 0000
000001c0: 0400 0000 0400 0000 0400 0000 0400 0000
000001d0: 0400 0000 0400 0000 0400 0000 0400 0000
000001e0: 0400 0000 0400 0000 0000 0000 0400 0000
000001f0: 0400 0000 0400 0000 0400 0000 0400 0000
00000200: 5d7d 6c39 da03 7239 9cec dab6 2f41 bf38
00000210: 417d 8f38 c72d 0935 aef3 0639 9ee1 8438
00000220: fe90 1f39 1e03 cc37 43d9 8638 0000 0000
00000230: 4c12 0439 1f0a 7338 60cf c937 b96e ff38
00000240: 2314 8c36 b0b8 0238 734d 2539 5d90 3938
00000250: 91b8 d237 188f 8a39 49ab 1437 ceaa ea34
00000260: 9e03 7f37 538c 1cb6 0000 0000 1e5e e136
00000270: e62e 9738 257a 9b37 fa10 7a38 eb88 0d39
00000280: ea10 1539 e629 c239 c55e b937 939e 0139
00000290: bd88 b536 f353 9d37 d2af 7439 b853 8a39
000002a0: 5d3c ec38 039d c638 c882 70b8 d67f dc38
000002b0: 5eff cc38 57ab 2638 cf0f ad39 95c3 93b7
000002c0: 64a7 5639 191e e238 2fa1 1437 e26e d338
000002d0: fa57 4638 c821 ce37 81bc 5939 724d 6c38
000002e0: 864e 0239 4b05 f238 2338 d439 b07f d236
000002f0: 3978 02b7 ecc2 a238 8a91 bf38 41d6 5138
00000300: 21d0 0ab9 a9a8 14b8 db5f 6c38 7be5 cdb6
00000310: 7a7d 12b8 422e 1f38 a4a2 0db9 2d15 37b9
00000320: 7af1 55b9 85f6 17b8 7025 0838 0000 0000
00000330: d1bf b2b8 b80e 1fb9 f8b2 fc37 fb57 55b9
00000340: 1d69 12b8 b591 c0b8 c135 d0b7 0c1d acb8
00000350: d3f9 a5b8 f8d4 33b9 e1ca 9038 cb19 3238
00000360: 262d 9db7 0d36 0338 0000 0000 d9a5 de37
00000370: cbe7 3bb7 088c 4cb8 5649 15b9 abb2 8ab9
00000380: 8978 88b7 c068 07b9 eff9 2eb8 688d 87b8
00000390: 6798 8038 0400 0000 e7f6 32b9 dd1a 7cb7
000003a0: 5f38 47b7 42e5 fcb7 38a7 7a37 7580 b3b9
000003b0: 39b7 94b9 9130 4636 f2ae 0db9 c70f 90b7
000003c0: cc70 d8b5 9c13 98b9 b0c3 7b38 c24e 1d37
000003d0: bd4f 1ab9 1a00 65b8 02b2 97b9 03f5 29b9
000003e0: 4fbd 5fb9 e06e c6b8 02c0 15b9 decf 9837
000003f0: 013d 4338 50c4 cdb8 c0f4 57b6 5e5d 93b9
