toy_al/mini_exp/250-1000000-200-001-no/ckpt_phase1.pt (torch, 47981 bytes, 30 tensors)

fc1.weight f4 [64, 4]
00000000: 2118 a9be be8d ea3e 5027 523e ba19 a23e
00000010: 1aca 20bf e9ed ad3d ef72 913e 01bc 11bf
00000020: 95a3 223e 1c02 77be 4243 e1be 46cd e0be
00000030: db6f 073e 5d8c 9cbe e7f3 2b3f a513 593f
00000040: 0058 183d bcdd 233e 20fa e33d d27f e13e
00000050: a481 a2be f08d c0be 581a 97bd 187f f13e
00000060: 271a e03d a6bf 8f3e a839 4bbd 35db 73be
00000070: 3cfd 64be 7761 963e 60bd a7bd 838f d23c
00000080: 52f5 0d3f 1f50 9c3e 0792 d7bd 97ab 13bf
00000090: b7c5 093e 25b9 00be 8118 eabe 6a83 e23e
000000a0: c865 e7bd d118 a5be d029 a53e 83bf d4be
000000b0: de94 ccbe f443 abbe 00db 193c 5051 a23d
000000c0: 8ad7 eebe 4299 343e 55fc 03be 664e 69be
000000d0: 0140 873e d6c3 193e 0af2 f8be 10d2 863e
000000e0: a9bf 8dbe 3d5c 2d3d 2e77 853d 2564 973e
000000f0: 4b5f c53e 8449 893e ca33 10be 5282 b0be
00000100: 4c5d 2d3f 1f9d 0cbe 019d fdbe 8590 183f
00000110: cb36 bbbe 0306 11bd 5fb1 0ebf f17e d93e
00000120: 179a 9fbe 910e 163e 5e52 873e f8ee e83e
00000130: 8f07 89be 03fc 2f3e 0182 98be 034c 0dbe
00000140: 3403 1bbf 8ece df3d e1e1 f7bd b3c8 d23e
00000150: cbd2 bfbd a185 c13e 93f7 7b3e 8b44 05bf
00000160: db96 3fbf da74 a1be 4bb2 e6be 2d4d 9ebd
00000170: 450d 5e3f a60f bbbe a4e9 4ebe db6d 6cbe
00000180: 3e30 9e3d ffdc 71be eb60 bfbe abf2 993f
00000190: c3d0 1fbf a8ac 353d 70ad fabe 70c3 8dbe
000001a0: 5a2e cbbe ca47 f7be 701e a63d b893 22be
000001b0: 2265 9dbe cfc5 28bd c445 043d fe78 debe
000001c0: 5d11 c63e e6ec 47be fc37 9f3e a41c bbbd
000001d0: eb6c ccbe b0fb e23c 9eaa 18be c167 c13e
000001e0: a6c9 893e f27e 293d ee5e 0bbf 5ba5 4c3e
000001f0: 9f04 76bd 6301 023f cafd 4cbe 00fd d13e
00000200: 12b5 303d 81b2 90bd 94c7 113f a335 a93e
00000210: a378 0ebf 78eb ee3e 8560 e43e a379 67be
00000220: 7399 553e d992 c4bc ece2 a1be 8f58 693c
00000230: 087d bd3e bfc6 0b3e 8802 4b3e e59c 87bd
00000240: 03f0 f3bd ea7b 86be 4ea1 d0be 7052 83bd
00000250: 9267 e2be 98f5 f8be d2b7 a73e 9ab1 a4be
00000260: b005 963c a5a0 cc3e 1a96 833e 4de0 c4be
00000270: 9d76 eebe c259 653e 3748 e83e 5b2f 5b3e
00000280: 6717 65be 6856 3dbd 7d9a 4c3e 1bbb 873e
00000290: c81d 323f 5983 063e a0f5 943e 1f49 af3d
000002a0: a762 023f ddb5 a7be 9eeb 02be b8b6 213c
000002b0: 2742 033e a7ac 053f d914 e7be 4957 6f3e
000002c0: fd87 833e 4b3a ff3e 4a8f ccbd c44e 073e
000002d0: 9130 c2be 5d2c b6be 0519 ed3e 1ad7 8bbe
000002e0: f172 893e d511 d13e 57a0 a13e 8329 0cbf
000002f0: a6e3 a63d 05c4 18be 32d3 afbe 65a3 95be
00000300: a6ea c2be 4bfd 6ebd ee17 be3e dd19 2ebe
00000310: c9f9 28bf 285c e13e 358f bcbe a792 a23e
00000320: 9b85 15bf 82d4 94bd 3025 40be b750 4ebd
00000330: 0f17 f1be 28c2 b0be 6ed9 ed3e 8c83 fe3e
00000340: 4d42 98be 9158 703e 8366 e1be e125 903d
00000350: 2e58 12be d498 dbbd 5b87 22bf ff10 a43d
00000360: 5b36 05bf ce33 fc3e 91f5 9abe f22f 4dbe
00000370: 2b7b ca3c eee2 a33e 42af 34be a9d7 853d
00000380: e256 8b3e 7f42 b23e 682a bdbe bf59 86be
00000390: 4ad6 e6be c1eb 5a3e 9888 e43d 5bd0 25be
000003a0: 4a7c afbe 0992 cc3e 583b 153f 2f93 523e
000003b0: 8913 053d 7889 3d3c 3bb6 1cbf de1c 223e
000003c0: 0598 59bf 570e a8be 2255 c5be 1745 3ebe
000003d0: 2c29 883e 8283 023e a545 8fbc 6a10 423d
000003e0: 9198 863f c65d cdbe 1f9c 8a3d 3e92 5c3d
000003f0: 075e 823e 264e c53e d868 05bf 30ae 4c3e
-0.3302622 0.45811266 0.20522809 0.31660253 -0.6280838 0.084926434 0.28408 -0.56927496
0.15882714 -0.24121898 -0.43996626 -0.4390661 0.13226263 -0.3057584 0.6716904 0.847956
0.0371933 0.16002554 0.11131692 0.44042832 -0.31739533 -0.3760829 -0.073780715 0.47167277
0.10942488 0.28075904 -0.049615532 -0.2381409 -0.22362226 0.29371235 -0.08190417 0.025703197
0.55452454 0.30529878 -0.105258994 -0.576837 0.13454328 -0.12570627 -0.4572182 0.44240886
-0.1129871 -0.32245496 0.32258463 -0.41552362 -0.39957327 -0.33450282 0.009390593 0.079256654
-0.46648818 0.17636588 -0.12889226 -0.22783813 0.2641602 0.15016112 -0.4862216 0.2633214
-0.27685288 0.042324293 0.06516872 0.29568592 0.38549265 0.268139 -0.14082256 -0.34474427
0.67720485 -0.13731812 -0.49533847 0.5959552 -0.3656524 -0.035406124 -0.55739397 0.4247966
-0.3117225 0.14653994 0.2643003 0.4549482 -0.2676358 0.17185979 -0.29786685 -0.13798527
-0.6055176 0.10928069 -0.1210363 0.41168746 -0.093663774 0.37797263 0.24606161 -0.52057713
-0.7483956 -0.31534463 -0.45057902 -0.07729564 0.86739 -0.36535376 -0.20206314 -0.23088782
0.07724045 -0.2361946 -0.3737863 1.2027181 -0.6242792 0.04435411 -0.48960447 -0.2768817
-0.396838 -0.48296958 0.08111274 -0.15876663 -0.3074122 -0.04120427 0.032293096 -0.43451685
0.38685122 -0.19523963 0.310974 -0.09136322 -0.39926848 0.027707905 -0.14908835 0.3777447
0.26911658 0.04138083 -0.54441726 0.19984953 -0.060063 0.50783366 -0.20018688 0.41013336
0.043141432 -0.07065297 0.5694516 0.33048734 -0.5565283 0.46664023 0.4460489 -0.22604994
0.20859317 -0.023995804 -0.3161844 0.014242305 0.37009454 0.13650034 0.19825184 -0.06621722
-0.11911013 -0.26266414 -0.40748066 -0.06412208 -0.44219643 -0.48624873 0.3275743 -0.3216675
0.018313259 0.39966312 0.25700456 -0.38452378 -0.4657487 0.22397521 0.45367596 0.21404783
-0.22372209 -0.04622498 0.19980808 0.26509938 0.6957669 0.13136043 0.29093647 0.085588686
0.5093178 -0.32755938 -0.12785193 0.009870224 0.12818204 0.5221657 -0.45133093 0.2337314
0.25689688 0.49849162 -0.09988268 0.1321364 -0.37927678 -0.35580721 0.4630815 -0.27312547
0.26845506 0.40833917 0.31567642 -0.5475084 0.08148889 -0.14918526 -0.34340817 -0.29226223
-0.38069648 -0.058347028 0.37127632 -0.17002054 -0.6600614 0.44015622 -0.36828008 0.31752512
-0.5840699 -0.07267095 -0.18764186 -0.050369944 -0.47087905 -0.3452313 0.46454948 0.49709737
-0.29738083 0.23471285 -0.44023523 0.07038475 -0.1429145 -0.10722509 -0.63487786 0.08011054
-0.52036065 0.49258274 -0.30265477 -0.20037821 0.024716934 0.3200907 -0.1764498 0.065352745
0.27214724 0.34816357 -0.36946416 -0.26240346 -0.45085365 0.21378995 0.11158866 -0.16192763
-0.34274513 0.39955166 0.58293676 0.20563959 0.032489333 0.01156842 -0.6121556 0.15831324
-0.8499759 -0.3282344 -0.38541514 -0.18581043 0.26593912 0.12745479 -0.017489264 0.047378935
1.051531 -0.40110606 0.06768059 0.053850405 0.25462362 0.38536185 -0.52113104 0.19988322

fc1.bias f4 [64]
00000000: 9835 ee3e 13b4 123e c349 033f fdad 1abc
00000010: 7c63 193f e465 b8be b758 ca3e 06e9 01bf
00000020: 3a76 c1bd 5575 efbb 2222 013f 78a6 46be
00000030: 9b28 c13e 83e5 2fbf 107d ab3e 0bd5 08be
00000040: c141 e2bd e3e9 2c3e 28b7 f8be 7da3 bc3d
00000050: ca5b 89be ccec c8be b210 803e d29b 7f3e
00000060: 9c42 e33e 0962 d73e bac9 aabe 8e70 f73d
00000070: 6f63 e63e 1d15 dcbd 821c ad3b 4bca 083f
00000080: ea11 cd3d 4914 17be 819c 56be 11bd 813d
00000090: 8a92 50be 3016 cabe 5fbe cebe 57fc b83e
000000a0: c1c1 d03e 0bcd 043d 93b1 433f 74f3 64be
000000b0: 61f1 47be 8763 013f ed1c f33c ae1e 983e
000000c0: 545b f33e 7f15 d2be 052f 1b3f 76a6 fc3e
000000d0: 9a8c de3e 7d60 eb3e ed70 883e a8cd fb3b
000000e0: 1222 fb3e b491 943d 7678 2cbe 365c 933e
000000f0: 169b 7d3e 09ba 6bbd e4e0 893e 6898 2a3e
0.46525264 0.14326505 0.51284426 -0.009440896 0.59917426 -0.36015236 0.3952081 -0.5074619
-0.09446378 -0.0073076882 0.5044271 -0.1939944 0.37726292 -0.6870958 0.33493853 -0.1336252
-0.11047698 0.16886096 -0.48577237 0.092108704 -0.26827842 -0.39243162 0.25012738 0.24961784
0.44386756 0.42066982 -0.3335703 0.12082015 0.44997737 -0.107462145 0.0052829394 0.53433675
0.100131825 -0.14753832 -0.20958139 0.0633489 -0.203684 -0.39470053 -0.40379617 0.3613002
0.40772822 0.032422107 0.7644283 -0.22358495 -0.19525672 0.5054249 0.029676879 0.29710907
0.47530615 -0.41032025 0.6061862 0.4934575 0.43466645 0.45972052 0.26648656 0.0076844282
0.4904943 0.07254353 -0.16842827 0.2878129 0.24766192 -0.057550464 0.2692939 0.16659701

fc2.weight f4 [32, 64]
00000000: bfca 183d eebc 533e 13ca 683c e8f3 a83e
00000010: 962d 19be 5036 903d 87f4 e63d f28a 0f3e
00000020: ccfa e23d 0105 6f3d 8759 673e 600a 6d3d
00000030: fa29 403d 73c7 6f3c b52e 6dbd 18dd 0f3e
00000040: fb7e 89be 8ed8 b7bd 2832 163e 1768 57be
00000050: 86b9 23bd 219c 693e 2f30 86bd cac8 edbe
00000060: d5de b9be 893b 1cbe 445c 753d 7c1b 33bb
00000070: 957c 773e 337c 6ebd f4ee b6bd 4f78 1abe
00000080: 72d6 2d3e 9779 8f3d be41 1e3c 8f03 413e
00000090: 9809 823c a028 d8bd 9c9e 613e 3c1c be3c
000000a0: 1fec f3bd 97ee 853e 2880 3d3f 3cb6 52be
000000b0: d8cf d2bb 5156 283e e321 023e 8584 99bb
000000c0: 0dcd 82bc 2b00 a7bd 8541 19be 4420 803d
000000d0: 6570 33be d9bd 11bf 7a75 05be 4722 16bd
000000e0: 77ec 833d 4c74 6dbc b131 ea3c 4fc7 9cbf
000000f0: 1ad2 2abc db34 183d 63de dc3d 6cc3 57be
00000100: 9503 243d 802d 11bb a573 783d f235 8abd
00000110: b137 d1bd feef afbd 115e 563d 1f96 d93b
00000120: 14f7 68bc 173f b4bc dcf0 063d eaf8 9dbd
00000130: a63c 4a3a 42a5 6c3d ce34 2fbd d1a3 ccbd
00000140: 6337 d63c 2476 c63c a048 953d 4d3d 593d
00000150: a75b ba3d 901c 09bd 74fe 9fbc f16c a3bd
00000160: 8fe9 e9bd cc90 04bd 7e48 b0bd 0b2c 843c
00000170: 2a68 da3d 81f5 c1bd 5484 c63c 793c 83bc
00000180: 88c3 6abd 980b f73c 5714 543d 7262 d23d
00000190: cf08 723c 5267 97bd 0023 01bb 482a 103c
000001a0: d309 913d 9cbb d2bd b877 173d acf8 bbbc
000001b0: aafc a93d 6261 82bd 1fff 1ebc 79b4 053d
000001c0: 1f97 54bd 6015 f9bd 4cbf 80bc ba20 5dbd
000001d0: fe6c 11bd fe2a b13d 7cc5 fcbd 9790 f9bc
000001e0: 93da 75bd 58e9 41bd d623 9bbd f286 ae3d
000001f0: 20fb 6d3d 5d80 a4bc 5fc4 f5bd b2b9 dfbb
00000200: 9897 e63d 44b2 8c3d 722c c73c 672f 43be
00000210: 40ef be3c f0d9 4e3c a2bc ae3d b55e c1bd
00000220: 8413 573d acec a03c 92a5 553d b2fa 9abd
00000230: 8250 e33b bce0 68bc 8dce 103e 1671 733d
00000240: 36b6 d8bd 6856 533d 201f 4fbd e7af 963b
00000250: bc2f 8cbd 5fbf 3abe a27d 093e eeb6 403e
00000260: 2e2f 48be 4cec ebbd 50b4 2abc 52ff 7e3d
00000270: 0599 043e 172d 483d 49bc 7e3d 3b15 f03c
00000280: a31a 8bbe 39ae 0bbd 7e53 ddbd ec72 0dbe
00000290: 222d 093d 2028 30bd bae6 b6bb 8383 9f3d
000002a0: 0776 953d 76aa 1a3d 6834 193e 0fe3 46bc
000002b0: 365b bdba 47ca 103e 91c2 d63c a018 873d
000002c0: fd7d 0d3d 1837 eebc 74dc e3bc 8eef 9b3b
000002d0: 98b5 a03d bb23 193c 1ef1 de3d 91ba b0bd
000002e0: 154f 6fbb af88 a93d c0c9 28bd 64dc dabd
000002f0: c8f0 403d 4db8 a7bd 401d d83e 8a3c c6bd
00000300: 2eca 1f3b 5443 333e ec24 55bd 9a77 13bd
00000310: 4f7f d43c 605b cbbc f7ac bfbc c97e 96bc
00000320: 74f1 88bd c54e 603e 573e f6bd 486d 57bd
00000330: 86aa 9f3d 899a 1c3c 083a 393d 3c84 063e
00000340: d37e 573e bee1 6cbd 7374 33bd 19cd 793d
00000350: 3620 1b3e 5a5d 423e dc68 fd3d abc5 75be
00000360: 2826 cc3e a112 ae3d b021 72bd 7801 b23d
00000370: 98f6 b0bd 5cfa 023e 2550 59bd c1d7 253d
00000380: de2b 213d 7b96 083e 0b90 8bbc c472 403d
00000390: 6477 8fbd 8294 c7bd d6c8 e23d ced7 793c
000003a0: c4bf 7a3b 7a42 70bd e2f6 243e 5f02 223e
000003b0: ac27 793d 09c0 c2bc 50a3 123d 5412 503d
000003c0: 15af 7f3d fd11 d53d 3c1c 643e d7d4 9e3d
000003d0: 0df3 443e c341 b53d 4f0f 3d3e be60 093e
000003e0: bf90 2e3e f8bb f33c 1cf3 1d3e d2b1 ba3d
000003f0: a43d 3ebe a002 ca3d d921 42bf bc3d 3f3e
0.03730273 0.2067754 0.0142083345 0.32998586 -0.14958796 0.07041609 0.11277109 0.14017847
0.11082992 0.05835438 0.22592746 0.057871222 0.046915032 0.014634955 -0.05790587 0.14049184
-0.2685469 -0.089768514 0.1466757 -0.21035801 -0.03997185 0.22813465 -0.06552159 -0.46442252
-0.3630282 -0.15257086 0.059902444 -0.0027329614 0.24168618 -0.058223914 -0.089322954 -0.15084957
0.16976336 0.07005613 0.009659229 0.18849014 0.015873715 -0.105546236 0.22033161 0.023206823
-0.11910271 0.26158592 0.74023676 -0.2057733 -0.0064334683 0.16439177 0.1270824 -0.004684987
-0.015966916 -0.08154329 -0.149664 0.06256154 -0.17523344 -0.5693031 -0.13033095 -0.036653783
0.064415865 -0.014493059 0.028588148 -1.2248324 -0.010426069 0.037159782 0.107846044 -0.21070641
0.04004248 -0.0022152364 0.060657162 -0.067485705 -0.102157004 -0.08590697 0.052335802 0.0066402103
-0.014219064 -0.02200274 0.032944545 -0.07713492 0.0007714726 0.05777479 -0.042774968 -0.09992183
0.026149457 0.024226256 0.07289243 0.053036977 0.090995125 -0.033474505 -0.019530512 -0.07979763
-0.11421501 -0.03236465 -0.08607577 0.016134283 0.10664399 -0.09470654 0.02423302 -0.016020047
-0.05731538 0.030156896 0.05177721 0.10272683 0.014772608 -0.07392754 -0.00197047 0.008799143
0.07081952 -0.1028969 0.036979407 -0.022945724 0.08300145 -0.063662305 -0.00970438 0.032642815
-0.051901933 -0.1216228 -0.015716217 -0.05398629 -0.035504334 0.08650778 -0.12342355 -0.030464454
-0.0600229 -0.047341675 -0.075751945 0.085218325 0.05810082 -0.02008074 -0.120003454 -0.0068275565
0.11259383 0.06869939 0.024313185 -0.19061051 0.023307443 0.012625203 0.085320726 -0.09441892
0.052508846 0.019644104 0.052159853 -0.075673476 0.0069370875 -0.014213737 0.14141293 0.05943402
-0.10581629 0.051596075 -0.050566792 0.004598606 -0.06845042 -0.18237065 0.13426831 0.18819782
-0.19549248 -0.115196794 -0.010418966 0.06225521 0.12948997 0.048871126 0.06219128 0.029306998
-0.2716876 -0.0341017 -0.108069405 -0.1381337 0.033490308 -0.043007016 -0.005581704 0.07788756
0.072979026 0.03776022 0.14961398 -0.012139096 -0.0014446739 0.14139663 0.026215823 0.06596494
0.03454398 -0.029079005 -0.027815081 0.0047587818 0.07847136 0.009346898 0.10885833 -0.08629335
-0.0036515642 0.082780235 -0.04120803 -0.106865674 0.047104627 -0.081894495 0.42209816 -0.09679516
0.0024381983 0.17506152 -0.052037165 -0.036002733 0.025939612 -0.024823844 -0.023397906 -0.018371003
-0.066866785 0.21905048 -0.12023609 -0.052594453 0.07796197 0.009558328 0.04522136 0.13136381
0.21044473 -0.057832472 -0.043812227 0.060986612 0.15149006 0.18980923 0.12373516 -0.24001186
0.3987286 0.08499647 -0.05911416 0.086916864 -0.08640784 0.12790817 -0.053054947 0.040488962
0.039348476 0.13338654 -0.017036458 0.04698445 -0.07005194 -0.097451225 0.11073463 0.015249206
0.0038261274 -0.058657147 0.16109803 0.15821217 0.06082885 -0.02377321 0.03580028 0.05079873
0.06242283 0.104038216 0.22276396 0.0775544 0.19233342 0.08850434 0.18462871 0.1341581
0.17047404 0.029752716 0.1542477 0.09115948 -0.18578202 0.09863782 -0.758329 0.18675894

fc2.bias f4 [32]
00000000: dce7 0ebe 79ff 8cbd a1bb aa3d 211e c23c
00000010: 4951 0e3e 2ce5 213e b4b2 323e 39f3 f0bc
00000020: 20a1 023e 2e3a 92bc 52cb 263d d370 ffbc
00000030: 045e 38be adf2 3ebb 7a14 b93d f418 1f3b
00000040: e5ce 793d 2f2a 163c 0680 783c f07c a83d
00000050: 10ac 523e ae49 fcbc 7cb2 b13d de80 1a3d
00000060: ff23 97bc 5149 293d 5a2b b03c 6189 0e3e
00000070: 7ed8 2b3d ad14 433e cc80 3f3e 852f 493d
-0.13955635 -0.06884665 0.083365686 0.023696007 0.13898195 0.15810078 0.17450982 -0.029412853
0.12756777 -0.017850008 0.040721245 -0.031181728 -0.18004614 -0.0029136345 0.09037109 0.0024276348
0.060988326 0.009165331 0.015167242 0.08226955 0.20573449 -0.030796852 0.08676621 0.037720554
-0.018449781 0.041329686 0.021505047 0.13919593 0.04195451 0.19050856 0.18701476 0.049117584

fc3.weight f4 [16, 32]
00000000: 312e a23d 36fc 113e be4b 563e 89ae 87be
00000010: 9dcb 573e 0734 903e 48f7 db3c 6870 09be
00000020: 8946 c73d a22b e7bb 22ca 093e a360 843c
00000030: 1441 b73c 5be2 513e bcb4 28bd 93b5 153e
00000040: ff49 4cbc 56e0 b83e 7cdb d13c ad3c 32bd
00000050: bb14 a8bd 3e85 243e 1d34 33bd 6f07 0d3e
00000060: 9d82 c0bd 7f2d c13b b697 7f3d 09ac 40bc
00000070: 530e ac3c 0df8 b03e 1ece 363e 5a87 b9bc
00000080: 38e5 ae3e 9919 af3d 94b9 493d 9728 c73d
00000090: 411f f9bd 8ad8 edbd 09d3 493d 5641 d33d
000000a0: 742d ff3d 78f0 053e 6a1b 5cbe 2f11 7a3c
000000b0: fbb6 693e 0099 87bd e3ea e0bd 6c8b 273e
000000c0: 9b16 663e 8ea4 a43e db4e 883d bf64 62bb
000000d0: a208 84bd 16d6 8c3e 5de4 343e 2d26 42be
000000e0: 501f 583e 9109 37bd 12cf d33d cafa c3bd
000000f0: 2aad b7bd 5111 86be b108 82bd 9a05 a33d
00000100: 7366 543e a4cc 31bd 2e24 d4be e563 a13d
00000110: 8adb fbbd f52b febd a0c8 e3bc 2b9b 1cbe
00000120: 4a4b fcbd e176 08bf f478 2ebe d45a 5f3e
00000130: 3158 153e 8237 33be 22c7 0fbe 1afa 123e
00000140: 524f 56be 52e4 473e 9880 9b3e fe74 ddb8
00000150: bde5 693e f746 c5bd abb8 2b3e fb67 06be
00000160: 57ae 22bf 38a4 6d3e 825b df3b 4d76 3c3e
00000170: 4929 01be e7d6 eabe c99e adb9 9573 dcbd
00000180: 8c05 b1be 6683 94bd f443 503d 9980 703e
00000190: 02e9 a53c bd04 52be 04a0 9d3d 4bbb e53d
000001a0: 4f89 8abd 6802 833d 93bb 4a3d f6b1 c03b
000001b0: aca2 61be e0d9 8bbd fba5 093d 8e0c 8e3b
000001c0: 1625 463c 85f3 d2be 32b9 453e 7914 80bc
000001d0: fca1 8a3e 494d 9fbe 39de c73d 9bfe 5dbe
000001e0: ce69 2a3e 330a 613e ae7b 363d 1214 393e
000001f0: 5a8b ad3d 1eff a8bd b324 803e e66a 1b3e
00000200: 8618 ee3d 431a 203e 9d6b 023e 6f5e 503d
00000210: e13a 0f3d f8a6 1bbe 09eb 223e c20b b2bd
00000220: 1fee b7bc 2c43 43bd 9cbf c13d 71a2 68bc
00000230: ab08 3fbe 5874 16be 10df 193c 433a 8bbd
00000240: 99cd 16be 7d06 febd 3f37 1ebe 8f76 d1bd
00000250: 9afe afbd 2858 27be f2dd 2c3d 7028 c13d
00000260: 6f50 183e c64b 943d 9826 8c3d 2f06 9ebd
00000270: c257 afbc cb36 0abe 6ec1 4b3b ac92 353e
00000280: 24e9 d53d 9629 17be 50bb 69bd 820e d73d
00000290: 098f de3d 099e 833e 6a76 023e d338 283e
000002a0: 0302 0a3e b88c 823e a5ff 8d3d 8c0c 153e
000002b0: c321 053d 0be2 213e 5fac 9d3d d88a d4bd
000002c0: 1d9f bc3d 7ee4 843e 720a 8dbd 31b1 b1bd
000002d0: 254e c43b 9d32 21be d55e febd f0ef 5f3e
000002e0: d177 113e cfab 1b3e f1c3 af3a eb1f 1bbd
000002f0: c249 d5bd cb92 02ba d8e8 213e 140d 433c
00000300: 65d3 1d3e fb70 21be b26a 61be 55a0 653b
00000310: 0007 aa3d 9a6b 09be 98dc 95ba 52d2 463e
00000320: f82b f4bd 9b98 423e f289 693b 47d9 173e
00000330: 0f1b 383e 4762 323e 725d 16be 5534 27bd
00000340: 986a 4f3c bc16 2cbe 6a50 acbc 2976 2a3e
00000350: 4fa6 d5bd e6e7 c7bd 7dda e93d e973 f9bd
00000360: 8a49 8ebd 4dc4 4e3d ad28 30bd 32ce 96be
00000370: af68 0c3e b3ea c63d 59b3 2abc c2c9 273e
00000380: 9bd2 f43e d757 94bc 78df 61be 25f8 eb3d
00000390: fbea 6a3d 8290 f2bb d3c7 adbc 79fc 353e
000003a0: e22f e03d 03f2 d43c e1a1 ea3d 50ba 90bd
000003b0: ec78 a13d be14 babd c08c 803b 8150 c33d
000003c0: bfa9 1a3e 55b3 0a3f 6e63 2bbe 38cd 27be
000003d0: 0587 ffbd 3459 383e baab e1bd a48a 03b9
000003e0: de11 d03d a136 3bbe 7fae 093e e3b4 49be
000003f0: ed5f 2d3e 9628 3abe 6dcc 03bd 1ce1 a93d
0.079189666 0.14256367 0.20927331 -0.26500347 0.21073766 0.28164694 0.026851311 -0.13421786
0.097302504 -0.007054762 0.13456014 0.016159361 0.022369899 0.20496504 -0.041187987 0.14620046
-0.012468814 0.36108655 0.025617354 -0.043514896 -0.08207079 0.16066453 -0.04375087 0.13772367
-0.093999125 0.005895316 0.062400542 -0.011759766 0.021002924 0.34564248 0.17852065 -0.022647548
0.34159255 0.08549804 0.049249247 0.09724539 -0.12164164 -0.11613567 0.049273524 0.10315196
0.12459841 0.13080013 -0.21494833 0.015262886 0.22823708 -0.06620979 -0.10982301 0.16361779
0.22469561 0.32156795 0.066556655 -0.0034544913 -0.06446959 0.27507085 0.17665239 -0.18959875
0.21105695 -0.044686858 0.1034223 -0.095693186 -0.08968575 -0.26185086 -0.06349314 0.07960053
0.20742206 -0.04340805 -0.41433853 0.078803815 -0.12297733 -0.12410728 -0.027805626 -0.15293567
-0.12319048 -0.53306395 -0.17038327 0.21811992 0.14584424 -0.17501643 -0.14040807 0.14353219
-0.20928696 0.19520691 0.30371547 -0.00010559893 0.22841544 -0.09632676 0.16769664 -0.13125603
-0.6354727 0.23207176 0.0068163285 0.18404503 -0.12613405 -0.45867082 -0.00033115436 -0.10764233
-0.34574544 -0.07251625 0.050846055 0.23486556 0.020252708 -0.2050962 0.07696536 0.11217364
-0.06764471 0.06396943 0.04949529 0.0058805896 -0.2203471 -0.06828666 0.033605557 0.0043349927
0.012093803 -0.41201416 0.19308928 -0.015634762 0.2707671 -0.3111365 0.097591825 -0.21679156
0.16641924 0.21976547 0.044551544 0.18074062 0.08473845 -0.08251785 0.25028 0.15177497
0.11625771 0.15635018 0.12736364 0.05087131 0.03496826 -0.15200412 0.15909971 -0.08693649
-0.022452412 -0.047671482 0.09460375 -0.014198885 -0.1865565 -0.14692819 0.009391561 -0.06798222
-0.14726867 -0.12403581 -0.15450762 -0.102276914 -0.08593483 -0.16342223 0.04220385 0.09431541
0.14874433 0.07241015 0.06843299 -0.07716023 -0.02140415 -0.13497464 0.0031090635 0.17731732
0.10444859 -0.14761958 -0.0570634 0.10500814 0.108671255 0.2570651 0.12740484 0.16427927
0.1347733 0.25497985 0.06933526 0.14555568 0.0325029 0.15808885 0.07698893 -0.10378045
0.09210036 0.25955576 -0.06886758 -0.08676375 0.005990761 -0.15741964 -0.124204315 0.21868873
0.14205863 0.15202259 0.0013409836 -0.037872236 -0.10414459 -0.00049809803 0.15811479 0.011904974
0.15412672 -0.15765755 -0.22013357 0.0035038192 0.083021164 -0.13419953 -0.001143354 0.19416168
-0.11922449 0.19003527 0.00356352 0.14828978 0.17979072 0.17420302 -0.14684084 -0.040821392
0.012659691 -0.16805547 -0.021034438 0.16646637 -0.104321115 -0.09761028 0.114186265 -0.12180311
-0.0694762 0.050480176 -0.04300754 -0.2945419 0.13711809 0.09712734 -0.010418736 0.16385558
0.4781693 -0.018108292 -0.22057903 0.11521939 0.057353 -0.0074024806 -0.021213448 0.17772092
0.10946633 0.025994306 0.11456657 -0.07066786 0.07884392 -0.090859875 0.0039230287 0.09536839
0.15103815 0.5417989 -0.16737148 -0.16386878 -0.12476925 0.18002778 -0.11019082 -0.00012544781
0.10159658 -0.18282558 0.13445471 -0.19697909 0.16931124 -0.18179545 -0.032177377 0.08294889

fc3.bias f4 [16]
00000000: 0863 3f3e 6954 d4bd bc63 853e a71e 593d
00000010: 61da febd 1500 e53d 3d6f 3cbd 70ee 58be
00000020: aa30 c03d d99c 373e aa43 22be cc15 503d
00000030: 456d 11bb 32b9 633e 4407 1c3e b4df 073e
0.18690121 -0.103676625 0.26052654 0.053007748 -0.12443996 0.11181656 -0.046004523 -0.21184707
0.09384282 0.17930926 -0.15846124 0.050802037 -0.0022190374 0.22238615 0.15237147 0.1326893

fc4.weight f4 [8, 16]
00000000: 946b 413e 3d74 23be dee0 313e fc7e d03d
00000010: 3c77 093e 52d3 4cbe 5c0b dbbd c239 5e3e
00000020: 245f 8dbd 1160 3abe ddac 2bbe 3be9 db3d
00000030: 9841 19bd 7a02 5c3d 65d1 573d 7946 1d3e
00000040: 8571 5fbd 9ca4 8abb 4faa 783d 1220 c53d
00000050: 785c 423c 96d4 7a3e 0a75 87be 7797 4cbe
00000060: 7b5c 623e e588 34be 9803 83be c8be f5ba
00000070: 9404 5a3e 2002 673e d03a e83b c25b f5bb
00000080: a5ac 44bd 3423 5dbe 4abe 3f3d cc75 c73d
00000090: 2366 dfbd b9b8 28bd 6070 87be c1fc 29be
000000a0: 4af3 54bd bbb0 8b3e fe43 abbd 89bd d53d
000000b0: 8d37 03bd 37b4 a93d 632b d8bd 5e2c 4cbe
000000c0: 3da8 2fbe 1a89 353e b009 e6be 1a90 753e
000000d0: 0cb3 4c3e b4ed ae3d 25f3 763e ea39 8ebd
000000e0: 24c1 30be b459 11be 3951 5e3e fff4 a53b
000000f0: 3084 383d 3f95 39bf cd9f d1bc ebf1 f5be
00000100: 15ef ca3d 3f9c 09bf 5aac 813e f35b d53e
00000110: 0419 70be 51e4 54bd 27b5 f1bd 14d5 2fbf
00000120: 1bed 62be eaa2 693e c0bb 2f3e 5032 873d
00000130: 5dc0 3cbe d98e 833e b0c1 073e 4455 523e
00000140: 0daf 8a3e abe7 25be b904 2bbe 93b4 89bd
00000150: 1449 3e3e e8e8 6c3e 03f0 e6bd 9588 1dbe
00000160: 15e9 703e e4b4 ad3e d997 aebe 2134 82bd
00000170: 6f25 553e d80f 20bd 5a1c bc3e ef4f f8bd
00000180: 166e 8bbe 1ecb 313e 5c4d ddbd 9029 c73e
00000190: b229 fc3d f308 0d3e 654f 02be a0bb 83be
000001a0: 3f14 21be 7f92 8c3d f976 243e 0ac6 2fbe
000001b0: a490 dabd 8541 48be 054f 853e 0028 f7bd
000001c0: 7eb2 81be 7699 83be 61cc 2a3e 2a4a d53d
000001d0: 08ff cc3d d5c9 c53d 5e55 4dbd acd0 263e
000001e0: 17ae b9bd 8377 5dbe bef5 34bd 184c 88bd
000001f0: 7fcb 04bd 9886 303d e510 febd 78f7 9b3d
0.18888694 -0.1596231 0.17370936 0.1018047 0.1342439 -0.20002487 -0.10695526 0.2170172
-0.06902912 -0.18200709 -0.16765161 0.107378446 -0.03741607 0.0537133 0.05268993 0.15358914
-0.05455162 -0.0042310487 0.060709294 0.096252576 0.011862867 0.24495158 -0.2645648 -0.19979654
0.22105591 -0.17630346 -0.2558868 -0.0018748874 0.21290809 0.22559404 0.007087089 -0.007487745
-0.04801621 -0.2159546 0.046812333 0.09739265 -0.10908153 -0.04119179 -0.26452923 -0.16600324
-0.05198983 0.27283272 -0.08362578 0.104365416 -0.0320354 0.082863264 -0.1055515 -0.199388
-0.17154022 0.17728081 -0.44929266 0.23980752 0.19990176 0.08541432 0.2411619 -0.0694464
-0.17261177 -0.14194375 0.21710671 0.005064606 0.04504794 -0.72493356 -0.025588894 -0.4803613
0.099088825 -0.5375404 0.25326806 0.41671714 -0.23447043 -0.051975552 -0.1180213 -0.68684506
-0.22160761 0.22816053 0.17161465 0.06601393 -0.18432756 0.25694922 0.1325748 0.20540339
0.27086678 -0.16201656 -0.1670102 -0.06723895 0.18582565 0.23135722 -0.11276247 -0.15384133
0.23526414 0.3392707 -0.34100226 -0.06357599 0.20815061 -0.03907761 0.3674038 -0.12124621
-0.27232426 0.1736264 -0.10805771 0.38898897 0.1231264 0.13772945 -0.12725599 -0.25729084
-0.1573038 0.068638794 0.1606101 -0.1716539 -0.10672119 -0.19556244 0.2603685 -0.12068176
-0.2533149 -0.2570302 0.16679527 0.10414536 0.10009581 0.09657637 -0.05013024 0.1629054
-0.09066408 -0.21627621 -0.04417967 -0.06655139 -0.03242063 0.04309711 -0.12405566 0.0761556

fc4.bias f4 [8]
00000000: 0afb 5ebe 79d1 703d 52e6 403e b29c 22bb
00000010: ac23 4d3e 61dd cb3d 1938 083e 7cf4 b5bd
-0.21775451 0.05879352 0.1883786 -0.0024812636 0.20033139 0.09954334 0.1330265 -0.08884522

fc5.weight f4 [3, 8]
00000000: 5405 dd3a 8c98 e13d b14b 083e 85a5 0c3e
00000010: c28c bebd 6e41 963e 92e6 79be 3188 813e
00000020: 2644 883d 6c35 793e 81b8 153e d426 cdbd
00000030: b2dc 373e 8d45 f8bc b8b4 c03e ec9b 69bd
00000040: efcc a4be 2da0 273e b44e ecbd 84ae 303e
00000050: 6aa3 13bf d463 0b3e 1058 35bc f5b9 ccbd
0.001686255 0.11015424 0.13310124 0.13735016 -0.09304191 0.29346794 -0.24404362 0.25299218
0.06653623 0.24336785 0.14621164 -0.100171715 0.17955282 -0.030306602 0.37637877 -0.057033464
-0.32187602 0.16369696 -0.11538449 0.17254072 -0.57671225 0.136123 -0.011068359 -0.09996406

fc5.bias f4 [3]
00000000: 43f4 31be 7081 96bd 9171 903e
-0.17378335 -0.07348907 0.28211644

exp_avg f4 [64, 4]
00000000: e9ff 8036 d6f8 5cb7 a2cd 5f35 8ed3 3437
00000010: a4e8 81b7 e020 b136 c041 8eb7 4d28 63b7
00000020: 6bb1 0a38 dca1 0cb9 9aac 8137 0c47 6338
00000030: da2d 8bb4 130e 0137 ffb4 5ab7 6263 a3b6
00000040: b076 0c37 b2bb eab6 9675 4337 5306 fd36
00000050: 0000 0000 0000 0000 0000 0000 0000 0000
00000060: 9c05 13b6 322e bab7 d43b 32b7 8d8a c135
00000070: 95cb d937 07aa 81b8 22b9 a0b6 cb81 bb37
00000080: 1027 7eb7 a92f c737 ea30 cdb7 b14c 77b7
00000090: bdf7 2436 5284 8737 da08 a7b7 0d53 2635
000000a0: e427 ddb5 cb8b 82b8 a53c eeb7 dc0b 7937
000000b0: 0000 0000 0000 0000 0000 0000 0000 0000
000000c0: 59fb e9b6 adb4 4738 b9a3 8eb6 7433 11b7
000000d0: 9a43 8135 7900 ee36 e44e 83b7 2175 4035
000000e0: 1f73 deb6 b1c3 7038 ab92 78b5 4fbf 54b7
000000f0: 0378 0836 558b 31b6 a35d 1bb6 6874 5235
00000100: 6dae c934 92c2 0638 d3ac ecb7 e13d 25b5
00000110: ed5c 0e38 b7ac f0b8 6cbe 8e37 8e51 0b37
00000120: 34bb 0cb5 ae32 0737 be35 3636 e121 0d35
00000130: 0a5d fb37 2592 83b8 62d6 7737 83fc 0938
00000140: f23a 06b5 08ec 8c35 e2e0 4436 3251 4634
00000150: 44bb 3ab7 249a 1a38 717f 5eb7 ad6c 9db7
00000160: 2872 8638 0888 24b9 e78e f037 15ad b438
00000170: 397b 50b5 77fb c0b4 851f 6836 c530 6735
00000180: 8c2a 1fb7 cf30 9a38 1583 feb3 5c59 14b7
00000190: e413 e937 a0c2 deb8 a9a9 0837 2501 5138
000001a0: 0000 0000 0000 0000 0000 0000 0000 0000
000001b0: 8213 40b7 9059 3f37 5627 9eb5 700a 10b5
000001c0: 23ea abb6 8877 3538 f9c5 0bb8 21f1 23b8
000001d0: 456a d932 76ed bd36 bb97 f5b6 52e3 0b34
000001e0: ea95 8cb4 f705 98b6 1890 12b7 a06d 5535
000001f0: 30c2 2336 3bf3 9b37 e189 5537 b706 1db6
00000200: 5659 5836 c6f1 1e37 c52f 38b7 dac2 01b7
00000210: b34d 8cb7 f895 a338 ed46 99b7 4da1 d5b7
00000220: 0efa 8d35 af28 8c36 9a10 87b7 6e4d 4d35
00000230: 9a8c c2b7 220c 9538 7ee7 23b7 cda8 0bb8
00000240: 380c 9035 eb58 a636 8dbf e6b7 8dbc 8735
00000250: 0000 0000 0000 0000 0000 0000 0000 0000
00000260: 48ad 94b7 c5a3 1c38 fcc4 b6b7 2dae c1b7
00000270: 4778 acb7 174c a638 e647 b836 a828 06b8
00000280: a482 91b5 d9ed a937 f15b 0937 ab69 60b6
00000290: 0dbd 36b6 4501 68b8 2e08 dfb7 3d4a cdb5
000002a0: e27d d5b5 d1f9 89b9 7c39 03b8 3c4c c638
000002b0: 913a a937 439f dbb7 5a28 d037 9e13 df37
000002c0: df84 9035 514e 81b6 de95 80b3 d2c2 d835
000002d0: fa99 1eb7 507b 9bb6 7c9c abb7 db23 99b6
000002e0: 1501 12b7 51e8 2038 5b4f 21b7 d7be a2b7
000002f0: f437 0a38 7954 00b9 b98a 2837 41b8 6138
00000300: 1000 32b7 4e60 1038 d6a3 5db4 b3e3 8fb7
00000310: 67dc e837 f9b2 9db8 98e3 2637 e311 0d38
00000320: c221 b036 ad23 85b7 cd5e 6937 e01a 5f37
00000330: dde6 c237 984d f8b8 c412 cfb7 0c3f e637
00000340: 9136 3c37 86bc 33b6 9b47 8e37 8b91 0d37
00000350: 5ae5 fe37 d43b d7b8 d7e4 9037 022d eb37
00000360: f126 8336 52c4 1037 d6e1 4337 8512 0037
00000370: 877e 3b36 4810 4937 49c5 0a36 f652 b136
00000380: 3500 ce36 8949 b1b7 b1ad aeb6 9832 dc36
00000390: 64da 5ab7 10a2 5338 b56a 87b6 5ceb 81b7
000003a0: 1370 e2b7 ba7e fa38 dbac 60b7 c28a 1fb8
000003b0: 5b88 1a37 827c d1b6 8393 3e37 15ca 8cb7
000003c0: 5d8a cf38 feec 85b9 6329 1c38 08e8 0b39
000003d0: 46a2 5f36 18d4 98b8 2871 0437 65a2 db36
000003e0: 76d7 63b5 9bd2 c1b5 03e6 83b6 0326 1e36
000003f0: 41ab 3337 9c1c c037 1af4 8037 1142 bb36
3.844489e-06 -1.31709585e-05 8.337321e-07 1.07780925e-05 -1.548633e-05 5.278838e-06 -1.6958336e-05 -1.3539638e-05
3.3066997e-05 -0.00013411738 1.5458372e-05 5.4187185e-05 -2.592413e-07 7.692276e-06 -1.3035954e-05 -4.8693482e-06
8.372284e-06 -6.995594e-06 1.1650283e-05 7.540724e-06 0.0 0.0 0.0 0.0
-2.1907972e-06 -2.219444e-05 -1.0623557e-05 1.4419944e-06 2.5963216e-05 -6.1828694e-05 -4.789924e-06 2.2352577e-05
-1.5148675e-05 2.3744842e-05 -2.4460682e-05 -1.4740203e-05 2.4582107e-06 1.615487e-05 -1.9912073e-05 6.1960674e-07
-1.6477393e-06 -6.2249215e-05 -2.840005e-05 1.4844318e-05 0.0 0.0 0.0 0.0
-6.973202e-06 4.7613565e-05 -4.2509896e-06 -8.654653e-06 9.630924e-07 7.0930078e-06 -1.5653153e-05 7.169602e-07
-6.6295174e-06 5.740271e-05 -9.260063e-07 -1.2680727e-05 2.0335435e-06 -2.6456157e-06 -2.3151304e-06 7.840049e-07
3.756608e-07 3.2129297e-05 -2.821387e-05 -6.1557336e-07 3.3941982e-05 -0.000114762624 1.7016391e-05 8.304034e-06
-5.242648e-07 8.058427e-06 2.7151395e-06 5.2575894e-07 2.9964856e-05 -6.273788e-05 1.4772262e-05 3.2898515e-05
-5.0004667e-07 1.0499507e-06 2.9337175e-06 1.8469726e-07 -1.1130065e-05 3.6860016e-05 -1.3261903e-05 -1.8766465e-05
6.410881e-05 -0.00015690934 2.8676774e-05 8.615308e-05 -7.766535e-07 -3.5945752e-07 3.458904e-06 8.6125175e-07
-9.487045e-06 7.3523835e-05 -1.18516404e-07 -8.842293e-06 2.7785027e-05 -0.00010622037 8.145734e-06 4.983055e-05
0.0 0.0 0.0 0.0 -1.1448634e-05 1.140534e-05 -1.1783366e-06 -5.365937e-07
-5.1234542e-06 4.3265085e-05 -3.332456e-05 -3.9086797e-05 2.531045e-08 5.660283e-06 -7.3192327e-06 1.3028082e-07
-2.618611e-07 -4.5306474e-06 -8.735828e-06 7.950821e-07 2.4401925e-06 1.8590703e-05 1.2727892e-05 -2.3398732e-06
3.2238509e-06 9.473826e-06 -1.0978377e-05 -7.734367e-06 -1.6725482e-05 7.8003795e-05 -1.8272049e-05 -2.546669e-05
1.0578094e-06 4.1770613e-06 -1.6100985e-05 7.6481126e-07 -2.3192075e-05 7.1071336e-05 -9.769456e-06 -3.329739e-05
1.0732392e-06 4.957537e-06 -2.7507334e-05 1.0113159e-06 0.0 0.0 0.0 0.0
-1.7723665e-05 3.734582e-05 -2.1787819e-05 -2.30885e-05 -2.0560006e-05 7.92967e-05 5.4919974e-06 -3.1985954e-05
-1.0841363e-06 2.0257126e-05 8.187243e-06 -3.3440108e-06 -2.7230155e-06 -5.5314293e-05 -2.658748e-05 -1.5295296e-06
-1.5906373e-06 -0.00026316804 -3.128637e-05 9.4555755e-05 2.0173642e-05 -2.6180996e-05 2.4814322e-05 2.6592807e-05
1.0767507e-06 -3.853617e-06 -5.987725e-08 1.6149954e-06 -9.453384e-06 -4.6337154e-06 -2.0457657e-05 -4.5639295e-06
-8.70253e-06 3.8363334e-05 -9.614824e-06 -1.9400772e-05 3.2953874e-05 -0.000122385 1.0045879e-05 5.381578e-05
-1.0609641e-05 3.4421966e-05 -2.0641832e-07 -1.715296e-05 2.7759188e-05 -7.51968e-05 9.947362e-06 3.3633678e-05
5.2491387e-06 -1.5871448e-05 1.3909955e-05 1.3298093e-05 2.3234106e-05 -0.000118400145 -2.4685061e-05 2.7447495e-05
1.1218378e-05 -2.6782814e-06 1.6961063e-05 8.438142e-06 3.038596e-05 -0.00010263143 1.72727e-05 2.8035141e-05
3.9086376e-06 8.628778e-06 1.1675487e-05 7.633706e-06 2.793882e-06 1.1984324e-05 2.0678438e-06 5.284669e-06
6.1393025e-06 -2.1134287e-05 -5.2058244e-06 6.562401e-06 -1.3044661e-05 5.0457253e-05 -4.035736e-06 -1.5487596e-05
-2.6993488e-05 0.000119445336 -1.33916865e-05 -3.8037782e-05 9.210863e-06 -6.24318e-06 1.1359228e-05 -1.6783402e-05
9.896301e-05 -0.0002554431 3.7231843e-05 0.00013342511 3.3324045e-06 -7.28743e-05 7.894159e-06 6.545614e-06
-8.4877627e-07 -1.4440915e-06 -3.930881e-06 2.356596e-06 1.0709105e-05 2.2901506e-05 1.5372458e-05 5.5807254e-06

exp_avg_sq f4 [64, 4]
00000000: bf64 6e31 8610 fe34 1886 6634 16fc 8632
00000010: 21de 0233 1293 b935 69c9 df34 0e2b a133
00000020: 76d8 9e33 dad9 4035 fa89 fd32 8eda 5634
00000030: 780c 4d2e 2955 e533 216c 1c33 22c3 9c2f
00000040: 4152 9932 0eaa 1036 556c 5d35 ed48 a133
00000050: 0000 0000 0000 0000 0000 0000 0000 0000
00000060: a92a a531 d3fb 8335 2518 e334 690f 1533
00000070: 25c7 9e32 f867 2035 270e ee33 395d 7433
00000080: c649 4532 869d f534 a660 2634 c559 2633
00000090: 4ed5 1a2f 7853 2a34 6c2a 9033 50e7 962e
000000a0: fb63 8532 521a 0936 07b7 c234 adae e733
000000b0: 0000 0000 0000 0000 0000 0000 0000 0000
000000c0: a51a 1132 2b7e 9d35 400b fb34 6814 0933
000000d0: 8f95 6030 a5ba 6c34 c164 b233 c0a7 5f2e
000000e0: c7a7 3532 a078 c035 9fb2 d234 4ac4 5b33
000000f0: e163 1031 994f 3c34 56db 8633 101f 2d32
00000100: 61ee f62f 7ced 7333 26ee 1c33 cbd6 ad2e
00000110: 6fae 4032 9983 d034 b011 c933 5f2c 4932
00000120: 4df7 d92f cf08 d434 bf9e 9e33 432f 832f
00000130: 6a1e 2633 ee32 1235 e055 2734 22d2 c633
00000140: 8ea6 9030 1c4b 2334 2779 0e33 300c 172f
00000150: 02ab b232 72ba 2235 47a5 1c34 f40f 8d33
00000160: 54a3 3b34 9743 b335 83f1 3033 b43b e834
00000170: f276 0031 949e ab31 0a01 bb32 700a e82e
00000180: d005 c831 fdab ee33 c0fb 1533 f6e0 1231
00000190: 4a2e 8d33 5b78 8535 2af3 5d33 a68b 4034
000001a0: 0000 0000 0000 0000 0000 0000 0000 0000
000001b0: f94a 0532 0258 0434 db1b 1f33 fc1d 8e32
000001c0: a53f 1833 5aa7 c035 3d82 eb34 aeed b433
000001d0: c407 d02f 54ee e833 fb8c 3233 d187 682e
000001e0: 808b 4031 2d21 1135 677c 6134 070b c52f
000001f0: 66ab a731 13fa a835 b87e e134 6a1f 4033
00000200: 522c f430 5b2f 5b35 f032 8134 de75 f731
00000210: 5662 b532 2ebb 4f35 43aa a234 95af 6d33
00000220: 843b 0c30 1137 e934 0bcc 2234 dae3 552e
00000230: 2c61 fc32 0231 a035 c254 e634 ab3f aa33
00000240: 7108 4a2e f51d 9530 ea6b f932 f380 332e
00000250: 0000 0000 0000 0000 0000 0000 0000 0000
00000260: 06c3 0833 49f6 d135 3f29 e034 e4e8 ee33
00000270: 75f7 ff32 13b1 b835 334a ab34 5e75 ce33
00000280: 6151 d831 6fb1 7335 98d9 9334 74f3 2833
00000290: 6329 5731 57c0 c635 d723 bc34 8909 0333
000002a0: 00e9 2d33 896c 2137 07f2 1136 3f0a 9434
000002b0: 1bcd ef32 d96a 5535 e915 a134 ca7e a333
000002c0: 6bfb 0531 0844 3f34 8d27 9133 3749 f531
000002d0: 6caa 7a32 ea45 e834 0ab5 e833 1964 2933
000002e0: 2cea 1632 f9c0 e934 a4ae 0134 2b76 e832
000002f0: 9513 8333 4047 1b35 6883 bd32 5b09 3334
00000300: 5b96 cd32 25db 0236 5cf0 0e35 48e8 c133
00000310: 4359 0f33 d38e 1d35 0798 b333 b1c2 ac33
00000320: 9a0c 7c32 b795 0b35 6917 1134 4b7b 2633
00000330: 5268 1832 9da7 5935 8d8e 4c34 9eb0 d032
00000340: 40a2 2a32 6188 7c35 f1d9 a234 ec71 5333
00000350: de2d 8d33 475e 2a35 8625 a632 af7a 3f34
00000360: c47f 2332 245b 7235 e5ce ce34 b250 0c33
00000370: 217b 4c31 1bce 0934 2ec7 ff32 f498 0a32
00000380: 9e3b 0a31 46f1 1a34 d930 b632 51ec 1032
00000390: 07ca 0432 7062 5034 48b3 9733 fa5e c332
000003a0: 5af5 1633 94a9 5735 208a 3c34 c4c5 bc33
000003b0: ffc8 a033 e44a 5035 ed79 2a32 41dc 9134
000003c0: 6d24 c134 6fc3 3836 b291 3a33 9d2e 6d35
000003d0: 613a 7431 685d 9d35 2c32 6734 7d80 5c32
000003e0: 0618 5c31 2fb3 e831 432d 0c31 ea96 ba2f
000003f0: ae63 2a32 9690 6635 4b9f 6834 9b3f 2433
3.4690826e-09 4.732321e-07 2.1469202e-07 1.5714289e-08 3.047001e-08 1.3826377e-06 4.1683532e-07 7.504978e-08
7.396822e-08 7.184259e-07 2.9515821e-08 2.0009813e-07 4.6622678e-11 1.0679134e-07 3.6419923e-08 2.8514885e-10
1.7848949e-08 2.1556657e-06 8.248656e-07 7.510412e-08 0.0 0.0 0.0 0.0
4.806982e-09 9.833551e-07 4.2299612e-07 3.470578e-08 1.8484181e-08 5.975594e-07 1.1085313e-07 5.6895463e-08
1.1483683e-08 4.574942e-07 1.5495115e-07 3.873153e-08 1.4082e-10 1.586285e-07 6.713239e-08 6.8622996e-11
1.5528704e-08 2.0429911e-06 3.6268486e-07 1.0788549e-07 0.0 0.0 0.0 0.0
8.446169e-09 1.1734131e-06 4.676058e-07 3.1916358e-08 8.170326e-10 2.2047114e-07 8.307098e-08 5.085332e-11
1.0573735e-08 1.4340221e-06 3.9245512e-07 5.1168435e-08 2.1011533e-09 1.7537822e-07 6.279758e-08 1.0076988e-08
4.4916518e-10 5.6793837e-08 3.6538175e-08 7.905284e-11 1.12155325e-08 3.883877e-07 9.363009e-08 1.1709829e-08
3.9647788e-10 3.9494486e-07 7.386324e-08 2.3862343e-10 3.867755e-08 5.446335e-07 1.5584328e-07 9.2583164e-08
1.0524717e-09 1.5207883e-07 3.317214e-08 1.37377e-10 2.0799693e-08 6.0621016e-07 1.458876e-07 6.568726e-08
1.747515e-07 1.335621e-06 4.1197847e-08 4.3256807e-07 1.8694064e-09 4.9947833e-09 2.1770138e-08 1.05519926e-10
5.821427e-09 1.1114023e-07 3.492073e-08 2.1373672e-09 6.574244e-08 9.9443e-07 5.167673e-08 1.7932197e-07
0.0 0.0 0.0 0.0 7.758666e-09 1.2325475e-07 3.7045407e-08 1.6544611e-08
3.5448142e-08 1.435382e-06 4.3866922e-07 8.425137e-08 3.7840497e-10 1.08466935e-07 4.1572076e-08 5.2871322e-11
2.8018974e-09 5.4064986e-07 2.1000015e-07 3.5841927e-10 4.8798254e-09 1.2589757e-06 4.2001716e-07 4.4732055e-08
1.7765933e-09 8.165277e-07 2.4065184e-07 7.202046e-09 2.1115891e-08 7.738589e-07 3.0298733e-07 5.5340553e-08
5.101628e-10 4.3439698e-07 1.5161656e-07 4.8632966e-11 2.938085e-08 1.1935192e-06 4.2902508e-07 7.927823e-08
4.593698e-11 1.0849691e-09 2.9036489e-08 4.0814418e-11 0.0 0.0 0.0 0.0
3.184234e-08 1.5643392e-06 4.1753262e-07 1.1125101e-07 2.9798437e-08 1.3760604e-06 3.190522e-07 9.6139715e-08
6.295679e-09 9.0782754e-07 2.7539204e-07 3.9336967e-08 3.1310143e-09 1.4808128e-06 3.5043806e-07 3.0509486e-08
4.0491614e-08 9.621618e-06 2.1747562e-06 2.7574603e-07 2.7916533e-08 7.950417e-07 3.000453e-07 7.613342e-08
1.9496962e-09 1.7813011e-07 6.759283e-08 7.138762e-09 1.4590665e-08 4.3264237e-07 1.0836273e-07 3.9439417e-08
8.784394e-09 4.3540038e-07 1.2077595e-07 2.7062091e-08 6.103725e-08 5.784568e-07 2.2062252e-08 1.6674078e-07
2.3933515e-08 1.9499068e-06 5.324889e-07 9.0295146e-08 3.3375965e-08 5.8694894e-07 8.362991e-08 8.044788e-08
1.4671196e-08 5.19994e-07 1.3512694e-07 3.876202e-08 8.871284e-09 8.108271e-07 1.905084e-07 2.4294703e-08
9.932194e-09 9.4075773e-07 3.0333425e-07 4.9230877e-08 6.574167e-08 6.3467127e-07 1.9342007e-08 1.7832893e-07
9.516899e-09 9.028465e-07 3.8521026e-07 3.2669682e-08 2.9755898e-09 1.28341e-07 2.9776484e-08 8.067435e-09
2.0115531e-09 1.4430142e-07 2.1209802e-08 8.435635e-09 7.729347e-09 1.9407321e-07 7.0640965e-08 2.2744178e-08
3.5147742e-08 8.034051e-07 1.7559114e-07 8.7904056e-08 7.4871416e-08 7.759502e-07 9.923025e-09 2.716861e-07
3.5975555e-07 2.7531894e-06 4.343901e-08 8.835721e-07 3.5539858e-09 1.1724596e-06 2.1531804e-07 1.28349e-08
3.202787e-09 6.7724595e-09 2.039841e-09 3.3940434e-10 9.917967e-09 8.5892077e-07 2.1664634e-07 3.8242074e-08

exp_avg f4 [64]
00000000: 6a8d 52b7 9e20 7337 8b11 f6b8 0304 9235
00000010: e61a 10b7 0000 0000 15ea a9b7 cbbd eab7
00000020: 8589 8a37 7b14 9d36 1dd5 30b8 0000 0000
00000030: b9e4 be37 ecfe 6436 795d 1238 35a9 b4b6
00000040: ae7c 1537 41dd b9b8 d2b8 0e35 3544 40b8
00000050: 4b2f ba33 029b 1a37 06dc 2ab9 997d 79b5
00000060: dd72 d538 a87a d8b8 0000 0000 4fbf 4137
00000070: 05c4 ae37 c3ea a035 01dd 7d35 144b 4637
00000080: 1b1b 3f37 6429 7638 e2b4 6f36 bbf0 6a38
00000090: a86b 2836 0000 0000 34db 7e37 366d 9538
000000a0: 5ed5 9a37 1e03 38b8 a1ed 73b9 c3c6 c3b7
000000b0: 6b07 43b5 d38b 9437 f7cf de37 dfe5 d9b8
000000c0: 0690 0d38 61a0 72b8 d913 afb7 cd69 edb8
000000d0: 2b1c 17b7 7b7e c1b8 b15d 00b6 d10f 2436
000000e0: b58e b3b7 09c5 1c38 f2d5 be38 1b9b 63b8
000000f0: c20d 85b9 c2f0 fcb7 ec00 17b7 502b 3837
-1.2549901e-05 1.4491523e-05 -0.00011733462 1.0879015e-06 -8.589332e-06 0.0 -2.0255373e-05 -2.7983353e-05
1.651492e-05 4.681349e-06 -4.2160147e-05 0.0 2.2756272e-05 3.4123032e-06 3.4896166e-05 -5.3841163e-06
8.910121e-06 -8.862699e-05 5.316807e-07 -4.583989e-05 8.6699025e-08 9.215206e-06 -0.00016294428 -9.2942497e-07
0.000101780264 -0.00010322529 0.0 1.1548239e-05 2.0833695e-05 1.1989254e-06 9.457145e-07 1.18192e-05
1.1390798e-05 5.868952e-05 3.5719063e-06 5.6014145e-05 2.5096615e-06 0.0 1.5190617e-05 7.125216e-05
1.8457587e-05 -4.387192e-05 -0.0002326281 -2.3338367e-05 -7.2653955e-07 1.7708086e-05 2.6561303e-05 -0.00010390183
3.3751152e-05 -5.784666e-05 -2.0870868e-05 -0.000113207476 -9.00686e-06 -9.226516e-05 -1.9128022e-06 2.444711e-06
-2.1404916e-05 3.73768e-05 9.0997564e-05 -5.426547e-05 -0.00025377987 -3.0152853e-05 -9.000516e-06 1.0977339e-05

exp_avg_sq f4 [64]
00000000: 1d64 2434 babf 0f35 7a7b fb34 2489 2a31
00000010: c1d8 3c35 0000 0000 42f0 e234 86ad 5d33
00000020: 0433 5434 bd9b ca30 1cd4 8935 0000 0000
00000030: 9b11 ca34 77ab c130 87c0 ed34 e088 7a33
00000040: a642 2d31 2c3b 0034 8747 5f30 d98c a534
00000050: ffab be30 65b5 6b34 2b41 6935 bb69 f231
00000060: e8f4 0434 96e5 1535 0000 0000 8ea5 7b33
00000070: d4cb 1d35 722d 0431 d8f8 e932 a95b fe34
00000080: 1d87 c333 2ba3 8b34 e007 0131 f3e8 c434
00000090: d0bd 932f 0000 0000 0016 0535 9658 1b35
000000a0: d8b8 a034 58cd 0335 7f3d 9736 a8d7 bb34
000000b0: 4041 3f33 1d21 6534 a4ed 1e34 2d32 af34
000000c0: 3ed7 8335 c732 1e34 1240 8b34 e8f6 0f35
000000d0: c8a6 c334 99bf b634 2099 bb34 b954 1433
000000e0: fcc8 7833 014e ef33 7673 9834 594a 9c34
000000f0: e43f ee35 68e8 4234 9344 6432 e631 8b34
1.5310111e-07 5.355065e-07 4.6842234e-07 2.4816211e-09 7.0350876e-07 0.0 4.227059e-07 5.161339e-08
1.9762598e-07 1.4741698e-09 1.0269027e-06 0.0 3.7638242e-07 1.4091331e-09 4.4284772e-07 5.8332148e-08
2.5212699e-09 1.1942456e-07 8.1228574e-10 3.0836125e-07 1.3873204e-09 2.1952071e-07 8.6894096e-07 7.055147e-09
1.2382554e-07 5.5840917e-07 0.0 5.8591063e-08 5.8783667e-07 1.923436e-09 2.7237931e-08 4.7377878e-07
9.104972e-08 2.6009488e-07 1.8776447e-09 3.6677338e-07 2.6874014e-10 0.0 4.9578375e-07 5.787091e-07
2.9936814e-07 4.910012e-07 4.5073098e-06 3.4988375e-07 4.4529997e-08 2.1339334e-07 1.480135e-07 3.2632798e-07
9.822904e-07 1.473337e-07 2.5937385e-07 5.3630947e-07 3.644293e-07 3.4039547e-07 3.4942877e-07 3.453599e-08
5.7924794e-08 1.11434936e-07 2.8396215e-07 2.911136e-07 1.7750976e-06 1.8152207e-07 1.3286939e-08 2.5927073e-07

exp_avg f4 [32, 64]
00000000: 8180 12b9 534f 87b8 4fa3 7eb7 23e3 c5b6
00000010: eabe d7b8 0000 0000 cf8a cfb8 de49 2ab3
00000020: 8590 1db8 0400 0000 5080 24b8 0000 0000
00000030: 28fb a6b8 0400 0000 8d00 57b8 5417 a8b7
00000040: 9913 2c33 0400 0080 b196 5837 a84d e3b7
00000050: c211 7a35 546a f7b7 8a08 74b6 2623 0134
00000060: 96a3 0733 7da2 22b8 0000 0000 155d c6b7
00000070: 38e0 84b8 0400 0080 b5ac 1333 0c93 09b9
00000080: c111 84b8 e42d b0b8 0400 0000 2024 27b8
00000090: 0000 0000 0000 0000 efbc ebb7 7257 e0b8
000000a0: a3c6 69b8 85d7 26b8 b303 3ab8 2afa 95b7
000000b0: 43a2 23b8 81ac 43b8 751a c8b8 3f6a 35b7
000000c0: 73af aeb8 a16a bab7 e4e7 74b8 1909 c5b6
000000d0: c8ea 95b8 9d57 3e36 e022 d8b8 a6a2 21b8
000000e0: c81c dab8 197f 67b8 4cc9 8db8 c540 9536
000000f0: da70 d9b6 e408 24b7 32b4 bc34 f7bf 45b8
00000100: 0400 0000 0000 0000 0400 0000 0000 0000
00000110: 0400 0000 0000 0000 0400 0000 0400 0000
00000120: 0400 0000 0400 0000 0400 0000 0000 0000
00000130: 0400 0000 0400 0000 0400 0000 0400 0000
00000140: 0400 0000 0400 0000 0000 0000 0400 0000
00000150: 0400 0000 0000 0000 0400 0000 0400 0000
00000160: 0400 0000 0400 0000 0000 0000 0400 0000
00000170: 0400 0000 0400 0000 0400 0000 0400 0000
00000180: 0000 0000 0000 0000 0400 0000 0400 0000
00000190: 0400 0000 0000 0000 0000 0000 0400 0000
000001a0: 0400 0000 0400 0000 0400 0000 0400 0000
000001b0: 0400 0000 0400 0000 0400 0000 0400 0000
000001c0: 0400 0000 0400 0000 0400 0000 0400 0000
000001d0: 0400 0000 0400 0000 0400 0000 0400 0000
000001e0: 0400 0000 0000 0000 0000 0000 0400 0000
000001f0: 0400 0000 0400 0000 0400 0000 0400 0000
00000200: befe 2d35 56f3 b136 64db bc36 0910 e2b4
00000210: 48da a5b4 0000 0000 656e 99b5 d848 9635
00000220: 973a fcb6 44dd 0835 f50f 5c34 0000 0000
00000230: 9549 d636 edcf 5534 f3d0 6536 6a06 bdb6
00000240: c561 45b5 59dd 6a34 5e36 74b6 2847 8136
00000250: feee 49b6 c033 79b6 4ecb 0a37 d662 b4b5
00000260: 2c84 2635 d89a 2237 0000 0000 f499 9336
00000270: 1bf0 88b6 8470 cab5 0788 67b4 0596 8ab4
00000280: 03fa 1536 3ad8 71b5 b1e3 00b3 f9bb c4b6
00000290: 4169 8aa8 0000 0000 62de b2b6 92a2 1736
000002a0: 3eb5 4f36 0ce5 7bb6 e2fe 8d36 d466 87b6
000002b0: 09ab e7b6 ebcf 2b36 4b06 ebb6 64bf a336
000002c0: d76c a036 b10c 8e36 10d1 2237 87df a236
000002d0: 0409 bd36 d274 0837 0d69 ac36 69d3 e5b5
000002e0: 9e14 abb5 1989 3236 7b52 8fb6 9d90 8136
000002f0: a2ed 0637 ef3d bcb5 756c a3b5 c040 21b6
00000300: 1fa8 1338 4c92 6a37 10e1 a136 c6e6 1b36
00000310: 1546 b037 0000 0000 9ed5 e037 b085 b736
00000320: d170 9a37 6aaa da34 09d7 1437 0000 0000
00000330: 7714 a837 8a6e e636 6baa 1337 083d 6237
00000340: 2f14 e435 976b 1437 d82e 1936 dd63 3e37
00000350: bc8e b936 690c 7737 7afc 1ab6 93c4 d535
00000360: e228 9fb5 20dd 6c37 0000 0000 29a6 9436
00000370: a158 5237 80b3 5536 fca5 8a36 7686 1c38
00000380: 096b c236 6b6b d937 8ab3 3436 52be 3c37
00000390: 17a0 f535 0000 0000 66be 8137 d817 c137
000003a0: 3502 1e37 9f47 f036 049e 9236 720e a437
000003b0: b00a b037 eb74 ec36 a301 f837 a765 2336
000003c0: ae9e 8237 e7ec 2337 c7e0 3537 9ed7 9036
000003d0: 7944 b437 2f87 aa36 a6ea 0c38 aea5 8a37
000003e0: 3b48 0638 9573 8637 accc a037 601d f836
000003f0: c9c1 6ab4 a75b 4a36 c0fd 0035 2ee4 b837
-0.00013971516 -6.452077e-05 -1.5177603e-05 -5.8974997e-06 -0.000102875594 0.0 -9.896384e-05 -3.964839e-08
-3.756631e-05 6e-45 -3.9220147e-05 0.0 -7.962278e-05 6e-45 -5.1260507e-05 -2.0038024e-05
4.0064695e-08 -6e-45 1.2909689e-05 -2.709667e-05 9.31581e-07 -2.9494207e-05 -3.6363804e-06 1.2026848e-07
3.1580917e-08 -3.877514e-05 0.0 -2.3646784e-05 -6.3360145e-05 -6e-45 3.438318e-08 -0.00013120117
-6.2975574e-05 -8.400882e-05 6e-45 -3.9849547e-05 0.0 0.0 -2.8102162e-05 -0.0001069744
-5.5736524e-05 -3.9778202e-05 -4.43493e-05 -1.7878676e-05 -3.9013346e-05 -4.665228e-05 -9.541671e-05 -1.0813178e-05
-8.3296465e-05 -2.222258e-05 -5.83901e-05 -5.8721166e-06 -7.148605e-05 2.8363204e-06 -0.000103061786 -3.853687e-05
-0.00010400411 -5.519306e-05 -6.7608984e-05 4.448086e-06 -6.4802416e-06 -9.777232e-06 3.5148838e-07 -4.714724e-05
6e-45 0.0 6e-45 0.0 6e-45 0.0 6e-45 6e-45
6e-45 6e-45 6e-45 0.0 6e-45 6e-45 6e-45 6e-45
6e-45 6e-45 0.0 6e-45 6e-45 0.0 6e-45 6e-45
6e-45 6e-45 0.0 6e-45 6e-45 6e-45 6e-45 6e-45
0.0 0.0 6e-45 6e-45 6e-45 0.0 0.0 6e-45
6e-45 6e-45 6e-45 6e-45 6e-45 6e-45 6e-45 6e-45
6e-45 6e-45 6e-45 6e-45 6e-45 6e-45 6e-45 6e-45
6e-45 0.0 0.0 6e-45 6e-45 6e-45 6e-45 6e-45
6.481822e-07 5.303339e-06 5.628377e-06 -4.2107447e-07 -3.0892465e-07 0.0 -1.1431517e-06 1.1197071e-06
-7.517006e-06 5.098593e-07 2.0494902e-07 0.0 6.386263e-06 1.9912814e-07 3.4245284e-06 -5.6333856e-06
-7.353049e-07 2.1873474e-07 -3.639048e-06 3.8527833e-06 -3.0090446e-06 -3.7134014e-06 8.2727765e-06 -1.343981e-06
6.2032154e-07 9.692005e-06 0.0 4.398864e-06 -4.081068e-06 -1.5082919e-06 -2.1563038e-07 -2.5813657e-07
2.2348256e-06 -9.009415e-07 -3.0009407e-08 -5.863138e-06 -1.5366724e-14 0.0 -5.330702e-06 2.2595382e-06
3.09509e-06 -3.7535237e-06 4.2317997e-06 -4.0352843e-06 -6.9042476e-06 2.560201e-06 -7.0042784e-06 4.8800594e-06
4.781042e-06 4.2334073e-06 9.704629e-06 4.8539982e-06 5.6336885e-06 8.133431e-06 5.138229e-06 -1.7123358e-06
-1.2746493e-06 2.6603868e-06 -4.271334e-06 3.861335e-06 8.042351e-06 -1.4025117e-06 -1.2176012e-06 -2.402856e-06
3.5204106e-05 1.3981549e-05 4.8243746e-06 2.3231128e-06 2.101347e-05 0.0 2.6802354e-05 5.4693883e-06
1.8410765e-05 4.0729657e-07 8.871554e-06 0.0 2.003669e-05 6.8674026e-06 8.801561e-06 1.348486e-05
1.6993198e-06 8.846538e-06 2.2826043e-06 1.1348134e-05 5.530046e-06 1.4725237e-05 -2.309475e-06 1.5926947e-06
-1.1858322e-06 1.4118181e-05 0.0 4.4300873e-06 1.2537611e-05 3.1843956e-06 4.1320436e-06 3.7318525e-05
5.794111e-06 2.5918436e-05 2.6926596e-06 1.1249986e-05 1.8300515e-06 0.0 1.546666e-05 2.3018496e-05
9.418048e-06 7.160895e-06 4.3695345e-06 1.955705e-05 2.0985812e-05 7.046959e-06 2.9564666e-05 2.4348062e-06
1.5571099e-05 9.770715e-06 1.0840776e-05 4.3166356e-06 2.1489557e-05 5.0821322e-06 3.3597134e-05 1.6528033e-05
3.201536e-05 1.6027867e-05 1.9168794e-05 7.3943957e-06 -2.1863447e-07 3.0153694e-06 4.805297e-07 2.2040764e-05
